energy_sampling/results_pis_architectures/many_well/langevin_clipping_lgv_100.0_gfn_10000.0_gfn/fwd/fwd_pis/T_100/tscale_1.0/lvr_4.0/seed_12345/model.pt (torch, 183012 bytes, 23 tensors)

t_model.timestep_phase f4 [1, 64]
000000 10 ad 80 bf 56 be 8a 3e e3 f8 eb 3e b5 9d 0f be
       -1.0052814 0.2709834 0.46088323 -0.14025004
000010 2e 71 bc be b6 0e f7 3c 7c 91 2a 3f 65 64 04 3f
       -0.368051 0.030158382 0.6662824 0.5171569
000020 7e 0c 53 bf 64 99 13 3d 55 fb 18 3f 56 b1 06 3f
       -0.82440937 0.036034957 0.597585 0.52614343
000030 f7 a9 ca be 59 af 68 bf 67 dc 36 3f c8 0a 60 bf
       -0.39582798 -0.9089256 0.7143006 -0.8751645
000040 58 0d 67 bf 00 ea 1d bf 31 52 5c bf f1 4d ef bf
       -0.90254736 -0.6168518 -0.86062914 -1.8695661
000050 2a a4 4b 3f b3 e6 89 3f ab 72 61 3f 0c 03 15 be
       0.7954737 1.0773529 0.88065594 -0.14551944
000060 6c 62 a4 3e f8 5d 96 bf a3 1c 38 3f ed 10 39 3e
       0.3210634 -1.1747427 0.71918696 0.18072863
000070 e2 7d 00 40 b4 9e 2f 40 c7 f5 e3 3d 2c 2d 53 bf
       2.0076833 2.7440615 0.11130863 -0.824908
000080 07 37 22 3f a7 6d 83 3f 95 d6 62 bf 36 a9 20 3f
       0.63365215 1.0267838 -0.88608676 0.62758195
000090 f4 12 67 3f ab 35 cc 3e e4 5d 00 40 3a 6b fb bf
       0.90263295 0.39884695 2.0057306 -1.9642098
0000a0 7a 8a 8d 3e e1 c4 b2 bf 82 97 64 bf df 36 14 bd
       0.27644712 -1.3966333 -0.8929368 -0.03618514
0000b0 e0 48 cc 3f 0c 80 e7 be 12 7a fd 3e 78 3a a4 3d
       1.595974 -0.4521488 0.49507195 0.080189645
0000c0 9b 49 69 bd e9 fe 18 bf 01 eb 1f 3f dd 18 ba 3f
       -0.05695496 -0.5976396 0.6246796 1.4538838
0000d0 2d 5d 2f 3f 1b ac 85 be e7 89 f6 3d 1e a3 32 be
       0.6850155 -0.2610787 0.120380215 -0.17445037
0000e0 ad 0d 1e 3f 0b ac b0 bf 46 5f 7d bf ef 69 7e bf
       0.6173962 -1.3802503 -0.989735 -0.9938039
0000f0 d5 be 1b bf ab 99 0e bf 53 3c ba be df 10 31 3f
       -0.6083806 -0.5570323 -0.3637415 0.6916637

t_model.pe f4 [1, 64]
000000 cd cc cc 3d 7d c5 d7 3f 16 5f 51 40 b7 6d 9b 40
       0.1 1.6857144 3.2714286 4.857143
000010 e3 2b ce 40 08 75 00 41 1e d4 19 41 34 33 33 41
       6.4428573 8.028572 9.614286 11.200001
000020 4a 92 4c 41 60 f1 65 41 76 50 7f 41 c6 57 8c 41
       12.785715 14.371429 15.957144 17.542858
000030 51 07 99 41 dc b6 a5 41 67 66 b2 41 f2 15 bf 41
       19.128572 20.714287 22.300001 23.885715
000040 7d c5 cb 41 08 75 d8 41 93 24 e5 41 1e d4 f1 41
       25.47143 27.057144 28.642859 30.228573
000050 a9 83 fe 41 9a 99 05 42 5f f1 0b 42 25 49 12 42
       31.814287 33.4 34.985714 36.57143
000060 ea a0 18 42 b0 f8 1e 42 75 50 25 42 3b a8 2b 42
       38.157143 39.74286 41.32857 42.914288
000070 00 00 32 42 c6 57 38 42 8b af 3e 42 51 07 45 42
       44.5 46.085716 47.67143 49.257145
000080 16 5f 4b 42 db b6 51 42 a0 0e 58 42 66 66 5e 42
       50.842857 52.42857 54.014282 55.6
000090 2c be 64 42 f1 15 6b 42 b6 6d 71 42 7c c5 77 42
       57.185715 58.771427 60.35714 61.942856
0000a0 42 1d 7e 42 84 3a 82 42 66 66 85 42 49 92 88 42
       63.528572 65.11429 66.7 68.28571
0000b0 2c be 8b 42 0e ea 8e 42 f1 15 92 42 d4 41 95 42
       69.87143 71.45714 73.042854 74.62857
0000c0 b7 6d 98 42 9a 99 9b 42 7c c5 9e 42 5f f1 a1 42
       76.21429 77.8 79.38571 80.97143
0000d0 42 1d a5 42 24 49 a8 42 07 75 ab 42 ea a0 ae 42
       82.557144 84.14285 85.72857 87.314285
0000e0 cd cc b1 42 b0 f8 b4 42 92 24 b8 42 75 50 bb 42
       88.9 90.48572 92.07143 93.65714
0000f0 58 7c be 42 3a a8 c1 42 1d d4 c4 42 00 00 c8 42
       95.24286 96.82857 98.41428 100.0

t_model.t_model.0.weight f4 [64, 128]
000000 4a ee 32 3d 13 33 0f be b2 0a a8 3c 49 0e 2b 3d
       0.04368428 -0.13984327 0.020512912 0.04176167
000010 8d ab eb bd 2a 06 e4 3c 94 32 0a bd 7d 3a 77 ba
       -0.1150733 0.02783497 -0.03373964 -0.00094310177
000020 b2 7e 7a bd 56 a0 c0 3c 2d 6d 26 3d c3 67 58 3d
       -0.061155982 0.023513954 0.040631462 0.05283333
000030 99 f9 11 3c 2e bc f7 3b 46 91 0c bd 92 aa 9e bc
       0.008909606 0.0075602746 -0.03431823 -0.019368444
000040 6e b4 88 3d 07 22 82 bd ac 45 7d 3d 65 64 20 bd
       0.06675039 -0.063541465 0.061834022 -0.039158244
000050 7f d9 b1 bd 3d cc 0c 3d 16 88 cf 3c dc b2 64 bd
       -0.08684062 0.034374464 0.025333446 -0.055834636
000060 f0 31 1c bc 65 2e 31 bd e7 c8 9d bc 7a 05 fb bc
       -0.00953339 -0.043257136 -0.019260837 -0.03064226
000070 af cf 16 bc ee 64 44 3d 06 02 96 bc ca af 4c bc
       -0.009204789 0.047947817 -0.018311512 -0.012493083
000080 b1 94 1b bc f5 6d 0b 3d f5 c3 88 3d 5a 06 59 3b
       -0.0094959 0.03404041 0.06678001 0.0033115358
000090 c0 6b b0 3b 9d 4b 44 3d f6 4d 8c 3d 43 30 9a 3d
       0.0053839386 0.047923673 0.06850807 0.075287364
0000a0 81 c1 c5 bb 69 ad fb 3c 4b dc 3d 3c d3 19 63 3d
       -0.0060350304 0.030722337 0.0115881665 0.05544455
0000b0 76 d3 9e 3d cf 25 53 bd dd 3f c8 bd 29 e8 69 bc
       0.07755177 -0.05154973 -0.09777806 -0.014276543
0000c0 d0 e7 33 3d e4 1c 93 bc 24 bb 88 3d bf 8a 5a 3c
       0.043922246 -0.017958112 0.06676319 0.013338744
0000d0 56 3d 3b bd 05 41 21 3d db e8 d0 bc 32 81 1f bc
       -0.04571279 0.039368648 -0.02550166 -0.009735392
0000e0 b2 ad da 3b d1 66 85 bd 21 53 ba bb 38 99 14 bc
       0.006673538 -0.06513751 -0.0056861793 -0.009069733
0000f0 f6 10 c0 bc 11 ff 96 3c 6e d9 9e bc a1 17 11 bd
       -0.023445588 0.018432172 -0.019390788 -0.035422925
000100 06 da b6 bd 9d 4a 0d 3d e4 b5 07 bd 5a ef 8f bd
       -0.089283034 0.034494985 -0.03313245 -0.070280746
000110 cc 7e c1 3c d9 79 eb bc 93 67 f0 bc 52 d5 0b 3d
       0.023620032 -0.028744625 -0.029346263 0.034138985
000120 2f a2 6f bd bf 52 d4 3c 54 2a b0 bd 56 34 16 3d
       -0.05850428 0.025918363 -0.086018234 0.036671005
000130 7a 97 ce bb 0e b6 3a bd cd 71 12 bd 7f 1a d2 bc
       -0.0063046785 -0.045583777 -0.03575306 -0.0256474
000140 db 34 65 bc 1b 69 31 3c 53 25 a0 3c 83 67 8a 3c
       -0.0139896525 0.010828282 0.019549048 0.016895061
000150 79 b2 79 bd a0 43 a8 3b 0d 6d b9 bc 71 78 18 bd
       -0.06096122 0.0051350147 -0.022635007 -0.037224237
000160 7e 9c 6f bd 84 d4 34 3d 7e 36 fc bc 64 a7 12 bd
       -0.058498852 0.044147983 -0.030787703 -0.035804167
000170 91 36 ef bd 31 eb 3c 3d 4b c0 dd 3c ad 09 7a bd
       -0.116803296 0.046122734 0.027069231 -0.061044384
000180 2c e0 f3 bc 18 76 25 3d ae 19 85 bc 50 8c eb 3c
       -0.02976998 0.040395826 -0.016247597 0.02875343
000190 9d ef 51 bd 8a 36 e4 3c 47 f4 aa 3d cc cf 90 3d
       -0.051253904 0.027858038 0.083473735 0.07070884
0001a0 f7 f0 15 3d fe d8 dc 3c aa 0e b0 bc 52 7e 99 bc
       0.036606755 0.026958939 -0.021491367 -0.018736992
0001b0 f9 59 28 3a d3 49 7e 3d 47 b9 41 bd e8 f5 04 bd
       0.00064220984 0.062082123 -0.047295835 -0.032461077
0001c0 27 71 f2 3b 85 bd 06 3d bb 62 9f 3c 5b 9b a7 3d
       0.0073987427 0.032895584 0.019456258 0.081839286
0001d0 bb d5 5a 3d 01 a4 d5 3c e9 f3 34 bc b9 1c 10 3d
       0.053426486 0.02607918 -0.011044481 0.035183642
0001e0 c4 b5 45 bc 5e 8c 8e bd cc 53 61 bd d9 ba fd bc
       -0.012067262 -0.06960367 -0.055011556 -0.030972885
0001f0 4d 62 5e 3a 74 e9 85 bd 1f 4e 41 3d f5 ab 26 bd
       0.0008483276 -0.06538668 0.047193643 -0.040691335
000200 3a 94 90 3d 2c a6 da bc 08 38 4a bd e2 f3 47 bd
       0.07059522 -0.026690565 -0.04936984 -0.04881657
000210 cf db f1 3c 24 fa a6 bd 83 ed b6 3c 02 71 c0 3c
       0.029523758 -0.08153179 0.022330051 0.023491386
000220 a0 29 d7 3c 49 71 13 3c bd 9c b5 3b d6 a1 3b 3d
       0.026264966 0.008999177 0.0055423663 0.045808636
000230 7f 3e 6b 3d c8 7f fb 3c 1f f6 a5 bd 96 0c 73 bd
       0.057432648 0.03070058 -0.081035845 -0.059338175
000240 cd c8 b5 3c b3 7b d6 bb e5 27 56 3d 4c 05 87 bd
       0.022190476 -0.006545508 0.05228414 -0.06592807
000250 3f fd 46 3d 24 05 b7 bd 58 cd 70 bd 77 4a ef bb
       0.048581358 -0.08936527 -0.05878958 -0.007302578
000260 83 e2 b5 bc ec da f3 3c 11 8e ed bd 03 a1 9e bd
       -0.022202736 0.029767476 -0.11599363 -0.07745554
000270 0b 8b 8a 3c 6d be ca bd 8e bd 24 bc f9 52 98 bd
       0.016912004 -0.09899602 -0.010054959 -0.07437701
000280 5f 8c 3a 3c 76 a4 93 bd e3 67 f5 3d df 44 5b 3c
       0.011386006 -0.07209103 0.119827054 0.013383119
000290 8b 88 57 3d 3c b3 51 3d fe a4 7d bb 5b 82 b2 3d
       0.052620452 0.05119632 -0.003870308 0.087162696
0002a0 b8 2a a0 bd 69 14 17 bd 22 bb 3f 3c 4c 02 1b bd
       -0.07820648 -0.0368847 0.011702331 -0.037843987
0002b0 c5 85 04 bd 68 37 dd 3c 95 1b a2 3c 48 87 f2 bc
       -0.032354135 0.027003959 0.019788543 -0.029605523
0002c0 10 3b 96 bc 7c df 1a 3d da 64 7d bc 30 09 89 bb
       -0.01833871 0.037810788 -0.015465939 -0.0041820034
0002d0 48 59 20 bd a5 b7 39 bc 87 3f 71 3c ac cd 2f 3d
       -0.039147645 -0.011335288 0.014724619 0.042920753
0002e0 f1 2f a2 3c d1 10 40 bc 84 2b 99 bd 1d e7 30 b9
       0.01979825 -0.011722759 -0.07479003 -0.00016870764
0002f0 da 7c 1f bd 9a f9 dd bd ac fb c2 bd 02 18 6d 3d
       -0.038937427 -0.10838623 -0.09520659 0.057884224
000300 4e e1 98 bd b9 10 13 bc 74 71 14 3d 1d 95 4d bc
       -0.074648485 -0.008976155 0.03624101 -0.012547758
000310 8d 56 a8 3b 35 08 6c 3c a5 81 20 3e 79 95 62 3c
       0.005137271 0.014406254 0.15674455 0.013829582
000320 48 b0 6c 3d bd e8 4d bd 6e 56 80 3d 3b b9 9c 3c
       0.057785302 -0.050270785 0.06266485 0.019131294
000330 53 71 2c 3d e4 37 0e bd f5 50 d3 3d 94 45 14 3c
       0.042100262 -0.03472127 0.10318176 0.009049792
000340 02 05 00 3e 80 4d 34 bd c1 c2 b0 bd 09 f2 bf 3c
       0.1250191 -0.044019222 -0.08630896 0.023430841
000350 3b d1 4a 3d 5e 7d d6 bd 57 77 19 3d 47 96 b4 3d
       0.049515944 -0.10473131 0.037467327 0.08817726
000360 70 31 b9 3d 7e b4 97 3d 82 5d 61 bb bb 1a 02 bd
       0.090426326 0.07407473 -0.003438801 -0.031763773
000370 5c ad ad 3d 89 51 28 bc 85 3a df bd 69 b0 fc bd
       0.08480331 -0.010273346 -0.108998336 -0.12338335
000380 53 58 3c bd 2b a5 62 bd 47 95 4f bd 62 0d c6 bd
       -0.04598267 -0.055333298 -0.05067947 -0.09670521
000390 5c e8 6d 3c 5e 53 e6 3d c1 10 4e bd 18 e0 31 bd
       0.014520731 0.1124637 -0.050308947 -0.043426603
0003a0 11 f9 63 3d 0b 0d 90 bc 40 7d 9f bd a0 67 a3 bd
       0.05565745 -0.017584344 -0.077875614 -0.07978749
0003b0 51 16 2f 3d d3 fd 57 bd f8 5d c1 3b df ac d6 bd
       0.042745892 -0.0527323 0.0059010945 -0.10482191
0003c0 1a 3a f4 3c 77 b3 8a 3d 9d 0d ee 3c 6f cb 87 3c
       0.029812861 0.067725115 0.029059226 0.016576497
0003d0 bd 45 47 bc e3 61 95 3a 10 82 b9 3c 49 d5 a9 3c
       -0.012162623 0.001139697 0.022645026 0.020731585
0003e0 a1 d3 84 3d ce 20 8d bd cb 12 cd bc 1f e0 9f 3d
       0.064856775 -0.068910226 -0.025033375 0.078064196
0003f0 0c 3c 8f bd 84 da 0d 3b 17 05 21 bc d1 c3 7b bd
       -0.06993875 0.0021645138 -0.009827874 -0.061466042

t_model.t_model.0.bias f4 [64]
000000 c0 84 4f bc 3e ac e1 bd ff 2c dc bd c7 90 9d 3c
       -0.012665927 -0.11019181 -0.1075077 0.019234074
000010 47 b6 77 bd e8 aa c8 bd 59 1d f5 bd b8 71 9e bd
       -0.060476568 -0.09798223 -0.11968488 -0.07736534
000020 9c a4 b3 bd a9 2c 4d bd 16 ef ba bc af c6 01 bd
       -0.08771631 -0.05009142 -0.022819083 -0.03168362
000030 3b 07 91 bd d5 44 df 3c a8 fd c2 bd 85 ee 40 3c
       -0.07081457 0.027254501 -0.09521037 0.0117756175
000040 9b 80 5e bd 78 3f 4d bd ea 68 25 bd 88 71 d3 bd
       -0.054321866 -0.050109357 -0.040383257 -0.10324389
000050 95 78 81 bd f9 ab fa 3b 64 ed 48 bd 60 59 ab bd
       -0.06321827 0.0076498953 -0.04905452 -0.08366656
000060 93 39 7d bc 32 37 97 bd 9a 22 d5 bc 19 08 4b bb
       -0.015455621 -0.073835745 -0.026017476 -0.0030980168
000070 a2 a1 0c be 97 70 8b bc e1 23 bb bb 36 3e 0e be
       -0.13733533 -0.01702146 -0.005711064 -0.13890919
000080 d7 4f 2a bb 32 0f 70 3c 28 f8 4c b7 76 2d 2f 3c
       -0.002598753 0.01465206 -1.2217126e-05 0.010691991
000090 11 14 91 bd 4c e5 60 be ca 0f aa bd 03 e9 28 3a
       -0.070839055 -0.2196247 -0.08303793 0.0006443413
0000a0 8f 08 f7 bb 90 30 57 bd a5 4f 01 be 6f 01 91 bd
       -0.007538862 -0.052536547 -0.12628038 -0.070803516
0000b0 dc 53 8b 3d d3 04 2a be 5d 93 a3 ba e0 9e df bc
       0.06803104 -0.16603403 -0.0012479831 -0.027297437
0000c0 f8 00 02 bd ea 57 e2 bd 63 16 40 bd af f8 3a bb
       -0.031739205 -0.110519245 -0.04689635 -0.0028529575
0000d0 98 79 2c bd ad e6 50 bc 76 18 20 3d 84 5d 09 be
       -0.04210815 -0.01275031 0.039085828 -0.1341458
0000e0 1b 40 fe bd 34 a0 0f be c7 fe ac 3c 90 8e c8 bd
       -0.12414571 -0.14025956 0.021117581 -0.09792817
0000f0 68 fc e6 3c 27 3a 07 3d 1b c5 ec bd 1a 14 80 bd
       0.028196529 0.033014443 -0.115610324 -0.06253834

t_model.t_model.2.weight f4 [64, 64]
000000 c4 2e aa 3c 62 c3 40 3d a1 05 d2 bb 77 3a 3a bc
       0.020774253 0.04706133 -0.0064093624 -0.011366478
000010 55 6c 44 bc 5b 31 5f 3c a9 b4 8a 3d 06 34 73 3d
       -0.011988719 0.013622607 0.067727394 0.059375785
000020 1c fc 8c 3d b1 82 5d bd 1b c2 e5 bc 74 3a 74 3d
       0.068840235 -0.054079715 -0.028046658 0.059626058
000030 68 66 df 3c b2 18 21 3d 70 d3 0e 3e 17 82 0d bd
       0.02727051 0.039330192 0.13947845 -0.03454789
000040 6e 2f 7e be 5b 90 43 3c 1f 32 e4 bd 3a aa 13 3c
       -0.2482278 0.0119362725 -0.11142372 0.009012753
000050 68 2e 25 be ec 36 74 bc 21 53 8d bd f5 c4 46 bd
       -0.16130984 -0.0149056725 -0.06900621 -0.048527677
000060 23 e7 c9 bc 02 27 40 bd ae b4 8c bd 95 96 48 be
       -0.024646347 -0.0469122 -0.068703994 -0.19588692
000070 9a 87 58 bd 08 11 b0 3b 2d 34 93 3d f9 d6 72 bd
       -0.052863695 0.005373124 0.07187686 -0.059287045
000080 36 a6 91 bc e7 98 95 bc 13 75 84 be 85 67 cc 3d
       -0.01777945 -0.018261386 -0.2587057 0.09980682
000090 3f 90 f3 3d ed 81 e6 bd bc 1a f6 bb 12 16 96 3d
       0.11892747 -0.1125525 -0.007510511 0.07328428
0000a0 17 5b 46 bd a5 4c a3 bb 02 bc 36 be d3 eb f4 3d
       -0.048426714 -0.004983502 -0.17845157 0.119590424
0000b0 c5 29 3a 3e ea 15 29 be 89 c6 75 bd a9 ea 3e bc
       0.18179996 -0.16512266 -0.06000379 -0.011652627
0000c0 eb 33 94 3d cf ea 13 be 34 58 03 be 9c d9 c0 3d
       0.07236465 -0.14445041 -0.12826616 0.09416506
0000d0 cb 8b 92 bd 7a f4 1c 3d 71 eb bc bc f0 11 42 be
       -0.0715557 0.03831909 -0.023061486 -0.18952155
0000e0 25 fc fd 3d 86 52 4d bc 01 57 86 3c 8a 99 2a be
       0.124016084 -0.012531882 0.016398909 -0.16660133
0000f0 d0 37 a0 bc 69 4e 88 3d d0 b3 57 be 28 93 96 3d
       -0.019557863 0.066555806 -0.21064687 0.073522866
000100 f3 40 ca ba 4b 77 f5 bb ec 35 8e bd 89 6d 82 bc
       -0.0015430733 -0.0074910275 -0.069438785 -0.015921371
000110 87 93 5a bd 21 06 2e bc d9 65 10 3d 7a e0 e4 3d
       -0.05336335 -0.010621578 0.03525338 0.11175628
000120 cd ba 8c 3b 09 93 90 3d 63 72 72 3b f9 8c 65 3d
       0.0042947293 0.07059295 0.003699445 0.056042645
000130 3f e9 be ba c7 68 e6 3d 89 33 13 bb a4 73 4c bd
       -0.0014565362 0.112504534 -0.0022461137 -0.04991497
000140 06 b0 6a bd 75 5f f1 3c d5 f3 42 bd 71 c8 d5 3d
       -0.057296775 0.029464463 -0.047595818 0.10438622
000150 f3 7d 5c bd e3 1a 85 3d ea 88 f1 bb e7 9d a7 3c
       -0.053831052 0.06499269 -0.0073710578 0.020461036
000160 0e b6 35 3d d0 96 69 bd 2f 7b 93 3d 84 30 38 bd
       0.044363074 -0.05702859 0.0720123 -0.044968143
000170 ff 07 99 bc 40 07 a6 bc de ae 48 bd 0b 84 69 bd
       -0.01868057 -0.020267129 -0.04899489 -0.05701069
000180 57 95 e5 ba 12 b7 97 3d 6c be d7 ba 5c f7 15 3e
       -0.001751582 0.07407965 -0.0016459948 0.14645141
000190 36 c4 74 3d c5 f9 2b be 4f 1a b1 3c 5d f4 b0 bd
       0.059757434 -0.16794498 0.02161899 -0.086403586
0001a0 b4 eb ad bd 50 a0 6b bd 9b 83 dc bd 23 e4 ee 3d
       -0.084922224 -0.057525933 -0.10767289 0.116646074
0001b0 b8 df af 3d dc 55 1d be d3 46 47 bb e6 8d 21 3d
       0.08587593 -0.15364784 -0.0030407205 0.039441966
0001c0 28 f4 46 3d fb af 5d be b5 e3 06 be 2e a2 5a 3d
       0.04857269 -0.21649162 -0.13172801 0.053377323
0001d0 73 6e c5 bd ca c0 e7 3c fb c3 b8 bc bd bf 23 be
       -0.09640207 0.028290171 -0.022554388 -0.15991111
0001e0 30 52 ef 3c b6 37 a3 3c 02 d4 bd 3d 11 30 05 3b
       0.029213995 0.019924026 0.09268953 0.002032284
0001f0 49 c2 45 3d dc 83 ff 3d 99 47 0a be 93 3c a7 3c
       0.048280988 0.12476322 -0.13503875 0.020414626
000200 7b 44 48 3c 3d 2c 15 bd 39 e3 36 bd 1c 10 dc 3b
       0.012223358 -0.036419142 -0.04465029 0.0067157876
000210 1d 96 b9 3b b1 3b b3 39 f0 62 b7 3d 47 3d 07 bc
       0.005663647 0.00034186014 0.08954418 -0.008254356
000220 25 46 50 3d b3 3b 17 3d c2 60 51 3c 99 d6 e8 3b
       0.050848145 0.036922168 0.0127794165 0.00710566
000230 41 60 ae bc d1 19 56 bd 34 60 f9 3d 40 d9 32 3d
       -0.021286132 -0.052270714 0.121765524 0.043664217
000240 6c 84 d9 bc ec 05 e3 3c ac 03 c7 3c 48 0b 01 3e
       -0.026552401 0.027712785 0.024293743 0.1260196
000250 86 23 bf bd 28 13 25 3b bf 62 ad 3c 10 ad 87 3d
       -0.093329474 0.002518842 0.02116525 0.06624806
000260 ea d1 39 3d fe 94 cb bd f0 1a 83 bc ac f6 0d bd
       0.045366205 -0.099405274 -0.016004056 -0.034659073
000270 23 15 95 3c e3 ad ad 3c b8 52 9e 3c 48 87 42 bc
       0.018198555 0.02120108 0.019326553 -0.011873074
000280 b7 9f a4 3b b8 80 ac bb 9f ef 9f bd fb f5 86 3d
       0.0050239223 -0.005264368 -0.07809376 0.06589886
000290 ad 73 08 3e 71 97 0f bd 1c 2b b8 3b a7 52 ba bd
       0.13325377 -0.035056535 0.0056203734 -0.09097796
0002a0 75 b9 91 bd 6b 65 81 bd 17 6a f0 bb 88 fe d3 3d
       -0.07115451 -0.06318172 -0.0073368656 0.10351282
0002b0 03 3c 4e 3e 25 38 3b be 82 4c 05 bc a7 07 06 3d
       0.2014008 -0.18283136 -0.008135917 0.03272214
0002c0 aa df 46 ba d6 77 63 bd 83 7a 11 be 89 25 10 3d
       -0.0007586429 -0.055534206 -0.14206891 0.035192046
0002d0 9e cb 4d bd 17 92 b0 bc dc a1 92 3b 95 1d 7b be
       -0.050243013 -0.021554036 0.0044748615 -0.24523003
0002e0 cf 9c ef 3d fc ec ad 3d cf 07 89 3c 5a 73 63 bd
       0.11699831 0.08492467 0.016727356 -0.05552993
0002f0 86 2a 32 3d b7 90 12 3d d1 88 9d bd 6c 20 40 3d
       0.043497585 0.035782542 -0.07692111 0.04690592
000300 79 63 cf bc 22 66 85 3b 4f 21 ac bc 59 ed 8b bd
       -0.025315987 0.004071013 -0.021011977 -0.0683238
000310 f5 67 03 3d 20 8e 48 3d fa 3b 11 3d 84 a5 56 bd
       0.032081563 0.048963666 0.03545759 -0.05240394
000320 16 25 ac bd 42 f0 58 3d d5 ed 25 3d da ff 7b 3d
       -0.08405511 0.052963503 0.040510017 0.061523296
000330 e8 b9 33 3d a3 48 29 3e b9 bd 90 3d fb 30 0e be
       0.043878466 0.16531615 0.07067437 -0.13885872
000340 24 b0 06 be 0f 83 88 3b 81 34 53 bd 2f fa 70 3d
       -0.1315313 0.004166014 -0.051563744 0.058832344
000350 b8 d0 44 bd 65 b1 06 bc de 51 18 3d ae a4 35 3d
       -0.048050612 -0.008221005 0.03718745 0.044346504
000360 95 18 18 bd 0b df c1 bd 8a e2 87 3c 31 32 2d bd
       -0.03713282 -0.0946637 0.016587514 -0.042284194
000370 04 39 b9 3d b2 17 c2 3d 97 c6 10 bc 88 cb c3 bd
       0.09044078 0.09477176 -0.00883641 -0.09560305
000380 3b 9a 3d bd 12 4d 95 3c 4f 0f f2 bc bc 70 f4 3d
       -0.046289664 0.018225227 -0.029548315 0.11935565
000390 82 48 2d 3e b0 b2 3b be c4 45 87 3b 7d 61 c8 bd
       0.16922191 -0.18329883 0.0041281898 -0.097842194
0003a0 72 fd 3f bd e3 12 e8 3c 9f 24 09 be 64 58 c9 3c
       -0.046872564 0.028329318 -0.13392876 0.02457828
0003b0 b8 4f 1c 3c 11 c9 18 be 5b 22 74 3c 48 22 52 bd
       0.009540491 -0.14920451 0.014900769 -0.051302224
0003c0 2f a5 92 bd 56 73 76 bd f6 00 ac bd 13 82 d0 3d
       -0.071604125 -0.060168587 -0.08398621 0.1018106
0003d0 d3 0e 64 bd 33 cd ea bc 72 93 95 3c e9 16 3a be
       -0.0556782 -0.0286623 0.018258784 -0.18172802
0003e0 20 95 99 3a c8 bf a4 3d 63 17 c5 3d d8 0d f4 bd
       0.0011717416 0.08044392 0.09623601 -0.11916703
0003f0 d9 6d dd 3c 2c 34 d1 3c 98 e1 1b bd 1b 7c 65 3d
       0.027029919 0.025537573 -0.03805694 0.05602656

t_model.t_model.2.bias f4 [64]
000000 7e f3 2e 3d 1c 65 7b 3d 3f 78 1f 3e 66 8f 76 3d
       0.04271268 0.061375722 0.15573214 0.06019535
000010 6d 42 3c bd b8 16 2a 3d 9b cd 46 bd f9 f9 b4 3d
       -0.045961786 0.041525573 -0.048535924 0.08836741
000020 05 21 ca bd 33 27 a4 bc 28 70 07 3e 0d ed f0 3d
       -0.09869579 -0.020038223 0.13226378 0.11763964
000030 c9 f9 23 3e 6b 63 03 3e 5b 1e 52 3d 90 a0 1d 3e
       0.16013254 0.12830894 0.05129848 0.15393281
000040 88 bf e2 3d 30 44 be bb b2 bc bf 3d c2 6e a8 3c
       0.11071688 -0.0058064684 0.09362163 0.020560626
000050 9f 90 83 3d 4b 73 37 3e f8 81 b6 3d 36 d3 b9 3d
       0.06424069 0.17915075 0.08911508 0.090734884
000060 92 22 bd 3d fe 81 10 bc b8 95 7f bd c8 8b 1f 3e
       0.092351094 -0.008820055 -0.062398642 0.15580666
000070 62 5c b2 3d 87 96 9c 3d e6 45 8c 3d 24 26 d3 3c
       0.08709027 0.07645898 0.068492696 0.025775023
000080 01 4b c5 3d b3 56 7b 3c bc 01 62 3e 0d ee 90 bc
       0.096334465 0.015340495 0.22070974 -0.017691636
000090 d0 b5 b4 bd 76 f0 a8 3d ef c7 5f 3c ca a6 b5 bc
       -0.088237405 0.08248989 0.013658508 -0.022174258
0000a0 4f 0b 21 bd d5 71 a2 3d f4 26 17 3e ee 70 f1 3d
       -0.039317425 0.07931868 0.14760953 0.11789118
0000b0 69 8e 5f 3d 46 1f d4 3d 98 b6 2b 3e 55 5a 07 3e
       0.054579172 0.103575274 0.16768873 0.13218053
0000c0 48 05 44 3c 44 da e2 3d 52 3d ed 3c ec ba ba 3c
       0.01196415 0.11076787 0.028959904 0.02279421
0000d0 db 0e 15 3e c1 a7 19 3e c9 60 c3 3d b5 f9 c2 bc
       0.14556448 0.150054 0.09539945 -0.02380071
0000e0 e4 17 16 3e f0 38 d3 3b 37 66 2a 3e a5 a4 30 3e
       0.14657551 0.0064459965 0.16640554 0.17250307
0000f0 db 41 47 3e 29 a1 b0 3d 22 71 23 3e bc d9 3c 3c
       0.19458716 0.08624489 0.15961125 0.011526521

s_model.x_model.weight f4 [64, 32]
000000 22 ff 15 3c d7 8a 8a bd fe f0 d8 3d 5d 6a 5e bd
       0.009155067 -0.06764763 0.105928406 -0.054300655
000010 72 af d5 3d 9d 36 70 3c 39 40 f7 bd 42 4a 54 3d
       0.10433854 0.014661458 -0.120727964 0.05182863
000020 f2 14 9a bc 0f 28 92 bd 36 5e 01 3d ba 39 df bd
       -0.018808816 -0.07136547 0.031583987 -0.10899682
000030 7f 9f 91 bd e1 15 05 be f0 be 00 3e af 09 5f be
       -0.071104996 -0.12996627 0.12572837 -0.21781038
000040 f5 f6 bc be 2f 63 0c bd 82 d8 2c 3d 52 5a 4a 3d
       -0.36907163 -0.034274276 0.042198665 0.049402542
000050 e0 5a 42 be fb 15 33 be f0 ea 6b 3d 8a 85 62 3d
       -0.18979979 -0.17488854 0.0575971 0.055303134
000060 77 84 91 bd a1 60 58 3d cd 6e 29 bb b7 67 00 be
       -0.07105344 0.052826528 -0.0025853396 -0.12539564
000070 93 ed c3 3d 65 2d e5 bd f2 ce ca 3d 76 53 8f 3d
       0.09566798 -0.11190299 0.09902753 0.06998341
000080 29 04 02 bf 2b d4 2e bd e4 d6 4b 3d 83 ce 90 3c
       -0.507876 -0.042682808 0.049765483 0.017676597
000090 ac a3 81 ba 74 55 18 be d3 24 bf 3d 90 39 b6 3d
       -0.0009890697 -0.14876348 0.093331955 0.08897698
0000a0 a1 fe 5b 3d 88 86 e6 3d 02 ea e9 3c 90 86 88 bd
       0.05370963 0.112561285 0.028553966 -0.06666291
0000b0 a2 d6 c2 3c d2 47 13 bd fa e4 12 be d2 90 75 bd
       0.023783986 -0.035957165 -0.1434516 -0.059952565
0000c0 89 a2 95 3d 96 59 cd 3d 52 dc a7 bc b1 be 8e 3d
       0.07306392 0.10026853 -0.0204908 0.06969965
0000d0 6a fe 8a 3c 90 a1 f5 3c 5b f9 12 bd 98 f8 92 3d
       0.016967017 0.029984266 -0.035882335 0.07176322
0000e0 d1 d3 6e 3a 72 b4 f9 3c c2 ef 50 3d 55 ae 07 be
       0.00091105426 0.03048155 0.0510099 -0.13250096
0000f0 19 08 ea bb b5 c7 a5 bb 52 bd 1a 3c 93 6a 9e bc
       -0.0071420786 -0.0050592073 0.009444552 -0.019337928
000100 69 f6 b5 3d 3b 51 f8 3c 67 99 27 bd f5 8c 81 bd
       0.0888489 0.030312171 -0.04091778 -0.063257135
000110 40 b3 1d 3d b3 19 1c 3d c9 dc 75 3c 29 91 0b bc
       0.038501024 0.038110446 0.015006253 -0.008518496
000120 c6 1d 37 3d c7 d4 1b bd ec 34 05 3d c0 92 ab 3c
       0.04470613 -0.038044717 0.032521173 0.020944
000130 49 ee 1c bb 6c d3 f7 bc 05 39 1e be 92 eb 18 3d
       -0.002394574 -0.030252181 -0.15451439 0.037334032
000140 ad bc 12 bc 26 7d 06 3d 7c cf 06 be cd 89 28 bd
       -0.008956117 0.032834195 -0.13165087 -0.041147042
000150 5f 34 d6 3d 4e 4b ef bb 74 54 12 be f6 78 27 be
       0.10459208 -0.007302678 -0.14290029 -0.16354737
000160 7f f4 0d bf 7f a9 dc bc 69 4d 1e bc 38 d4 51 3c
       -0.55451196 -0.02693629 -0.009662011 0.012806945
000170 d2 62 e4 bd 69 be 65 bd f4 b6 7d 3d 39 86 cb bc
       -0.11151661 -0.056089792 0.061942056 -0.024844276
000180 0e c2 89 be 40 0f 42 3d 4f 1f 09 3e 93 0f d7 3d
       -0.26905864 0.047377825 0.1339085 0.105010174
000190 29 18 88 bd b9 1c a1 3c 12 b6 b8 bc 51 07 f8 bd
       -0.06645233 0.019667016 -0.022547755 -0.121107705
0001a0 87 6e 23 3c ec 0e 76 bd 04 cd 3d 3d e8 e0 d5 3c
       0.009975082 -0.060072824 0.046338096 0.02610822
0001b0 e0 53 a9 3c 07 e3 ae bc 89 6f ad 3d 6c 39 36 bd
       0.020669878 -0.02134849 0.08468539 -0.044488356
0001c0 70 60 72 3e c7 b7 df bd c0 71 3b 3d b0 dd 24 bd
       0.236696 -0.109237246 0.045762777 -0.04025048
0001d0 ae c1 3e bd 03 ee b6 3c 1b cf a7 3d fe 40 0a 3b
       -0.046571426 0.02233029 0.08193799 0.0021095867
0001e0 c9 c0 e1 be a9 14 51 bd 77 06 c5 3c c2 90 cc 3c
       -0.44092396 -0.051045094 0.024050934 0.02497137
0001f0 73 54 12 bd 84 a3 85 bd b3 fb 62 3c 1d 51 67 bd
       -0.03572507 -0.06525329 0.013853955 -0.05647384
000200 42 29 de 3d df 4c d2 3d b3 21 a9 3c 4a 46 ac bd
       0.10847713 0.10268568 0.020645952 -0.08411844
000210 a1 9b 11 3d 6f e8 9b 3a 4e bc dd bc e7 d6 6f bd
       0.03554881 0.0011894832 -0.02706733 -0.058554556
000220 54 de 11 bf b6 79 56 3d 1d 97 0a 3e 47 2b 94 3d
       -0.5697987 0.052362166 0.13534208 0.07234817
000230 b8 39 ee bc c3 e4 2d 3d f3 fc 69 3d 4b 9c a9 3a
       -0.029080257 0.042454492 0.057125997 0.0012940256
000240 57 d6 bc 3d e9 80 9e bd 75 58 48 be c8 bb 1d bd
       0.092205696 -0.077394314 -0.19564994 -0.03850916
000250 4f 3d 5d bc 7a 77 2a 3d 45 c2 93 3c 0c a3 07 3d
       -0.013503387 0.041617848 0.01803697 0.033114478
000260 e5 7f 6a 3c 44 e0 15 3d bd 42 96 bd 95 15 d9 bd
       0.014312719 0.03659083 -0.07336948 -0.105998196
000270 40 b8 1a 3e c2 c7 6f 3d c5 7e 86 3d 6f a8 b8 bd
       0.15109348 0.058540113 0.06567148 -0.09016501
000280 3b ec e8 bc 10 6e 5c 3d 4d 20 47 3d e5 eb 9c 3d
       -0.028432956 0.0538159 0.04861479 0.07662181
000290 e3 8c 33 be 0b 84 18 3e 47 f4 bd 3b 54 6a c2 3c
       -0.17534213 0.1489412 0.0057969424 0.023732342
0002a0 13 6d cc 3c c6 8b c5 3d 10 df 91 3d b7 0c 0b bd
       0.024954354 0.096458 0.07122624 -0.033947673
0002b0 a2 5e 85 bc 30 09 78 3d 18 7e 44 3e ba 89 93 3d
       -0.016280476 0.060555637 0.19188726 0.07204004
0002c0 11 76 b2 3e 9b 96 9d 3d e4 5a 25 3c 7e cb 18 bd
       0.34855703 0.07694741 0.010092471 -0.03730344
0002d0 7b 9f bf 3d e3 75 49 bd 67 a7 46 bc 3d d1 e0 3d
       0.0935659 -0.04918469 -0.012124873 0.10977409
0002e0 cf 7a e9 bd fc 74 24 be 7d 5a 6f bd 8e 68 93 bd
       -0.11400377 -0.16060251 -0.058435906 -0.071976766
0002f0 6a ec 8b 3c 0e a3 5a bd c3 e4 65 be 6b e4 b9 3d
       0.017080504 -0.053378157 -0.22450547 0.090767704
000300 76 7f 0a be 46 6a 41 bc 0d e9 97 bd ac 81 00 3b
       -0.13525185 -0.011805123 -0.07417498 0.001960854
000310 56 55 5e 3e 95 16 ef 3b d6 2b 84 bd b8 a6 ac bd
       0.2171224 0.007296393 -0.064536735 -0.084302366
000320 d7 a7 07 3e 33 2c 4e bd 2e 31 ac 3d 60 6f 29 bd
       0.1324762 -0.05033512 0.08407818 -0.04136598
000330 70 5a f6 bc 54 60 43 be c4 21 5c 3d cc 33 4a bd
       -0.03007242 -0.19079715 0.05374314 -0.049365804
000340 26 59 ba 3e 35 98 6e 3d 26 7f 9a bc f5 b8 c2 bd
       0.3639614 0.058250625 -0.018859457 -0.09507934
000350 81 0a 1c bd 23 d2 75 3d b2 56 be 3d 21 6f b0 bd
       -0.038095955 0.060014855 0.092938796 -0.08614946
000360 2d 9f ea 3d c3 01 02 be 6c 11 67 bc 25 8d 0c be
       0.114561416 -0.12695985 -0.014103275 -0.13725717
000370 d3 77 8f 3d 12 91 ce 3d a8 13 10 3e ce 82 27 be
       0.070052765 0.10086264 0.14069998 -0.16358492
000380 a9 23 fe bd 1d ff b5 3d e5 d0 a6 3d 9b 4f 32 be
       -0.124091454 0.088865496 0.08145312 -0.1741318
000390 10 b9 20 3e cb 0f af 3d 42 0d 03 be 1d 40 56 3d
       0.15695596 0.08547934 -0.12798026 0.052307237
0003a0 04 03 96 3d d8 79 82 bd a6 5e 57 bd 42 53 5d 3e
       0.07324794 -0.06370896 -0.0525805 0.21613792
0003b0 ca ca b3 bd 73 65 81 3d 9c 51 a8 bd e3 86 ff bc
       -0.08778913 0.06318178 -0.08218691 -0.031192249
0003c0 7b b2 b8 bd 4f c9 4c 3c e0 36 64 3e 1a a4 4b 3d
       -0.090184174 0.012499168 0.22286558 0.049717046
0003d0 60 d9 3e 3d fd 3f ae 3d 8f 4e fe 3d f4 41 6c bd
       0.046594024 0.085082985 0.124173276 -0.057680085
0003e0 b7 c5 cf bd 93 60 51 3d dd bf 73 3d a2 f3 c7 bc
       -0.10145133 0.05111749 0.059509147 -0.024408165
0003f0 c3 63 4a 3d d2 71 ec bd bb 34 15 3c 97 94 4d 3c
       0.049411546 -0.11545147 0.00910681 0.012547634

s_model.x_model.bias f4 [64]
000000 82 79 15 3e b9 96 6f 3e e8 b3 ae 3c 4f a1 03 3d
       0.14597133 0.2339734 0.02132602 0.032136258
000010 64 3c 58 3e 13 40 86 3d b1 4f 30 bd 8b 48 10 3e
       0.21116787 0.0655519 -0.04304475 0.14090173
000020 d3 7c 71 3c de 0f de 3d 5f 81 6b 3e 1e cb 54 3e
       0.014739233 0.1084287 0.2299857 0.20780608
000030 47 c3 0a 3e 71 4d 2d 3d 2c 64 18 3e db 9f d8 3b
       0.13551055 0.042310182 0.14881963 0.006610853
000040 c3 b3 1e 3d 9d f6 9d 3d 5f 87 8e 3e 1d d0 f3 bc
       0.038745653 0.077130534 0.27837655 -0.029762322
000050 b4 81 cc 3b 14 0f 23 3e e9 75 30 3e 53 81 6d 3e
       0.0062410478 0.1592372 0.17232479 0.23193865
000060 ce c2 8c 3e 42 cc d1 3d 03 af d5 bb 04 4e 4f 3b
       0.27492374 0.10244037 -0.006521107 0.0031632194
000070 8f 89 a7 3d e0 3e 40 3e d7 0c e0 3d e7 ca 4a 3d
       0.08180534 0.18773985 0.10939949 0.04950991
000080 3b 66 a1 3d b1 9e 65 3e 0b 09 bf 3d 73 69 2e 3e
       0.07880827 0.22423817 0.09327897 0.17032413
000090 72 9b 5f bd 71 9b a6 bd f6 cb ba 3d 2e b9 40 3d
       -0.054591604 -0.08135117 0.09120934 0.0470516
0000a0 89 a0 3d 3e 59 b7 0a 3e 9a 01 92 bd 44 9c 7a 3d
       0.1851827 0.13546504 -0.07129212 0.061184183
0000b0 b6 02 c7 3d 2e 60 dc 3d 38 8d 30 3e bb 00 9a 3d
       0.09717314 0.10760532 0.1724137 0.075196706
0000c0 81 52 f9 3c f5 1a 44 3e ba 91 28 3b a7 17 bc 3d
       0.030434849 0.19150908 0.0025721625 0.09184199
0000d0 51 ae 1c bd 4b c7 7f 3d 09 51 54 bd 05 09 d3 3d
       -0.03825218 0.06244592 -0.051835094 0.10304455
0000e0 6f 92 22 3e b9 51 b5 bc 07 47 0c bc a5 38 53 3d
       0.15876172 -0.022133695 -0.008561856 0.051567692
0000f0 f6 ad 63 bc 3e dd 84 3d 07 e8 96 3d 61 03 85 bb
       -0.013896456 0.06487511 0.073684745 -0.0040592407

joint_model.model.1.0.weight f4 [64, 64]
000000 39 5d 96 bc 55 9e 0f be e9 d4 d5 3b 73 16 5b bd
       -0.018354999 -0.14025243 0.006525625 -0.053488206
000010 75 fe 28 3e cb 89 2b bc 6b b2 34 3e 10 c8 29 be
       0.16503318 -0.010469864 0.17646186 -0.16580224
000020 a8 67 ec bb 89 f9 08 3e 9e 34 f4 bd 51 c6 11 be
       -0.007214505 0.1337644 -0.119240984 -0.14235808
000030 53 68 18 be c8 52 1d bd 0d ce ac 3d 92 3a fd 3d
       -0.14883547 -0.038409024 0.084377386 0.12364687
000040 24 1a 98 3b c7 8a 99 3e 5f 94 25 3e b2 66 92 3d
       0.004641788 0.2998869 0.1616988 0.07148494
000050 43 e9 02 bc 93 0f 0a 3c 9b 34 cd 3d ad 8d ce bd
       -0.007990184 0.008426565 0.10019799 -0.10085616
000060 e5 53 ef bd 41 2c c4 bc a2 8e d1 bd 33 33 35 be
       -0.116859235 -0.023946883 -0.10232283 -0.17695312
000070 da 0c 59 bd 4d fc a2 3d 30 65 43 3e 38 5a 52 3d
       -0.05299077 0.07958279 0.19081569 0.05135557
000080 59 b8 c6 bd 31 67 d5 bd 75 a9 79 39 72 dd 29 3d
       -0.0970313 -0.10420073 0.00023809618 0.041470952
000090 d9 16 0a bd 30 f5 eb bc cb 13 dd 3c 2b 0b 01 3e
       -0.033713195 -0.028803438 0.026986977 0.12601916
0000a0 f0 e5 87 3b c8 8d 75 3c 38 79 b2 3d f5 8b 19 3e
       0.0041472837 0.014987417 0.08714527 0.14994796
0000b0 86 be 83 3d 1e 6c dd bd 9c 68 d3 bd 14 5a 3b 3e
       0.06432824 -0.10811637 -0.10322687 0.18296081
0000c0 db 37 94 3d f0 6d 98 3d 0f 4a df bd 58 ae 1e 3d
       0.07237216 0.07442844 -0.109027974 0.038740486
0000d0 64 dd 12 be 19 cf de 3d 3c 74 03 3e cd 19 37 bd
       -0.14342266 0.108793445 0.12837309 -0.04470234
0000e0 de 76 e1 bc ee e0 9f 3d 47 61 78 3d 4c d5 7d 3d
       -0.0275225 0.07806574 0.060639646 0.061970994
0000f0 8c 72 a3 bc 30 f1 20 be 22 2f f9 3d f6 4b 89 3d
       -0.019952081 -0.15717006 0.12167193 0.067039415
000100 27 22 00 3e a7 48 16 3e 3d 9c be bd a0 28 18 3c
       0.12513028 0.14676152 -0.09307144 0.0092870295
000110 c1 e0 0b bc 4c a9 04 bd 83 4d 06 3e ca 55 8e 3c
       -0.008537472 -0.032388017 0.13115506 0.017374892
000120 69 aa 94 3d 94 11 c8 3d f2 88 f9 3d 2a ee 2a 3d
       0.07259066 0.09768978 0.12184323 0.041731037
000130 5e e8 8b ba b8 31 12 bd eb 6a 15 be 4d 9c 29 3d
       -0.0010674109 -0.035691947 -0.14591567 0.041408826
000140 fb 7b a7 3d fa d6 7b 3d 5d 35 11 bc 17 89 c3 3d
       0.08177944 0.061484315 -0.00886282 0.09547632
000150 5e 4f 6b bc 9e 7c 67 3d 25 37 53 bd da b6 34 be
       -0.014362184 0.05651533 -0.05156626 -0.17647877
000160 87 cc ff 3d ad 56 11 bd 20 d3 f3 3b 2a 53 8f 3c
       0.12490182 -0.03548305 0.0074409395 0.01749571
000170 8e a7 05 3d d8 28 2d bd 8e e8 d5 3d 7d 98 e3 bd
       0.032630496 -0.04227528 0.10444747 -0.11113069
000180 95 69 ec bd 37 1f 7c bd 01 60 16 be f7 74 f3 3d
       -0.11543576 -0.061553206 -0.1468506 0.11887544
000190 b7 81 af 3d c3 b7 05 3c ef 33 02 3d 3b 63 54 3d
       0.08569663 0.008161488 0.03178781 0.051852446
0001a0 41 2c 3f be 5d 30 0b 3e ea 34 9e 3d 62 58 eb bd
       -0.18669225 0.13592668 0.07724936 -0.11491467
0001b0 4c 5c 89 bd d2 32 af 3c 21 af cc bd c7 70 8e bd
       -0.06707057 0.021386538 -0.09994341 -0.06955104
0001c0 9b 30 1f be df 3e f1 3b 90 e3 65 bd 43 f2 61 3c
       -0.15545885 0.007362231 -0.056125224 0.01379067
0001d0 09 3a d1 3c e1 79 5e 3b 99 be 7c bd 82 71 8b 3c
       0.025540369 0.0033947157 -0.061705206 0.017021898
0001e0 5a 10 b4 3d d3 60 37 3e 51 aa 66 3d 20 fa 75 bd
       0.08792181 0.1790803 0.05631477 -0.06005299
0001f0 22 ec e7 3d f1 b7 3f be 00 3d 7d 3d 60 32 13 3d
       0.11324336 -0.18722512 0.061825752 0.035936713
000200 3f 55 6b bd 7c e5 bd 3d 69 42 d2 3d 82 db c3 bd
       -0.057454344 0.09272286 0.10266573 -0.09563352
000210 f6 63 09 bc e0 9f 89 3c b9 14 b0 bd c5 fe 69 3d
       -0.008385649 0.016799867 -0.085977025 0.057127733
000220 fe cf 60 3d 01 50 ef 3c 10 e4 8e bd c1 05 46 be
       0.054885857 0.029212954 -0.06977093 -0.19338132
000230 07 71 8b bd 87 1b 4e 3d d6 5c 7a ba b5 ea 1a bc
       -0.06808668 0.05031922 -0.0009550577 -0.009455373
000240 44 f1 0a 3e 1a b3 f6 bd a8 04 69 bd be ec 72 bd
       0.13568598 -0.1204588 -0.056889206 -0.059307806
000250 c6 9b 9b 3d b2 6d 25 bc 98 c2 f4 3c b1 db 27 be
       0.07598071 -0.010096954 0.029877946 -0.163924
000260 b1 01 eb 3d d5 e5 6c 39 6a b9 12 3e 28 c8 c1 3d
       0.11474932 0.00022592333 0.14328542 0.09462005
000270 67 16 1e bd 5e c9 c1 3c 92 b0 a4 3c 1e a3 a7 bc
       -0.038595583 0.02365559 0.020103727 -0.020463523
000280 6f c9 2c 3e 88 36 03 bd 9f 59 cc 3d 55 7b 73 bc
       0.16873716 -0.032034427 0.09978031 -0.014860948
000290 1b c6 fa 3d 86 b4 80 bd 91 28 86 bc 62 ec 17 3d
       0.12244817 -0.06284432 -0.016376765 0.037090667
0002a0 99 2a ab 3d 19 6c f9 3c 40 33 4f bd b2 e8 44 bd
       0.08357734 0.030447053 -0.050585985 -0.048073478
0002b0 87 f0 80 3d a9 6a ae 3d 96 c3 ff bd 44 30 bc 3d
       0.06295877 0.085164376 -0.12488477 0.091888934
0002c0 b6 22 44 bb 20 09 a1 bd b9 af df 3a 51 b8 a1 3d
       -0.0029927916 -0.078630686 0.0017065919 0.07896484
0002d0 af ba 8f 3e aa b6 d9 bc 9c 85 32 3e fb 2f bd bc
       0.28072116 -0.026576359 0.1743378 -0.023094168
0002e0 f9 94 0d 3e 69 82 15 3e 2f cf a1 3c 1e df 06 bb
       0.1382636 0.14600529 0.019752113 -0.0020579766
0002f0 ef 42 d4 bd 15 33 21 be 9d 6c 52 3e 3d 61 13 be
       -0.10364329 -0.15742142 0.20549245 -0.14392562
000300 1c d1 77 3d bc 7d 30 3e 50 02 43 bd 3a 24 73 3e
       0.060502157 0.17235464 -0.047609627 0.23744288
000310 ce 35 63 bb 5b fa a0 3d 1b 34 2e 3d 51 c6 81 3d
       -0.0034669521 0.078602515 0.04253016 0.06336654
000320 e6 3c 74 3d d5 5f 58 bc 31 17 5c 3e 8f 8e 0a bd
       0.05962839 -0.013206442 0.21493222 -0.03382736
000330 74 66 45 be df 1c ce bd 61 09 39 bd c5 d2 85 b9
       -0.19277364 -0.100641005 -0.04517496 -0.00025524772
000340 92 c8 22 3e 07 eb 2e bd 28 91 a0 3d e6 7f 2c be
       0.15896824 -0.04270461 0.07840186 -0.16845664
000350 b5 04 5d 3c 41 6d ff 3c cd 4f 08 be 50 95 78 bd
       0.013489892 0.031180026 -0.13311692 -0.06068927
000360 29 ce 61 bc 3e 54 c5 3d 1d 6e c1 bd 72 85 27 3e
       -0.013782063 0.096352085 -0.094448306 0.16359499
000370 8b 8a 20 3e 90 ac ef 3d 70 97 26 3e 6a 0b af be
       0.1567785 0.117028356 0.16268706 -0.34188396
000380 05 16 86 3d 0e 75 b8 bd e8 19 55 bd 46 f2 8d 3d
       0.06547169 -0.090067014 -0.05202666 0.069309756
000390 d0 b5 00 3e 23 20 a8 bd 93 cc 2f 3e d8 ad b6 bd
       0.12569356 -0.082092546 0.17167883 -0.08919877
0003a0 ee df 5d 3d 24 4d 72 bd 08 10 de 3b 25 de 03 3e
       0.054168634 -0.0591556 0.0067768134 0.1287771
0003b0 57 13 52 bb aa d1 b7 bd 20 29 00 3e 5f 0a 5c 3c
       -0.0032054984 -0.08975537 0.12515688 0.013430207
0003c0 91 76 19 3e 91 bb cb bc 8b 93 3f be f3 98 eb bc
       0.14986636 -0.024869712 -0.18708627 -0.028759455
0003d0 f8 34 bb 3d d8 fe 07 bd 10 a9 8d 3d 20 a5 9b 3d
       0.09140962 -0.033202022 0.06917012 0.075998545
0003e0 6e d5 21 3d 63 e5 c6 bd 82 27 99 3c 59 e9 47 bc
       0.039510183 -0.09711721 0.018695597 -0.0122016305
0003f0 d4 7b 05 3e 5b 23 37 3e 39 41 87 3e 89 08 71 bd
       0.13035518 0.17884581 0.26416948 -0.05884603

joint_model.model.1.0.bias f4 [64]
000000 fc 98 b8 bd 73 1e a9 bc 83 a9 0f be 9c 35 0d be
       -0.090135545 -0.020644402 -0.14029507 -0.13789982
000010 93 a2 48 3d 31 4b ef bd f3 3e 23 be a5 73 2a bd
       0.048983168 -0.116842635 -0.15941982 -0.041614193
000020 bf ee 8f bd 8f 44 b1 3e 7d 72 e0 bd 4d f8 e0 3d
       -0.07027959 0.3462262 -0.10959337 0.109848596
000030 c6 46 4b bc 10 2f ff 3b 21 cc 4c be c2 28 9d bd
       -0.01240701 0.0077875927 -0.19999744 -0.076737896
000040 61 40 11 bd 6a 9c a5 3b 0b 8f 3e 3e e9 59 a3 bc
       -0.035461787 0.0050540464 0.18609254 -0.019940333
000050 da 67 52 3e 14 62 d0 bd 93 7d 4c 3d 72 6a 28 3e
       0.20547429 -0.10174957 0.049924444 0.16446856
000060 c4 23 b8 bd 77 71 4c 3e 92 3b b5 bd 25 9d 0d be
       -0.08991197 0.19965158 -0.08849253 -0.13829477
000070 0f 54 90 bd c2 f9 8c 3d 3f c2 c2 bc a8 2d 6b ba
       -0.07047283 0.06883575 -0.023774264 -0.0008971342
000080 e0 8e 71 3c 50 01 25 bd 5b 98 ab bc f9 59 ba 3d
       0.014743537 -0.040284455 -0.020946672 0.09099192
000090 a1 c2 ba bd b7 d8 54 3b 86 74 3e bd f7 30 17 3e
       -0.09119154 0.0032477805 -0.046497844 0.14764772
0000a0 22 b9 cd bd 1c b8 01 3d 6d b7 dc bc 8c e9 5c bd
       -0.10045077 0.03166972 -0.026942933 -0.053933665
0000b0 5d b9 4d be 07 81 ff bd 2f 87 b2 3d 21 37 36 3e
       -0.20090242 -0.12475782 0.087171905 0.17794468
0000c0 c5 e7 36 bd 04 bc 2d bd ae 65 24 be 0b f7 46 be
       -0.044654626 -0.042415634 -0.16054413 -0.19430177
0000d0 83 14 b9 bd 54 3d 13 3e 70 09 77 bd 50 af b5 bd
       -0.090371154 0.14378864 -0.060311735 -0.08871329
0000e0 73 6b d2 3c 36 52 05 be ad 75 44 3e d8 a4 4f be
       0.025686001 -0.13019642 0.19185515 -0.20277727
0000f0 37 1b bf bd f7 2b 12 3e 4e 00 60 be 34 a5 bc bc
       -0.09331363 0.14274584 -0.21875116 -0.023027994

joint_model.model.2.0.weight f4 [64, 64]
000000 52 14 07 3e ab 22 09 3d 72 16 36 be f9 f6 b3 3d
       0.13191345 0.033480328 -0.17782 0.08787341
000010 5b 00 be bd 84 cf 39 bd a0 4d 62 be da a8 b4 3d
       -0.092774116 -0.045363918 -0.22099924 0.088212684
000020 9a 4e 4e 3d 67 bf 80 3e cf 75 f1 3d 11 4a 27 3e
       0.05036793 0.25146028 0.11790048 0.16336848
000030 88 5d 9d 3d 74 e2 61 be 36 90 6e 3e ff 33 1c bd
       0.07683855 -0.22059041 0.232972 -0.038135525
000040 6f 09 09 be 00 db e9 3d 3c a1 95 3c bd dc b4 bd
       -0.13382505 0.11418724 0.01826536 -0.08831165
000050 a5 02 a8 3d ec 0d 16 3b 75 c3 d1 3c 26 1e 15 be
       0.082036294 0.0022896482 0.025605896 -0.14562282
000060 dd 09 67 bc 8c 08 bd 3d 80 d7 3b be cc 15 27 3e
       -0.014101473 0.09230146 -0.18343925 0.16316909
000070 43 db d5 bd 71 0c 30 3e 75 c3 08 3d 8e 94 25 3e
       -0.104422115 0.17192246 0.033389527 0.1616995
000080 6c a6 96 3c 7c 66 bc bb 5e a7 0e 3d b8 00 90 3c
       0.018389903 -0.005749522 0.034827583 0.017578468
000090 27 27 8b 3d 7b ae 19 bd 1e 3d 97 3b f1 82 da 3b
       0.06794577 -0.037519913 0.00461544 0.0066684415
0000a0 13 00 67 bd 97 f5 90 3c a5 bd d3 bd 09 5f 42 3e
       -0.056396555 0.017695231 -0.10338906 0.18981566
0000b0 ab 96 a4 bc 16 38 1e bc 12 50 f1 3d ab c3 91 3c
       -0.020091375 -0.009656927 0.1178285 0.017793497
0000c0 ec 7b dc bd bf 0e 45 3d 5e ff 49 bd 9e 7c b7 3d
       -0.10765824 0.048109766 -0.049315803 0.08959316
0000d0 d8 ee fc 3d 48 ef 4a 3b f7 7a 03 be 8b 85 5b be
       0.12350243 0.0030965377 -0.12839876 -0.21437661
0000e0 bc 4d 5a 3d af 8a fa 3d 6e 33 43 3e ca 38 42 be
       0.05329679 0.12233483 0.19062588 -0.18966976
0000f0 f8 63 12 3e d4 b2 e1 bc a4 ac 90 3d ec ee 6f 3d
       0.14295948 -0.027551092 0.070641786 0.058577463
000100 ee 65 b1 3d 63 a4 01 bd 06 09 1b 3c 46 aa 3d 3e
       0.0866202 -0.031650912 0.009462601 0.18521985
000110 8c 43 f0 bd 3e 0a b7 3d ec 6d ad bd 03 38 71 3e
       -0.117316335 0.089375004 -0.084682316 0.23556523
000120 17 33 df 3d 61 3d 90 bd 1c a8 27 bd 24 57 a4 bc
       0.108984165 -0.07042957 -0.040931806 -0.020061083
000130 a7 29 5f 3d b5 f4 32 be 80 6c 2f 3d f9 47 2f bc
       0.054483082 -0.17476161 0.042828083 -0.010698312
000140 06 b6 9a bc f3 04 02 bd 32 d2 63 3d 0f a0 cb bd
       -0.018885624 -0.031743 0.05562038 -0.09942638
000150 79 b0 16 3e 10 b2 68 bb c2 47 77 3e 2d 3a 8c bd
       0.14715756 -0.0035506524 0.24148467 -0.06847034
000160 90 07 cc bd 25 73 18 3d d9 cb a5 3e 61 18 bb bc
       -0.0996238 0.037219185 0.32382086 -0.022838773
000170 34 cd 7d 3d 4c a2 1d 3c 31 a6 be bd 3d d3 b3 3e
       0.061963275 0.009621214 -0.09309042 0.351221
000180 9c f9 4a 3d b5 0f e6 3d bb 23 5d 3d 4d 96 07 be
       0.049554452 0.11233465 0.053989153 -0.13240929
000190 e2 fc 3b bd 09 a8 3f bd cc 3b 07 3e e6 8e 92 bd
       -0.045895465 -0.04679111 0.13206404 -0.07156162
0001a0 45 53 fd bd eb b3 12 bb fd 3e 64 3e fa f1 7b be
       -0.12369398 -0.0022385071 0.22289653 -0.24604025
0001b0 59 86 fd bd 8a b7 96 3c 81 4a 3a be 63 91 81 bd
       -0.123791404 0.018398065 -0.18192483 -0.063265584
0001c0 44 12 0c 3e bb d0 48 be 42 9b 56 bc a7 13 22 3d
       0.13678843 -0.19610874 -0.01309854 0.039569523
0001d0 4c bb d0 bd 66 5e 00 3e 7f e1 83 bd ad 94 47 bc
       -0.10191974 0.1253601 -0.06439494 -0.012181443
0001e0 05 9b b6 3c 99 80 63 bd 50 37 ab bd 06 b5 0c 3e
       0.022290716 -0.055542562 -0.083601594 0.1374093
0001f0 19 a0 f7 bc 0a e0 2a 3e 03 81 53 3d 5e f7 0e bd
       -0.030227708 0.16687027 0.051636707 -0.034903876
000200 96 ce 07 3d eb dc 6f 3c 4b b1 b6 3d f5 40 d0 3d
       0.033156 0.014640073 0.08920535 0.101686396
000210 b5 cc 19 3d bf 6a 67 be c4 f6 bb 3d 9d 2a 36 3d
       0.03754874 -0.22599314 0.09177926 0.044474233
000220 67 7f 7a bd cd 8d d5 3d 58 36 15 3e c0 a1 f3 3d
       -0.061156657 0.10427437 0.14571512 0.11896086
000230 16 90 03 3e 3b ef 0a 3e f8 cc 8a bb 5e 5e 8a 3d
       0.12847933 0.13567822 -0.00423586 0.0675628
000240 1a 1d d5 bb b5 3b fe bd 58 26 b7 bd 88 c4 bd bc
       -0.0065037133 -0.12413732 -0.0894286 -0.023165002
000250 41 15 ed bd de 00 b4 3d 35 a7 5e bd 9d 6c 1e 3e
       -0.115763195 0.08789228 -0.05435868 0.1547112
000260 9f 04 1b 3e 11 78 09 3d c9 7a dc bd 20 f1 11 3d
       0.15138482 0.03356177 -0.10765607 0.035630345
000270 05 eb ca 3d 20 f8 91 3d ae 4e 01 3e d2 30 f0 bd
       0.09908108 0.07127404 0.1262767 -0.11728062
000280 30 6d 2b 3e 71 9e f6 3d 13 de 65 3d 2b 8a e9 3d
       0.1674087 0.12041939 0.05611999 0.114033066
000290 e2 71 67 bd bf 72 4e bd 9d af b0 bd 97 9a 62 3d
       -0.05650509 -0.0504024 -0.086272456 0.05532321
0002a0 54 59 aa bd bd a0 03 3d 7e 74 1f be c0 c6 92 3c
       -0.08317819 0.032135714 -0.15571782 0.017917037
0002b0 41 e3 6c 3d fb 14 92 bd 26 77 1f be 99 d4 00 be
       0.057833914 -0.07132908 -0.15572795 -0.125811
0002c0 21 43 a5 bd 20 a7 19 3b 79 08 03 be 4d 9f 30 3e
       -0.080694444 0.0023445562 -0.12796201 0.17248268
0002d0 30 8d 0a 3e c4 f9 4a 3d 6c dc 9e 3d d0 78 85 3d
       0.13530421 0.0495546 0.07756886 0.06517184
0002e0 af 51 ec 3b 60 3e a7 3c bc fd df 3d b3 41 da bd
       0.007211886 0.020415485 0.10937068 -0.106570624
0002f0 35 5d 17 3c ac 7f 56 be b9 e9 ba 3c c2 0c c4 3d
       0.009238531 -0.2094714 0.022816526 0.09572746
000300 ff 1a ba bc 68 a1 ae 3d 50 12 3a bd 3b 9d 5f 3c
       -0.02271795 0.085268795 -0.04542762 0.0136483265
000310 89 0e 06 3e 48 f1 36 bc 8a fe fe bc 1c a2 03 3d
       0.13091482 -0.011165924 -0.031127233 0.03213702
000320 a0 7d 37 3d ed 00 1c bd 17 c9 5f bb cf ce 10 3e
       0.04479754 -0.03808682 -0.0034146958 0.14141391
000330 b4 66 22 bd f0 c5 da 3d 53 71 d9 bd 46 0c 4f bc
       -0.039648727 0.10682285 -0.10617318 -0.012637204
000340 79 28 ab 3d 34 c7 7c bd 4d 93 41 3e 31 6b 00 3e
       0.08357329 -0.061713412 0.18903847 0.1254089
000350 ec 2b 4f 3f 41 31 f3 bc 3d 9f af 3d a3 dd ba 3d
       0.80926394 -0.029686572 0.08575294 0.09124305
000360 0e bc 1d bb 92 87 d9 3d d1 8d 82 bc 3e a6 90 bd
       -0.0024068388 0.10621561 -0.015936764 -0.07062958
000370 a3 33 09 3d c4 10 7c 3d 44 1f aa 3d b6 11 fb 3d
       0.03349651 0.061539426 0.08306745 0.122592375
000380 63 8a 68 3d 4b ce 9a 3d 6f 90 1b bd 7b a9 b0 3b
       0.0567726 0.075588785 -0.03797954 0.0053912974
000390 19 d8 5a 3d 04 9a ec 3c 29 1c 9c 3d 20 57 ca 3d
       0.053428743 0.028882034 0.076225586 0.09879899
0003a0 b7 ce d1 3c c2 21 bd 3c 82 e0 86 3d 5b 42 93 bd
       0.025611265 0.023087386 0.0658579 -0.07190391
0003b0 29 1d 01 c0 2b e2 5c 3b f2 79 8b 3d 85 60 2d 3e
       -2.0174048 0.0033704143 0.068103686 0.1693135
0003c0 50 fb e1 3c 9c 5f ad 3c 6d ff 02 bd e0 71 4b bd
       0.027585655 0.021163754 -0.031981874 -0.049669147
0003d0 f0 de e2 3d 1b d6 27 3e c7 21 bb 3c b8 d7 be 3d
       0.11077678 0.16390269 0.022843255 0.09318489
0003e0 c2 ba ce bc c5 1f a7 bd f7 03 2e 3e d8 8b a4 bd
       -0.025235537 -0.081603564 0.169937 -0.080344856
0003f0 3f 00 5f 3b 33 3a a7 3d 65 a4 bf bd 68 40 0a bd
       0.0034027246 0.081653975 -0.09357528 -0.03375283

joint_model.model.2.0.bias f4 [64]
000000 c9 25 ad 3e 1f 12 68 bd 88 53 c3 bd 84 fe ac 3e
       0.3381789 -0.056657907 -0.09537417 0.3378793
000010 f8 a8 4f 3e c5 cc 27 3e 52 2c 14 be 70 4d 0d 3d
       0.202793 0.16386707 -0.14470032 0.03449768
000020 ee e7 ab be 90 72 a0 bd 70 ec 55 be e4 70 1c 3e
       -0.33575386 -0.07834351 -0.20890975 0.1527744
000030 9b d4 1f be 1a 71 b0 3d a1 bf ac 3e 71 34 69 be
       -0.15608446 0.086153224 0.3373995 -0.22773911
000040 db 1d 68 3e 6b f2 e2 bd 6c 52 6e be be 50 a8 3c
       0.22667639 -0.11081394 -0.23273629 0.020546313
000050 b9 b5 40 be e5 76 1b 3e 33 88 8f be 3a 8b e6 3d
       -0.18819322 0.15182073 -0.280336 0.11257024
000060 c6 15 ec 3e a8 b5 7b 3e ef 52 48 3e 2f 67 86 3c
       0.46110362 0.24581015 0.19562887 0.016406624
000070 dd c9 d7 3c bc 1f 33 be ab 4f 58 be bd 3f 08 3e
       0.026341373 -0.17492574 -0.21124141 0.13305564
000080 b7 95 e0 3d 31 bf 92 3e 50 1c 83 be 51 5d 63 3e
       0.10966056 0.28661492 -0.25607538 0.22203566
000090 d0 8d 62 be 11 bb a5 bd dc 00 40 be 3d b0 3b 3e
       -0.2212441 -0.08092321 -0.18750328 0.18328948
0000a0 be b0 29 be 29 66 a3 39 10 58 a8 3e 94 2b 28 be
       -0.16571328 0.00031165898 0.32879686 -0.16422874
0000b0 c3 97 5d 3e cf 1d 38 be 94 5b 24 be 8d 64 db bd
       0.21639924 -0.17980121 -0.1605056 -0.10712538
0000c0 35 88 29 3d bf 39 87 be 1b 98 32 3c 8e eb 5a be
       0.041389663 -0.26411244 0.010900523 -0.2137892
0000d0 c5 fa 04 3e ce 9b 69 be 0b 82 44 be 22 f9 90 3e
       0.12986286 -0.22813341 -0.19190232 0.28315073
0000e0 ac 99 8e be 84 bc 7b be b8 63 67 be a2 22 15 3e
       -0.27851617 -0.24583632 -0.22596633 0.14563993
0000f0 88 9e 19 be b6 f6 21 3e fe db ce bc a4 33 27 3e
       -0.15001881 0.15816769 -0.025251385 0.16328293
