energy_sampling/results_pis_architectures/many_well/clipping_lgv_100.0_gfn_10000.0_gfn/fwd/fwd_tb/T_100/tscale_1.0/lvr_4.0/seed_12345/model_final.pt (torch, 184646 bytes, 23 tensors)

t_model.timestep_phase f4 [1, 64]
00000000: 5585 62bf d1d8 a53e c31b 1a3f f588 8ebd
00000010: 3ab0 efbe fa09 04be e603 2a3f 912a 1a3f
00000020: 09aa 4abf 8015 333d 957e 243f b24f 1e3f
00000030: 9ec3 bdbe ed00 5abf 639c 3f3f c7c6 37bf
00000040: 8a41 50bf 6309 18bf 0e47 3abf 753c e5bf
00000050: 6140 563f 730b 8d3f c2d3 7d3f 759a edbb
00000060: abff ac3e b875 8abf 2b18 433f f1a5 803e
00000070: e0e0 0a40 7aec 3940 e42a 873e 30a0 28bf
00000080: 8dc6 493f 1c32 8b3f bfe8 53bf 2361 373f
00000090: 7abc 663f 0bac ed3e 7f7c 0340 7021 e8bf
000000a0: 05e9 c33e 6a0d a6bf 86a1 48bf 4cf4 1c3e
000000b0: 59b9 d83f 4b25 92be c22e 203f 36a4 533e
000000c0: 90bb 683b 7b6a 0ebf bc39 333f 29f2 c23f
000000d0: ebde 453f 46d0 49be 2cfa 643e f29f 99bd
000000e0: 4fb1 393f 70ec a1bf 39ff 4dbf ba6c 5cbf
000000f0: dcdc e2be dc56 cfbe 79f7 40be e7eb 5a3f
-0.884847 0.3239198 0.6019861 -0.06959716 -0.46814138 -0.12894431 0.664122 0.602212
-0.79165703 0.043721676 0.6425565 0.61840355 -0.37063307 -0.8515766 0.74848 -0.71787685
-0.81350005 -0.59389323 -0.7276467 -1.7909075 0.83691984 1.1019119 0.9915124 -0.0072510787
0.3378881 -1.0817175 0.7620875 0.25126603 2.1699753 2.9050584 0.2639991 -0.65869427
0.7881859 1.0874667 -0.8277702 0.71632594 0.9013134 0.4642032 2.0544736 -1.8135204
0.38263717 -1.2972844 -0.78371465 0.15327567 1.6931564 -0.28544077 0.62571347 0.2066811
0.0035512187 -0.55631226 0.7000997 1.5230151 0.7729327 -0.19708356 0.22361058 -0.0750121
0.72536176 -1.265028 -0.80467564 -0.86103404 -0.44309127 -0.40495956 -0.18844403 0.8551621

t_model.pe f4 [1, 64]
00000000: cdcc cc3d 7dc5 d73f 165f 5140 b76d 9b40
00000010: e32b ce40 0875 0041 1ed4 1941 3433 3341
00000020: 4a92 4c41 60f1 6541 7650 7f41 c657 8c41
00000030: 5107 9941 dcb6 a541 6766 b241 f215 bf41
00000040: 7dc5 cb41 0875 d841 9324 e541 1ed4 f141
00000050: a983 fe41 9a99 0542 5ff1 0b42 2549 1242
00000060: eaa0 1842 b0f8 1e42 7550 2542 3ba8 2b42
00000070: 0000 3242 c657 3842 8baf 3e42 5107 4542
00000080: 165f 4b42 dbb6 5142 a00e 5842 6666 5e42
00000090: 2cbe 6442 f115 6b42 b66d 7142 7cc5 7742
000000a0: 421d 7e42 843a 8242 6666 8542 4992 8842
000000b0: 2cbe 8b42 0eea 8e42 f115 9242 d441 9542
000000c0: b76d 9842 9a99 9b42 7cc5 9e42 5ff1 a142
000000d0: 421d a542 2449 a842 0775 ab42 eaa0 ae42
000000e0: cdcc b142 b0f8 b442 9224 b842 7550 bb42
000000f0: 587c be42 3aa8 c142 1dd4 c442 0000 c842
0.1 1.6857144 3.2714286 4.857143 6.4428573 8.028572 9.614286 11.200001
12.785715 14.371429 15.957144 17.542858 19.128572 20.714287 22.300001 23.885715
25.47143 27.057144 28.642859 30.228573 31.814287 33.4 34.985714 36.57143
38.157143 39.74286 41.32857 42.914288 44.5 46.085716 47.67143 49.257145
50.842857 52.42857 54.014282 55.6 57.185715 58.771427 60.35714 61.942856
63.528572 65.11429 66.7 68.28571 69.87143 71.45714 73.042854 74.62857
76.21429 77.8 79.38571 80.97143 82.557144 84.14285 85.72857 87.314285
88.9 90.48572 92.07143 93.65714 95.24286 96.82857 98.41428 100.0

t_model.t_model.0.weight f4 [64, 128]
00000000: 7d42 39bd 1495 81bd 98fe 593d 6177 653d
00000010: 5538 b3bd 8f87 6b3d f694 7abd 16ae b33c
00000020: 3edc 97bd 4174 d83c db09 7d3d f600 873d
00000030: 6820 c43c 4702 923d 536c b5bd 6e29 66bd
00000040: 89a9 a1bc c919 ccbd 8565 813d 019a 7abd
00000050: fd42 5fbd bcae 433d 2a4e 233c 059f 8dbd
00000060: 3066 57bd 7fd6 3abd f3bd 06bd 7a8c 4ebd
00000070: 8e8e 823b 4141 b13d fc08 9ebc d075 01bd
00000080: a093 0cbd 6b18 3a3d 90ba 003d 1e0f f93c
00000090: 0f55 523d ee0d 903d 2601 cb3d 76d7 313d
000000a0: 3ad2 f43c 221b 413d 0985 443d 696a 673d
000000b0: a0d9 993d f4df 94bd 2eaf b1bd dfcc 4ebc
000000c0: 85d3 c03c a708 3dbd f5a7 a33d 0b9f 903d
000000d0: 0310 ee3c f76f c63d 8205 4dbd 213f 6fbd
000000e0: bdc9 953d 143b 9cbd 6a88 8e3d 5d6e 363c
000000f0: 1312 1cbd 953c 253d b30f c0bc d98b cfbd
00000100: 820e 6cbb 4d94 9c3d b5cf 32bd 64df 86bd
00000110: f252 b63c f474 85bd b6dd b2bc eaa2 493d
00000120: 131d 65bd 99b1 623d cd30 44bd 3d6b 533d
00000130: 2d0c 203c 50ac 5bbd bf72 a5bd 5d78 c6bd
00000140: cec4 a9bc ca8b bd3d 4cec c73d 9624 383d
00000150: c5a1 56bd 393b c1bc 8e1d 98bd dd44 bebd
00000160: 34c3 7ebd 8b1b 143d ae6e 26bd b9be 84bd
00000170: b130 8ebd 9b15 c73c 4b60 4f3d 4441 afbd
00000180: e5ac 823c 3252 b33d 5d7b 5bba acec 993d
00000190: 53b9 bbbc ec8e 8c3d f860 4e3d c3e3 a63d
000001a0: baa8 423d c3c4 a03d 0924 4fbc 585f 12bd
000001b0: 61ea 803c 5567 9d3d 9715 fbbc 1ddb debc
000001c0: 2b47 383c dfe4 193d 1c33 5c3d b071 963d
000001d0: 4273 353d 0938 743c d245 fcbc 2bc0 5a3d
000001e0: 02e7 c93c b0ee 9f3c 5d36 42bd 57da 7cbd
000001f0: 1571 9d3a cfd0 61bd 6e58 fe3a 9edc d13c
00000200: d7c0 5f3b 2f71 013d dad4 12bd cb27 93bd
00000210: 383c 663d ff4b 2d3c 2e7e 3d3b 08cf 38bd
00000220: cd5a 9bba 584b 2ebc bfab c03c 0021 133d
00000230: d82b bc3b 83ec 8b3c 4cb9 76bc 2356 893c
00000240: 62b9 643c 95ca b9bd b083 bf3b 51ab b9bd
00000250: c7cd 3f3d 10fa 5dbd 7d11 19bc 2919 913c
00000260: b55a 92bd c540 e4bc 11dc b9bd d57f 76bd
00000270: 14df 2b3d 205f c3bd a677 553d 464a 1fbd
00000280: 1fda a3bc 1670 91bd 7dc4 a23d 5858 623d
00000290: bd9d 8c3d 895c c13c 4292 59bb 58a0 ae3d
000002a0: 1c2a aabd efe0 72bd fdc3 debb 9868 b7bc
000002b0: cf7f e2bc b45f ff3b 4071 aa3d 3c40 0f3d
000002c0: 5903 dd3c a611 523d b1f5 18bd 8a24 2d3d
000002d0: 6a22 1f3c ad96 e73c 31a5 2cbd 9e04 15bc
000002e0: e1bc a73d 5d1d 8e3c fd9d f2bc a8ee 0cbd
000002f0: 1d8c c0bd 18a1 a3bd 7835 9cbd cf27 b5bb
00000300: d54c 10bc b63d cabc 3b6e 1b3c 5e5e c4bc
00000310: 48f2 313d cb37 c8bc 4c66 983d b494 c7bc
00000320: ec3e 203c 3a0a 52bb dee6 8b3d ecb9 0a3d
00000330: 319b aa3d 0b53 463d b85b 263d 36c4 fdbc
00000340: 687e e53c 21c6 5bbd 2d1f 10bd b72f 353d
00000350: 3f7f 5d3d 5409 c5bd 94a5 8b3c df5a 433d
00000360: 6d90 943d 9978 3e3d 7b5a 0d3d 262c 87ba
00000370: 58f5 a93d ae7c 97bd 81ab 9fbd 437b 92bd
00000380: aad5 44bd 6057 aebc ba38 84bc 478d 96bd
00000390: 9d1f 27bd ef2d bc3d 31dd 06bd da58 79bd
000003a0: f441 af3d 2dd1 77bc c896 55bd 1c33 80bd
000003b0: 4dea 453d 0eb5 10bc 77e5 0e3d 78dc b6bd
000003c0: 31a8 01bb a77c e43c 9875 7e3d 3b40 033c
000003d0: 7a82 5abd 5566 4bbd e7ce 11bc e1a9 453d
000003e0: 78e7 bf3d fc0c a7bc c4e1 87bd 0dcb 003d
000003f0: cd97 08bd dc2f 373d 07f8 75bd 3639 6bbb
-0.045229424 -0.063272625 0.053221315 0.05602205 -0.08750979 0.057502326 -0.061177216 0.021933597
-0.07415055 0.026422622 0.061776977 0.0659198 0.023941234 0.071293406 -0.08858552 -0.056191854
-0.019734161 -0.09965856 0.063181914 -0.061182026 -0.054507244 0.04777406 0.009967366 -0.06915096
-0.052587688 -0.045614716 -0.032895993 -0.050426938 0.003984279 0.08655024 -0.019291393 -0.031606495
-0.034320474 0.045433443 0.03142792 0.030402716 0.05135065 0.07033907 0.099123284 0.04341837
0.0298854 0.047145016 0.047978435 0.056497965 0.07512212 -0.07269278 -0.08675991 -0.012622087
0.02353836 -0.04615083 0.0799102 0.07061585 0.02906037 0.09689324 -0.05005408 -0.058409814
0.07313869 -0.07628456 0.06959613 0.011134711 -0.038103174 0.04034098 -0.023444986 -0.10134096
-0.003601939 0.07645474 -0.043655116 -0.06585577 0.022256348 -0.06516448 -0.021834236 0.049227633
-0.05593593 0.05534515 -0.047898103 0.051615942 0.009768528 -0.053631127 -0.08078527 -0.09690926
-0.020723727 0.09255178 0.09761867 0.044956766 -0.05240037 -0.02358781 -0.07427512 -0.092904784
-0.06219788 0.03615908 -0.040632896 -0.0648169 -0.06942881 0.024302294 0.05062894 -0.0855737
0.015951583 0.08755912 -0.00083725696 0.07515845 -0.022915518 0.06863198 0.050385445 0.08148911
0.04752419 0.07850029 -0.012642869 -0.035735458 0.01573676 0.07685725 -0.030649943 -0.02720409
0.0112474365 0.037571784 0.05375968 0.07345903 0.04429937 0.014905938 -0.030795012 0.053405922
0.024646286 0.019522995 -0.047415126 -0.061731663 0.001201185 -0.055130776 0.0019405016 0.025617894
0.003414204 0.03160208 -0.035847522 -0.07185324 0.056209773 0.010577201 0.002891432 -0.045119315
-0.0011852622 -0.010638081 0.023519395 0.035920143 0.0057425313 0.017080551 -0.015058827 0.016764706
0.013960214 -0.090718426 0.005844556 -0.09065879 0.046827104 -0.054193556 -0.009342548 0.017712193
-0.07146207 -0.027862916 -0.090751775 -0.060180504 0.04196079 -0.09539628 0.05211606 -0.038889192
-0.02000147 -0.07101457 0.079476334 0.055260032 0.06866024 0.023603695 -0.0033198749 0.08526677
-0.08308813 -0.059296545 -0.006798266 -0.022388741 -0.027648835 0.007793391 0.08322382 0.034973368
0.026979135 0.051286362 -0.037343685 0.042271174 0.009712795 0.02827009 -0.042149726 -0.009095339
0.08190323 0.017347986 -0.02961635 -0.034407288 -0.094017245 -0.079897106 -0.07627386 -0.005528427
-0.008807381 -0.02468763 0.00948673 -0.023970779 0.043443948 -0.024440667 0.074413866 -0.0243629
0.009780627 -0.0032049553 0.06831144 0.033868715 0.08330382 0.04841904 0.040614814 -0.03097735
0.028014377 -0.053655747 -0.03518598 0.044234958 0.05407643 -0.0962092 0.017046727 0.047694083
0.072541095 0.04650173 0.034510117 -0.001031284 0.08298749 -0.07396828 -0.07796384 -0.071524166
-0.04805533 -0.021281898 -0.01614033 -0.07351165 -0.040801633 0.09188449 -0.03292579 -0.06087575
0.085575014 -0.015125555 -0.05214575 -0.06259748 0.04831915 -0.008832229 0.034886803 -0.0892877
-0.0019784088 0.02789147 0.062123865 0.008010919 -0.05334709 -0.04965814 -0.008899427 0.048257712
0.09370321 -0.020391934 -0.06634858 0.031443644 -0.033347894 0.044723377 -0.06005099 -0.0035892255

t_model.t_model.0.bias f4 [64]
00000000: e01a 993d e2ef 32bd dbe2 8bbd b602 d73d
00000010: d6ce 90ba 2423 21bd 3446 46bd e26e 65bd
00000020: e21d 62bd 45f6 2a3d 8b08 873b 2bdb b13c
00000030: c02c 43bc 4d61 933d 863d 9fbd dfe0 b43d
00000040: 9caa 70bd 3c1b 3dbc 935d 113d 6647 56bd
00000050: a9a6 acbc 4912 553d 7723 c43c ca93 e0bc
00000060: 46ba 3d3d 8053 253c 5d9a 6f3b dc88 a83d
00000070: 4813 01bd e263 083d 2761 873c 35dc 80bd
00000080: 5a91 943d f885 243d ebc1 b83d cc89 213c
00000090: 7f09 dbbd 7dd8 0bbd d8b8 1abd e27d 4e3d
000000a0: e6cb 573d a25b efbb 07ef dcbd b724 5a3c
000000b0: b57e 33bc 3a59 4e3c 3b31 3f3d 31eb b63c
000000c0: 0322 fe3c 9d06 29bc 009d 06bd dc86 80bc
000000d0: c47d c5bc 12e1 123c bdd9 b43d 62d4 78bd
000000e0: 15be 29bd 8e2d cbbc c9ef 9e3d a527 9abd
000000f0: 27ae 813d 89e5 373d 201e 8dbd 6480 d7bc
0.07475829 -0.0436858 -0.068303786 0.10498564 -0.001104797 -0.039340153 -0.048406795 -0.05601395
-0.05520428 0.041738767 0.0041208914 0.021710953 -0.011912525 0.07196293 -0.077754065 0.08831953
-0.058756456 -0.011542138 0.03548963 -0.052314185 -0.021075564 0.05201939 0.023942692 -0.027414221
0.046320222 0.010090709 0.0036560514 0.08229229 -0.03151253 0.03329838 0.016525818 -0.06292001
0.07254286 0.040166825 0.09021362 0.0098595135 -0.106951706 -0.034142006 -0.037773937 0.05041302
0.052684687 -0.0073046247 -0.10787778 0.013314418 -0.010955502 0.012594515 0.04667781 0.022328945
0.031022077 -0.010316518 -0.03286457 -0.015689306 -0.024107821 0.008964794 0.08830593 -0.06074942
-0.041441042 -0.024801996 0.07760579 -0.07527093 0.06332045 0.044896636 -0.068905115 -0.026306339

t_model.t_model.2.weight f4 [64, 64]
00000000: cc5b 8f3d 871e 08bc b6b8 90bd cbf6 6d3d
00000010: 792e ad3d 965e b4bd 0ef7 ec3d 6d4a a63d
00000020: f753 013c 73da dfbd 6122 afb9 4674 46bc
00000030: 66cf 983d c517 17bd 058d 9a3d 0abd a0bd
00000040: c855 da3c fba9 873d a6f2 5e3d e59f f3bc
00000050: 0bda 553d 93ca d3bd ac39 483d 7149 10bd
00000060: 100b dfbd b3af ca3d 0846 d1bd 031f 7cbd
00000070: 2005 d5bd 4570 313d 13a5 a83d 47df bbbc
00000080: 5eb7 b7bd 4640 71bd 9821 bdbd 64dd 873d
00000090: f9a7 823d 8ffb 533d 12f9 fd3d c90f 933d
000000a0: cfbd 833c 7b9d 97bd e285 34bd 3d8c d13d
000000b0: fe4f 003e e051 dc3d 6cf6 783d a4e7 bfbd
000000c0: acec 6b3d a0e7 bfbc ddbc a73d cd5c 323d
000000d0: a6ad 8ebc d63f 4a3c 81bd 4bbd c1c0 94bd
000000e0: 2bc7 f43d a893 3bbd b225 873c a513 a93d
000000f0: 5a29 9abd 3018 1bbd 3792 b2bb 7919 953d
00000100: f8dd c03c 9b95 0dbe 31cf edbd 7738 1fbd
00000110: aa52 edbc 7a08 afbd 6bb3 8bbc ba36 bb3d
00000120: 29e8 dbbd 5dac 06bb 79de 95bd 03d3 00bd
00000130: 0bea b53d 88b4 ad3c b82c a6bd de08 02be
00000140: 1b6e 14bc 98cf e63c e46e 8fbd 5287 f6bc
00000150: 5fb2 0e3d 5199 1cbc 3d7d 99bd 498b a9bd
00000160: 82ae ed3c cd6d 943a 3a94 8fbd 4eb9 77bd
00000170: 2581 0bbe 29fd cabd 820d 03be 1dee 313c
00000180: faa3 b4bd d550 d63d 5ecf 903c 145c 9c3d
00000190: 9abf 21bc 9d8d d0bd d8f1 8ebd 841f 0a3d
000001a0: dbf1 8a3c ba01 31bd 0c17 823d f15c b63c
000001b0: 041c efbc d5f5 93bd d741 e83c 6a70 7ebd
000001c0: 8c9e 80bc a97d 63bd b108 d5b9 a166 0abd
000001d0: 9fcd 0ebe 0e40 da3d 5726 bd3d 3519 0a3d
000001e0: 2808 f2bd ae4d f1bd f4b0 8f3d 7136 a93d
000001f0: 04bb 90bc 4f21 a73d c838 fd3c 3623 aabd
00000200: 6cda ecbd 215e 06bc 4223 e5bc f10a 8fbd
00000210: 6104 fcbc 79b2 13bd 6704 023e d2e3 48bd
00000220: 2cbd 863d 842b b73c 69b7 a93d 4f2e da3c
00000230: fd93 17bd de61 d9bd 74d2 9f3d 0394 af3d
00000240: 9a62 553d 7aa4 7a3d 6944 373d b344 e13d
00000250: 922e 10bd f9ad e8bd 4373 6ebc deab 8c3d
00000260: 1441 e43d a06a c8bd 89c5 643d 11bb df3d
00000270: 0140 11bc 296d c5bd 0ce0 81bc 4e92 bf3d
00000280: 1078 90bd e012 c43c e3e6 9dbd fcab 693b
00000290: dfda be3d d845 8e3d 914a 91bd 058d 02be
000002a0: d43b b6bd 383d 92bd 9e53 db3d 4214 c23d
000002b0: a11e f93d d93d dcbd 498b ffbd bbeb e63d
000002c0: 1eac 06bd 0c1a db3d 5cef 97bd 6594 a4bd
000002d0: 2306 00bd e44c f6ba 799a abbd 0191 cfbd
000002e0: c86f b83d 84d1 a83d 7466 e73c ad49 253d
000002f0: d7f9 5e3c 78c1 043d 20d1 773a 9103 61bd
00000300: f3fb a5bd 5ba0 39bb 1ab9 9939 587d a1bd
00000310: d8f5 5b3d 47f2 ca3d 1383 223d 7245 01be
00000320: 8f3f a0bc c5af c33d d8a8 923d ff5d f93d
00000330: 4740 763d 642b f03d 852b 593d 2196 0abe
00000340: 3549 99bc 2259 b4bd 4384 d43c e8c2 afbc
00000350: 4e63 1a3d c876 ddbd 2c0e dd3d 313a 1e3b
00000360: c532 64bd f0b9 02be 1f6a abbd 1c76 ea3d
00000370: 54dd 9c3d f264 bd3d 3a70 ad3c 534e 2fbd
00000380: edc6 ecbd 04ec cd3d 114e d73c 66d4 8c3d
00000390: 6bc2 cd3d 35d4 f1bd 1495 71bc 341f c33d
000003a0: 4065 5cbc b123 c4bc 9e21 86bd 0f10 91bd
000003b0: cda3 fcbd 322d 4c3d 78c5 a2bd 38c8 b0bd
000003c0: a787 c2bd a2be 893d 31b1 9a3d e8c7 143d
000003d0: 8221 0ebe df6b af3d 970e fcbc 8320 e1bc
000003e0: f50c 9dbd e8f3 5fbd eadf 133d b6ef d7bd
000003f0: 9812 5dbc 8d1c 29bd 4e99 673d 1baf e4bc
0.06999931 -0.00830806 -0.07066481 0.05809669 0.084561296 -0.08807103 0.115705594 0.08119664
0.007893554 -0.10930338 -0.00033404215 -0.012112683 0.07461433 -0.036887903 0.075464286 -0.07848556
0.026652232 0.06624218 0.054430626 -0.02973933 0.052209895 -0.10341372 0.048883125 -0.03522629
-0.10890782 0.09896793 -0.102184355 -0.061553013 -0.10401368 0.04331996 0.082346104 -0.022933615
-0.089705214 -0.058899187 -0.09234923 0.06634024 0.063796945 0.051753577 0.12401022 0.07180745
0.016081719 -0.07403084 -0.044072993 0.102318265 0.12530515 0.10757804 0.06078188 -0.09370354
0.057598755 -0.023425877 0.0819032 0.043545533 -0.017416786 0.012344321 -0.049741272 -0.072633274
0.11952051 -0.045795113 0.016497467 0.082557 -0.075274184 -0.037864864 -0.005449559 0.07280249
0.023543343 -0.13826601 -0.11611784 -0.03887221 -0.028970081 -0.08546539 -0.017053327 0.09141298
-0.107376404 -0.0020549514 -0.07317824 -0.031451236 0.08882531 0.021204248 -0.08113998 -0.12698695
-0.009059454 0.02817516 -0.070035726 -0.030093823 0.034838077 -0.009558038 -0.074945904 -0.0827852
0.029013876 0.0011324227 -0.07010694 -0.060479455 -0.13623483 -0.09911568 -0.12798122 0.010859993
-0.088203385 0.10464636 0.017677005 0.0763475 -0.0098723415 -0.101832606 -0.06979722 0.033721462
0.016961029 -0.043214537 0.06352052 0.022261115 -0.029188164 -0.07224623 0.028351707 -0.062118925
-0.015700601 -0.05553976 -0.00040633001 -0.03378928 -0.13945626 0.10656749 0.09235828 0.033715446
-0.11817962 -0.11782394 0.07016173 0.08262337 -0.017667301 0.0816065 0.030910864 -0.08307497
-0.11565098 -0.008201153 -0.027970914 -0.06984509 -0.030763807 -0.036058877 0.12696992 -0.04904539
0.065790504 0.022359617 0.08286936 0.02663341 -0.037006367 -0.1061437 0.078038126 0.08573153
0.052095987 0.061192013 0.044742975 0.109994315 -0.035200663 -0.11361308 -0.014553848 0.068687186
0.11145225 -0.09785962 0.055852447 0.10924352 -0.008865357 -0.09639961 -0.015853904 0.09354077
-0.0705415 0.023934782 -0.07710054 0.003565549 0.0931909 0.069469154 -0.070943005 -0.12749107
-0.0889813 -0.07140583 0.10709308 0.0947652 0.12164045 -0.10753984 -0.124777384 0.11275431
-0.032878987 0.106983274 -0.07418701 -0.080361165 -0.031255852 -0.0018791226 -0.08379073 -0.10135079
0.090056956 0.08243087 0.028247096 0.040353466 0.013609371 0.03241107 0.00094534643 -0.05493504
-0.08104696 -0.002832434 0.00029320345 -0.078852355 0.05370125 0.09909492 0.039675783 -0.12624148
-0.019561557 0.0955501 0.07161111 0.121761315 0.060119893 0.11727026 0.05302002 -0.13533832
-0.018711666 -0.08806063 0.025941974 -0.021455243 0.03769236 -0.10813671 0.10793719 0.0024143571
-0.05571248 -0.12766242 -0.0836985 0.11448309 0.076594025 0.092477694 0.021171678 -0.042799305
-0.115613796 0.10054782 0.026282342 0.06876449 0.10046848 -0.118080534 -0.014745016 0.09527436
-0.013451874 -0.0239428 -0.06549381 -0.07083141 -0.1233593 0.04984779 -0.079478204 -0.08631939
-0.0949853 0.067258134 0.07553328 0.036323458 -0.1387997 0.08565497 -0.030768676 -0.027481323
-0.07668487 -0.054675967 0.036102213 -0.10543768 -0.013493203 -0.041286994 0.056542687 -0.027915528

t_model.t_model.2.bias f4 [64]
00000000: b118 50bd 1098 03be a1e3 893c 2635 1cbd
00000010: df7e bfbd 19bf 453d e2a9 cf3c 2413 d03d
00000020: 7e8e cbbd c938 58bd c281 663d d290 7d3d
00000030: 26e4 7dbd b913 433d 5657 7cbc 347a ce3d
00000040: b8dc a5bc b389 1cbd 9338 14bd 63b4 58bd
00000050: aacb 8a3c 02fb ae3d 83fd 5ebb e162 02bd
00000060: 0e2b 00bd 6244 193d 1274 0dbe dfaa 4d3c
00000070: b60a 47bd d4a9 9ebd c45f d7bd 1910 223d
00000080: 7406 e2bd c297 bfbd df3a 803d ec4e 7bbd
00000090: 46d9 5ebc fec9 693c 9836 8dbd 7317 703d
000000a0: e779 06be bc5e adbc 509d bd3d 69ad 883d
000000b0: be73 0c3d f3a9 953d 7d90 c83d 5aad 22bd
000000c0: 48d0 2c3d ff9f e03d 1f55 fbbc 026f 5c3d
000000d0: 290a 663d 4ee6 86bc 6457 07bd c006 94bd
000000e0: 0786 d73d c5d4 bf3a 7a13 da3d 3aa1 e33d
000000f0: 4d5e ef3d c8b2 d53d ddcd b93d 6ca3 9d3d
-0.050804798 -0.12850976 0.016832175 -0.038136624 -0.093503706 0.048277948 0.025349561 0.10159901
-0.099392876 -0.05278853 0.05627609 0.06190569 -0.061985157 0.04762623 -0.015401682 0.10081902
-0.020246848 -0.038217258 -0.036186766 -0.052906405 0.016942818 0.0854397 -0.0034025616 -0.03183258
-0.03129106 0.03741873 -0.13813809 0.012552946 -0.0485942 -0.07747236 -0.10516313 0.039566133
-0.11036387 -0.093551174 0.06261229 -0.061354563 -0.013601607 0.01426935 -0.068951786 0.058616113
-0.1313244 -0.021163337 0.092585206 0.066737 0.034290068 0.07307806 0.09793184 -0.039716102
0.04219082 0.10968017 -0.030680237 0.053816803 0.056162033 -0.01646724 -0.033042327 -0.0722785
0.105236106 0.0014635554 0.10648246 0.11114736 0.11687908 0.104344904 0.090724684 0.07697186

s_model.x_model.weight f4 [64, 32]
00000000: 7892 603d e782 c4bd e0ed 3d3e c6b6 02bd
00000010: d3c7 d53d a851 123e 0657 ccbd 4bc3 093d
00000020: 5dd4 bd3c 8306 86bd 037e 9a3d 8c73 62bd
00000030: 38e4 68bd 9410 c1bd e891 e33d afd4 edbd
00000040: 42ec f2bd 358c 73bc 0449 09ba 94d4 633d
00000050: 0a1a 00be d437 8ebd 518c d9bd face 02bd
00000060: 62a3 ee3a d9d4 743d a4d1 1abe cdf7 c4bd
00000070: 8183 123e 0c84 c4bd 56b9 a13c 5525 553c
00000080: 1bbd 0fbe 483e c9bd cb98 c7bd c4b4 283d
00000090: 654a f7bc f0d1 fdbd 17cd 9a3d fb42 4e3d
000000a0: a0a6 9e3c 5e1c c43d 0366 643c 296d 30be
000000b0: 0336 bdbd cc8e 19be f614 ffbd e7ef 28bd
000000c0: 8bce 93bc a39d 023e 9e14 0ebd e1ce c33d
000000d0: 35e8 993c d055 99bc ef56 9ebd b58e 153e
000000e0: a0ee ce3c 74f6 f43c 2bb3 6d3b 8364 19be
000000f0: 564c 463c 3be2 4d3c 040e cdbd 4fbc d0bc
00000100: 2259 183e 265a 19be b1f9 e4bd cd47 a2bd
00000110: 44e9 0bbe f2f4 0b3e cfc7 d0bd 28a3 bc3d
00000120: 19fd 413d 9634 dcbd 598d c03c 526c 0abe
00000130: 2b68 eb3d 56e0 29bd c818 3dbe 37b8 753d
00000140: c895 e93c d0f1 063e 6a24 14be e95e 38be
00000150: ba9b ad3d db99 f63d 1ca5 bcbd 1fe4 09be
00000160: 95c9 32be 2ebe 31be 9231 17bd e9f9 893d
00000170: 7984 91bd 5563 08be 3320 383c 4bcb 32be
00000180: d4a3 c7bd f282 7a3d e769 303e 574e a83d
00000190: f867 0bbd a9b9 1bbd 123a ff3c 5543 8cbc
000001a0: 98c8 d4bd d0cf 0fbd 7da8 2e3d 22f9 2dbe
000001b0: 7935 0abc 693c 15bd 8841 da3d ff3c d5bd
000001c0: d64e 303e 596f 513d 6d6c 2d3d 8eb2 313e
000001d0: c8b6 adbd 39b3 8dbd e4eb 453c 0984 3d3c
000001e0: 3001 0fbe 96cf 07be ee7b ccbd cb38 163e
000001f0: b69e a2bd e9eb 70bd 484e 46bd 1844 8dbd
00000200: 63dd 1e3e 5563 eb3d e836 4f3a 66a5 12be
00000210: 5a23 bc3d e478 babd a872 15bd ffde 0b3d
00000220: 4371 20be d7fc 103e 0ad5 253e b3bc 793d
00000230: c262 debc c012 d63c 6a22 9abc 6988 89bd
00000240: ca50 833d fb27 b2bc 429e 2fbe b9cf f0bd
00000250: 445a 053d 1a46 a63d d8e3 b43d f50a 56bd
00000260: 36b2 ee3c faa4 bd3d 353d fcbd e072 19be
00000270: 0104 203e fa5e da3b 8c69 febb aa79 4ebd
00000280: edf2 08be 2976 693d 8056 b13d 5e8c 983d
00000290: 52d6 9abd 778a 413e 1764 043e 9030 f63d
000002a0: 21fb 11bd 07f3 1d3e b1f3 3a3e 1e52 0abe
000002b0: 9af2 be3d 1775 cf3c 6b03 ee3d e0c1 803d
000002c0: be00 343e f982 153e 1434 4cbc ba84 413d
000002d0: 4cd4 973d 8b83 c4bd 6dcb 093d d39a 2b3e
000002e0: 059b a2bd 6e55 0abe fc49 10bd 8aa7 f1bc
000002f0: 9237 ad3d 2f59 5cbc 46d2 2bbe 7a7f d53d
00000300: 6b69 26be 1f70 6a3c bc99 93bd 27d8 413d
00000310: 47af 0f3e d726 c63b 1f89 9e3c 9e30 19bc
00000320: e9b9 d53d 3beb c7bd 8b6d b73d 013e 3dbe
00000330: 3ebb a43a d72f 25be 8635 4dbc 76aa 1dbe
00000340: 5fe1 373e bce8 d13c c670 e2bd 34e8 eebd
00000350: 81ae 223e ab82 d43d ebb2 b43d 8504 1fbe
00000360: 8f07 ed3d 9734 b7bd 3308 913d ceb6 99bd
00000370: 4c76 6f3d 1b26 0d3e e069 143e 9287 45be
00000380: 0d98 82bd aa63 f63c 9a62 a33d e4da f1bd
00000390: c88d d33d 4e07 073e a0e7 1ebd f5d2 a7bd
000003a0: 4f2d 303c 2784 50bd dc14 f7bd 356b 453d
000003b0: e68b 9bbd 96e9 e93c 1145 6bbd dec5 65bc
000003c0: 540f b93c 8183 8e3d 29b1 c03d e5ea 343e
000003d0: f767 103e d214 a33d 8631 d33d ab9a 12be
000003e0: 36ca e03b cfec 503d d29e 7b3d 6f3a f8bc
000003f0: 1338 f93b d7ce 3abe 717e 26be abc2 c93d
0.054827183 -0.0959528 0.18547773 -0.031912588 0.10438504 0.14288962 -0.09977536 0.03363351
0.023172552 -0.06544211 0.07543566 -0.055285975 -0.05685827 -0.0942699 0.11111814 -0.11612832
-0.11861469 -0.014864971 -0.00052370154 0.055622652 -0.12509933 -0.06944242 -0.10622466 -0.03193567
0.0018206651 0.0597733 -0.15119034 -0.09617577 0.14307977 -0.095954984 0.019741695 0.013009389
-0.14036982 -0.09826332 -0.0974594 0.041188017 -0.030186841 -0.12393558 0.07558649 0.050356846
0.019366562 0.09575723 0.013940337 -0.17229141 -0.092388175 -0.14995879 -0.1245517 -0.041244414
-0.018042823 0.12755446 -0.03468763 0.095609434 0.018787483 -0.018717676 -0.07731425 0.1460522
0.02526027 0.029902674 0.0036270123 -0.14979748 0.012103161 0.012566145 -0.10012439 -0.025480418
0.14877751 -0.14975795 -0.11180437 -0.07923851 -0.13663203 0.13667658 -0.101943605 0.09210807
0.047360513 -0.107522175 0.0235049 -0.13517883 0.11494478 -0.04147371 -0.18466485 0.059990134
0.028513804 0.13178182 -0.14467016 -0.18004955 0.08476968 0.12041064 -0.092111796 -0.13465928
-0.1745971 -0.17357704 -0.03691251 0.0673712 -0.07105345 -0.13319142 0.011238146 -0.17460363
-0.097480446 0.061160035 0.17227899 0.08218067 -0.0340347 -0.038018856 0.03115562 -0.01712195
-0.10389823 -0.035110295 0.04264115 -0.16989568 -0.0084356 -0.036434565 0.1065703 -0.10412025
0.17217574 0.05113158 0.04233973 0.1735327 -0.084821284 -0.0691895 0.0120801665 0.011567124
-0.13965297 -0.13262782 -0.09984575 0.14670102 -0.07940428 -0.05881873 -0.0484145 -0.068977535
0.1551414 0.114935555 0.0007904605 -0.14320907 0.0918643 -0.09105089 -0.036486298 0.034148213
-0.15668206 0.14158951 0.16194549 0.060970973 -0.0271467 0.026131988 -0.018815238 -0.06715471
0.06411894 -0.02174758 -0.17150214 -0.1175837 0.032556787 0.081188396 0.0883252 -0.052256543
0.029137712 0.092599824 -0.12316362 -0.14985228 0.15626527 0.006664154 -0.007764047 -0.050408997
-0.13373919 0.056997452 0.08659077 0.07448648 -0.075604096 0.18900476 0.12928806 0.12020981
-0.035639886 0.15424739 0.18257023 -0.13507888 0.09323616 0.025324387 0.11621746 0.06286979
0.17578408 0.14600743 -0.012463588 0.04724572 0.07413539 -0.09595402 0.033641268 0.1675828
-0.07939724 -0.13509151 -0.035226807 -0.029498834 0.08457865 -0.013448997 -0.16779432 0.10424705
-0.16251151 0.014308958 -0.07207057 0.04732528 0.14031707 0.0060471105 0.019352494 -0.00934997
0.1043585 -0.097616635 0.089564405 -0.18480684 0.001256801 -0.1613153 -0.012524968 -0.15397057
0.17957066 0.025623672 -0.11056666 -0.11665383 0.1588688 0.103764854 0.088231884 -0.15529068
0.11573707 -0.089455776 0.07081642 -0.0750557 0.058462426 0.13784067 0.14493513 -0.19289997
-0.06376658 0.03007682 0.07977791 -0.11809328 0.10329777 0.1318638 -0.038795114 -0.08194534
0.01075299 -0.05090728 -0.120645255 0.048197944 -0.07595043 0.028553765 -0.057438914 -0.014024226
0.022590317 0.06958676 0.094087906 0.1766773 0.1410216 0.079629555 0.1031218 -0.14316814
0.006860043 0.05100709 0.06143076 -0.0303013 0.0076055615 -0.18242966 -0.16259171 0.09851583

s_model.x_model.bias f4 [64]
00000000: 9fda 563d f994 343d b9ca f0bd 9991 87bd
00000010: 908d 273e 1514 943d cda5 fc3c 0dd5 1d3e
00000020: c910 663c 5cfd 9a3d 71b1 1d3e cfb8 1b3e
00000030: 105f b1bd 7b2c 1dbd 3c2e a83d 297a 3ebd
00000040: e4dc bcbd 1b2c 373d 2022 183e dd69 d3bd
00000050: 322b 28bd 9532 863d cc71 a33d 79fe df3d
00000060: 91e9 1a3e 5a3f 183e 4478 a8bd dc73 0fbe
00000070: 4db0 5cbd 7b7b 0a3d 0099 83bd 21a4 813d
00000080: 9df5 02be e93a ec3d d3bf 84bd 66b3 013e
00000090: 9833 a43c 4629 19be d4e2 0c3c 0be9 023e
000000a0: 17d3 be3d 454a 0f3d f058 01be 2855 243c
000000b0: 6175 9d3d d6ea 9d3d 923d d23d d40a c6bd
000000c0: 6778 783d e2fd 423e ddbf 69bd 66a0 fb3d
000000d0: adb7 02be 8e25 d5bd 6f9a 38be 8481 5f3d
000000e0: 197b f03d e422 debc b541 8cbd ae5d 20bc
000000f0: 599b bbbd dfee a93d dc3b 9d3b ed6f 7b3d
0.052454587 0.044087384 -0.11757416 -0.066195674 0.16362596 0.07230393 0.030840779 0.15413304
0.014042088 0.07567856 0.1539972 0.15207218 -0.0866071 -0.038372498 0.082119435 -0.04650322
-0.09221819 0.044719797 0.14856768 -0.10322926 -0.04105682 0.065526165 0.079806894 0.10937209
0.15128161 0.14867917 -0.08226064 -0.1400904 -0.05387907 0.033809166 -0.06425667 0.06330133
-0.12789007 0.11534674 -0.064819 0.12666091 0.020044133 -0.14957151 0.008599002 0.12784211
0.09317606 0.03498294 -0.12631583 0.010030068 0.07688404 0.07710807 0.1026565 -0.09670034
0.0606617 0.19042161 -0.05706774 0.12286453 -0.12765379 -0.104075536 -0.18027662 0.054566875
0.11742229 -0.027116247 -0.0684847 -0.00978796 -0.091604896 0.08297514 0.0047983956 0.061386038

joint_model.model.1.0.weight f4 [64, 64]
00000000: 7754 dd3a 3bc4 ad3a 88ad dcbd ad8b 79bd
00000010: 6db2 e13d 4c68 e23c f04e de3d 4a6b a3bd
00000020: 4e61 dcbd 401f d33d 4f8b 16bd e62d ebbd
00000030: 9775 fabd c497 a13c 4855 003e 5e1b 333b
00000040: d53c b0bc 6d98 ce3d 7bb0 d13d 03e2 883d
00000050: e0f4 4c3d 6483 993d 7faa 063d 5bba b0bd
00000060: 6fe9 a9bd 8cdb afbc a1c5 15bd d65d e7bd
00000070: 7146 b6bd 9384 9f3d be81 5d3d db20 a33b
00000080: 8d42 9dbd 4adb c3bd f533 b23d a8f8 d43c
00000090: 26e3 f3bd de1b 993c 3842 6fbd 0389 d43d
000000a0: 17d8 98bd e994 16bd 51bf d3bc 0f37 803d
000000b0: 9691 1e3d 5a89 94bd 1abf ddbd a91d e13d
000000c0: d7c3 93ba 75bd 4c3d 667a edbd b4f1 ca3d
000000d0: 81f3 cbbd 0d1a a73d 759f ea3d 26ed dcbd
000000e0: 8b52 f4bc 7ce1 04bd c97e 0fbe 8c1d b93d
000000f0: 90cb 023d 09a0 5ebd 9e3e cb3d 0690 a43d
00000100: 7c3c 33bc 7bf8 bc3d 859a 933c e6e8 923d
00000110: fddd c2bd 33c7 773c fb2f 843d 3c05 583d
00000120: 442c b13d 0752 b93d 7489 b03d 37d4 df3d
00000130: a542 13bd fa8e bebd bd94 c7bd 3e6c 2c3d
00000140: 502c c138 be6b e33c fe25 be3d ad36 973d
00000150: 729e b73c 63ae e23d 2d91 c8bd 530c 74bd
00000160: 282e 033e 2d04 3abd 2557 b4bc 3332 513d
00000170: f807 e93d 5079 6a3c 198e be3d 038d 30bd
00000180: 994c e8bd 65e4 7ebd def6 bebd 33d8 ff3c
00000190: 7d5b e2bd 96ab 9cbd fa2e 74bd 0132 8c3d
000001a0: 0da3 7abd 11c3 6c3d 323b 9bbc 112d d3bd
000001b0: e34e 9ebd 07d5 583b a9e3 9abd 46b6 00bd
000001c0: 8225 8ebc 4440 d6bb 32cd fbbd 6b58 96bc
000001d0: 3867 8ebd 3a4f f53d 040f f3bd 78ed ad3c
000001e0: aaa5 d73d dc40 013e 0886 043d 9e63 abbd
000001f0: 0b85 cc3d 1377 b8bd 71de de3d 56f6 243d
00000200: 8cc4 983c 9df3 2b3d fd62 d43d a6c3 d7bd
00000210: ef59 cebd fa01 033c d76e c8bd 4faf 5a3d
00000220: bbcd 023d b982 80bd 5497 c7bd ec16 06be
00000230: 2575 46bd c3e0 97bc e999 c3bb 3e75 443c
00000240: c999 c63d 5d13 fabd bbc1 233d c40e c83c
00000250: 3f9b 5f3d 5860 263c b5f3 59bd 21b2 ddbd
00000260: 25e6 dc3d c168 f5bc 0572 b83d 4691 553c
00000270: c8ba 14bc ab4b 993d f069 253d f665 ebbc
00000280: a558 c53d 3325 003b 4789 d93d 8fd1 ccbc
00000290: 592e cb3d 6c3c b0bd 3c73 8dbd 1406 b0bb
000002a0: 92ff 473d c59d 38bc e594 00be 0d1a 983c
000002b0: 11b3 84bb e555 0b3d 041f aabd a9d5 8d3c
000002c0: 3935 8dbc 5460 a0bc 0aac 993d d7d3 8e3d
000002d0: 21df a83d 4e37 ce3b 77eb 863d 8ecd 9a3d
000002e0: 34e6 93bc a917 673d 776f 07bd 8368 713b
000002f0: 6a19 ccbd 579f b4bd 932d 783c 8e9a 81bd
00000300: be9f 3fbd 7b35 b13c 3369 3a3c 2164 c83d
00000310: 54eb 19bd 9f1a 803d 5633 97bd 7136 27bd
00000320: 6f26 a63b 07e1 7d3d 1620 b33d 9d1e c4bd
00000330: d966 f7bd 4a3b 87bd f42b bbbd ca14 953d
00000340: 24c2 ff3c bcc7 5ebd d8f0 de3d 35c3 dabc
00000350: bc05 25bd b1a5 db3c e46b 87bd 51f9 32bd
00000360: 54e1 aebd a2ca aa3d 2e77 8bbb c112 423d
00000370: 0663 ec3d 365a 083c 572a 783d 9517 9cbd
00000380: a679 8abc 3818 f4bd 3d47 a7bd fe45 8bbc
00000390: 03e5 c33d 2d67 eebd af4a 3ebd 607e cebc
000003a0: e024 5a3c 4e8f 2e3c 2c81 dd3d a4ff 5d3d
000003b0: 7fe3 f6bd 976a eebc e98e cf3d 0898 abbc
000003c0: 9b8c a83d b690 7bbd a0e6 e4bd 897e 8ebd
000003d0: cc6a b73d 9682 6abc a42b e3bc 6a45 033d
000003e0: 67a2 263c 1644 8bbd d3c3 cdba d19b 88b9
000003f0: caf1 0b3e 9bf6 ad3d 76da 0b3e 4c67 7bbd
0.0016886134 0.0013257334 -0.10775286 -0.06092422 0.1102036 0.027637623 0.108549 -0.07979448
-0.10760747 0.10308695 -0.03675395 -0.11483364 -0.1222946 0.019725688 0.12532532 0.0027329545
-0.021513382 0.10087667 0.10238739 0.06683733 0.05003822 0.07495764 0.03287744 -0.086292945
-0.08296477 -0.021466993 -0.036565427 -0.11297195 -0.089001544 0.077889584 0.05407881 0.004978282
-0.07678709 -0.095633104 0.08701316 0.025997475 -0.119085595 0.018690046 -0.05841276 0.103776954
-0.07463091 -0.036763106 -0.025848063 0.062605016 0.03871306 -0.0725276 -0.10827465 0.10991985
-0.0011273575 0.049985368 -0.11595611 0.099093825 -0.09958554 0.08159266 0.11456195 -0.1078742
-0.029824516 -0.0324416 -0.14013208 0.09038839 0.031932414 -0.05435184 0.09924053 0.08035283
-0.010939714 0.092270814 0.018018017 0.07173328 -0.09514997 0.015123176 0.06454464 0.052739367
0.08651021 0.090488486 0.08619967 0.10929149 -0.03595223 -0.09304614 -0.097451665 0.042095415
9.211211e-05 0.027761336 0.0928459 0.073834755 0.02241442 0.11068418 -0.09793315 -0.059582066
0.12810576 -0.04541414 -0.02201421 0.051073264 0.11378473 0.01431115 0.09304447 -0.04310323
-0.11342735 -0.062229533 -0.0932443 0.031231022 -0.11052606 -0.07649915 -0.059615113 0.06845475
-0.061190654 0.057803217 -0.018949125 -0.1031133 -0.0772989 0.0033085959 -0.07562954 -0.03142383
-0.01735187 -0.006538423 -0.12294997 -0.018352708 -0.06953281 0.11978002 -0.118680984 0.021231398
0.10529645 0.12622398 0.032354385 -0.0836861 0.099863134 -0.090070866 0.10882271 0.040273987
0.018648408 0.041980375 0.10370443 -0.10535364 -0.10075747 0.007996077 -0.09786766 0.053389844
0.03193448 -0.06274933 -0.097456604 -0.13094682 -0.04845156 -0.018539792 -0.0059692753 0.011990843
0.09697301 -0.122107245 0.039979678 0.024421103 0.054591414 0.010154806 -0.053210933 -0.10824991
0.10786084 -0.029957177 0.090061225 0.013035124 -0.009077735 0.07485136 0.040384233 -0.028735142
0.09636048 0.0019553422 0.10621887 -0.02500227 0.099209495 -0.086052746 -0.06906745 -0.0053718183
0.048827715 -0.011268084 -0.12556799 0.01856711 -0.0040496667 0.034017462 -0.08306697 0.017313795
-0.017237293 -0.019577183 0.07503517 0.06973999 0.082456835 0.006293214 0.0658788 0.07558738
-0.018054105 0.05641905 -0.033065286 0.0036835975 -0.09965785 -0.08819454 0.0151475845 -0.06328307
-0.0467832 0.021631947 0.0113776205 0.09784723 -0.037577942 0.062550776 -0.073828384 -0.040823404
0.0050704996 0.06198218 0.08746354 -0.095761515 -0.120801635 -0.06603105 -0.09139243 0.07279356
0.031220503 -0.0543897 0.10885781 -0.02670441 -0.04028867 0.026812406 -0.066123754 -0.043694798
-0.08539072 0.083394304 -0.0042561507 0.047381166 0.11542325 0.008322289 0.060587253 -0.076216854
-0.01690371 -0.11918682 -0.081678845 -0.017001148 0.09565165 -0.11640773 -0.046457943 -0.025206745
0.013314456 0.010654284 0.10815653 0.054198876 -0.1205511 -0.02910356 0.1013468 -0.020946518
0.08229943 -0.061417304 -0.11176801 -0.069577284 0.08955917 -0.014313361 -0.02773077 0.03204862
0.010170556 -0.06800096 -0.0015698619 -0.00026056034 0.13666454 0.08494302 0.13657555 -0.06137781

joint_model.model.1.0.bias f4 [64]
00000000: a7eb ff3c f3a2 8a3d 7190 d7bd 7e96 a8bd
00000010: 4a81 753d be25 463d f061 5bbd 8334 c23d
00000020: 52b5 4fbc 90ad 9c3d 618c 51bd f17d dc3d
00000030: 455f 873d 40aa c8bc 30e2 3abd afb9 1e3d
00000040: d999 a4bd 8b22 6d3b 74bc 60bb 72d5 4e3d
00000050: 74d3 043b b79e 9b3a 0b25 08bd 0210 e53c
00000060: 2a3b d1bd 5b7d dd3d c29d ebbc 6186 c7bd
00000070: 0a1e a4bc 0e5c e9bb a38c 8ebd babf 27bc
00000080: e535 723d ec2e 29bd dba9 32bd 25dc b03d
00000090: e90c 60bd f4f6 c43d 7495 11bd f282 b1bc
000000a0: 628c 29bd cfe6 cf3c 2d3b 273b 4eda 9bbd
000000b0: da02 213d fd8f 8ebd 003b 653d 209c 813d
000000c0: 0f50 b9bc 324d 5cbd 6d9d c5bd a67f 07be
000000d0: c145 08be b93b a53d 0d02 62bd 8376 e0bd
000000e0: b28a 703d 39a6 9dbd 6c1f b13d 3506 cdbd
000000f0: 3885 04bd e733 833b 5c4c 06be c937 463d
0.031240297 0.06769361 -0.10525597 -0.08231829 0.059937753 0.048375838 -0.053560197 0.09482672
-0.0126775075 0.07650292 -0.051159266 0.10766209 0.06609968 -0.024495244 -0.045625865 0.0387513
-0.080371566 0.003618392 -0.0034292014 0.050496526 0.0020267637 0.0011872862 -0.033238452 0.027961735
-0.10216363 0.10814925 -0.028761748 -0.097424276 -0.020033855 -0.0071215695 -0.06960418 -0.010238582
0.05913343 -0.041304514 -0.043619018 0.08635739 -0.054699812 0.09617415 -0.03554292 -0.021668885
-0.041393645 0.025378613 0.002551745 -0.07609998 0.03930936 -0.06961057 0.05596447 0.063286066
-0.022621183 -0.053784557 -0.09649167 -0.13232288 -0.13307859 0.08068032 -0.055177737 -0.10960104
0.05872602 -0.0769772 0.08648571 -0.100109495 -0.03235361 0.00400399 -0.13115066 0.048393045

joint_model.model.2.0.weight f4 [64, 64]
00000000: cd6d 743d 43fb 083e 8a14 debd 738d 3b3d
00000010: 03ff adbd ad70 5dbd 661f d5bd f4b9 d33d
00000020: 359b 1b3c cec3 b73d 0023 8b3c 83f9 4d3d
00000030: 4709 aabb 433b bdbd 9fd0 ac3d 36c2 11bc
00000040: 2e3b e9bd 6c3f e73d 705e bd3a f9c8 6fbd
00000050: 5a3b 903d a709 b9bb 2761 a73d 06ec dfbc
00000060: 4f17 7e3c d8ba b33d c37f eabd ee4c f43d
00000070: 6a4f b5bd 1c55 f93d 1cc7 813d d2c3 9d3d
00000080: aefc 2fbd 0708 89bc 6a84 ecbc 4527 e0bc
00000090: 5db1 7abd 73f0 1bbd efa4 c8bc 593a 6a3d
000000a0: c728 7fbd 4e4f b53b ad84 9bbd 4994 3f3d
000000b0: 484f 37bd 38fe 32bd 2cf5 783d ee6f 5abd
000000c0: 6b23 c5bd d1c3 7b3c b7e0 4dbc 9d54 c93d
000000d0: d06d 783c c8f5 ab3d efb8 f1bc f6b7 b2bd
000000e0: c95a 1a3b 7063 8fbc f027 e93d 9366 ecbd
000000f0: a583 013d c624 1dbd ed60 3a3d fd56 db3d
00000100: 13a2 91bb 0d76 05bc 04e2 943d 2c41 a93d
00000110: a8d2 e6bd 4dd1 ff3c a5b3 bfbd b315 ac3d
00000120: 9fc6 aa3c 791b 07be cb49 9fbc da8e 0fbd
00000130: cdaa 823d b1e8 0e3b 8d97 893d d95c 823c
00000140: 2737 4d3d 9b4e 28bd c027 823d 9025 11bd
00000150: 4619 013e 71c0 6e3d a829 903c 2264 f2bd
00000160: aa94 9cbd 04ab 7ebd 0420 b03d 28a8 6abd
00000170: 306b 423d 7bfd 2bbd 560c 1fbd 914c b93d
00000180: 1ad7 01ba ed45 843d e241 af3d 9ca8 8cbd
00000190: 5d6a fabc 4b41 dcbd c1a9 cc3d 5fd4 e1bc
000001a0: 7cd3 c0bd 6330 2cbd ca1d be3d 7fe6 b8bd
000001b0: 9d7a ffbd 1cb7 c53d e9ca a8bd 2dbb b5bd
000001c0: ece9 b73c fc30 38bd 6c6c ae3c 138e 333d
000001d0: 6b85 4a3d a15f 103d 415a 09ba 65c1 38bd
000001e0: 4a29 a63d a6fd a63c 3f1a bfbd 5320 003e
000001f0: 179a 42bd 4e46 a73d 5334 4b3d 23cb a4bd
00000200: 82ac 183c 3f87 a5bb 6c9e 583d 9e41 eebb
00000210: cb2f 04bd 8a2d 38bd f891 cc3d 135c 84bd
00000220: 6e53 ccbd 1617 913d 08a5 db3d 50a3 b43d
00000230: 3bc1 2b3d 5ad6 683d 4b1b e7bc 1d11 4f3d
00000240: 1423 a1bd b053 8dbd 8bae 81bd 3f81 f0bd
00000250: 721c 86bd ee62 27bd 16db a3bd 9e6c 7c3d
00000260: eef5 fe3d 4327 413d d79a ddbd e03c acbc
00000270: 4cc2 803b 76d9 7e3c 83d5 b63d 59dd 86bd
00000280: da41 b53d b533 bc3c 7b90 5b3c f438 e33d
00000290: a75b 71bd 06b3 7ebd 5efc e1bd 5f3a e53d
000002a0: fb06 b0bd 800a 573d ee18 e0bd 0320 f83d
000002b0: f0c1 d73d 4370 67bd ef6d 0cbe 6180 efbd
000002c0: 7d10 94bd 2b95 fd3d 411c b3bd 79ce fa3d
000002d0: b303 9e3d 07bd 883b 85b9 a2bc 2c80 af3d
000002e0: f427 7bbb e1a5 a9bc 8280 c33d 531e 24bd
000002f0: 9817 85ba 6653 dbbd 32a3 42bd 8cf1 9cbc
00000300: fdb8 adbd fcf5 833d 25c0 8a3d 204e 953d
00000310: 056d a33d 45df 1c3d 3ccf 343d a5d4 173d
00000320: df62 e43c 2899 cebd e9e6 b73d a88c e03d
00000330: c419 aabd 3055 b23d aa39 a5bd e89a ea3d
00000340: 4fe3 d03d ae18 f0bd 2c8e 9d3d 2139 9a3d
00000350: 278d 02bb 107c a5bc 3b0d 5cbd e7aa c3bd
00000360: 72bc ed3c fd1e cebd 12b8 9dbd 7fac 033d
00000370: 5a4f c33d 228b 903d 745b c13d ae99 353d
00000380: a168 fcbc 9498 923d 02f6 1cbd b3b7 3ebd
00000390: 8d6c 573d b1b6 7c3d fd70 e03c f005 cb3d
000003a0: 6433 0bbd a1cb d63c edf3 9c3c 9dea 07be
000003b0: 41b1 463c d906 413d d67f 063c 78bf f33d
000003c0: c9d3 0b3c 0765 483d d7bb 7c3b 241d d7bd
000003d0: 8b3e e73d b22e ac3d 07bb c63c 4cf7 993d
000003e0: 80ab a0bd 9680 f8bc 702c 033e e1e3 83bd
000003f0: 7899 8bbc f7b2 983d 70b4 663c f102 abbd
0.059675027 0.13377099 -0.10843761 0.045789193 -0.08495905 -0.054062534 -0.104063794 0.10338202
0.009497453 0.08972894 0.016984463 0.05028678 -0.005189094 -0.09239819 0.08438229 -0.008896401
-0.11388241 0.11291394 0.00144477 -0.05854127 0.070425704 -0.0056469026 0.08172827 -0.027334224
0.015508487 0.08775872 -0.1145015 0.11928736 -0.08853038 0.121744365 0.06336805 0.077033654
-0.042965584 -0.01672746 -0.028871734 -0.027362475 -0.061204303 -0.038071107 -0.024492709 0.05718455
-0.062294748 0.0055331355 -0.07593665 0.046772275 -0.044753343 -0.043699473 0.06078069 -0.0533294
-0.09625896 0.0153665105 -0.012565783 0.09830592 0.0151629 0.083964884 -0.029507129 -0.08726494
0.0023552647 -0.01750347 0.113845706 -0.11543002 0.031619687 -0.038365148 0.045502592 0.10709951
-0.0044443696 -0.008145821 0.072696716 0.08264384 -0.11270648 0.031227732 -0.09360436 0.08402576
0.020846663 -0.13194074 -0.019444367 -0.035048343 0.06380234 0.0021806175 0.06718359 0.015913414
0.050101425 -0.04109059 0.06355238 -0.035436213 0.12607297 0.058288995 0.017597988 -0.11835505
-0.07645543 -0.062174812 0.085998565 -0.057289273 0.047465503 -0.041989785 -0.038830124 0.09047807
-0.0004953012 0.0645865 0.08557488 -0.06868097 -0.030568296 -0.10754641 0.099933155 -0.027567087
-0.094153374 -0.042038333 0.092830256 -0.09028339 -0.124745585 0.09654066 -0.08241827 -0.088735916
0.02245041 -0.04496859 0.021291934 0.043836664 0.049443644 0.03524745 -0.0005239584 -0.04510631
0.08113344 0.02038462 -0.09331178 0.1251233 -0.047510233 0.081677064 0.049610447 -0.08046558
0.009318473 -0.005051523 0.052885458 -0.007271006 -0.03227214 -0.044965304 0.09988779 -0.06462874
-0.099768505 0.070844814 0.107248366 0.08820212 0.041932326 0.056845047 -0.028211256 0.05055343
-0.07868019 -0.06900728 -0.063321196 -0.11743402 -0.06548394 -0.04086583 -0.08000772 0.061627023
0.12449251 0.047156584 -0.10820549 -0.021025121 0.003929412 0.015554776 0.08927443 -0.065851875
0.08850451 0.022973875 0.013401146 0.11094847 -0.058925297 -0.06218245 -0.11034463 0.11192774
-0.085950814 0.052500248 -0.10942255 0.12115481 0.105350375 -0.056503545 -0.13713811 -0.11694408
-0.072297074 0.12381967 -0.087456234 0.12246413 0.07715549 0.0041729244 -0.019863853 0.08569369
-0.0038323374 -0.02070898 0.09545995 -0.040067982 -0.0010154126 -0.10709266 -0.047518916 -0.019158147
-0.08482549 0.06443402 0.0677493 0.07290292 0.07979778 0.038298864 0.044142947 0.037068028
0.027879177 -0.10087806 0.089795895 0.10964328 -0.08305696 0.087076545 -0.08067639 0.11455327
0.10199606 -0.11723457 0.07693133 0.07530428 -0.001992056 -0.02020076 -0.053723555 -0.095540814
0.029020522 -0.10064504 -0.07701124 0.032146927 0.095366195 0.070577875 0.094412714 0.044336013
-0.03081161 0.07158008 -0.03832055 -0.046561908 0.052593756 0.061697666 0.027397627 0.09913242
-0.033984557 0.026220145 0.019159282 -0.13273092 0.012127222 0.04712567 0.008209189 0.11901754
0.00853438 0.048924472 0.003856411 -0.10503605 0.11291226 0.08407344 0.024259103 0.07517871
-0.07845211 -0.030334752 0.1280992 -0.06439949 -0.017040953 0.0745601 0.014081106 -0.083501704

joint_model.model.2.0.bias f4 [64]
00000000: 2ff1 f03d d698 6c3a 69cd 7ebd de0b 9c3d
00000010: 03ee bb3d ec0e 0a3d e976 d8bd e067 5b3d
00000020: 0ff6 e3bd 21d0 b03d 02ce f2bd fb16 d73d
00000030: 0aa5 2ebd 5db6 9f3d 97e5 6b3d ee7c 03be
00000040: c4ca b13d 6d54 21bd b693 d9bd 2785 123d
00000050: 8298 07be b2da ef3d 09b8 d6bd 16d3 ab3d
00000060: d341 a83d 6f08 aa3d 000d a93d 9fdf 8b3d
00000070: bc83 943c 30f0 43bd cf8c 6f3b e92f da3d
00000080: 266f a23d afc0 b73c 9203 f3bd 2c51 473d
00000090: c653 cebd d89b 263d 5a71 00bd 8560 ae3c
000000a0: 6731 d0bd 4c4a 4f3d ed05 d03d 9fe0 e6bd
000000b0: 66e5 ce3d e00e c1bd 6ac0 d3bd f07a 2ebd
000000c0: 5e10 68bb 9a13 c8bd 3273 5d3d f5e1 bbbd
000000d0: 529a 143d aae2 bdbc 9cc5 0dbe ca28 9c3c
000000e0: 9737 97bd df23 08be 6662 98bd f86f 863d
000000f0: 0259 cbbd a854 e13d 054a c73b e256 303d
0.11764752 0.000902546 -0.062207613 0.07619451 0.091762565 0.033705637 -0.10569555 0.05356586
-0.11130916 0.086334474 -0.11855699 0.1050243 -0.042637862 0.07798455 0.057592 -0.12840626
0.086812526 -0.039387155 -0.10623877 0.035771515 -0.13241771 0.11711635 -0.10484321 0.08389871
0.0821568 0.0830239 0.08254433 0.06829762 0.018129222 -0.047836483 0.0036552434 0.106536694
0.07931356 0.022430746 -0.11865915 0.048661396 -0.10074572 0.040675968 -0.0313581 0.021286258
-0.10165673 0.050607964 0.1015738 -0.11273312 0.10102348 -0.09426665 -0.103394344 -0.04259771
-0.0035410146 -0.09769364 0.054064937 -0.09173957 0.036279984 -0.02317937 -0.13844913 0.019062418
-0.0738365 -0.13294934 -0.07440643 0.06564325 -0.09929086 0.11002475 0.006081822 0.043051608

joint_model.model.3.weight f4 [64, 64]
00000000: 0d54 453c 4d84 d2bc 2b20 10bc 67c8 b63c
00000010: fea3 ad3c 2a8d 803b 37f9 9ebc c8da ae3c
00000020: 301c c3bc 1e2b ff3a a80a 58bc 4414 ea3c
00000030: 88ac 123b 91dd cc3c 3cb9 c33c c437 14bc
00000040: ef3d ed3c 6a1b a1bc 15e5 8fbc 5b74 f63c
00000050: baec abbc cd54 ad3c 9f2e 8cbc 6c3e e2bb
00000060: 181b 743c ea97 3c3c d46e 0f3d e151 d23b
00000070: 24fd 043d d228 49bc 4f7c 3fbc 965d 9d3c
00000080: 96b3 cd3c 7b0d 1c3c 24f9 b5bc 18c9 de3b
00000090: 86ef e4bc 9316 0d3a b311 a03c 03b6 223c
000000a0: 37fd 38bc bc0f d43c 4b8e 673c dff2 a6bc
000000b0: 1c7a a03c ef20 1fbc e6c8 84bc 1d3f d5bc
000000c0: 269e d3bc 88ba adbc 9e5f cf3c 9fc3 4cbc
000000d0: 663a 2abc 052c 7f3b d15e b1bc 3e7e c53c
000000e0: b560 a2bc 6f15 53bc 9e1f 00bc f9e6 933c
000000f0: abb8 89bc 3759 733c 5531 e8bc a0c6 913c
00000100: 457a 513c 5fcc 34ba 3735 01bc 8f69 e4ba
00000110: 990d a03b 3f65 813c 8fde fdbb 3b58 a23b
00000120: e44d b1bb 9be1 d03b 36e2 34bc bade 433a
00000130: 3ed0 12bc 06a1 a83b af97 603a 2363 99bb
00000140: aa5e d83a d000 983a 9d01 40bc a7a9 123c
00000150: 24de 26bc b6db 483c 9be2 27bc 0c82 893c
00000160: d059 e73b 6820 dc3b 698d 033c 857d a73c
00000170: 6e51 a33c d113 26bc f1f5 2dbb e1b0 0d3c
00000180: d423 823b 63d4 433c dbe6 f0bb aa7c 2fbb
00000190: e76a adbb a5c1 8abb 1893 50bc 0b1b ef3b
000001a0: a06f acbb 088a 823b e4e3 343b 8bb0 26bc
000001b0: f2ab 53bb 532d f1bb 8e20 05bc 9ebe 07bc
000001c0: c37e 163c 7cd2 b4bb 20ea 3fbb cc23 1abc
000001d0: b252 9b3c 4e60 2ebc 7377 febb 56da f0b8
000001e0: b16f 10bc ee13 86bc 6834 38bc 0758 ce3b
000001f0: ea34 6abb d4a2 e03b 83d0 fd3b 98e7 24bb
00000200: 93a8 053b 0497 67bc 5143 453b 451e 7d3c
00000210: c098 143c 2928 c8bb 484e cbbb 1315 2a3c
00000220: db12 8abb e2a8 273c e189 24bc 2694 613c
00000230: 5977 923c c886 843c c97e 7a3c 90b6 fabb
00000240: 3495 513c 10fe 59bc 020f 91bb 800b 5cbb
00000250: f5b1 8cbb 336d 473b a8d8 e3bb e54b c1bb
00000260: fa86 97ba c41a 5b3a b671 4e3c c8ab 1bbc
00000270: be86 b23a 25f4 10bc e067 6c3c a760 bc3b
00000280: 42e7 6f3c 4da7 55bc 86e1 bbbb be35 a13c
00000290: a698 11bc 8b96 a13c 0a2a 013d 0065 c7b9
000002a0: ef95 33bc 42ce 683c c5a5 883b 9641 9abb
000002b0: c6d6 553c 1ba0 403b 25bc 0ebc 4463 65bc
000002c0: 598d febb 2777 99bb 8bf9 883c 443c c13b
000002d0: 2d6b 77bc 43b7 a53b b187 20bc 5a28 213a
000002e0: 6ac9 c2bb 72d3 4ebb 0317 2b3c 7e83 543c
000002f0: 4314 dbbb ae82 0f3c 92e4 a4bc 9e62 9f3a
00000300: 8131 e5ba ef2a 7fbc 6c93 8d3b d839 b23b
00000310: 5328 9f3b 0972 2d3b 6d54 d8ba 76cc 7c3b
00000320: 0067 93bb e3e2 3c3b a744 073a 74ee 163c
00000330: 398a cb39 83a8 34ba e207 d3ba 1d35 1bba
00000340: 4934 933b baf2 1cbc d55e 1e38 91f7 883c
00000350: 983b 3ebb fa6f 073c 6610 c23a 2e3b 18bc
00000360: 4cc2 76bb 5de1 c9bb bf28 ab3b 94cf 943b
00000370: 99dc 093c a9c4 94bb 78e4 d4bb 0c91 b9ba
00000380: 194e 173c 861a a1bb 156b 0fbb 808f 56bc
00000390: 19b3 22bc 0789 bbbc 5fa1 a53a 5720 c43b
000003a0: 00be 20bc 4b74 803c 577c 33bb 8dec 9abb
000003b0: ceb1 873b e1ba f23b 0742 28bc 02b8 a9ba
000003c0: 3f57 a0bc 0552 d5ba 2e68 623c 1301 57bb
000003d0: 72dc b93a 39f9 b83b 297f f3bb 81bb 1c3c
000003e0: d02c f0ba 1bbf 293b 9444 10bc 204d c8bb
000003f0: 154d 94bb 5468 b6b9 30a6 1abc 6b36 a63b
0.012043965 -0.025697852 -0.008796732 0.022312356 0.021196362 0.003923078 -0.019405944 0.021344557
-0.023817152 0.0019467806 -0.013186134 0.028574117 0.0022380669 0.025007995 0.023892038 -0.009046499
0.028960196 -0.019666392 -0.01756529 0.03008478 -0.020986903 0.0211586 -0.017112074 -0.006904414
0.014899038 0.0115108285 0.035017803 0.006418452 0.032467976 -0.012277799 -0.011687352 0.019209664
0.025110047 0.009524698 -0.022213526 0.0067988746 -0.027946245 0.0005382087 0.01953969 0.00993109
-0.01129084 0.025886409 0.014133046 -0.020379482 0.019589476 -0.009712442 -0.016209077 -0.026031071
-0.025832247 -0.02120711 0.025314149 -0.012497812 -0.0103899 0.003893615 -0.021651657 0.024108049
-0.019821504 -0.012883528 -0.007820038 0.018054472 -0.01681169 0.014852813 -0.028343836 0.017794907
0.012785499 -0.0006896909 -0.007886223 -0.0017426478 0.0048844335 0.015795348 -0.0077474783 0.0049543655
-0.0054108966 0.0063745505 -0.011040261 0.00074718485 -0.008960782 0.0051461486 0.00085675245 -0.0046810075
0.0016507704 0.0011596922 -0.011719135 0.008951581 -0.010184798 0.012259414 -0.010246898 0.016785644
0.007060267 0.0067177303 0.00802932 0.020445595 0.01993629 -0.010136561 -0.0026544298 0.008648128
0.003971556 0.011952492 -0.007351739 -0.0026777186 -0.005292285 -0.00423451 -0.012730382 0.007296925
-0.00526233 0.0039837398 0.0027601654 -0.010173927 -0.0032298532 -0.0073601394 -0.008125437 -0.008285193
0.009185496 -0.0055182558 -0.0029283836 -0.009407949 0.01896033 -0.010643078 -0.0077657043 -0.0001148476
-0.008815692 -0.016366925 -0.011242963 0.006297115 -0.0035737106 0.006855348 0.007745804 -0.0025162455
0.0020394668 -0.014135126 0.0030099938 0.015449111 0.009069622 -0.006108303 -0.0062044 0.010381001
-0.0042136735 0.010233136 -0.0100426385 0.0137682315 0.017879175 0.01617755 0.015289017 -0.0076511577
0.01279192 -0.013305202 -0.004426838 -0.003357619 -0.004293675 0.0030430078 -0.0069533177 -0.00589894
-0.0011560612 0.00083581754 0.012600353 -0.009501405 0.0013620479 -0.008847271 0.014429063 0.0057488265
0.0146425385 -0.013040376 -0.0057336716 0.019678947 -0.008886492 0.019725105 0.031534232 -0.0003803149
-0.01096104 0.014209332 0.004170152 -0.0047075255 0.013051694 0.0029392305 -0.008711849 -0.014000718
-0.007768315 -0.0046833935 0.016720554 0.005897077 -0.015101236 0.005057247 -0.009797976 0.00061476754
-0.0059444206 -0.0031559137 0.010442498 0.012970803 -0.006685765 0.008759184 -0.020128522 0.0012160128
-0.0017486067 -0.015574201 0.0043205526 0.0054390244 0.004857102 0.0026465675 -0.0016504653 0.0038574017
-0.0044983625 0.0028821758 0.00051600713 0.009212125 0.0003882216 -0.0006891565 -0.0016100372 -0.0005920695
0.004492317 -0.009579355 3.7758455e-05 0.016719611 -0.002902722 0.008266443 0.0014805913 -0.009291453
-0.003765243 -0.0061608986 0.005223363 0.004541347 0.008414411 -0.0045400453 -0.006496962 -0.0014157607
0.0092349285 -0.004916492 -0.0021883894 -0.0130957365 -0.0099303955 -0.022892488 0.0012636593 0.0059853005
-0.0098109245 0.015680453 -0.0027387345 -0.004727906 0.004141069 0.0074075316 -0.010269648 -0.0012948515
-0.019572852 -0.0016275054 0.013818784 -0.0032807037 0.0014180078 0.005644944 -0.00743093 0.009566189
-0.0018323902 0.0025901261 -0.008805413 -0.0061127096 -0.0045257905 -0.00034791476 -0.009439036 0.005072405

joint_model.model.3.bias f4 [64]
00000000: ff1d 8c3c 7242 fc3b c757 853b 624e cc3a
00000010: 532e c03c 2662 583b a207 a23c 5a62 1d3a
00000020: 17d9 143c 437f a63c f1b1 903c 6f03 c93a
00000030: 3b62 d03c 9822 55bb 3abc bb3c e23e 833b
00000040: f982 143c e91f aa3b a7b6 42bb 6f0f b4b9
00000050: 05ec 643b bbe5 2bbb cac4 da3c 93b8 bd3b
00000060: 8e23 99bb f762 52bc 8d21 23bc 72ed 333c
00000070: 62f0 243c 5f95 4dbc 9afb 0d3a 270d 3b3c
00000080: 0000 0000 0000 0000 0000 0000 0000 0000
00000090: 0000 0000 0000 0000 0000 0000 0000 0000
000000a0: 0000 0000 0000 0000 0000 0000 0000 0000
000000b0: 0000 0000 0000 0000 0000 0000 0000 0000
000000c0: 0000 0000 0000 0000 0000 0000 0000 0000
000000d0: 0000 0000 0000 0000 0000 0000 0000 0000
000000e0: 0000 0000 0000 0000 0000 0000 0000 0000
000000f0: 0000 0000 0000 0000 0000 0000 0000 0000
0.017104147 0.0076983506 0.0040693018 0.0015587325 0.02345959 0.0033017485 0.01977903 0.000600373
0.009084961 0.020324355 0.017662974 0.0015336106 0.025437465 -0.003252184 0.022916902 0.004005299
0.009064429 0.0051917923 -0.002971092 -0.00034343774 0.0034930718 -0.002622946 0.026705164 0.005789825
-0.004673428 -0.012840978 -0.00995673 0.010981904 0.010067077 -0.01254782 0.00054162147 0.01141671
0.0 0.0 0.0 0.0 0.0 0.0 0.0 0.0
0.0 0.0 0.0 0.0 0.0 0.0 0.0 0.0
0.0 0.0 0.0 0.0 0.0 0.0 0.0 0.0
0.0 0.0 0.0 0.0 0.0 0.0 0.0 0.0
