energy_sampling/results_pis_architectures/many_well/clipping_lgv_100.0_gfn_10000.0_gfn/fwd/fwd_tb/T_100/tscale_1.0/lvr_4.0/seed_12345/model.pt (torch, 183012 bytes, 23 tensors)

t_model.timestep_phase f4 [1, 64]
-0.8679485 0.32230508 0.60886514 -0.078576185 -0.48604408 -0.14914553 0.66446555 0.611105
-0.79344875 0.040097542 0.6333187 0.6192156 -0.40156376 -0.86096525 0.7479861 -0.72391695
-0.84590495 -0.5945344 -0.75384456 -1.8182129 0.84343565 1.097538 0.9889474 0.0015246293
0.3402142 -1.0925511 0.74999493 0.25235212 2.165637 2.9148386 0.2623129 -0.65938485
0.79782116 1.0728426 -0.84302 0.7122845 0.9244889 0.46401486 2.0593877 -1.8245637
0.3667745 -1.2848251 -0.78295857 0.14367796 1.6949435 -0.29551548 0.6163814 0.22414649
-0.003779478 -0.5535411 0.6926942 1.5289629 0.7715601 -0.19169462 0.22671458 -0.070845924
0.7199565 -1.2662404 -0.79485 -0.85995525 -0.45017007 -0.42802557 -0.18778001 0.8512433
00000000: df31 5ebf 2c05 a53e 96de 1b3f 8dec a0bd
00000010: c5da f8be 9bb9 18be 6a1a 2a3f 6171 1c3f
00000020: 751f 4bbf 523d 243d 2d21 223f ea84 1e3f
00000030: c499 cdbe 3868 5cbf 047c 3f3f 9f52 39bf
00000040: 3a8d 58bf 6833 18bf f5fb 40bf 33bb e8bf
00000050: 66eb 573f 207c 8c3f a82b 7d3f 12d6 c73a
00000060: 8e30 ae3e b7d8 8bbf abff 3f3f 4c34 813e
00000070: cc99 0a40 b78c 3a40 e04d 863e 72cd 28bf
00000080: 023e 4c3f e852 893f 29d0 57bf 4758 363f
00000090: 4eab 6c3f 5b93 ed3e 02cd 0340 4e8b e9bf
000000a0: dec9 bb3e 2675 a4bf f96f 48bf 5120 133e
000000b0: e9f3 d83f ce4d 97be 2ccb 1d3f a886 653e
000000c0: 1eb1 77bb dfb4 0dbf 6854 313f 0eb5 c33f
000000d0: f684 453f 984b 44be de27 683e ab17 91bd
000000e0: 124f 383f 2a14 a2bf 4a7b 4bbf 0726 5cbf
000000f0: b17c e6be 2b26 dbbe 6749 40be 15eb 593f

t_model.pe f4 [1, 64]
0.1 1.6857144 3.2714286 4.857143 6.4428573 8.028572 9.614286 11.200001
12.785715 14.371429 15.957144 17.542858 19.128572 20.714287 22.300001 23.885715
25.47143 27.057144 28.642859 30.228573 31.814287 33.4 34.985714 36.57143
38.157143 39.74286 41.32857 42.914288 44.5 46.085716 47.67143 49.257145
50.842857 52.42857 54.014282 55.6 57.185715 58.771427 60.35714 61.942856
63.528572 65.11429 66.7 68.28571 69.87143 71.45714 73.042854 74.62857
76.21429 77.8 79.38571 80.97143 82.557144 84.14285 85.72857 87.314285
88.9 90.48572 92.07143 93.65714 95.24286 96.82857 98.41428 100.0
00000000: cdcc cc3d 7dc5 d73f 165f 5140 b76d 9b40
00000010: e32b ce40 0875 0041 1ed4 1941 3433 3341
00000020: 4a92 4c41 60f1 6541 7650 7f41 c657 8c41
00000030: 5107 9941 dcb6 a541 6766 b241 f215 bf41
00000040: 7dc5 cb41 0875 d841 9324 e541 1ed4 f141
00000050: a983 fe41 9a99 0542 5ff1 0b42 2549 1242
00000060: eaa0 1842 b0f8 1e42 7550 2542 3ba8 2b42
00000070: 0000 3242 c657 3842 8baf 3e42 5107 4542
00000080: 165f 4b42 dbb6 5142 a00e 5842 6666 5e42
00000090: 2cbe 6442 f115 6b42 b66d 7142 7cc5 7742
000000a0: 421d 7e42 843a 8242 6666 8542 4992 8842
000000b0: 2cbe 8b42 0eea 8e42 f115 9242 d441 9542
000000c0: b76d 9842 9a99 9b42 7cc5 9e42 5ff1 a142
000000d0: 421d a542 2449 a842 0775 ab42 eaa0 ae42
000000e0: cdcc b142 b0f8 b442 9224 b842 7550 bb42
000000f0: 587c be42 3aa8 c142 1dd4 c442 0000 c842

t_model.t_model.0.weight f4 [64, 128]
-0.032180995 -0.07539991 0.047513176 0.053907808 -0.086536795 0.048179105 -0.0647774 0.024164485
-0.079162866 0.03763488 0.071270846 0.06421804 0.021724287 0.06295004 -0.08097059 -0.051906224
-0.0034308587 -0.08299818 0.07360861 -0.045038722 -0.07347165 0.027066642 -0.0016163316 -0.08267503
-0.049499534 -0.05769834 -0.01748659 -0.032218464 -0.0037197438 0.083289936 -0.027434932 -0.042528614
-0.018407531 0.051835164 0.044390768 0.032520656 0.0569879 0.077710725 0.08099331 0.05851387
0.018200062 0.03911768 0.0468197 0.06358706 0.07293259 -0.062533215 -0.08181021 -0.012577305
0.01167063 -0.05483583 0.07522635 0.06509123 0.017874932 0.08577092 -0.035238124 -0.041355394
0.060622793 -0.07541403 0.055775672 0.006113569 -0.04476382 0.024368592 -0.016695831 -0.07531546
-0.016685726 0.06862088 -0.03685406 -0.060785785 0.019780232 -0.06567129 -0.011594608 0.055446297
-0.048254367 0.064557604 -0.059773713 0.034980472 -0.0069454424 -0.062445432 -0.07115151 -0.08258762
-0.010879408 0.083874345 0.08803384 0.051526554 -0.05927265 -0.008413227 -0.049724113 -0.07476716
-0.047317076 0.043386113 -0.035569012 -0.06352157 -0.07606594 0.03166953 0.052339062 -0.07532933
0.013864132 0.07062627 0.0010496356 0.069263026 -0.036161415 0.05348827 0.056410164 0.0766812
0.05013144 0.07625361 -0.0044323206 -0.040145315 0.013193207 0.07785829 -0.048472784 -0.04889912
-0.006728881 0.0239129 0.05811196 0.08172376 0.057201356 0.029285736 -0.022519883 0.04712322
0.012020829 0.0027018765 -0.05018309 -0.05985926 0.0013147288 -0.04207131 0.02708425 0.010504712
0.00873858 0.027556073 -0.03833245 -0.07349486 0.047905814 0.0034118928 0.023064071 -0.031027982
0.0111855315 -0.01906145 0.025712948 0.045525443 0.013663439 0.014666365 -0.0070001697 0.025702644
0.032597374 -0.07832563 0.016851459 -0.075785816 0.02838921 -0.065764494 -0.0063102683 0.022151034
-0.06394949 -0.027692871 -0.08208165 -0.043392003 0.01926347 -0.08797765 0.038432773 -0.041407697
-0.0150419045 -0.08129836 0.076938786 0.05644303 0.07443539 0.025203783 -0.0049815467 0.085131586
-0.08097091 -0.06517761 -0.0031709392 -0.004972306 -0.050915785 0.0008718813 0.060081955 0.031698108
0.023237327 0.039785653 -0.041724168 0.07173557 0.037116684 0.047852173 -0.04486826 -0.008897505
0.08096423 0.024597343 -0.04171406 -0.050306436 -0.08643128 -0.06055402 -0.058468994 -0.00877863
-0.013815368 -0.026223632 0.012872659 -0.022356005 0.041134376 -0.008712227 0.07912956 -0.034378394
0.0038437294 -0.007337935 0.0774918 0.032246575 0.07991951 0.043320995 0.04552145 -0.019188922
0.033798367 -0.062104624 -0.043236375 0.047024544 0.05055176 -0.07982977 0.03339675 0.06081242
0.07219049 0.049681388 0.034445796 -0.010452313 0.08769069 -0.05133035 -0.07121949 -0.06228377
-0.059778813 -0.02722875 -0.027632833 -0.067125514 -0.042507045 0.0878371 -0.030359596 -0.06379834
0.08759731 -0.011557298 -0.03977835 -0.07295216 0.038411003 -0.033838164 0.042773277 -0.08526206
-0.0104876105 0.013274107 0.08705833 0.005769103 -0.063038915 -0.05974461 -0.020180542 0.04503082
0.085775 -0.02728547 -0.07225751 0.03925902 -0.012079013 0.055418078 -0.067922704 -0.024384217
00000000: 38d0 03bd 456b 9abd 2d9d 423d 6fce 5c3d
00000010: 343a b1bd 7457 453d 03aa 84bd 99f4 c53c
00000020: 2420 a2bd 0827 1a3d 73f6 913d bf84 833d
00000030: 22f7 b13c f3eb 803d e9d3 a5bd 9f9b 54bd
00000040: 42d8 60bb f3fa a9bd 1cc0 963d 867a 38bd
00000050: 4e78 96bd ddba dd3c 17db d3ba 8751 a9bd
00000060: 06c0 4abd 1855 6cbd 0a40 8fbc 82f7 03bd
00000070: f2c6 73bb ea93 aa3d 39bf e0bc 7c32 2ebd
00000080: 64cb 96bc 1c51 543d 18d3 353d 6134 053d
00000090: 256c 693d cd26 9f3d d2df a53d 3dac 6f3d
000000a0: 4c18 953c dc39 203d 04c6 3f3d ef39 823d
000000b0: af5d 953d 6a11 80bd 1d8c a7bd 0a11 4ebc
000000c0: 2c36 3f3c 899b 60bd 4610 9a3d 8d4e 853d
000000d0: 736e 923c aaa8 af3d da55 10bd 4664 29bd
000000e0: 9b4f 783d ac72 9abd 0875 643d 5554 c83b
000000f0: 445a 37bd a4a0 c73c b2c5 88bc fe3e 9abd
00000100: 81b0 88bc 1b89 8c3d 48f4 16bd 84fa 78bd
00000110: 270a a23c ab7e 86bd 50f7 3dbc a81b 633d
00000120: 5fa6 45bd c736 843d 48d5 74bd af47 0f3d
00000130: 9896 e3bb c8c6 7fbd e2b7 91bd b323 a9bd
00000140: 8b3f 32bc 50c6 ab3d 164b b43d 820d 533d
00000150: e1c7 72bd a2d7 09bc 83ab 4bbd 861f 99bd
00000160: 8dcf 41bd a3b5 313d d0b0 11bd 9917 82bd
00000170: 76c8 9bbd e9b7 013d 7c61 563d 4446 9abd
00000180: 6226 633c 81a4 903d ed93 893a c6d9 8d3d
00000190: fe1d 14bd 8416 5b3d 580e 673d 080b 9d3d
000001a0: a056 4d3d da2a 9c3d 003d 91bb 6a6f 24bd
000001b0: 5228 583c 2b74 9f3d 668b 46bd 724a 48bd
000001c0: f27d dcbb fce4 c33c ce06 6e3d c95e a73d
000001d0: f84b 6a3d a4e8 ef3c 9e7b b8bc 4704 413d
000001e0: 03f3 443c f711 313b c98c 4dbd fc2e 75bd
000001f0: fa52 ac3a f752 2cbd cadf dd3c f51b 2c3c
00000200: 432c 0f3c 46bd e13c 7d02 1dbd 7984 96bd
00000210: e338 443d 109a 5f3b ddf0 bc3c 652e febc
00000220: 8543 373c c226 9cbc f6a3 d23c e378 3a3d
00000230: 9edc 5f3c 324b 703c ae61 e5bb 5a8e d23c
00000240: d384 053d 3069 a0bd 120c 8a3c 9835 9bbd
00000250: 7d90 e83c 89af 86bd 5ec6 cebb 1676 b53c
00000260: f3f7 82bd 29dc e2bc 6d1a a8bd d0bb 31bd
00000270: 6dce 9d3c a02d b4bd af6b 1d3d 1e9b 29bd
00000280: 5272 76bc c17f a6bd 1592 9d3d ce30 673d
00000290: 9571 983d 2a78 ce3c 3e3c a3bb 7859 ae3d
000002a0: 14d4 a5bd d77b 85bd 88cf 4fbb baee a2bb
000002b0: 128d 50bd f78e 643a 7f18 763d e0d5 013d
000002c0: 355c be3c 48f6 223d f6e6 2abd 19ea 923d
000002d0: aa07 183d a400 443d c8c7 37bd d7c6 11bc
000002e0: 93d0 a53d 5e80 c93c 5ddc 2abd 1f0e 4ebd
000002f0: e202 b1bd 7e07 78bd 2f7d 6fbd 3ed4 0fbc
00000300: da59 62bc f1d2 d6bc d8e7 523c f123 b7bc
00000310: 857c 283d bbbd 0ebc ae0e a23d 5cd0 0cbd
00000320: 14e7 7b3b 0f73 f0bb 05b4 9e3d fc14 043d
00000330: d7ac a33d 5b71 313d b374 3a3d 1632 9dbc
00000340: 2870 0a3d 6b61 7ebd a018 31bd cf9c 403d
00000350: 5d0f 4f3d ca7d a3bd 08cb 083d 7216 793d
00000360: 9cd8 933d b67e 4b3d 0917 0d3d 2e40 2bbc
00000370: 2d97 b33d c63f 52bd 86db 91bd 441d 7fbd
00000380: a1da 74bd d40e dfbc 405e e2bc 1a79 89bd
00000390: de1b 2ebd f0e3 b33d b0b4 f8bc b4a8 82bd
000003a0: 3866 b33d d25a 3dbc a0ee 22bd f167 95bd
000003b0: db54 1d3d e399 0abd 0833 2f3d e09d aebd
000003c0: 3ad4 2bbc a47b 593c a34b b23d be0a bd3b
000003d0: 8c1a 81bd c4b6 74bd aa51 a5bc 3d72 383d
000003e0: ceaa af3d c785 dfbc bffb 93bd 11ce 203d
000003f0: 0de7 45bc 11fe 623d 0f1b 8bbd 69c1 c7bc

t_model.t_model.0.bias f4 [64]
0.061683167 -0.048865024 -0.07553296 0.08669994 0.015701566 -0.06003045 -0.053112667 -0.04613494
-0.062633134 0.03127213 0.00898517 0.02924377 0.0069193114 0.07666896 -0.062682666 0.07818031
-0.06363758 -0.01290684 0.037504606 -0.06527946 0.011289033 0.07228472 0.011134586 -0.030849574
0.036931038 0.011698058 0.013255279 0.07060572 -0.04409147 0.047390915 0.026836583 -0.051502362
0.08346516 0.039079897 0.086689204 0.038632475 -0.08313143 -0.059870083 -0.060355615 0.069840595
0.066510096 -0.024582075 -0.08448801 0.004523895 -0.032554835 -0.010014945 0.06749284 0.014209936
0.029887848 -0.014981044 -0.031465277 0.00254136 0.008999405 0.008368193 0.07863209 -0.07536916
-0.040343575 -0.041511778 0.078266874 -0.057374734 0.08568647 0.053927545 -0.0820905 -0.040709168
00000000: 7da7 7c3d b126 48bd 06b1 9abd bd8f b13d
00000010: 92a0 803c 7de2 75bd ab8c 59bd fef7 3cbd
00000020: cd45 80bd 3417 003d 8936 133c a190 ef3c
00000030: 64bb e23b 9e04 9d3d c55f 80bd 001d a03d
00000040: 6b54 82bd 3677 53bc 6e9e 193d 3db1 85bd
00000050: a3f5 383c 030a 943d d76d 363c 3fb8 fcbc
00000060: 0045 173d 36a9 3f3c ab2c 593c bb99 903d
00000070: 4299 34bd fa1c 423d 65d8 db3c 24f4 52bd
00000080: c8ef aa3d 3e12 203d 1c8a b13d 163d 1e3d
00000090: d040 aabd 553a 75bd 7337 77bd 9608 8f3d
000000a0: 7236 883d 5960 c9bc 0d08 adbd 2f3d 943b
000000b0: 3858 05bd b915 24bc b039 8a3d cbd0 683c
000000c0: 5cd7 f43c 0e73 75bc bce1 00bd f28c 263b
000000d0: 3e72 133c bf1a 093c dc09 a13d 255b 9abd
000000e0: 4e3f 25bd 4108 2abd 624a a03d c501 6bbd
000000f0: 637c af3d 21e3 5c3d 101f a8bd a8be 26bd

t_model.t_model.2.weight f4 [64, 64]
0.07478583 -0.023211196 -0.074727625 0.05167052 0.08668369 -0.08045086 0.1127609 0.08209044
0.018157586 -0.12124565 0.009214386 -0.0079328865 0.07025021 -0.026602581 0.07219489 -0.07808262
0.023486748 0.059436053 0.061382234 -0.0067448765 0.06636064 -0.10995859 0.054433107 -0.034562632
-0.10392484 0.10839248 -0.099687114 -0.05927746 -0.103972256 0.032697245 0.0856622 -0.02773869
-0.08431184 -0.070561305 -0.0968183 0.07911275 0.07327385 0.059605315 0.10872337 0.087874115
0.027752042 -0.07676202 -0.033807874 0.10398808 0.111946955 0.10909502 0.05795452 -0.10687536
0.05558905 -0.028960288 0.08078708 0.047146708 0.010524124 0.012634009 -0.049624622 -0.085046396
0.11770192 -0.03696984 0.0053950697 0.10287547 -0.060381576 -0.043002233 -0.01940173 0.071961895
0.029340819 -0.115658954 -0.11633444 -0.039467305 -0.04411675 -0.09361954 -0.024679825 0.11224195
-0.097593814 0.0023134053 -0.05798942 -0.024049714 0.08765547 0.025895149 -0.07504317 -0.10074602
0.009432435 0.030991003 -0.06371617 -0.0104367435 0.061824366 -0.005211428 -0.06545967 -0.07503821
0.03950721 0.008407488 -0.06455584 -0.04437904 -0.122150615 -0.090675786 -0.12108132 -0.008513391
-0.09478712 0.10275982 0.03495775 0.09637448 -0.0080061555 -0.08718811 -0.07443878 0.03884393
0.013301745 -0.04929626 0.077310026 0.04697743 -0.013759017 -0.08888598 0.022574186 -0.058876306
-0.022140175 -0.050887316 0.013121456 -0.021046221 -0.11637814 0.12433876 0.0990513 0.032756567
-0.1152243 -0.106350794 0.07866995 0.09627579 -0.012056202 0.089606404 0.028008312 -0.07640089
-0.09560363 -0.011190265 -0.024175793 -0.07072407 -0.02160865 -0.017623276 0.116342485 -0.058170587
0.082475364 0.0055423826 0.08727439 0.04689473 -0.017691538 -0.10817148 0.060787752 0.08581397
0.035498515 0.051594853 0.03763537 0.11726645 -0.019560859 -0.11105727 -0.01687175 0.07260059
0.10324475 -0.09513669 0.045043007 0.105294555 -0.009210005 -0.085959196 -3.091991e-05 0.09603898
-0.07099216 0.019966051 -0.07759154 0.0007124096 0.086649105 0.07769993 -0.07441701 -0.12022145
-0.08649738 -0.07343894 0.11152692 0.094454825 0.12469222 -0.09874356 -0.118554056 0.11128679
-0.029046237 0.11648607 -0.08186056 -0.08964273 -0.03364919 -0.021033958 -0.09430149 -0.089793876
0.09518792 0.090431854 0.03046292 0.041400045 0.016203076 0.030702889 -0.013721004 -0.058087364
-0.055538565 -0.018757552 0.002885297 -0.097363874 0.04530658 0.11976804 0.046301946 -0.12291233
-0.0040193945 0.08754431 0.07921566 0.12267655 0.0612486 0.11056404 0.036587343 -0.12062758
-0.028171495 -0.07681692 0.032047257 0.006829649 0.039577797 -0.08375773 0.11927928 0.017855436
-0.04475671 -0.111802116 -0.08459282 0.10838045 0.08299728 0.090101406 0.012919381 -0.059499204
-0.1149614 0.10408804 0.04697974 0.08794895 0.093823105 -0.08543718 -0.022333235 0.10085778
-0.0044293255 -0.008553833 -0.05659917 -0.044700563 -0.1185628 0.051099762 -0.062633336 -0.09882225
-0.087390184 0.07062255 0.08180888 0.053708434 -0.12491262 0.092859715 -0.021159485 -0.005204931
-0.07483086 -0.026381642 0.05018647 -0.09599532 -0.015123308 -0.024865031 0.04864782 -0.04663962
00000000: 5029 993d 6825 bebc cc0a 99bd 78a4 533d
00000010: 3887 b13d 6cc3 a4bd 30ef e63d 081f a83d
00000020: 38bf 943c a44f f8bd f0f7 163c f0f8 01bc
00000030: 58df 8f3d a8ed d9bc eada 933d c8e9 9fbd
00000040: 4867 c03c 3873 733d f06b 7b3d 2004 ddbb
00000050: 16e8 873d f831 e1bd 40f5 5e3d 8c91 0dbd
00000060: 8cd6 d4bd e0fc dd3d c228 ccbd eccc 72bd
00000070: 68ef d4bd 8ced 053d aa6f af3d 403c e3bc
00000080: b0ab acbd 7282 90bd ac48 c6bd de05 a23d
00000090: 9a10 963d b424 743d 5caa de3d 58f7 b33d
000000a0: 4058 e33c 6835 9dbd 207a 0abd b4f7 d43d
000000b0: 7244 e53d 366d df3d b861 6d3d 78e1 dabd
000000c0: 58b1 633d 203e edbc b273 a53d e81c 413d
000000d0: 606d 2c3c e0fe 4e3c 3043 4bbd ce2c aebd
000000e0: b40d f13d b06d 17bd 20c9 b03b 60b0 d23d
000000f0: ac52 77bd 1c23 30bd 60f0 9ebc c260 933d
00000100: 285c f03c 9ade ecbd c040 eebd 78a8 21bd
00000110: c4b3 34bd 9abb bfbd 582d cabc 1cdf e53d
00000120: 44df c7bd 809c 173b 5086 6dbd e803 c5bc
00000130: b684 b33d 1022 d43c 3cb0 99bd ee53 cebd
00000140: 808a 1a3c d8e0 fd3c a07d 82bd e0fe 2abc
00000150: 8c3b 7d3d a0c4 aabb b80f 86bd a2ad 99bd
00000160: 50d2 213d 90bf 093c da35 84bd ccc6 35bd
00000170: 1a2a fabd 3ab4 b9bd 7cf9 f7bd c07b 0bbc
00000180: c01f c2bd be73 d23d dc2f 0f3d fc5f c53d
00000190: 402c 03bc ae8f b2bd 5c73 98bd d01a 1f3d
000001a0: 90ef 593c e0ea 49bd b854 9e3d 686b 403d
000001b0: 806d 61bc da09 b6bd 80ed b83c 4828 71bd
000001c0: 505f b5bc 386f 50bd 60fb 563c 2069 acbc
000001d0: aa57 eebd 52a5 fe3d 68db ca3d c02b 063d
000001e0: b8fa ebbd 72ce d9bd b61d a13d 3e2c c53d
000001f0: 6087 45bc 9083 b73d b071 e53c 1278 9cbd
00000200: d6cb c3bd 6057 37bc 500c c6bc c8d7 90bd
00000210: a004 b1bc b05e 90bc f844 ee3d 4844 6ebd
00000220: d8e8 a83d e09c b53b eabc b23d b014 403d
00000230: d8ed 90bc 0289 ddbd 94fc 783d 3cbf af3d
00000240: e466 113d 2055 533d 8c27 1a3d 6429 f03d
00000250: 183e a0bc fe71 e3bd a036 8abc 9eaf 943d
00000260: fc71 d33d 06d7 c2bd 047f 383d aca4 d73d
00000270: 90e5 16bc 600b b0bd 00b0 01b8 16b0 c43d
00000280: 5664 91bd d88f a33c 50e8 9ebd 00c1 3a3a
00000290: 1675 b13d 2421 9f3d f267 98bd aa36 f6bd
000002a0: 8a25 b1bd 2867 96bd 3a68 e43d 8871 c13d
000002b0: a25e ff3d 103a cabd 78cc f2bd 54ea e33d
000002c0: 60f2 edbc 4090 ee3d 82a6 a7bd 9c96 b7bd
000002d0: bcd3 09bd 684f acbc 2421 c1bd dae5 b7bd
000002e0: e2f1 c23d 5634 b93d 608d f93c 1893 293d
000002f0: 50bc 843c a084 fb3c 10ce 60bc 04ed 6dbd
00000300: 687c 63bd 70a9 99bc 4017 3d3b b666 c7bd
00000310: 6493 393d f248 f53d 1ca7 3d3d 76b9 fbbd
00000320: 20b5 83bb 6e4a b33d d23b a23d d83d fb3d
00000330: d0df 7a3d 666f e23d 9cdc 153d 980b f7bd
00000340: e8c7 e6bc 3052 9dbd fc43 033d 40cb df3b
00000350: 541c 223d 2c89 abbd b248 f43d 9045 923c
00000360: d052 37bd 82f8 e4bd 003f adbd 92f6 dd3d
00000370: 7afa a93d 1687 b83d d0ab 533c 70b5 73bd
00000380: e270 ebbd 1c2c d53d d46d 403d 941e b43d
00000390: 5426 c03d b0f9 aebd 30f4 b6bc 868e ce3d
000003a0: e023 91bb 6025 0cbc 88d4 67bd f017 37bd
000003b0: 0ed1 f2bd fc4d 513d e845 80bd 5263 cabd
000003c0: a0f9 b2bd 8ea2 903d 6a8b a73d 60fd 5b3d
000003d0: 30d2 ffbd 3c2d be3d a856 adbc 208e aabb
000003e0: ec40 99bd 501e d8bc 5490 4d3d 3299 c4bd
000003f0: c0c7 77bc c0b1 cbbc f042 473d 3009 3fbd

t_model.t_model.2.bias f4 [64]
-0.044759497 -0.10749531 0.019807383 -0.023678541 -0.0890428 0.05192761 0.024672627 0.09824519
-0.11843738 -0.08484942 0.050727114 0.0626653 -0.06144604 0.02970919 -0.009276018 0.099064395
-0.014925018 -0.044846967 -0.05261694 -0.03518513 -0.010282785 0.07016483 0.005083248 -0.021694183
-0.02910991 0.030874386 -0.12196019 0.017070428 -0.07628244 -0.07008642 -0.09964216 0.02948597
-0.089865565 -0.09403546 0.07921399 -0.07343286 -0.006158054 0.005334139 -0.06639449 0.049547583
-0.10519743 -0.035285875 0.07490662 0.07694742 0.064570665 0.068223804 0.12397456 -0.024814129
0.008453235 0.091754526 -0.026965633 0.055251107 0.06580204 -0.033501983 -0.02106668 -0.069248214
0.09817365 0.006611854 0.121592715 0.101794675 0.10298635 0.103843346 0.07696542 0.06622963
00000000: bc55 37bd 8026 dcbd 1843 a23c 80f9 c1bc
00000010: 125c b6bd 0cb2 543d 401e ca3c c634 c93d
00000020: 4c8f f2bd 88c5 adbd 3cc7 4f3d aa56 803d
00000030: d8ae 7bbd b060 f33c 70fa 17bc 46e2 ca3d
00000040: 1088 74bc 74b1 37bd dc84 57bd 481e 10bd
00000050: 2079 28bc 94b2 8f3d 6091 a63b 00b8 b1bc
00000060: e877 eebc 48ec fc3c 44c6 f9bd 48d7 8b3c
00000070: f839 9cbd 7889 8fbd 3011 ccbd 908c f13c
00000080: 700b b8bd aa95 c0bd f23a a23d f863 96bd
00000090: 80c9 c9bb 00ca ae3b d6f9 87bd 68f2 4a3d
000000a0: c071 d7bd ec87 10bd a468 993d 9c96 9d3d
000000b0: a03d 843d ecb8 8b3d 60e6 fd3d 0047 cbbc
000000c0: 707f 0a3c cce9 bb3d 08e7 dcbc fc4e 623d
000000d0: 38c3 863d 6039 09bd 0894 acbc 02d2 8dbd
000000e0: 440f c93d 40a8 d83b 9a05 f93d ba79 d03d
000000f0: 82ea d23d d2ab d43d 0ca0 9d3d 66a3 873d

s_model.x_model.weight f4 [64, 32]
0.069346696 -0.09749782 0.17477642 -0.06461316 0.094763204 0.14413694 -0.09716754 0.022852147
0.016969059 -0.059074983 0.072472095 -0.048423 -0.05109201 -0.10144805 0.10066785 -0.11473514
-0.120062694 -0.008377192 0.0062468373 0.046359487 -0.1233876 -0.06841818 -0.09513378 -0.023655593
0.0152929 0.05200177 -0.14465049 -0.11769128 0.14384349 -0.10766282 0.021908816 0.021017453
-0.13053203 -0.11175949 -0.10573232 0.035479028 -0.02602709 -0.12865074 0.08573021 0.053288344
0.018479917 0.10971065 0.018083906 -0.16988857 -0.09291502 -0.14350224 -0.117885515 -0.043683544
-0.036129247 0.1235184 -0.030090151 0.0920169 0.02775724 0.009996726 -0.0572837 0.15236895
0.026608737 0.024762644 0.009036706 -0.15118378 0.006204817 0.012369594 -0.083820134 -0.040510666
0.15384766 -0.14507645 -0.09108204 -0.081736945 -0.15523961 0.14563245 -0.08183171 0.087307766
0.03891819 -0.14055124 0.01588462 -0.14207938 0.110781156 -0.032907248 -0.15924445 0.063043445
0.010037988 0.11319356 -0.15473507 -0.17572646 0.10090451 0.12264933 -0.10542465 -0.13505442
-0.16600189 -0.16830574 -0.02899189 0.0813419 -0.08296202 -0.13116379 0.011343677 -0.16934822
-0.08621123 0.07369905 0.15368667 0.06844816 -0.048071492 -0.046443615 0.04841046 -0.027120527
-0.10402862 -0.023708867 0.0605623 -0.16492508 -0.015394115 -0.020314084 0.12788753 -0.08358114
0.16088952 0.041097075 0.015813181 0.16778272 -0.07991957 -0.05111245 -0.0091115795 0.049123626
-0.12068792 -0.13825199 -0.105108425 0.15017259 -0.107614264 -0.04838787 -0.046982206 -0.08404838
0.14908636 0.12571672 0.023148797 -0.14114887 0.09732464 -0.08953325 -0.035271138 0.039265227
-0.15041883 0.12511207 0.1686025 0.08445942 -0.031408716 0.03996817 -0.020432243 -0.079492435
0.06806284 -0.04084847 -0.1541179 -0.11162502 0.046533175 0.08601632 0.07990379 -0.056676656
0.030842368 0.0780512 -0.121529885 -0.14683661 0.15732516 -0.013125708 -0.021568565 -0.061353147
-0.1283519 0.04966633 0.07454003 0.05456074 -0.085247286 0.17565116 0.14426786 0.13487661
-0.025627075 0.17450467 0.17571485 -0.12537755 0.08278623 0.022251217 0.10291851 0.067344785
0.16461891 0.14358942 -0.032624062 0.042378675 0.069343135 -0.08646453 0.03594515 0.15907978
-0.06357833 -0.1222792 -0.044262704 -0.035295077 0.08203148 -0.005567072 -0.17450099 0.08318037
-0.14351493 0.030837668 -0.07492685 0.034467038 0.122762874 0.00162906 0.019371977 -0.027133256
0.10265322 -0.10450128 0.09054584 -0.16943505 -0.015348217 -0.1655417 -0.022204414 -0.14342555
0.166024 0.0414898 -0.12160695 -0.111749016 0.16130029 0.082854 0.079442635 -0.16225192
0.12552045 -0.110099055 0.064174645 -0.07538459 0.06439642 0.11805208 0.14885141 -0.17442186
-0.076058306 0.046439398 0.06366667 -0.13942987 0.07935465 0.14062978 -0.037949443 -0.07558982
0.01075596 -0.045326974 -0.11046765 0.050572697 -0.09522844 0.040829718 -0.03534873 -0.015300318
0.025231317 0.07299619 0.087303616 0.17285354 0.13271494 0.07473597 0.09651272 -0.14020765
0.010682835 0.05050069 0.06541787 -0.021155715 0.027552722 -0.16907497 -0.16207786 0.098616146
00000000: a405 8e3d f0ac c7bd 97f8 323e e853 84bd
00000010: 3613 c23d a298 133e c6ff c6bd 6d34 bb3c
00000020: b202 8b3c 9cf8 71bd 406c 943d 3257 46bd
00000030: db45 51bd ffc3 cfbd f22a ce3d 42fa eabd
00000040: 6ee3 f5bd 7d40 09bc 45b2 cc3b 72e3 3d3d
00000050: a3b2 fcbd d51e 8cbd 80d5 c2bd 60c9 c1bc
00000060: 128f 7a3c cfff 543d 421f 14be 2008 f1bd
00000070: b54b 133e 537e dcbd 1e7a b33c cb2c ac3c
00000080: 30aa 05be 29e2 e4bd 308a d8bd 7552 113d
00000090: c436 d5bc 05bd 03be 5293 af3d e144 5a3d
000000a0: 3263 973c faaf e03d b324 943c 45f7 2dbe
000000b0: 3b4a bebd 40f2 12be f66d f1bd 84ed 32bd
000000c0: 43fc 13bd 37f7 fc3d 9f7f f6bc 5b73 bc3d
000000d0: 2763 e33c 4fc9 233c 50a2 6abd 9b06 1c3e
000000e0: 91fa d93c 07db ca3c b10e 143c eccf 1abe
000000f0: c751 cb3b d6a9 4a3c e4a9 abbd 83ee 25bd
00000100: 3e8a 1d3e ec8e 14be 3889 babd b365 a7bd
00000110: 22f7 1ebe ac20 153e 6297 a7bd 6ace b23d
00000120: ae68 1f3d aaec 0fbe 7620 823c 427d 11be
00000130: 3be1 e23d c0c9 06bd fa10 23be ec1c 813d
00000140: 6076 243c 06d2 e73d df72 1ebe a3f1 33be
00000150: 06a7 ce3d 922f fb3d e1e8 d7bd b54b 0abe
00000160: 66fc 29be 5758 2cbe 6680 edbc 9596 a63d
00000170: fee7 a9bd cd4f 06be d4da 393c 9f69 2dbe
00000180: 838f b0bd 87ef 963d 0a60 1d3e 8d2e 8c3d
00000190: 9de6 44bd a93b 3ebd 0c4a 463d de2b debc
000001a0: f50c d5bd 1939 c2bc 2d10 783d 1fe2 28be
000001b0: 9937 7cbc b969 a6bc f3f4 023e 972c abbd
000001c0: 39c0 243e 6855 283d a58a 813c 3ccf 2b3e
000001d0: dfac a3bd 4a5b 51bd bc48 15bc db35 493d
000001e0: 3a2b f7bd ee91 0dbe 1643 d7bd d8c6 193e
000001f0: de64 dcbd 5c32 46bd 6a70 40bd 8f21 acbd
00000200: 18aa 183e e2bb 003e 8ca2 bd3c 5489 10be
00000210: 2452 c73d 355d b7bd 7878 10bd 93d4 203d
00000220: 6507 1abe 611d 003e 22a6 2c3e 0ff9 ac3d
00000230: 6da6 00bd aab5 233d 8561 a7bc eecc a2bd
00000240: 8864 8b3d ba50 27bd 15d1 1dbe a99b e4bd
00000250: 9299 3e3d 5329 b03d 99a4 a33d c825 68bd
00000260: 22a9 fc3c 4fd9 9f3d a9e4 f8bd 565c 16be
00000270: d919 213e 360d 57bc 8fb0 b0bc 704d 7bbd
00000280: ae6e 03be ec6e 4b3d 71a8 983d 157b 5f3d
00000290: 2196 aebd e6dd 333e f4ba 133e 181d 0a3e
000002a0: dfef d1bc 5ab1 323e 98ee 333e f962 00be
000002b0: d48b a93d 2f48 b63c f1c6 d23d 10ec 893d
000002c0: dc91 283e 1b09 133e cfa0 05bd 4395 2d3d
000002d0: c603 8e3d 5114 b1bd 393b 133d cfe5 223e
000002e0: 5b35 82bd 846d fabd cf4c 35bd 9291 10bd
000002f0: 1f00 a83d fc6b b6bb 63b0 32be 785a aa3d
00000300: 94f5 12be 479f fc3c 4073 99bd 4f2d 0d3d
00000310: 1a6b fb3d 2f86 d53a fbb1 9e3c 9046 debc
00000320: da3b d23d c404 d6bd 1970 b93d 6280 2dbe
00000330: 1777 7bbc c383 29be 08e6 b5bc 26de 12be
00000340: 3202 2a3e 35f1 293d 110d f9bd abdc e4bd
00000350: e72b 253e 5caf a93d d2b2 a23d 5e25 26be
00000360: 6f88 003e 9d7b e1bd ff6d 833d 3c63 9abd
00000370: 45e2 833d 4ac5 f13d 816c 183e a59b 32be
00000380: 75c4 9bbd 3d37 3e3d ac63 823d b4c6 0ebe
00000390: b184 a23d 4101 103e e070 1bbd d6ce 9abd
000003a0: c439 303c c7a8 39bd dd3c e2bd 5125 4f3d
000003b0: 2107 c3bd 103d 273d d4c9 10bd 2fae 7abc
000003c0: e8b1 ce3c 077f 953d 3dcc b23d 8500 313e
000003d0: 6de6 073e 2c0f 993d 76a8 c53d 9892 0fbe
000003e0: 0f07 2f3c d0d9 4e3d cef9 853d c04e adbc
000003f0: 3fb6 e13c fd21 2dbe bdf7 25be 43f7 c93d

s_model.x_model.bias f4 [64]
0.058499888 0.065101855 -0.11459899 -0.051737618 0.16808692 0.07595362 0.030163845 0.15077919
-0.0050024306 0.043617666 0.1484482 0.15283178 -0.086068 -0.05628954 0.08824509 -0.048257783
-0.08689637 0.038090087 0.13213749 -0.085507944 -0.068282425 0.05025131 0.08829272 0.11951051
0.15346274 0.14213479 -0.06608284 -0.13557297 -0.081567325 0.04119511 -0.05873568 0.053221144
-0.10739175 0.11486245 -0.048217278 0.114582635 0.02748769 -0.15850674 0.011156292 0.11877361
0.11930302 0.020860393 -0.1439945 0.020240497 0.1071646 0.072253816 0.12869921 -0.08179833
0.026924122 0.17249596 -0.053353146 0.12429879 -0.11801375 -0.1211103 -0.16830096 0.057597164
0.11035983 -0.02196795 -0.05337441 -0.019140612 -0.10549763 0.08247358 -0.008960883 0.050643798
00000000: 949d 6f3d 1f54 853d e0b2 eabd d3ea 53bd
00000010: fa1e 2c3e 928d 9b3d 2b1a f73c dc65 1a3e
00000020: 6eeb a3bb 70a8 323d ce02 183e ef7f 1c3e
00000030: 6b44 b0bd dc8f 66bd d7b9 b43d f4a9 45bd
00000040: b9f6 b1bd 5a04 1c3d 0d4f 073e ca1e afbd
00000050: a8d7 8bbd 51d4 4d3d d0d2 b43d edc1 f43d
00000060: 5625 1d3e c88b 113e 7156 87bd a4d3 0abe
00000070: c50c a7bd 34bc 283d d394 70bd 6afe 593d
00000080: 35f0 dbbd 013d eb3d 7b7f 45bd 4daa ea3d
00000090: dd2d e13c 974f 22be e1c8 363c 943f f33d
000000a0: 2455 f43d 6ae3 aa3c 4b73 13be 66cf a53c
000000b0: 1d79 db3d cff9 933d bac9 033e e285 a7bd
000000c0: fa8f dc3c c8a2 303e d488 5abd 5d90 fe3d
000000d0: 31b1 f1bd ad08 f8bd 1657 2cbe 01eb 6b3d
000000e0: 5604 e23d 21f6 b3bc 209f 5abd c6cc 9cbc
000000f0: 240f d8bd e9e7 a83d abd0 12bc df6f 4f3d

joint_model.model.1.0.weight f4 [64, 64]
0.00065743923 -0.020278007 -0.09800379 -0.071137175 0.09721309 0.0010715127 0.12448263 -0.0779286
-0.11291167 0.09037651 -0.053429276 -0.12162326 -0.11150028 0.021649808 0.1126989 -0.0026699752
-0.03586778 0.12374243 0.07761197 0.08144155 0.0478293 0.067401975 0.0262492 -0.09110266
-0.08093956 -0.017183289 -0.01867257 -0.12004523 -0.08855188 0.0856061 0.08623397 0.00019596517
-0.08745554 -0.10271016 0.076125026 0.05518031 -0.11837636 0.011054546 -0.07566364 0.095969975
-0.08798033 -0.030784085 0.0018536896 0.07051039 0.032648474 -0.07972118 -0.10539824 0.11106908
-0.017569318 0.039356142 -0.11190818 0.110455394 -0.09618124 0.06722629 0.11436501 -0.08728653
-0.026229978 -0.040590525 -0.12044793 0.07783976 0.0045944005 -0.041242644 0.09968136 0.07621297
0.0048444867 0.09265272 0.010929197 0.103903875 -0.09677708 0.03128472 0.04455456 0.04575649
0.07822807 0.07997082 0.06290625 0.105015665 -0.01071699 -0.117096975 -0.09548983 0.033669487
0.0015951395 0.036584526 0.07731728 0.06553304 0.011535391 0.10784404 -0.10949242 -0.06763591
0.115100846 -0.05362062 -0.021451414 0.04397346 0.10217211 0.015424788 0.1021567 -0.047365874
-0.109206274 -0.06110294 -0.094971344 0.034883246 -0.10470986 -0.08386928 -0.061841607 0.053189933
-0.086703435 0.023396194 -0.008277789 -0.113439694 -0.079979315 -0.0030676574 -0.08741416 -0.030946672
-0.016402662 -0.018314034 -0.11756916 -0.012014642 -0.068773255 0.11835678 -0.11045779 0.018737271
0.0942847 0.109231815 0.038872644 -0.082100764 0.087794304 -0.096393704 0.09518792 0.034274787
0.010096729 0.038033977 0.09066267 -0.09187788 -0.10135022 0.01914142 -0.101258725 0.05891098
0.019787028 -0.05187136 -0.08635746 -0.11348988 -0.049887165 0.00020675361 0.010174662 0.02908653
0.11809111 -0.11436109 0.039525792 0.029258281 0.067965165 0.030448988 -0.041734666 -0.087234914
0.1042369 -0.035686076 0.09707239 0.005259797 -0.01986359 0.07281403 0.031849638 -0.018745333
0.09877023 0.0009841174 0.120456696 -0.017677218 0.116948396 -0.069181055 -0.07699962 0.023024514
0.05250226 0.004965812 -0.108843446 0.042605996 -0.0030532181 0.05052045 -0.0647088 0.000863716
-0.006959334 -0.00665091 0.06325768 0.090511456 0.07990831 0.007986471 0.06347644 0.0736192
0.0028481185 0.07336876 -0.03983812 0.019360244 -0.068496644 -0.08526027 0.024945155 -0.06373027
-0.041764826 0.036299467 0.023653373 0.10080391 -0.039247468 0.06588483 -0.07834953 -0.050156564
0.019176066 0.056307375 0.070477456 -0.11365236 -0.11735587 -0.07501592 -0.1054115 0.058772236
0.014453709 -0.054337844 0.096263364 -0.041490898 -0.04255666 0.011605486 -0.07809949 -0.062684104
-0.09183188 0.07537055 -0.0039941818 0.058796883 0.106236205 0.0030747503 0.070264444 -0.087770626
-0.0066910386 -0.11665912 -0.085881844 -0.024619535 0.082138255 -0.12396549 -0.038616568 -0.053672016
0.0006696731 -0.019696876 0.114181995 0.029278263 -0.1083598 -0.03562595 0.08966164 -0.0065179616
0.07440002 -0.08592217 -0.088275224 -0.08080359 0.07426414 -0.027193815 -0.007924214 0.02484493
-0.007719621 -0.09205417 0.010285586 -0.011144683 0.10799472 0.0769732 0.1168066 -0.070599645
00000000: 0058 2c3a 101e a6bc 36b6 c8bd 5eb0 91bd
00000010: a817 c73d 0072 8c3a c0f0 fe3d 0899 9fbd
00000020: 3c3e e7bd 5217 b93d a8d8 5abd 9e15 f9bd
00000030: 425a e4bd f05a b13c aece e63d c0fa 2ebb
00000040: 18ea 12bd ac6c fd3d 06f3 9e3d d4ca a63d
00000050: a8e8 433d 0c0a 8a3d 9008 d73c 0894 babd
00000060: a4c3 a5bd f8c3 8cbc 38f7 98bc 46da f5bd
00000070: b05a b5bd 4052 af3d 709b b03d 007c 4d39
00000080: e41b b3bd b459 d2bd 70e7 9b3d c004 623d
00000090: 4e6f f2bd 201e 353c 8af5 9abd e88b c43d
000000a0: 082f b4bd e82e fcbc 80f7 f23a c067 903d
000000b0: 68ba 053d dc44 a3bd 08db d7bd 3078 e33d
000000c0: 88ed 8fbc e833 213d 1e30 e5bd 7036 e23d
000000d0: acfa c4bd f0ad 893d 3438 ea3d 48c3 b2bd
000000e0: 40e0 d6bc 4042 26bd 68ad f6bd 746a 9f3d
000000f0: a08c 963b 0cee 28bd be25 cc3d 8c15 9c3d
00000100: 80be 9e3b b6c0 bd3d 6010 333c 8ecb d43d
00000110: 1033 c6bd 6824 003d d87e 363d 286b 3b3d
00000120: 0a36 a03d bec7 a33d fed4 803d 7412 d73d
00000130: 5096 2fbc 8ad0 efbd 2c90 c3bd 04e9 093d
00000140: 0014 d13a a8d9 153d 8658 9e3d 3036 863d
00000150: f0fe 3c3c 56dd dc3d 903d e0bd b284 8abd
00000160: feb9 eb3d 4ca1 5bbd e0ba afbc 841d 343d
00000170: 9c3f d13d 40b8 7c3c 8837 d13d b802 42bd
00000180: 8aa7 dfbd 1447 7abd 5680 c2bd bce1 0e3d
00000190: 2072 d6bd a8c3 abbd a04d 7dbd b0dd 593d
000001a0: 9291 b1bd 60a9 bf3c 909f 07bc 1253 e8bd
000001b0: 32cc a3bd c00a 49bb 3206 b3bd e083 fdbc
000001c0: e05e 86bc 5007 96bc 1ac8 f0bd 10d9 44bc
000001d0: fed8 8cbd 0a65 f23d b237 e2bd e87e 993c
000001e0: 5618 c13d eeb4 df3d ec38 1f3d 7224 a8bd
000001f0: 80cd b33d 106a c5bd e2f1 c23d b863 0c3d
00000200: c06c 253c 84c9 1b3d 5aad b93d 782a bcbd
00000210: b490 cfbd 78ce 9c3c bc60 cfbd a44c 713d
00000220: 6818 a23c 1077 54bd 2edc b0bd 626d e8bd
00000230: 7c56 4cbd 00cc 5839 a0b3 263c e046 ee3c
00000240: c0d9 f13d 2636 eabd cce5 213d 10af ef3c
00000250: 5231 8b3d 2870 f93c f8f1 2abd 38a8 b2bd
00000260: 287a d53d 902b 12bd e4cd c63d 605a ac3b
00000270: f8b8 a2bc 861f 953d c474 023d d08f 99bc
00000280: 0c48 ca3d 80fd 803a 00b2 f63d d0cf 90bc
00000290: a482 ef3d ccae 8dbd fab1 9dbd e89d bc3c
000002a0: 9c0c 573d 40b8 a23b 50e9 debd a083 2e3d
000002b0: 8018 48bb 88ee 4e3d 0c86 84bd 006b 623a
000002c0: 200b e4bb e0ef d9bb 3e8d 813d 125e b93d
000002d0: f8a6 a33d b0d9 023c f0ff 813d aac5 963d
000002e0: 80a7 3a3b 5c42 963d 4c2d 23bd 6099 9e3c
000002f0: f847 8cbd f09c aebd c859 cc3c 0485 82bd
00000300: 9811 2bbd c0ae 143d b8c4 c13c 4872 ce3d
00000310: f4c1 20bd a0ee 863d b875 a0bd f870 4dbd
00000320: 2017 9d3c 90a2 663d 7c56 903d 92c2 e8bd
00000330: 4658 f0bd f2a1 99bd fce1 d7bd 28bb 703d
00000340: 40cf 6c3c 5c91 5ebd ba25 c53d 5cf2 29bd
00000350: e44f 2ebd f024 3e3c a0f2 9fbd 8660 80bd
00000360: 5a12 bcbd e05b 9a3d a0e1 82bb 00d5 703d
00000370: 5e92 d93d c081 493b cee6 8f3d 16c1 b3bd
00000380: 8040 dbbb faea eebd d2e2 afbd e8ae c9bc
00000390: 1a38 a83d 9ee1 fdbd 682c 1ebd 30d7 5bbd
000003a0: 008d 2f3a 585b a1bc 40d8 e93d f8d8 ef3c
000003b0: beeb ddbd 84ec 11bd 86a0 b73d a094 d5bb
000003c0: 0a5f 983d f6f7 afbd a4c9 b4bd 5a7c a5bd
000003d0: cc17 983d 90c5 debc 90d4 01bc 9887 cb3c
000003e0: e0f4 fcbb e686 bcbd e084 283c 3098 36bc
000003f0: 562c dd3d 20a4 9d3d 4c38 ef3d 8c96 90bd

joint_model.model.1.0.bias f4 [64]
0.025398642 0.053642005 -0.0781883 -0.10674746 0.06573318 0.052503347 -0.05438231 0.0729634
-0.011457473 0.06384157 -0.035676256 0.09777841 0.063991845 -0.012979105 -0.023860753 0.03278643
-0.07883914 -0.0052561164 0.0070249736 0.034573704 -0.021834075 -0.019851118 -0.0406709 0.0028109401
-0.10686462 0.09468384 -0.04144326 -0.08228104 -0.029793054 -0.025384173 -0.08555183 -0.018159792
0.087352306 -0.06611858 -0.024499193 0.076608956 -0.037202418 0.07636465 -0.019836009 -0.004633203
-0.054029882 0.027651668 0.008185431 -0.06737827 0.011391878 -0.06301859 0.061212897 0.053515777
-0.024731457 -0.047068164 -0.099231645 -0.11950867 -0.10512701 0.05823639 -0.06330663 -0.10125065
0.063347384 -0.077410474 0.10780203 -0.08187704 -0.028390914 0.03217897 -0.11759859 0.03404531
00000000: d010 d03c b8b7 5b3d 3021 a0bd 6a9e dabd
00000010: 1e9f 863d c00d 573d fcbf 5ebd d66d 953d
00000020: 20b8 3bbc 5ebf 823d 4421 12bd 0c40 c83d
00000030: 280e 833d 50a6 54bc a077 c3bc 104b 063d
00000040: 6a76 a1bd 803b acbb c031 e63b 289d 0d3d
00000050: 60dd b2bc d09e a2bc 8896 26bd c037 383b
00000060: d6db dabd 9ae9 c13d 68c0 29bd f682 a8bd
00000070: 9010 f4bc 78f2 cfbc cc35 afbd d8c3 94bc
00000080: c4e5 b23d 2e69 87bd 88b2 c8bc 28e5 9c3d
00000090: 9061 18bd 1265 9c3d 207f a2bc 20d2 97bb
000000a0: 704e 5dbd c085 e23c 301c 063c 9efd 89bd
000000b0: 00a5 3a3c e40f 81bd 60ba 7a3d 5c33 5b3d
000000c0: a099 cabc 8cca 40bd f639 cbbd f6c0 f4bd
000000d0: d44c d7bd 4889 6e3d e8a6 81bd 805c cfbd
000000e0: 46bc 813d 6289 9ebd 50c7 dc3d 26af a7bd
000000f0: 1094 e8bc 18ce 033d 88d7 f0bd 1873 0b3d

joint_model.model.2.0.weight f4 [64, 64]
0.048235223 0.11560623 -0.09764691 0.051182598 -0.089661345 -0.060424432 -0.1014716 0.089786544
-0.0038062483 0.06549129 0.021771818 0.050695732 -0.008625865 -0.09189053 0.08364193 0.0018828362
-0.11513373 0.10591026 0.009129092 -0.05501221 0.06316067 -0.0068222135 0.05826865 -0.04103288
0.039204076 0.07524639 -0.108694375 0.11728163 -0.09555766 0.10227023 0.08064881 0.07703324
-0.023669392 -0.0095861405 -0.021900624 -0.01890181 -0.051833153 -0.064526215 -0.024721473 0.060591817
-0.041408896 -0.006444901 -0.09043844 0.06432012 -0.054677814 -0.044756845 0.04196751 -0.06250802
-0.11706367 0.027946115 -0.0058957785 0.102216616 0.024266854 0.066538796 -0.03634265 -0.07070248
-0.017195493 -0.014780819 0.1029093 -0.11625512 0.04273969 -0.0492111 0.072123185 0.10047975
-0.0039838254 0.00079089403 0.06739366 0.067367956 -0.10350782 0.031440496 -0.094095305 0.09592129
0.0334692 -0.111683294 -0.019709185 -0.026382238 0.07085313 -0.0040553957 0.065488935 -0.007390231
0.059928745 -0.042036384 0.06613022 -0.030767411 0.120297834 0.04444298 0.031404257 -0.110326946
-0.09876998 -0.043725 0.101189 -0.053554937 0.058719292 -0.029427946 -0.053461954 0.085972086
-0.003608957 0.065461844 0.0712851 -0.07065505 -0.030356362 -0.09730174 0.09856741 -0.019184291
-0.093743935 -0.02170226 0.110754296 -0.11308381 -0.11985807 0.08960384 -0.07541144 -0.07770683
0.047017306 -0.05459477 0.00025723875 0.042330608 0.049026787 0.0449612 0.0032399595 -0.049489096
0.08704829 -0.0025517792 -0.09416807 0.117561385 -0.05217454 0.09152195 0.039639384 -0.07964583
0.025949642 0.009668887 0.030394033 -0.030919924 -0.018829152 -0.052476108 0.10472016 -0.038580522
-0.103721276 0.090660915 0.09557934 0.09875001 0.04747626 0.05200173 -0.03817241 0.046857268
-0.091578975 -0.06824082 -0.08133848 -0.12387304 -0.057693973 -0.028243944 -0.051727727 0.0754143
0.10805181 0.061745435 -0.12329714 -0.018826768 0.008774698 0.04512076 0.0773637 -0.06997743
0.07621001 0.018690169 0.009520546 0.11031668 -0.070681795 -0.042390674 -0.1023242 0.10752891
-0.10073623 0.06005557 -0.10553156 0.108707055 0.11970499 -0.07132465 -0.11269291 -0.11741653
-0.06313178 0.10607782 -0.09795323 0.113432705 0.060497686 0.025149196 -0.035861105 0.06870377
0.01515308 -0.021554664 0.09280144 -0.05807261 -0.0040573925 -0.105201855 -0.08315739 -0.00032401085
-0.096191004 0.07000324 0.06293519 0.07898182 0.08139525 0.046974927 0.034303367 0.021673292
0.029740036 -0.1014723 0.08672932 0.12194458 -0.08576007 0.081880525 -0.07027513 0.11534831
0.09182651 -0.10382441 0.09633294 0.07483621 -0.009062484 -0.014580101 -0.06478311 -0.103118375
0.035548702 -0.110750794 -0.09563182 0.033891276 0.09187426 0.05846852 0.10147293 0.05302228
-0.036743045 0.059853777 -0.022367835 -0.039303765 0.055175334 0.055523545 0.03196621 0.10046655
-0.028850004 0.021315172 0.004161507 -0.124261454 -0.00075910985 0.036759943 0.02031973 0.11229561
-0.012125 0.0415089 0.0004082173 -0.09932095 0.11169882 0.08433919 0.009261519 0.06750977
-0.06821042 -0.028052464 0.11428864 -0.05934979 -0.034708813 0.051734462 0.017746165 -0.07218322
00000000: 4c92 453d f6c2 ec3d 1afb c7bd d8a4 513d
00000010: 5ea0 b7bd 9c7f 77bd 58d0 cfbd 02e2 b73d
00000020: 4072 79bb 4c20 863d d05a b23c 54a6 4f3d
00000030: 8053 0dbc 1a31 bcbd 764c ab3d 80c9 f63a
00000040: 3ccb ebbd 7ae7 d83d 3092 153c 7c54 61bd
00000050: 625a 813d e08c dfbb 1cab 6e3d 1812 28bd
00000060: 7494 203d c81a 9a3d 289b debd 5a31 f03d
00000070: bcb3 c3bd 0e73 d13d 342b a53d 9ac3 9d3d
00000080: 50e6 c1bc 300f 1dbc f068 b3bc f8d7 9abc
00000090: 004f 54bd 5226 84bd b084 cabc 202f 783d
000000a0: 609c 29bd c02f d3bb ca37 b9bd 44ba 833d
000000b0: d8f5 5fbd f452 37bd 20e6 2b3d 3404 80bd
000000c0: 14bf efbd 40ef e43c 6031 c1bb f256 d13d
000000d0: 48cb c63c 7e45 883d 08dc 14bd 76cc 90bd
000000e0: 90dd 8cbc 402b 72bc 1cc2 d23d 2a17 eebd
000000f0: d00f 2f3d 9491 49bd 52b5 933d 54c8 cd3d
00000100: c08a 82bb 0054 4f3a b005 8a3d 36f8 893d
00000110: e8fb d3bd c0c7 003d 0ab5 c0bd 6272 c43d
00000120: 0017 093d 36ba e4bd 2875 a1bc 901f d8bc
00000130: 721b 913d 20e3 84bb 101f 863d c029 f2bb
00000140: d877 753d 582e 2cbd 486f 873d f00b fcbc
00000150: b65e f63d d809 363d c0a1 003d 18f3 e1bd
00000160: ea47 cabd fc18 33bd 2e3c cf3d 6c5c 5bbd
00000170: a483 703d e012 f1bc ecfa 5abd 2212 b03d
00000180: 4084 6cbb dc10 863d ecfd 913d 98b3 90bd
00000190: e8ad f8bc 2246 c7bd b6dd c93d 6028 9dbc
000001a0: d2fc bfbd f0c8 b1bc 26d3 e23d 7c98 e7bd
000001b0: 2678 f5bd 3882 b73d 5071 9abd c224 9fbd
000001c0: 3895 403d c49e 5fbd 00de 8639 dc62 2d3d
000001d0: 50d0 483d 3c29 383d 8055 543b 14b5 4abd
000001e0: 6046 b23d c03b 27bb 30db c0bd 06c4 f03d
000001f0: f8b4 55bd dc6f bb3d e85c 223d 5a1d a3bd
00000200: 5894 d43c 406a 1e3c e8fc f83c c84b fdbc
00000210: 983f 9abc 30f1 56bd 8677 d63d 9c06 1ebd
00000220: d26b d4bd 6eac b93d 1abf c33d 723d ca3d
00000230: 7876 423d c4ff 543d ac5a 1cbd 68ed 3f3d
00000240: c28d bbbd d8c1 8bbd ca94 a6bd 26b1 fdbd
00000250: 8450 6cbd d85f e7bc 74e0 53bd d072 9a3d
00000260: 444a dd3d c8e8 7c3d 3683 fcbd 983a 9abc
00000270: c0c3 0f3c 8cd0 383d dc70 9e3d 5450 8fbd
00000280: fe13 9c3d 201c 993c 10fc 1b3c b6ed e13d
00000290: 9ec1 90bd d8a1 2dbd 5a8f d1bd 1e38 dc3d
000002a0: cc4e cebd d4fc 753d ee20 d8bd cea1 de3d
000002b0: e427 f53d a812 92bd 8acb e6bd 1478 f0bd
000002c0: 3c4b 81bd 543f d93d b49b c8bd 684f e83d
000002d0: 6ccc 773d b005 ce3c 18e3 12bd 90b4 8c3d
000002e0: a044 783c 6893 b0bc ae0e be3d 8cdd 6dbd
000002f0: e0f3 84bb 1274 d7bd 6c4e aabd 00e0 a9b9
00000300: caff c4bd dc5d 8f3d 2ae4 803d 38c1 a13d
00000310: 8eb2 a63d c868 403d b081 0c3d 308c b13c
00000320: 60a1 f33c b6d0 cfbd 249f b13d 14be f93d
00000330: faa2 afbd fab0 a73d 68ec 8fbd bc3b ec3d
00000340: 8a0f bc3d e4a1 d4bd 344a c53d ba43 993d
00000350: d07a 14bc 60e1 6ebc 02ad 84bd ba2f d3bd
00000360: 849b 113d 50d1 e2bd 9eda c3bd 94d1 0a3d
00000370: 9228 bc3d b07c 6f3d 0ad1 cf3d e42d 593d
00000380: e07f 16bd 3c29 753d c03c b7bc fcfc 20bd
00000390: 88ff 613d a86c 633d 00ef 023d 68c1 cd3d
000003a0: d856 ecbc 289d ae3c 405d 883b ca7c febd
000003b0: 00ff 46ba 9891 163d 9075 a63c 3efb e53d
000003c0: f0a7 46bc 3c05 2a3d 0006 d639 c868 cbbd
000003d0: 5ac2 e43d 06ba ac3d a0bd 173c 9042 8a3d
000003e0: e8b1 8bbd 48ce e5bc 2a10 ea3d c418 73bd
000003f0: d42a 0ebd 84e7 533d 6860 913c ccd4 93bd

joint_model.model.2.0.bias f4 [64]
0.10167162 0.019390285 -0.04001756 0.07385546 0.07340209 0.031150773 -0.089919165 0.033652917
-0.098836526 0.071998656 -0.102853715 0.08727799 -0.03422381 0.0513269 0.041510627 -0.108264655
0.06466982 -0.018828452 -0.09993538 0.021536514 -0.116923034 0.11000332 -0.08780548 0.08025855
0.07761444 0.0720098 0.05942753 0.07124649 0.015601873 -0.03888552 0.003922701 0.09395903
0.06382769 0.020730823 -0.10375117 0.030406311 -0.08552322 0.017648458 -0.04229404 0.017196447
-0.091141805 0.03594424 0.08569053 -0.09628558 0.078398705 -0.07894288 -0.09000306 -0.03039515
0.02004674 -0.07855289 0.0412087 -0.07398492 0.03905876 -0.03415212 -0.123323604 0.01610756
-0.05534035 -0.12227607 -0.071529254 0.042682305 -0.08334009 0.08432795 0.020840243 0.034692198
00000000: 3639 d03d 60d8 9e3c 74e9 23bd 8841 973d
00000010: d653 963d e82f ff3c 8a27 b8bd a4d7 093d
00000020: ce6a cabd 0874 933d f8a4 d2bd cebe b23d
00000030: 442e 0cbd 283c 523d 0c07 2a3d dcb9 ddbd
00000040: 9c71 843d 203e 9abc ecaa ccbd 586d b03c
00000050: 5875 efbd 6c49 e13d 5cd3 b3bd 985e a43d
00000060: 52f4 9e3d e079 933d 486a 733d aee9 913d
00000070: 009f 7f3c 6c46 1fbd 008a 803b 986d c03d
00000080: 18b8 823d b0d3 a93c 7e7b d4bd a816 f93c
00000090: cc26 afbd 8093 903c 843c 2dbd 90df 8c3c
000000a0: 8ea8 babd 443a 133d 847e af3d 6031 c5bd
000000b0: 808f a03d ceac a1bd 8653 b8bd 40ff f8bc
000000c0: 1039 a43c 56e0 a0bd 74ca 283d 6885 97bd
000000d0: 14fc 1f3d 18e3 0bbd 1691 fcbd 00f4 833c
000000e0: 90ac 62bd e06b fabd ee7d 92bd a4d3 2e3d
000000f0: 36ae aabd 22b4 ac3d 28b9 aa3c 6819 0e3d

joint_model.model.3.weight f4 [64, 64]
-0.0009999999 0.0009999998 0.0009999998 -0.000999999 -0.0009999998 -0.0009999998 0.001 -0.0009999998
0.0009999999 -0.0009999998 0.0009999998 -0.0009999998 0.0009999998 -0.0009999998 -0.0009999998 0.001
-0.001 0.0009999998 0.001 0.0009999998 0.0009999999 -0.0009999999 0.001 -0.0009999998
-0.001 -0.0009999998 -0.0009999998 -0.0009999999 0.0009999998 0.0009999998 0.0009999998 -0.0009999998
-0.0009999998 -0.0009999998 0.0009999999 -0.0009999997 -0.0009999932 0.0009999998 0.0009999999 -0.0009999998
0.0009999998 -0.0009999998 -0.0009999999 0.0009999999 -0.001 0.001 0.001 0.0009999997
0.0009999998 0.0009999999 -0.0009999997 0.001 -0.0009999998 0.0009999998 0.0009999998 -0.0009999998
0.0009999998 0.0009999998 0.0009999998 0.0009999985 0.0009999999 -0.0009999999 0.0009999998 -0.0009999999
0.0009999998 -0.0009999991 -0.001 0.0009999998 0.0009999998 0.0009999998 -0.0009999999 0.0009999998
-0.0009999999 0.0009999998 -0.0009999998 0.0009999999 -0.0009999998 0.001 0.0009999999 -0.0009999999
0.0009999999 -0.0009999998 -0.0009999999 0.0009999998 -0.001 0.0009999999 -0.0009999999 0.0009999999
0.0009999999 0.0009999998 0.001 0.0009999998 0.0009999998 -0.001 -0.0009999998 0.001
0.0009999999 0.0009999998 -0.0009999998 0.0009999998 -0.001 -0.0009999998 -0.0009999998 0.0009999999
-0.001 0.0009999999 0.001 -0.0009999999 0.0009999999 -0.0009999999 -0.0009999999 -0.0009999999
-0.0009999998 -0.0009999999 0.0009999999 -0.0009999999 0.0009999999 -0.0009999998 -0.001 0.0009999999
-0.0009999999 -0.0009999999 -0.0009999998 0.0009999999 -0.0009999998 0.001 -0.0009999999 0.0009999998
-0.0009999998 0.0009999996 0.001 -0.001 -0.0009999999 -0.0009999998 0.0009999998 0.0009999993
0.001 -0.0009999998 0.0009999999 -0.0009999999 0.0009999999 -0.0009999998 -0.0009999998 0.0009999999
-0.0009999998 0.0009999996 0.0009999999 -0.0009999998 0.0009999999 -0.001 0.0009999998 -0.001
-0.0009999999 -0.001 -0.001 -0.0009999998 -0.0009999999 0.0009999998 0.0009999997 -0.0009999999
-0.0009999998 -0.0009999998 0.001 0.0009999998 0.0009999998 0.001 0.0009999998 -0.0009999999
0.0009999998 -0.0009999998 -0.0009999998 0.0009999999 -0.0009999998 0.0009999998 0.0009999998 0.0009999998
-0.0009999991 0.0009999998 -0.0009999999 0.0009999999 -0.0009999998 0.0009999998 0.0009999999 -0.0009999998
-0.0009999983 0.0009999999 0.0009999998 -0.0009999996 0.0009999998 -0.0009999999 -0.0009999998 -0.0009999998
-0.0009999999 -0.0009999998 0.0009999998 0.0009999996 -0.0009999998 0.0009999998 0.0009999998 -0.0009999998
0.0009999997 -0.0009999996 0.0009999998 0.000999999 0.0009999998 -0.0009999998 -0.0009999999 0.0009999998
-0.0009999998 0.0009999997 0.0009999998 0.0009999998 0.0009999999 0.0009999998 0.0009999997 -0.0009999998
-0.0009999998 -0.0009999998 -0.001 0.0009999998 -0.0009999996 -0.0009999996 0.0009999998 -0.0009999999
-0.0009999998 0.0009999996 0.0009999999 -0.0009999998 0.0009999998 -0.0009999999 0.0009999996 0.0009999998
-0.0009999992 0.0009999998 -0.0009999999 0.0009999998 -0.0009999998 0.001 -0.0009999996 -0.0009999995
0.0009999981 0.001 0.0009999998 0.0009999998 0.0009999998 0.0009999996 -0.0009999998 0.0009999998
-0.0009999998 0.0009999995 -0.0009999999 -0.0009999998 0.0009999999 -0.0009999998 -0.0009999998 -0.0009999997
00000000: 6e12 83ba 6d12 833a 6d12 833a 6612 83ba
00000010: 6d12 83ba 6d12 83ba 6f12 833a 6d12 83ba
00000020: 6e12 833a 6d12 83ba 6d12 833a 6d12 83ba
00000030: 6d12 833a 6d12 83ba 6d12 83ba 6f12 833a
00000040: 6f12 83ba 6d12 833a 6f12 833a 6d12 833a
00000050: 6e12 833a 6e12 83ba 6f12 833a 6d12 83ba
00000060: 6f12 83ba 6d12 83ba 6d12 83ba 6e12 83ba
00000070: 6d12 833a 6d12 833a 6d12 833a 6d12 83ba
00000080: 6d12 83ba 6d12 83ba 6e12 833a 6c12 83ba
00000090: 3412 83ba 6d12 833a 6e12 833a 6d12 83ba
000000a0: 6d12 833a 6d12 83ba 6e12 83ba 6e12 833a
000000b0: 6f12 83ba 6f12 833a 6f12 833a 6c12 833a
000000c0: 6d12 833a 6e12 833a 6c12 83ba 6f12 833a
000000d0: 6d12 83ba 6d12 833a 6d12 833a 6d12 83ba
000000e0: 6d12 833a 6d12 833a 6d12 833a 6212 833a
000000f0: 6e12 833a 6e12 83ba 6d12 833a 6e12 83ba
00000100: 6d12 833a 6712 83ba 6f12 83ba 6d12 833a
00000110: 6d12 833a 6d12 833a 6e12 83ba 6d12 833a
00000120: 6e12 83ba 6d12 833a 6d12 83ba 6e12 833a
00000130: 6d12 83ba 6f12 833a 6e12 833a 6e12 83ba
00000140: 6e12 833a 6d12 83ba 6e12 83ba 6d12 833a
00000150: 6f12 83ba 6e12 833a 6e12 83ba 6e12 833a
00000160: 6e12 833a 6d12 833a 6f12 833a 6d12 833a
00000170: 6d12 833a 6f12 83ba 6d12 83ba 6f12 833a
00000180: 6e12 833a 6d12 833a 6d12 83ba 6d12 833a
00000190: 6f12 83ba 6d12 83ba 6d12 83ba 6e12 833a
000001a0: 6f12 83ba 6e12 833a 6f12 833a 6e12 83ba
000001b0: 6e12 833a 6e12 83ba 6e12 83ba 6e12 83ba
000001c0: 6d12 83ba 6e12 83ba 6e12 833a 6e12 83ba
000001d0: 6e12 833a 6d12 83ba 6f12 83ba 6e12 833a
000001e0: 6e12 83ba 6e12 83ba 6d12 83ba 6e12 833a
000001f0: 6d12 83ba 6f12 833a 6e12 83ba 6d12 833a
00000200: 6d12 83ba 6b12 833a 6f12 833a 6f12 83ba
00000210: 6e12 83ba 6d12 83ba 6d12 833a 6912 833a
00000220: 6f12 833a 6d12 83ba 6e12 833a 6e12 83ba
00000230: 6e12 833a 6d12 83ba 6d12 83ba 6e12 833a
00000240: 6d12 83ba 6b12 833a 6e12 833a 6d12 83ba
00000250: 6e12 833a 6f12 83ba 6d12 833a 6f12 83ba
00000260: 6e12 83ba 6f12 83ba 6f12 83ba 6d12 83ba
00000270: 6e12 83ba 6d12 833a 6c12 833a 6e12 83ba
00000280: 6d12 83ba 6d12 83ba 6f12 833a 6d12 833a
00000290: 6d12 833a 6f12 833a 6d12 833a 6e12 83ba
000002a0: 6d12 833a 6d12 83ba 6d12 83ba 6e12 833a
000002b0: 6d12 83ba 6d12 833a 6d12 833a 6d12 833a
000002c0: 6712 83ba 6d12 833a 6e12 83ba 6e12 833a
000002d0: 6d12 83ba 6d12 833a 6e12 833a 6d12 83ba
000002e0: 6012 83ba 6e12 833a 6d12 833a 6b12 83ba
000002f0: 6d12 833a 6e12 83ba 6d12 83ba 6d12 83ba
00000300: 6e12 83ba 6d12 83ba 6d12 833a 6b12 833a
00000310: 6d12 83ba 6d12 833a 6d12 833a 6d12 83ba
00000320: 6c12 833a 6b12 83ba 6d12 833a 6612 833a
00000330: 6d12 833a 6d12 83ba 6e12 83ba 6d12 833a
00000340: 6d12 83ba 6c12 833a 6d12 833a 6d12 833a
00000350: 6e12 833a 6d12 833a 6c12 833a 6d12 83ba
00000360: 6d12 83ba 6d12 83ba 6f12 83ba 6d12 833a
00000370: 6b12 83ba 6b12 83ba 6d12 833a 6e12 83ba
00000380: 6d12 83ba 6b12 833a 6e12 833a 6d12 83ba
00000390: 6d12 833a 6e12 83ba 6b12 833a 6d12 833a
000003a0: 6812 83ba 6d12 833a 6e12 83ba 6d12 833a
000003b0: 6d12 83ba 6f12 833a 6b12 83ba 6a12 83ba
000003c0: 5e12 833a 6f12 833a 6d12 833a 6d12 833a
000003d0: 6d12 833a 6b12 833a 6d12 83ba 6d12 833a
000003e0: 6d12 83ba 6a12 833a 6e12 83ba 6d12 83ba
000003f0: 6e12 833a 6d12 83ba 6d12 83ba 6c12 83ba

joint_model.model.3.bias f4 [64]
-0.0009999998 0.001 -0.001 -0.0009999999 0.0009999999 0.001 -0.001 -0.0009999999
-0.001 0.001 0.001 0.0009999999 0.0009999998 -0.0009999999 0.0009999998 0.001
-0.0009999999 -0.0009999999 -0.0009999998 0.0009999998 0.0009999999 -0.001 0.0009999999 -0.0009999998
0.0009999999 0.0009999999 -0.001 -0.0009999999 -0.0009999999 -0.0009999998 0.0009999998 0.001
0.0 0.0 0.0 0.0 0.0 0.0 0.0 0.0
0.0 0.0 0.0 0.0 0.0 0.0 0.0 0.0
0.0 0.0 0.0 0.0 0.0 0.0 0.0 0.0
0.0 0.0 0.0 0.0 0.0 0.0 0.0 0.0
00000000: 6d12 83ba 6f12 833a 6f12 83ba 6e12 83ba
00000010: 6e12 833a 6f12 833a 6f12 83ba 6e12 83ba
00000020: 6f12 83ba 6f12 833a 6f12 833a 6e12 833a
00000030: 6d12 833a 6e12 83ba 6d12 833a 6f12 833a
00000040: 6e12 83ba 6e12 83ba 6d12 83ba 6d12 833a
00000050: 6e12 833a 6f12 83ba 6e12 833a 6d12 83ba
00000060: 6e12 833a 6e12 833a 6f12 83ba 6e12 83ba
00000070: 6e12 83ba 6d12 83ba 6d12 833a 6f12 833a
00000080: 0000 0000 0000 0000 0000 0000 0000 0000
00000090: 0000 0000 0000 0000 0000 0000 0000 0000
000000a0: 0000 0000 0000 0000 0000 0000 0000 0000
000000b0: 0000 0000 0000 0000 0000 0000 0000 0000
000000c0: 0000 0000 0000 0000 0000 0000 0000 0000
000000d0: 0000 0000 0000 0000 0000 0000 0000 0000
000000e0: 0000 0000 0000 0000 0000 0000 0000 0000
000000f0: 0000 0000 0000 0000 0000 0000 0000 0000
