energy_sampling/rnd_model.pt (torch, 530339 bytes, 8 tensors)

target.0.weight f4 [256, 128]
000000 d5 dc b3 bd c7 6e da 3c 83 b0 76 3d db 30 9a 3d
       -0.08782355 0.02666415 0.06022693 0.0752885
000010 0b 30 eb 3c 28 0e c7 3c e4 ba 45 bd dc ec f0 3c
       0.028709432 0.024298742 -0.048273936 0.029409818
000020 e5 b6 83 3c 7a 49 d6 3c c8 76 5b 3d 0f 51 93 bd
       0.016078422 0.026158083 0.053580076 -0.07193195
000030 01 68 88 3d 10 5c a2 3d 81 d0 a9 bd 3c 9d e9 bc
       0.06660462 0.07927716 -0.08291722 -0.028517358
000040 79 a3 82 bd 5e b6 33 bd ad ad bf bc f3 fe 9f 3d
       -0.06378836 -0.04387509 -0.023398245 0.078122996
000050 9c 61 a7 bc ad f1 e3 bc ec 05 63 bd d1 82 d6 3c
       -0.020432286 -0.0278252 -0.05542557 0.026185425
000060 02 9c 83 3d 4a 6e 94 bd 9d 6d 91 3c 40 e7 47 3d
       0.064262405 -0.072475985 0.017752463 0.04880452
000070 da 80 21 bd e8 84 8c bb f1 9c cd 3b 71 38 8e bd
       -0.039429523 -0.0042883046 0.0062748124 -0.06944359
000080 77 33 e7 3c 85 24 58 b9 f4 3f 34 bd ed cf 06 3d
       0.028222783 -0.0002061297 -0.044006303 0.032913137
000090 8b e1 40 bd b7 b1 a4 bd d5 ea a7 3c 44 bc 2b bd
       -0.047090095 -0.08041709 0.020497719 -0.04192759
0000a0 89 b4 c1 3c a8 32 9f 3d f1 2d a7 3d e3 04 7e bd
       0.023645656 0.07773334 0.081630595 -0.06201638
0000b0 26 2c 03 3c fa 9b d8 bc cd f7 8a bc c1 7c 36 3d
       0.008006131 -0.026441563 -0.016963864 0.04455257
0000c0 67 b1 f7 3c 28 29 63 3d c6 ad a4 3d d9 bc 5a bd
       0.03023596 0.05545917 0.08040957 -0.053402755
0000d0 9b 78 48 3d f1 e6 6d bd 94 23 e7 3b 76 1e cc bc
       0.048943143 -0.05808157 0.007053802 -0.024916869
0000e0 28 42 48 bd c4 54 7c bc 48 59 07 3d 5f 24 a5 3d
       -0.048891217 -0.015401069 0.03304413 0.08063578
0000f0 d0 37 7b 3d f0 fe ac 3d 71 19 6a 3d 67 f4 c4 3c
       0.061332524 0.08447063 0.05715317 0.024042321
000100 10 ce 80 3d f7 66 00 bc 6b 6d 1d 3d f5 5a b8 3c
       0.06289303 -0.007837049 0.038434427 0.02250431
000110 90 07 9b 3c ab 4a 43 bd f7 5e 63 3d 30 b6 94 bc
       0.018924505 -0.04767863 0.055510487 -0.01815328
000120 df da 5f 3d 08 2c ae 3a 8b 92 8d 3d 76 c7 a2 bd
       0.05465209 0.0013288269 0.069127165 -0.079482004
000130 18 27 de bb c7 2a 64 3c e9 ab 66 bd 0f e8 8e bd
       -0.0067795627 0.013926215 -0.05631629 -0.069778554
000140 06 02 a6 3d a1 1e 86 3c ae a6 76 3d 62 b0 5a bc
       0.08105855 0.016372027 0.060217552 -0.013347717
000150 6f 14 75 3c d0 ce 8b 3d 8e 5d 2b bd f3 ca ab 3b
       0.014958485 0.06826556 -0.041837268 0.0052426993
000160 a8 67 ca bc 4f ad 7e 3d 2e 45 d8 3c 2e b1 45 bc
       -0.02470763 0.062177 0.026400175 -0.012066169
000170 0b c3 2c bd 8e 5f 4d 3d 8c a0 70 3d 2b 7e 8b 3d
       -0.042178195 0.050139956 0.05874686 0.06811174
000180 88 4d fe 3c c3 18 4e 3d 51 cb 8e 3d 76 f8 5f 3a
       0.03104283 0.050316583 0.06972373 0.00085437985
000190 66 85 8e 3d b4 d1 7a 3d b4 0b 47 3b 2e 9d 8a bb
       0.069590375 0.061235145 0.0030371966 -0.004230163
0001a0 17 f7 15 3d 90 4b 2a 3d 66 f9 9e bd 45 e8 fb 3c
       0.036612596 0.04157597 -0.07762413 0.030750403
0001b0 e7 19 25 3d b5 b9 ac bc 1a 12 73 bc bd 85 7b 3d
       0.040307906 -0.021084646 -0.014835859 0.06140684
0001c0 77 14 13 3c 21 c3 bb bc 23 75 1e 3d b3 a4 42 3d
       0.008977047 -0.022920193 0.03868593 0.04752035
0001d0 06 f9 48 3d 49 a8 6d bd cb a5 7d bc 9c b2 7d 3c
       0.049065612 -0.058021817 -0.015481423 0.015484478
0001e0 a1 31 8c 3d a8 42 5b bd 36 34 a9 3b 8c 8b 95 bd
       0.068454035 -0.053530365 0.0051636947 -0.07302007
0001f0 95 f8 37 bc db f9 02 bd 1d 2a a9 3c 25 e5 ec bc
       -0.0112287 -0.031976562 0.020649964 -0.028917858
000200 43 94 67 bd 56 67 85 bc 30 31 20 bd f9 4e 94 bc
       -0.056537878 -0.016284626 -0.03910941 -0.018104063
000210 d5 41 6b 3c 98 e2 1a 3d 3b 89 cd 3c 9c d1 64 3c
       0.014358957 0.037813753 0.02508985 0.01396599
000220 ba a0 8b 3d d7 e6 91 3d 1e e3 9c 3d 91 6e 85 3d
       0.068177655 0.07124107 0.07660507 0.065152295
000230 71 da b3 bd 64 bc 19 3d b7 a3 07 3d 2d f0 97 ba
       -0.08781899 0.03753318 0.033115115 -0.0011591964
000240 f0 57 50 bd e7 e4 87 3d 09 ff 65 bd fa 27 97 bc
       -0.050865114 0.066354565 -0.056151424 -0.01845168
000250 34 59 09 bd 45 64 04 3d 26 7e 27 3d 09 3b d4 3c
       -0.033532336 0.032322187 0.04089179 0.025907056
000260 ae 47 57 3d f2 54 b8 3b 2d 0d fb bc 56 8a 97 bd
       0.052558593 0.0056253606 -0.030645931 -0.07399432
000270 44 22 e0 3c 6c 97 bb bb aa 0d d9 3c a9 da a0 3d
       0.02736009 -0.005724838 0.026495773 0.07854206
000280 fc c5 6d bd 8d 19 4d 3d d2 3d 47 3d 89 2c 99 bd
       -0.05805014 0.050073195 0.04864294 -0.074791975
000290 c4 4f e4 bb 19 fc fe 3c 0d 9f c2 bc 6d 8b 56 3d
       -0.0069675166 0.031126069 -0.023757482 0.05237906
0002a0 ce 67 15 3d 52 d5 d3 3c f3 6c 3b bd 39 1e 64 bc
       0.03647595 0.025858555 -0.0457582 -0.013923221
0002b0 71 20 54 bd 0d b4 17 3d 65 02 9e 3c 58 a7 89 bd
       -0.05178875 0.037036944 0.019288251 -0.067213714
0002c0 8b b6 b0 3d 0f cc 19 3d 26 87 65 bd b4 10 0b 3c
       0.08628567 0.03754812 -0.05603709 0.008487869
0002d0 9d 9c c8 bc 11 cf 60 3c a5 8f 88 3d 39 2e 73 3d
       -0.024488742 0.0137212435 0.06668023 0.059370253
0002e0 65 da 8d bc 44 c4 a2 3d 89 c2 69 bc be ab b4 3c
       -0.017316053 0.07947591 -0.014267572 0.02205455
0002f0 a6 9c 41 3c d8 0b a8 3d 88 67 2b 3d 87 7d 99 3c
       0.011817133 0.08205384 0.041846782 0.018736614
000300 84 0c 59 3d 94 6d 87 bc 60 62 a0 3c f6 45 ae bd
       0.05299045 -0.016531743 0.019578159 -0.08509438
000310 a8 15 d2 bb 50 a6 37 bd 4f 93 20 bd c6 61 10 bd
       -0.006411273 -0.044836342 -0.039202984 -0.035249494
000320 77 7c 3f bd a7 69 5e bd 32 3c 69 bd 37 42 48 bd
       -0.04674956 -0.054299977 -0.056942172 -0.048891272
000330 66 67 49 3b 6d ff b8 3c cb e3 cf 3c a4 eb 0b 3c
       0.0030731796 0.022582734 0.025377175 0.008540068
000340 f8 a6 1b bd b1 07 8f 3d 90 47 80 bd 4f 66 a5 bd
       -0.03800103 0.06983889 -0.062636495 -0.080761544
000350 27 e4 df bc 8e 1e 64 3d 38 20 20 3c a5 e1 89 3c
       -0.027330471 0.0556932 0.009773307 0.016831229
000360 fd ae b9 bc 15 12 81 bc fa 09 bb bc 92 d7 6b bd
       -0.022666449 -0.015755692 -0.022831906 -0.05757863
000370 24 f1 83 3c c4 c4 91 3d 25 8a 7e bd 74 32 66 3b
       0.016106196 0.07117608 -0.062143464 0.0035125287
000380 2b 13 ac bd da f9 f8 bc f2 66 29 bd 22 d0 a7 3d
       -0.084020935 -0.030392576 -0.041357942 0.08193995
000390 68 75 0a bc 56 eb 6b bd e2 d7 47 bc ff e0 89 3d
       -0.008450843 -0.05759748 -0.012197467 0.06732368
0003a0 10 4c 6f bc 48 ad 10 3d ca 39 3c 3d b7 95 f3 bb
       -0.014605537 0.035321504 0.04595355 -0.007433619
0003b0 06 0c af bd 3b b7 94 bd fb 47 4c 3c f5 18 70 3d
       -0.08547215 -0.07261511 0.012468333 0.05861755
0003c0 18 b3 2f bd 0f 1f fe bb ac 83 68 bd 17 5d 68 3c
       -0.042895406 -0.0077551673 -0.056766197 0.014182351
0003d0 55 f6 88 bc 85 ac d9 3c fa 69 c2 bc a9 e8 31 3d
       -0.016719023 0.026571522 -0.023732174 0.043434773
0003e0 43 87 b2 3d 32 a8 9f 3d bf 16 59 3d c8 45 57 ba
       0.087172054 0.077957526 0.053000208 -0.00082119973
0003f0 af ae 12 3d 5a c4 b1 bc 89 3f 9f 3b 38 32 97 bd
       0.035811123 -0.021700073 0.004859869 -0.07382625

target.0.bias f4 [256]
000000 4a 2e 80 3d 17 2e 34 bd db b3 ab bd e5 2f 57 3d
       0.06258829 -0.043989267 -0.08383914 0.05253591
000010 e5 f0 15 bd e4 50 88 3c fe 1d 3e 3d a9 42 1b bd
       -0.036606688 0.016640134 0.04641532 -0.03790537
000020 42 ca 65 3d ea a5 09 3c 5f f6 44 3a 76 37 d7 bc
       0.05610109 0.008401373 0.0007513519 -0.026271563
000030 0b 5c 64 bd cd 15 15 3d ec 35 4b 3d b4 0a 95 bd
       -0.05575184 0.036397744 0.04961197 -0.07277432
000040 f5 48 85 3d 1f a1 9e bd 21 e5 2e 3d d8 99 7e bd
       0.06508056 -0.07745575 0.042698983 -0.062158436
000050 22 01 77 3d ee 06 a9 bd f3 7c fa 3b 5f 5b 59 3d
       0.060303815 -0.08253275 0.0076442896 0.053065654
000060 ce 1d 68 bd 08 4a a3 ba bc f6 16 bd e0 db 68 bd
       -0.05666905 -0.0012457976 -0.036856398 -0.056850314
000070 27 c0 a5 3b 8a 85 64 3d f9 fc 8d bd b6 72 bc ba
       0.0050583067 0.055791415 -0.06933016 -0.0014377448
000080 33 c9 4b 3d 7c 39 9b 3d fd 1a 77 3d 1b 19 47 3d
       0.049752425 0.07579324 0.060328472 0.048607927
000090 39 d6 3d bd e5 22 50 3d b5 16 58 bd f6 69 45 bd
       -0.046346877 0.050814528 -0.05275603 -0.048196755
0000a0 4e f6 72 bd 37 75 b7 bc 38 55 a9 bd 3f b5 8f bd
       -0.059316926 -0.02239476 -0.08268207 -0.07016992
0000b0 22 95 f0 bc 65 2a 92 3d b6 d1 74 bd e0 bb 8d 3d
       -0.029367987 0.07136992 -0.05977031 0.069206
0000c0 44 88 8c 3c 7b fa a2 ba 58 ac ac bd 77 aa 88 bd
       0.01715482 -0.0012434268 -0.084313095 -0.066731386
0000d0 32 f2 ee 3c c0 41 ee bc 07 c2 e9 3c 77 eb 4c 3d
       0.029168222 -0.029084086 0.028534902 0.050029244
0000e0 dc f2 41 3d 70 70 4d 3c be 0f 0b bd 3b 4b 20 bd
       0.04735075 0.012539014 -0.03395056 -0.039134245
0000f0 06 d3 79 bc 94 dc 5c bd f1 92 9a bd 3a 7c 05 bd
       -0.015248066 -0.053921297 -0.07547558 -0.032589175
000100 dc 66 96 bd 69 72 83 3d 6a e6 96 3c 92 36 2c bd
       -0.073438376 0.064183064 0.018420417 -0.04204423
000110 da 2f 8b bd 6f 98 29 bd 3a a1 a6 3d 7f e1 98 bd
       -0.06796236 -0.041405138 0.0813622 -0.07464885
000120 d0 74 83 bd 25 8a 5c bc 0f 93 7e 3d 36 0b 14 3d
       -0.064187646 -0.013460671 0.062151965 0.036143504
000130 17 9a 7d 3d f5 d9 b2 3d 5b b0 99 bd b4 87 a3 bd
       0.06191453 0.08732978 -0.0750434 -0.07984868
000140 45 7d a4 3b 0c bf 98 bd b7 df 8a bc 30 c0 87 3d
       0.005019816 -0.07458314 -0.016952379 0.06628454
000150 1e db 52 3c 09 4c 35 bd 77 29 f2 3b e0 9c 95 3d
       0.012869624 -0.044261966 0.007390197 0.07305312
000160 4e ed 8a bd 2b 41 0a 3b e8 bf 19 bd 61 cf d7 bc
       -0.067835435 0.0021095972 -0.03753653 -0.026344003
000170 50 50 8b 3d b3 58 1b 3d db 7d 3b bd c4 3b 19 3d
       0.06802428 0.037926387 -0.045774322 0.037410513
000180 49 c1 d6 3c 8d 2c 2a bd 77 4d 52 bd e0 1a b0 3c
       0.026215212 -0.041546393 -0.051343407 0.02149719
000190 77 a6 6c bd a9 6e 42 3d a2 94 ad bd 0f e8 91 bd
       -0.05777594 0.047468815 -0.08475615 -0.0712434
0001a0 a6 9a 84 3d 72 c2 b0 3d 78 d8 64 3d 6e e9 2d bd
       0.06474809 0.086308375 0.055870503 -0.042458944
0001b0 49 7e 80 3d c7 32 48 bd d4 8b a1 bd fe 6c 1e 3d
       0.06274087 -0.04887655 -0.07887998 0.03867816
0001c0 10 31 a4 bd c5 e9 43 3d 05 f5 4d bd d4 ba 8b 3d
       -0.080171704 0.047830362 -0.050282497 0.06822744
0001d0 be da ab 3d 1d ad 6d bd cc 0b a6 3d 22 76 c1 bc
       0.08391331 -0.05802642 0.08107719 -0.0236159
0001e0 fa e9 04 3c 95 a6 c3 3c ee 5f 77 3d 46 56 38 3c
       0.008112425 0.023883143 0.06039422 0.011251038
0001f0 07 69 4a 3d ee 85 9e 3d fa 1c af bb 0e e4 19 bd
       0.049416568 0.07740389 -0.0053440304 -0.037571006
000200 e6 74 23 3c a3 fd b4 bd 57 fc 90 3d c7 34 2f 3d
       0.009976601 -0.0883744 0.0707938 0.04277494
000210 bf 76 90 ba 45 9c 87 3d be 5b 2b 3d 37 ed 0a 3d
       -0.0011021717 0.06621603 0.04183554 0.033917632
000220 cb e3 21 3c 8d 69 6f 3d b9 63 e8 bc 0f 15 1e bd
       0.00988097 0.05845027 -0.028367864 -0.0385943
000230 75 26 27 3d b1 8c 8d bd ad ce 96 bd 3b 6e 1e bc
       0.04080816 -0.069116004 -0.07363639 -0.009669836
000240 4f 3b a6 bd 3c 35 98 bd 34 ec 8f bd 1d 55 4f 3d
       -0.08116781 -0.07432029 -0.07027474 0.05061828
000250 14 e4 b4 3d 80 36 a9 bd ce a3 db bc f0 61 82 3d
       0.08832565 -0.08262348 -0.026811507 0.06366336
000260 48 34 f0 3c 8d d6 9e 3c 57 98 3f bd 42 f8 be 3c
       0.029321805 0.019389415 -0.046776142 0.023311738
000270 66 76 2c 3d 26 c9 98 bc d5 3b a4 3d 6a 92 2d bd
       0.0421051 -0.018650603 0.080192246 -0.04237596
000280 8e 2b a5 3d 57 94 83 3d ec 33 a1 bc d4 73 16 3d
       0.08064948 0.06424778 -0.019678079 0.036731556
000290 b9 b9 3e 3b b0 53 77 3d b2 d9 32 3c c6 25 b4 3d
       0.0029102399 0.060382545 0.01091616 0.08796267
0002a0 75 12 90 3d c8 34 ae 3d a8 b9 79 bc 3c bf 8d 3d
       0.070347704 0.08506161 -0.015242018 0.06921241
0002b0 1b b6 8b 3d 42 09 33 3d e3 62 86 bd 88 0c 1d bd
       0.06821843 0.04371 -0.0656183 -0.03834203
0002c0 3d 68 e2 bc b7 51 35 bc 51 59 7a bd 45 ba 78 3d
       -0.027637595 -0.011066846 -0.061120335 0.060724515
0002d0 f8 1d 36 bd d8 27 97 3d 84 1e 07 3c 97 10 ab bd
       -0.044462174 0.073806465 0.008247022 -0.08352774
0002e0 72 f3 2c 3d 9b 26 65 3d cb f3 cb bc 65 c3 dd 3c
       0.042224355 0.05594502 -0.024896523 0.02707071
0002f0 2c 1b 8e bd e6 cd ab 3d 1a 4a 89 3c 38 d4 5d 3d
       -0.069387764 0.083888814 0.016758967 0.054157466
000300 c0 5b 80 bd 4e ee ff bc b6 7c 0a bd b6 85 ab 3d
       -0.062675 -0.031241562 -0.03381034 0.08375113
000310 17 a3 30 3d e2 b8 af 3d 21 3c eb bc 9f 21 7a bd
       0.043124285 0.085801855 -0.028715195 -0.06106722
000320 15 fe 6a 3c 98 18 f8 3c cc 66 5f 3b 74 32 91 3d
       0.014342804 0.030285165 0.0034088371 0.07089701
000330 01 f7 56 bd 82 2d 39 3d 81 38 39 bd de 05 63 bd
       -0.052481655 0.045209415 -0.045219902 -0.055425517
000340 ff 34 01 bc 94 42 46 bc e8 68 aa 3c 94 20 ff bc
       -0.00788617 -0.012100834 0.020801976 -0.031143464
000350 3d b8 b2 bd ea d8 1e 3d 37 8a 59 bd f8 62 2f bd
       -0.08726547 0.038781084 -0.053110328 -0.042818993
000360 fa d5 59 3c 9e 7a 17 bd 5f ac b1 bd 13 ec 95 bc
       0.013295645 -0.03698217 -0.08675455 -0.018301046
000370 9b 05 02 bd 56 1a 05 bd 23 ab be bb ac c2 40 3d
       -0.031743627 -0.03249582 -0.005818741 0.047060654
000380 b1 fe 74 bd 97 e4 51 bd 3b 12 db 3c 19 b1 e5 3c
       -0.059813205 -0.05124339 0.026742091 0.028038548
000390 90 31 f0 3c b9 50 2c bd 99 3e 05 bd b0 60 50 bd
       0.029320508 -0.04206917 -0.0325304 -0.05087346
0003a0 00 2c 99 bd 89 33 75 3d 0e 1c a9 3d 2e a1 95 bd
       -0.074790955 0.0598636 0.08257304 -0.07306133
0003b0 f3 7a 78 bd f6 14 19 3c 62 72 ab bc 6c 35 84 bc
       -0.06066413 0.009343376 -0.020928565 -0.016138755
0003c0 2f 22 3b 3d ed 80 3b 3d a0 79 ac 3c 1f f5 81 bd
       0.045686897 0.04577725 0.02105409 -0.06345581
0003d0 d6 32 15 3d b5 17 e8 bb 17 f5 4a 3d e2 8a a8 bc
       0.036425434 -0.007082904 0.049550142 -0.020574037
0003e0 02 44 69 3c 24 46 89 3d 14 a2 4f 3d 31 09 b2 bd
       0.014237406 0.067028314 0.05069168 -0.08693159
0003f0 ba 40 b4 3d 63 45 d2 3c 2c ad 7d 3d c1 90 29 bb
       0.08801408 0.025667852 0.061932728 -0.0025873634

target.2.weight f4 [128, 256]
000000 70 4e 6e bd 04 a0 74 3d 94 4b ee bc ea 96 42 bd
       -0.058180273 0.059722915 -0.029088773 -0.047507204
000010 bc 5f 5e bd 06 6a 47 bd 46 1e 07 3d fa 24 20 3d
       -0.05429052 -0.048685096 0.032987855 0.039097764
000020 c2 8d 39 3d f6 90 6a 3d aa ea 79 bd 00 1f e9 b9
       0.045301206 0.05726715 -0.06101481 -0.0004446432
000030 ee 7b 04 bd 72 02 15 bd bc 25 4e 3d 1c 96 d0 bc
       -0.03234475 -0.036379285 0.050328955 -0.025462203
000040 58 3f 89 3c 4a b2 1a bd 7e 0d 48 3d 90 ce b5 3b
       0.016753837 -0.037767686 0.048840992 0.005548306
000050 94 d5 01 bd c0 ae 4e bd 40 a0 42 3b e8 25 dd bc
       -0.031697825 -0.050459623 0.0029697567 -0.026995614
000060 d4 43 01 bd ac c6 1c 3d 78 ce 4b bc 6c 61 30 3d
       -0.031558827 0.038275406 -0.012439363 0.04306166
000070 e0 aa fa 3b a0 a4 3c bc 48 c1 1a bc 2e 5d 41 bd
       0.0076497644 -0.011513859 -0.009445496 -0.047208004
000080 94 7c e5 3c a8 f1 26 3d 88 42 18 3d 3e d6 75 3d
       0.028013505 0.040757805 0.037172824 0.06001877
000090 70 e0 01 bc d8 97 f9 3c e0 6b 5a bd 50 85 a6 3b
       -0.007927045 0.030467913 -0.053325534 0.00508181
0000a0 ae a0 29 bd 44 81 26 3d 14 7d 74 3d 98 f6 25 bd
       -0.041413 0.04065062 0.059689596 -0.040518373
0000b0 a0 b8 22 3b 24 69 ab bc 40 6d d0 bb dc 3d a2 bc
       0.0024829283 -0.020924158 -0.00636068 -0.019804887
0000c0 18 82 2a 3c 3a cb 64 3d 72 9c 70 3d 58 f5 b4 3c
       0.010406993 0.055857874 0.058742948 0.022089645
0000d0 78 10 dd 3c 5e f0 56 bd 34 b1 96 3c c2 1e 45 bd
       0.026985392 -0.052475326 0.018395044 -0.048125036
0000e0 6c f4 35 3d 3a 9b 79 3d 50 1f d3 3c ee 6b 2b bd
       0.044422552 0.06093905 0.025771767 -0.041850977
0000f0 1a 0d 25 bd d8 13 4c 3c 50 dc d5 3b 34 15 bf bc
       -0.040295698 0.012455903 0.0065265074 -0.02332554
000100 00 4f 0f bd d8 da 7a 3c d4 41 69 bd a0 cc ac bb
       -0.03498745 0.0153109655 -0.056947544 -0.0052734166
000110 60 24 28 bd 00 00 80 35 b0 38 e6 bc 9c 98 ed 3c
       -0.041050315 9.536743e-07 -0.028103203 0.029003434
000120 24 9b 07 bd dc 6c 39 3d f0 65 1d 3d 50 f1 56 bc
       -0.033106938 0.045269832 0.038427293 -0.013119057
000130 4e ed 2d 3d 3e a5 6b bd 34 7e 29 bd b0 b2 9b bc
       0.04246264 -0.057530634 -0.041380122 -0.019006103
000140 34 e7 c2 bc e0 ff 66 bb f8 d2 4a 3d 96 d2 77 3d
       -0.023791887 -0.0035247728 0.0495176 0.060503565
000150 30 40 d1 bb 88 24 09 bc e0 32 3d 3d bc 04 94 bc
       -0.0063858256 -0.008370526 0.046191096 -0.018068664
000160 54 26 97 3c 5c 05 fc 3c 70 4a c6 bc 70 7b 04 bd
       0.018450893 0.030764274 -0.024205416 -0.03234428
000170 40 2c eb ba 78 3c 76 3c 60 44 9f 3c a0 ce 3c bc
       -0.0017942265 0.015029065 0.019441783 -0.011523873
000180 6c 68 b0 bc 86 f8 11 bd 60 d1 3b 3b 68 65 f3 bc
       -0.021534167 -0.0356374 0.0028658733 -0.02971144
000190 a2 4f 72 3d 9e e7 33 bd 00 2e 02 3b d4 0d 59 3d
       0.059157975 -0.04392206 0.0019863844 0.052991703
0001a0 88 49 ce bc 20 e0 6e bc 78 ac 70 bc e0 d5 18 3b
       -0.025181547 -0.014579803 -0.014689557 0.0023320839
0001b0 d4 b6 d8 3c ec d8 6a 3d 02 8e 05 bd d0 20 bb bb
       0.026454367 0.05733578 -0.032606132 -0.0057106987
0001c0 be 36 63 bd 92 5d 6a bd d0 6a 00 bd 90 8d 9b bc
       -0.055472128 -0.05721814 -0.031351864 -0.0189884
0001d0 c0 2b 20 3c 28 28 1a 3c 10 cd a7 bc 82 08 3c 3d
       0.009776056 0.009408988 -0.020483524 0.04590655
0001e0 9c ab cc bc 80 dc 1b bc 30 b1 5b 3d 4e 95 6d 3d
       -0.024984173 -0.0095130205 0.053635776 0.058003716
0001f0 74 cf f1 3c e0 c3 ab 3b 10 89 5f 3d 16 54 03 3d
       0.029517867 0.005241856 0.054574072 0.032062612
000200 80 60 fe bb ee 4a 41 bd 38 96 78 bc 0a 7b 06 bd
       -0.0077629685 -0.0471906 -0.015172534 -0.032832183
000210 10 f0 6c bd 34 13 2d bd c6 3d 38 3d 74 ef d9 3c
       -0.05784613 -0.04225464 0.044980787 0.026603438
000220 68 11 47 bc d8 a2 33 bd e0 9e a3 bc 6c ed e6 3c
       -0.012150146 -0.04385647 -0.019973218 0.028189383
000230 90 1b 7f bd 74 36 86 3c 00 00 a5 b9 a0 28 08 bb
       -0.062282145 0.016383387 -0.00031471252 -0.0020776168
000240 9c 6a 39 bd 26 39 11 3d ac b6 9c bc 50 79 12 bc
       -0.045267686 0.03545489 -0.019130073 -0.008940056
000250 30 1b 6d bd 30 47 08 bd fc 05 bd bc f4 ae 78 3d
       -0.057887256 -0.033271015 -0.023074143 0.060713723
000260 c2 eb 13 bd 00 98 df 3b a0 ca 5f 3b 90 a8 5d bd
       -0.036113508 0.0068235397 0.0034147874 -0.05411583
000270 80 1d 11 3c b2 fa 72 3d 7c c2 d2 3c 20 9b ba 3b
       0.008857131 0.059321113 0.025727503 0.005694762
000280 38 2e 61 bc 88 a4 fc 3c 24 de 9a 3c 6c 59 d6 3c
       -0.01374393 0.030840173 0.018904753 0.026165687
000290 54 62 6b bd d4 2d 21 3d 90 8f f4 bb 60 23 fd bb
       -0.05746682 0.039350346 -0.007463403 -0.0077251643
0002a0 e0 ed 57 3d a0 d2 58 3c ec ab 3a bd cc 84 22 3d
       0.05271709 0.013233811 -0.045574114 0.039677426
0002b0 00 6a 32 ba 88 53 c2 bc a0 5a 3f 3d cc f7 15 bd
       -0.00068059564 -0.023721471 0.046717286 -0.03661327
0002c0 24 b5 c9 3c 48 0a 3f 3d 44 2e f0 bc 62 40 2f 3d
       0.024622507 0.046640664 -0.029318936 0.04278601
0002d0 e4 d9 3b 3d 0e 12 79 bd 3e b8 14 3d ba 8b 37 bd
       0.045862094 -0.060808234 0.03630852 -0.044810988
0002e0 fc eb 7a bd 88 0b 03 bd e4 52 19 bd 00 18 bb 39
       -0.06126021 -0.03199342 -0.037432566 0.000356853
0002f0 40 dc 91 ba 00 37 58 bc 40 e2 ba 3a 42 ef 5f bd
       -0.0011128262 -0.013196707 0.0014258102 -0.054671533
000300 2e a1 13 bd 90 a9 94 3b 00 84 b8 b8 94 5e 3d 3d
       -0.036042385 0.004536815 -8.7983906e-05 0.046232775
000310 60 73 0f 3b 9e 93 26 bd 88 20 cc 3c ac ea d6 bc
       0.0021888837 -0.040668122 0.024917856 -0.026234947
000320 d6 93 32 3d 5a 75 3f 3d d8 3e af bc 16 c2 12 bd
       0.04359802 0.046742775 -0.02139227 -0.035829626
000330 92 26 37 bd b8 2b a1 bc 8c a6 32 bd 68 6d 47 bc
       -0.044714518 -0.019674167 -0.043615863 -0.012172081
000340 a0 3b 9d bb 78 b1 72 bc 44 7c 6a 3d 24 bf 6c bd
       -0.0047983676 -0.01481282 0.057247415 -0.057799473
000350 c0 01 79 3c 9e 8b 73 bd b8 0a 2f bd ba 0a 37 bd
       0.015198171 -0.05945932 -0.04273483 -0.044687964
000360 8c 5a c8 bc 2a e4 25 3d 96 1b 02 3d 5e db 7d 3d
       -0.024457239 0.040500797 0.03176459 0.061976783
000370 a0 a3 f2 3b a8 00 72 bc 1a d2 1f bd c6 cd 50 bd
       0.0074047595 -0.014770664 -0.039018728 -0.05097749
000380 b0 59 bd 3b f6 56 62 3d e2 8a 2b 3d ec 72 de 3c
       0.005778514 0.055258714 0.041880496 0.027154408
000390 ec 3d d3 bc 6c 2d 0d 3d 64 34 59 bd 38 3d 66 bd
       -0.025786363 0.034467146 -0.05302848 -0.056210726
0003a0 90 51 35 bd fa 31 34 3d 58 e5 12 3d 2c a6 86 bc
       -0.044267237 0.043992974 0.03586325 -0.016436659
0003b0 1e 82 31 3d 6c d6 00 3d 8c 08 37 3d a6 29 25 3d
       0.04333698 0.03145449 0.044685885 0.040322922
0003c0 08 1c 8f bc 10 09 39 bc fc 21 6c bd 90 58 6c bd
       -0.017469421 -0.011293665 -0.057649598 -0.057701647
0003d0 a8 d9 09 3c 80 ff d1 3a 48 fb f5 3c 08 66 be bc
       0.00841371 0.001602158 0.030027047 -0.023242012
0003e0 10 21 b1 bb f6 cb 3d bd 80 d2 a7 3c de 11 5f 3d
       -0.0054055527 -0.04633709 0.020486116 0.0544604
0003f0 d0 10 a8 3c d8 1e 52 bd c8 72 75 3d 3c 12 a5 bc
       0.02051583 -0.051298946 0.059923917 -0.020150296

target.2.bias f4 [128]
000000 f8 f3 d3 3c d0 db 95 3b 80 ef a1 3b 8e 13 5a bd
       0.02587317 0.004573323 0.0049418807 -0.053241305
000010 78 ea 6a bc b8 82 03 3c 30 79 df 3c 48 23 05 3d
       -0.014338128 0.008026771 0.027279466 0.03250435
000020 b0 56 9e 3c 00 d4 c1 bc de a0 41 3d 00 10 16 38
       0.019328445 -0.02366066 0.047272556 3.5777688e-05
000030 46 92 60 bd ec 06 1b bd 28 28 82 3c f4 0f 1b 3d
       -0.054826997 -0.037848398 0.015888289 0.03785701
000040 ae 12 3f bd 68 3f f5 bc b4 09 e6 3c 18 bc 43 bd
       -0.046648674 -0.029937461 0.028080799 -0.047786802
000050 e0 2a 93 3b 88 24 11 3c e6 28 1c 3d 60 b8 ec bc
       0.004491195 0.008858807 0.03812494 -0.02889651
000060 30 06 bc 3c 52 43 32 3d 22 6e 74 bd 74 3b a9 3c
       0.02295217 0.043521233 -0.059675343 0.020658232
000070 fc ff 6f bd 48 5a a7 bc d8 f6 0d 3c 40 e5 bf bb
       -0.058593735 -0.020428792 0.008664809 -0.005856186
000080 c0 82 80 3b ae 62 2c 3d 60 c3 71 3b 30 bd 81 3c
       0.0039218366 0.042086296 0.0036890134 0.015837282
000090 c0 16 e8 3b 70 af 82 bc c4 2c d2 bc 96 41 20 3d
       0.00708279 -0.015952796 -0.025656112 0.039125048
0000a0 36 b7 23 3d 54 70 53 bd 52 ed 1e bd 18 91 7b bc
       0.039969645 -0.051620796 -0.038800545 -0.015354417
0000b0 32 37 22 bd 10 07 28 bd 22 b7 4d bd 60 cd 8d 3b
       -0.03960342 -0.04102236 -0.050223477 0.004327461
0000c0 9e 04 31 bd e8 0b 12 bc 10 d3 22 bc b8 f6 2f 3c
       -0.043217294 -0.0089139715 -0.0099380165 0.010739975
0000d0 bc fb ff 3c 60 e6 6f 3c 58 62 5f 3d fe 09 4b 3d
       0.031247966 0.014642328 0.054537147 0.049570076
0000e0 20 1e df 3c 8a 43 66 3d 02 c3 06 bd 18 43 03 3c
       0.027236044 0.056216754 -0.032900818 0.008011602
0000f0 80 fa 02 bd 56 a6 66 3d ce 55 4a 3d 2a 72 6c 3d
       -0.031977177 0.056310974 0.049398236 0.057726063
000100 f8 04 49 bd 4a b0 11 bd 46 a3 7d bd ec 6a 29 bd
       -0.049077004 -0.035568513 -0.061923288 -0.041361734
000110 06 98 01 3d d8 86 44 3c be 22 58 3d 00 08 2b bb
       0.03163912 0.01199504 0.052767508 -0.0026097298
000120 1c af f1 3c b2 6e 55 bd 24 ac 2c 3d 40 e1 d8 bc
       0.029502444 -0.05210752 0.042156354 -0.026474595
000130 58 14 22 bd a8 ec 0e bd d0 83 cc bc e8 2f 37 bc
       -0.039570183 -0.03489366 -0.024965197 -0.011180855
000140 16 51 5a 3d 18 a6 75 3c c0 52 52 bc f0 05 6d 3c
       0.053299986 0.014993213 -0.012837112 0.014466748
000150 f0 01 35 3d 16 30 5b bd e4 a7 32 bd 32 83 22 3d
       0.0441913 -0.053512655 -0.043617144 0.0396759
000160 ca 27 60 bd e0 f3 f7 3c 20 83 a8 bc ba ad 40 3d
       -0.054725446 0.030267656 -0.020570338 0.04704068
000170 8c fb 9d 3c a4 73 66 3d 44 1d fa 3c 66 26 31 3d
       0.019284986 0.056262627 0.030531533 0.04324951
000180 c4 89 f9 bc 90 12 cc bb c8 78 05 bc 36 90 79 bd
       -0.0304612 -0.0062277988 -0.008146472 -0.060928546
000190 c4 a6 67 bd 82 2a 13 bd 0c c8 fb 3c 60 c3 d1 bb
       -0.056555524 -0.03592921 0.030735038 -0.0064014643
0001a0 ce 48 0f 3d 48 e4 a2 bc 8c 3a 65 bd a0 87 79 bb
       0.03498154 -0.019884244 -0.055964038 -0.0038075224
0001b0 2e dc 42 3d e4 20 a6 bc 34 43 cc bc 80 3e c6 3c
       0.04757326 -0.020279355 -0.024934389 0.024199724
0001c0 80 aa 36 3a c4 76 68 3d cc 83 43 bd e0 ea 16 3d
       0.00069681555 0.05675389 -0.047733113 0.036845088
0001d0 f8 42 ef bc 16 8c 31 bd 88 c0 72 bd 30 45 4c 3c
       -0.029206738 -0.043346487 -0.059265643 0.012467667
0001e0 54 7c 7d bd f6 9a 62 bd 50 6c 60 3c e0 9e 85 bb
       -0.061886147 -0.055323564 0.013697699 -0.0040777773
0001f0 88 86 2f bc 30 0d 8d bc 84 22 e1 3c 4c 02 be 3c
       -0.010713227 -0.017218202 0.027482279 0.023194455

predictor.0.weight f4 [256, 128]
000000 0b 2e 98 3d 54 52 a0 3c 0f fc b2 bd c1 d1 bf bd
       0.07430657 0.019570507 -0.087394826 -0.09366179
000010 2d b9 92 bc 6a be 20 bd 88 cb 54 3c 0d 4a a7 3c
       -0.017910564 -0.039244093 0.012987979 0.020421052
000020 ca 6f 87 bd e0 3d db 3c 5e 46 3f 3d 28 7e 0e bd
       -0.06613119 0.026762903 0.046697967 -0.03478828
000030 c2 40 a9 3d e0 63 6f bc 1e f3 64 3d 62 29 83 bd
       0.08264305 -0.014611214 0.055895917 -0.064043775
000040 b3 ac b3 3d 4d e4 99 3a d8 3c a8 bc 1f 66 d2 bb
       0.08773174 0.0011741013 -0.020536825 -0.006420865
000050 a0 81 dd 3c 68 78 76 bd c4 b6 36 3d b5 8f 89 3d
       0.02703935 -0.060173422 0.044607893 0.06716863
000060 f0 a8 8e 3b 27 0a ae 3d 3f 46 6a bd f6 61 8c 3d
       0.004353635 0.0849803 -0.0571959 0.06854622
000070 a2 12 90 3d 54 6e 83 3c e5 1a 8d 3b 2a 67 d1 3c
       0.07034804 0.01604382 0.0043061846 0.025561888
000080 bc b5 09 bd a7 ab 9f bd 61 8a 13 bc 32 09 43 bd
       -0.03362058 -0.07796412 -0.00900516 -0.04761619
000090 88 fe 77 3c 73 45 36 bc da 57 14 3c 64 43 7a bd
       0.015136369 -0.011124956 0.009054149 -0.061099425
0000a0 3d 2e 1e bd bb f1 91 bd bc 24 b7 bc 67 43 c0 3d
       -0.038618315 -0.071261846 -0.022356384 0.09387856
0000b0 19 d8 f3 3c 1c 57 86 bc 24 27 c4 bd 42 82 a7 3d
       0.02976613 -0.016398959 -0.09577778 0.081791416
0000c0 16 2d cb bc 07 eb 9d bd 0f ee 27 bd 52 63 a6 bd
       -0.024801772 -0.077108435 -0.040998515 -0.081244126
0000d0 9c 5d 85 bd 66 29 79 3d 05 4b 35 3d d9 1a 1f 3c
       -0.06511995 0.060830496 0.044260997 0.009710991
0000e0 a0 c0 35 bc d2 3c 83 3d 16 25 95 3d 8c 3c f0 3c
       -0.011093289 0.06408085 0.07282464 0.029325746
0000f0 6e 1d e2 bb be a2 ae bc d3 fd 0c bd 91 53 1c bd
       -0.006900481 -0.021317836 -0.034421753 -0.038165633
000100 a4 02 9a 3b 36 9b 50 bd a7 c1 66 bc 0e 81 a8 bd
       0.004700022 -0.05092927 -0.014084256 -0.0822774
000110 82 b3 44 bd 09 e5 13 3d 0c 83 f2 3c 84 2e 2d bd
       -0.048022754 0.036107097 0.029603504 -0.04228069
000120 af 86 31 bd 39 fb 3e bd 3e 36 c6 bd f4 a4 ae 3d
       -0.043341335 -0.046626303 -0.096783146 0.08527556
000130 02 76 b1 3d 07 1f ac bc 17 cf 8c 3c 04 7b b8 bd
       0.08665086 -0.021010889 0.017188592 -0.09007838
000140 f9 8c 97 bd 4a 82 35 bd 06 67 1b 3b c6 21 81 bd
       -0.07399935 -0.044313706 0.002371253 -0.0630527
000150 aa fb b8 3d b1 e7 76 bd 78 79 b9 3d d5 e7 a7 bc
       0.09032376 -0.060279552 0.090563715 -0.020496288
000160 fe 25 5f bd a8 99 73 bd a1 93 89 ba 62 3a d2 bc
       -0.05447959 -0.05947271 -0.0010496267 -0.025662605
000170 ac 6f af bd f5 d2 67 bd 1f a9 78 bc a8 38 bb 3d
       -0.085662216 -0.05659767 -0.01517704 0.09141666
000180 7c 15 c4 bd e8 28 4a 3d 80 4a 0f 3d 4f f6 12 bc
       -0.0957441 0.049355417 0.034983158 -0.008969857
000190 d4 d4 1b 3c d9 53 bf bd 7a 7e 6a bc be 17 b3 3d
       0.009511191 -0.093421645 -0.014312381 0.08744763
0001a0 c3 34 9d bd 7c 4c 7d bd 3e 10 0e 3d bd bb ad 3d
       -0.07676079 -0.06184052 0.03468346 0.08483074
0001b0 18 54 11 bd 65 f4 b1 3d 83 7a 03 bc 5c 94 32 3b
       -0.03548059 0.08689193 -0.008024815 0.0027249074
0001c0 9b 51 ee 3c c1 f8 01 bd 17 be 45 bd b1 bd ba bd
       0.029091647 -0.03173137 -0.048276987 -0.09118212
0001d0 cb 5f 8a bd 29 a1 3f bd 7f c5 16 3d a9 f9 1f 3c
       -0.06756552 -0.046784554 0.03680944 0.009764113
0001e0 fa 51 5c bd fb fc 22 bd 1b 6d 17 3b 0d 2b 0f 3d
       -0.053789116 -0.039792042 0.0023105803 0.034953166
0001f0 43 61 81 bd ce db bb 3d a9 45 8c 3d 17 9a 0f 3d
       -0.06317379 0.09172784 0.06849224 0.03505906
000200 3a 05 b3 3d 9f 6e 63 3d 8b 5c 94 3a 5f d4 d8 bc
       0.08741231 0.05552542 0.0011319084 -0.026468454
000210 19 d0 81 bb 2b c7 50 3c 22 4b 89 bc a6 a2 34 3c
       -0.0039615748 0.012742798 -0.016759459 0.011025107
000220 61 58 58 3d df 65 44 3b 04 96 3d 3d 51 62 88 3d
       0.05281866 0.0029967946 0.046285644 0.06659377
000230 dd b3 2a 3d 8b 7d fb 3c 9f 51 30 bd 2c da 9a bd
       0.041675437 0.030699512 -0.04304659 -0.07561144
000240 3a 8b 22 3d af 64 08 3c 23 8b 01 bd 4a 2a 9b bd
       0.039683558 0.008324786 -0.03162683 -0.075764254
000250 73 63 b4 3d 17 65 1a 3d cb 1d aa 3c e0 92 af 3d
       0.08808031 0.037694063 0.02076616 0.08572936
000260 a7 21 b9 3a 7e 37 45 3d b9 a7 2a bd 4d 3b 0a bd
       0.0014124409 0.048148625 -0.04166386 -0.03374796
000270 a4 6b 52 3c 14 2c 03 bd 0c d8 4c 3d 6d 10 f1 bb
       0.012843046 -0.032024458 0.050010726 -0.0073566944
000280 62 6c c1 bc 49 05 44 bd 84 c3 8f ba cb a4 d6 bc
       -0.023611251 -0.047856603 -0.0010968302 -0.026201626
000290 90 2d 20 3d 3e d0 38 bd ac 6c 49 bd 28 b5 a8 bc
       0.03910595 -0.04512047 -0.049175903 -0.020594195
0002a0 56 6c ea bc 3a 2b 40 bd af f3 22 bc ec 53 7d ba
       -0.028616112 -0.046916224 -0.009945794 -0.00096636894
0002b0 03 20 a8 3b 0f 4b a7 3d e0 0d b9 bd 1d ee a2 3b
       0.005130769 0.08168613 -0.090358496 0.004972233
0002c0 2e bb 40 bd 9a 7f 99 3c f7 9b 25 3c 33 45 67 3d
       -0.04705351 0.018737603 0.010107986 0.056462478
0002d0 37 cb 8c bd f2 1c 1f 3d 1a 03 0c 3d 30 5d 93 bc
       -0.06874698 0.038845964 0.034182645 -0.017988771
0002e0 14 45 13 3d 36 de e9 3c 59 0f 93 bd 16 2e 5a bc
       0.03595455 0.028548341 -0.07180662 -0.013316652
0002f0 88 23 ab 3d df 3a 79 3d a9 a0 25 bd ae c4 06 3d
       0.083563864 0.06084716 -0.04043642 0.032902412
000300 69 29 a5 3c af 62 f3 bc d9 0d 15 bd aa 54 af bd
       0.020161347 -0.029710142 -0.03639016 -0.0856107
000310 67 c7 a2 bc 9a b8 6f bd d4 59 38 bd b4 2f 94 bd
       -0.019870473 -0.05852566 -0.04500754 -0.07235661
000320 b6 72 95 bd 38 3d db 3c 64 13 90 3c 40 75 74 3d
       -0.0729727 0.02676259 0.017587371 0.05968213
000330 39 2a 47 3d 04 3c 65 3c bd 91 41 3d 33 60 1d bd
       0.04862425 0.01399136 0.047258127 -0.03842182
000340 29 72 a7 bd 9c 64 02 bd 0d 91 76 bb 9a 4d ae 3d
       -0.08176071 -0.03183423 -0.0037623078 0.08510895
000350 7e db 5b 3d ec 89 ff bc d1 66 14 bd 25 75 8e bc
       0.05367612 -0.031193696 -0.036230866 -0.017389843
000360 a7 78 17 3d 60 7f 62 3d ab ec 5d bd f5 4e 51 bd
       0.036980297 0.055297256 -0.054180782 -0.05110069
000370 de f9 25 3d 7a 87 75 3c 72 96 b0 3b 01 65 88 3d
       0.040521495 0.014985913 0.005389028 0.0665989
000380 1f 40 d8 bc a7 62 98 bd cd f1 8b 3d 49 f3 69 bc
       -0.026397763 -0.074406914 0.06833229 -0.014279195
000390 ef 14 bd bd 10 ec 23 3d c8 d3 2e 3c 8f 3e 8f 3c
       -0.092325084 0.04002005 0.01067061 0.017485885
0003a0 79 84 81 3d 6b d1 9e 3d f2 4a 98 bd a8 f2 2d bd
       0.06324095 0.07754787 -0.0743617 -0.042467743
0003b0 3b bd 86 3d e2 08 ae 3c 0d 50 2e 3d 3a e0 6a 3d
       0.065790616 0.02124447 0.04255681 0.057342745
0003c0 2a 95 9b 3d dd 2d 30 bd 93 81 15 bd 4c dd b2 bd
       0.0759681 -0.04301249 -0.036500525 -0.08733615
0003d0 89 1d c4 bb ab 5d ad 3d a3 80 94 bd 05 cd 00 bd
       -0.005984966 0.08465131 -0.07251098 -0.03144552
0003e0 d0 57 3b 3d 4b 21 a7 3d c5 28 23 bd 7a df aa 3d
       0.04573804 0.08160647 -0.039833803 0.08343406
0003f0 92 c4 91 3c bd 44 f4 3c f8 82 11 3d 6c 9c 7d bd
       0.017793927 0.029817933 0.035525292 -0.061916754

predictor.0.bias f4 [256]
000000 44 b1 ea 3c 5f 05 92 3d 9e 20 89 bd 29 71 5f 3d
       0.02864898 0.07129931 -0.06695674 0.054551277
000010 cc f0 f0 3b 72 b5 b3 3d 00 96 bf ba 4d 84 24 bd
       0.007352924 0.08774842 -0.0014616847 -0.040165234
000020 f6 5a 1c bd eb e7 15 bd 14 ee 97 3d 1f 39 b8 bd
       -0.038172685 -0.036598127 0.07418457 -0.0899527
000030 19 d9 94 3d 9a 26 35 bd 50 62 90 3d b6 d7 23 3d
       0.072679706 -0.044226266 0.070500016 0.04000064
000040 ac c9 37 bd c5 7e b3 3d 3b 28 4b 3d dc e0 ad bd
       -0.044870064 0.08764414 0.049598914 -0.08490154
000050 4b 23 6d bd a0 11 a0 bd a3 5f ce bb ff 1c 49 3d
       -0.057894986 -0.07815862 -0.006298022 0.04909992
000060 ab 65 27 3d 1f 5f 4d 3d 03 9b b1 3d a7 eb 1f 3d
       0.040868443 0.050139543 0.08672144 0.039043095
000070 25 80 8c 3d 1d cc 27 3d b8 06 8a 3d 7c 6b 75 3d
       0.06860379 0.040966142 0.06739563 0.05991696
000080 2d 1a 1f bd d2 a1 a5 bc 0c 49 ec bc bf 4a e1 bc
       -0.038843323 -0.020218764 -0.028843425 -0.027501462
000090 7b ea cf 3c 46 5d 8d 3d 7e 4d 4f 3d 6b ef ab 3c
       0.025380364 0.06902556 0.05061101 0.020988187
0000a0 95 eb 34 3d 42 64 89 3d 56 1f 86 bd 1c 29 33 bd
       0.04416998 0.06708576 -0.065489456 -0.043740377
0000b0 b3 cd 76 3c 1d 71 5f 3d 55 f9 a7 3d 18 67 f3 bc
       0.015063691 0.054551233 0.08201853 -0.029712245
0000c0 6a 1b be 3d 31 8a e6 bc 5c d9 85 3d b1 9d 40 bd
       0.092825726 -0.028142067 0.06535599 -0.047025386
0000d0 7e 02 8d bd 87 eb 12 3d 19 ca 42 3d ff a2 8e 3d
       -0.06885241 0.035869148 0.047556017 0.06964683
0000e0 f6 fc 8e bd ad a7 9e bd 40 65 08 bb c4 7e 2b 3d
       -0.06981842 -0.07746825 -0.0020812303 0.04186894
0000f0 71 b9 69 bd d2 15 48 3d 86 77 39 3b 4d 27 69 3d
       -0.057061616 0.048848934 0.0028300001 0.056922246
000100 32 1b ee 3c 17 53 c1 bd 1d 6f f3 bc 11 ad 34 bd
       0.029065702 -0.09439676 -0.029716069 -0.04411036
000110 8c c4 f4 bc 91 01 39 3d 53 12 9c bc d3 1e ce bc
       -0.029878877 0.04516751 -0.019051706 -0.025161183
000120 a5 3f 33 bd 69 17 48 bd 7a c2 9f bd 4c 5d 56 bd
       -0.043761868 -0.04885045 -0.07800765 -0.05233507
000130 de f3 9e bd 54 b7 b2 bd 82 3f 92 3d 37 0d 49 3c
       -0.07761358 -0.08726373 0.071410194 0.012271217
000140 76 96 4d bc 12 85 a8 3c bf 3d 8f 3d 80 65 0d bd
       -0.01254808 0.020571265 0.06994199 -0.034520626
000150 50 35 8a 3d 33 62 55 bd 74 e6 c3 3c 89 55 10 bd
       0.0674845 -0.052095603 0.0239136 -0.035237823
000160 84 ad 0b 3d ae 01 65 3d 8c 0a 60 bd 28 3c 82 3d
       0.034101024 0.055909805 -0.05469756 0.0635913
000170 a3 d9 94 3c bc be 53 bd f0 7c be bd 41 61 1b 3b
       0.018170184 -0.05169557 -0.09301174 0.002370909
000180 55 02 f1 3c 62 85 31 3d bd 00 f8 3b 9b f3 51 3c
       0.029420057 0.043340094 0.0075684474 0.012814428
000190 f0 9b 46 3d 0c bd 38 bc 74 64 db 3a 51 14 ac bd
       0.048488557 -0.011275541 0.0016738311 -0.084023125
0001a0 38 64 71 bd 45 ac 83 bc a7 36 48 3d ae 3c 3a bd
       -0.058933467 -0.016073355 0.048880246 -0.045468025
0001b0 10 aa 65 bd 31 72 01 bd 81 50 8b 3c 09 e9 2f 3c
       -0.056070387 -0.031603042 0.01700616 0.010736712
0001c0 c1 67 b4 3d 35 2b 8d bd b8 35 97 bd 51 38 ab 3c
       0.08808852 -0.06893007 -0.07383293 0.020900877
0001d0 02 e9 86 3d d3 bf 0a 3d ac 9d 9a 3d 4a fc 5b 3d
       0.065874115 0.033874344 0.07549605 0.0537074
0001e0 22 fe 24 3d ca f2 48 3d 9a 9f 65 bd 22 82 1c 3d
       0.040281422 0.049059667 -0.05606041 0.03821004
0001f0 2c 5e 4d bd 58 b5 f6 3c 61 d4 15 bd e2 06 0a bd
       -0.050138637 0.030115768 -0.036579493 -0.03369797
000200 bd 08 91 bd a8 0c ab 3d fa 95 c0 3c 88 31 44 bd
       -0.07081745 0.08352023 0.023509014 -0.0478988
000210 0e 3d 45 3d 49 63 b9 bd 01 e6 29 3d 2b 24 65 bd
       0.04815393 -0.0905214 0.041479114 -0.055942696
000220 ee 42 b2 bd c2 39 8e bd 31 76 8a bd 36 5e 1e 3d
       -0.08704172 -0.0694461 -0.067608245 0.038664065
000230 18 18 94 3b 8f 70 5e 3d 4d cb 22 bd ba cb 97 bd
       0.0045194738 0.054306563 -0.039744664 -0.07411905
000240 64 63 9e 3d 6b 72 68 3c bd 66 78 bd 68 39 82 bd
       0.07733801 0.014187436 -0.060644854 -0.063586056
000250 f8 db 82 3d ab e9 81 3d 98 31 7f bd c2 4f 67 bb
       0.06389612 0.06343397 -0.062303156 -0.0035295342
000260 95 aa 64 bc 91 18 87 3c 52 5a 23 bd 05 0c 7c bd
       -0.013956686 0.016491206 -0.039881058 -0.0615349
000270 17 18 23 3d da e9 ba bc e7 99 af bd 27 ff 5a bd
       0.039817896 -0.022816587 -0.085742764 -0.05346599
000280 41 88 6a 3d 5a e1 21 bd c9 dd 91 3d 8e 78 47 3d
       0.057258848 -0.039521553 0.0712238 0.048698954
000290 c0 0b e9 3c 31 8c 39 bd 84 29 94 bc b3 46 77 bd
       0.028447986 -0.045299713 -0.018086202 -0.06037016
0002a0 48 db b8 bd ee 10 23 3c 36 91 34 bd 85 a1 41 3d
       -0.090261996 0.009952767 -0.044083796 0.047273178
0002b0 b2 7e f2 3c 4b 2e 62 3d 8a 22 8d bd b3 c2 14 3c
       0.029601429 0.05521993 -0.068913534 0.009079623
0002c0 f8 74 a6 bd 23 57 80 3d d9 c3 94 bc cc 6c 27 bd
       -0.08127779 0.0626662 -0.018159794 -0.04087524
0002d0 d0 ba 4e 3c 0a 94 ad 3d 96 f8 a3 3d 1b bd c5 bd
       0.012617782 0.08475502 0.080063984 -0.0965521
0002e0 50 87 b0 bd c8 af 83 bd dc bb f8 3c 4f 73 8b bc
       -0.08619559 -0.06430012 0.030363016 -0.017022757
0002f0 eb 36 5f bd 1d 78 b5 bd 5a 2c 31 bd 77 15 8d 3d
       -0.054495733 -0.088608004 -0.043255188 0.0688886
000300 fe fe b1 3d 44 c1 a3 bd 47 f2 a7 bd 1f 19 2a bb
       0.08691214 -0.07995847 -0.082005076 -0.0025954915
000310 b7 29 7a bd 4f b2 ce bc 8b 06 bc bc cc da 9c bd
       -0.06107494 -0.025231509 -0.022952339 -0.0765892
000320 98 a6 87 3d 4c e0 80 3d 30 6a b6 3d 89 54 44 3d
       0.06623572 0.06292781 0.089069724 0.04793218
000330 4f a4 1a 3d 74 18 0a bd ad ca 86 3d 21 68 da 3c
       0.037754353 -0.033714727 0.06581626 0.02666098
000340 21 b1 85 3d b0 d3 aa 3c c4 0e 00 3c d2 34 c1 3d
       0.06527925 0.020852894 0.00781602 0.09433903
000350 0a 3c 0f bc 63 cf b2 3d c9 e7 80 3b 2d 61 7c bd
       -0.008742342 0.08730962 0.003933881 -0.06161611
000360 a0 cb ce bc ba 89 9e bd 28 70 9a bd 88 25 70 bd
       -0.02524358 -0.07741113 -0.07540923 -0.058629543
000370 06 ca d9 bb b5 4e c5 bd 3a e3 7e 3d cd 22 8a 3d
       -0.0066463975 -0.09634153 0.06222842 0.06744919
000380 b1 70 66 3d c5 43 a4 bd a9 64 19 bd 88 c3 c2 ba
       0.056259815 -0.080207385 -0.037449513 -0.0014859298
000390 74 6b b0 bc 79 81 8c 3c 45 e1 3c 3c 5a 5a b2 3d
       -0.021535613 0.017151581 0.011528318 0.087086394
0003a0 83 20 ad bd db 0a 83 3d 0a 5d 93 bd b5 53 f0 bc
       -0.08453467 0.06398555 -0.0719548 -0.02933679
0003b0 9c f2 87 3d 5e 6f 87 bd 37 90 d9 3b b6 e7 04 bc
       0.06638071 -0.066130385 0.006639506 -0.008111885
0003c0 29 1b 21 3c 67 d9 3e bd 99 ad ac bd 50 71 62 3d
       0.009833136 -0.04659405 -0.084315486 0.055283844
0003d0 db 72 8b 3d a1 8a 5c bd 4f ce ff 3b 17 ba 09 bd
       0.06809016 -0.053843144 0.0078065763 -0.033624735
0003e0 0d 01 43 bc 16 ab 49 3d c2 d1 ad bd 46 91 bd 3d
       -0.011902106 0.049235426 -0.08487274 0.09256224
0003f0 96 6e fb 3c e2 20 2c 3d 21 4f d6 39 c0 a7 72 bd
       0.03069238 0.042023547 0.00040876216 -0.05924201

predictor.2.weight f4 [128, 256]
000000 d0 c9 a2 bc 99 ca 47 ba 31 bd 03 bd b3 0c 75 bc
       -0.019871622 -0.0007621437 -0.03216285 -0.014956641
000010 e7 e0 bf bc ad 2f 69 bd 10 4a 74 bd 0f 13 4f bd
       -0.023422671 -0.056930233 -0.059640944 -0.050555285
000020 60 c0 ed 3c a7 8b 43 bd ce 80 b0 3b de cf 63 3d
       0.029022396 -0.047740605 0.0053864485 0.05561816
000030 96 ca 72 bc 79 df 74 b9 08 52 81 bd 86 6d 80 bd
       -0.014818808 -0.00023352903 -0.06314474 -0.0627089
000040 86 3d 31 bd e5 4d d5 bc 45 ab e4 3c 1e 3c fa bc
       -0.043271564 -0.02603812 0.027913699 -0.030546244
000050 d1 fc 2f 3d 3a af a0 bc 52 d8 51 3d 2f 46 29 bc
       0.042965714 -0.019614805 0.05123169 -0.0103316745
000060 c6 cc 36 3d 48 f7 47 bd 41 d7 54 3c fd f9 2f bc
       0.04462888 -0.04881981 0.012990774 -0.010740754
000070 ba f0 20 3d 8d 21 38 bc 0b 91 0e 3d 91 ce f1 bc
       0.039292075 -0.011238468 0.034806293 -0.029517444
000080 19 79 c2 bc f9 38 66 3d dc 60 3e ba 63 9a cd 3c
       -0.023739384 0.056206677 -0.0007262358 0.025098031
000090 e9 45 4c bd 22 69 c1 3c 5c 4d ec 3c ae 9a 5e bd
       -0.04987136 0.023609702 0.028845482 -0.054346733
0000a0 07 48 0d 3d fe bd 85 3c 78 42 ac 3b 0d ff ae bb
       0.03449252 0.016325947 0.005256947 -0.005340463
0000b0 64 74 1e 3d 44 65 3b 3d 73 f2 cd 3c df 7f ae bc
       0.038685217 0.04575087 0.025140023 -0.021301208
0000c0 53 b4 ee bb 95 55 01 bd a7 f8 9e bc 02 56 2d bd
       -0.00728468 -0.031575758 -0.019405676 -0.04231835
0000d0 49 9f 5d bd 22 52 13 bd 13 6d 53 3d 2f 0e 0a 3d
       -0.054106984 -0.035967 0.051617693 0.033704933
0000e0 ba c1 5e 3d 6a 1a 0c 3d 0c b9 59 3d 73 7d 05 bd
       0.05438397 0.034204878 0.05315499 -0.03259034
0000f0 65 c1 4b bd 85 ea 45 bd 30 db a8 bc 95 fa 2d bd
       -0.049744982 -0.04831936 -0.02061233 -0.0424753
000100 30 d4 a6 39 30 25 36 bd db e5 a0 bc f8 f0 0a bd
       0.0003182008 -0.04446906 -0.019640854 -0.033921212
000110 55 ee 20 3b 7d 24 3c 3d 39 09 7e 3d 98 5c 34 3d
       0.002455612 0.045933235 0.062020514 0.044033617
000120 00 c6 e2 3c 96 e1 f9 bb 30 bf e3 3c 0e 97 5d 3d
       0.027682304 -0.007625769 0.027801126 0.054099135
000130 5f c3 24 b9 be 5f 68 3d a1 53 2f bd 56 37 d2 bb
       -0.0001571304 0.056731932 -0.042804364 -0.006415288
000140 86 b9 7a bc 00 03 f6 bc 30 40 57 3d 3f 83 66 bc
       -0.015303021 -0.030030727 0.05255145 -0.014069377
000150 8f f0 b3 bc b7 aa 4f 3b 48 2a 17 bc 9f 3e ce 3c
       -0.021965293 0.0031687447 -0.009226389 0.025176344
000160 f2 2b 10 3c d2 cc 39 bd dd 98 2b bd 90 3b 76 3d
       0.00879954 -0.045361347 -0.04189383 0.060115397
000170 c8 6e 64 bd 5b 86 54 3d b4 d6 f4 3c fe a6 5f bd
       -0.05576971 0.051885944 0.029887535 -0.054602616
000180 9a f6 8d 3c e5 bb 0f 3b 76 f6 62 3d 75 ec 66 3d
       0.017329503 0.0021932062 0.055410825 0.056377847
000190 a3 75 63 bd cd ae 03 bb d8 c3 ea 3c 85 75 33 bd
       -0.05553211 -0.0020093203 0.028657839 -0.043813247
0001a0 8d 4b 6e 3d 72 b1 39 bd 91 cb 84 bc 0f e3 38 3d
       0.05817752 -0.04533524 -0.01621035 0.045138415
0001b0 3f a6 34 3b 60 52 4b bd a1 b6 b5 3a b9 10 67 3d
       0.002756491 -0.049639106 0.0013863632 0.056412432
0001c0 24 62 33 3d 52 72 37 3d 71 57 97 bc 33 16 60 3d
       0.043794766 0.04478676 -0.018474312 0.05470867
0001d0 c3 55 2c bd 7a c8 d2 3c 46 54 8d bc 5a 1c 1f bd
       -0.042073976 0.02573036 -0.017252099 -0.038845398
0001e0 35 4a 16 3c 30 99 fd 3c a5 3d 53 bd 3b c0 73 3c
       0.009172966 0.030956835 -0.05157246 0.014877374
0001f0 d0 5f 92 3c 76 89 0d bd 2b ea 4c bd eb ec 90 3b
       0.017867953 -0.03455492 -0.050028007 0.004422774
000200 d8 2a 84 3c 0f 77 29 bd 24 e8 53 bd f7 bd 70 3d
       0.01613371 -0.04137331 -0.05173506 0.058774915
000210 d4 ab 30 3d ae 63 08 3b 13 18 74 bd 28 02 2e bd
       0.043132618 0.0020811367 -0.05959327 -0.042482525
000220 25 81 13 bd 8f 17 07 bd 09 d1 1f bc 71 51 c5 3c
       -0.036011834 -0.03298145 -0.009754428 0.024086686
000230 29 ec f6 3b 87 5d 9a 3c 47 42 76 b9 5b 7a a3 3c
       0.0075354767 0.018843425 -0.00023485078 0.019955805
000240 44 03 6a bc 71 67 b3 bb 0c 11 f4 bc 4d 02 e9 bc
       -0.014283005 -0.0054749777 -0.029793285 -0.02844348
000250 e4 b9 67 bd b4 a5 26 3d 41 f0 cb bb cf 43 a1 bc
       -0.056573763 0.04068537 -0.006223709 -0.019685654
000260 88 8a 3d 3d 68 2b 2e 3c 7b 08 3d bc bd 80 f0 bc
       0.04627469 0.010630466 -0.011537666 -0.029358262
000270 d3 12 68 bd 7f 13 87 3c 4c c0 33 bd 63 3b ea bb
       -0.056658577 0.016488789 -0.04388456 -0.0071481927
000280 5f 39 c9 bc 03 18 1c 3d f1 fc 10 bd 3f 18 15 bc
       -0.02456349 0.038108837 -0.035397474 -0.009100019
000290 a4 2d d1 bc ae a7 13 3b ac 08 1a 3d c4 04 c1 3b
       -0.025534458 0.0022530365 0.037605926 0.0058904607
0002a0 ec 41 58 3d 78 6a 3c bc 68 1a 19 bd 3f 1c 9a bc
       0.052797243 -0.0114999935 -0.0373787 -0.018812297
0002b0 16 37 d4 3c 5b 05 3e bc fd 76 1e 3d 5e 13 f6 3c
       0.025905173 -0.0115979565 0.038687695 0.030038532
0002c0 05 99 c7 3b ce f9 10 3d 4f b7 47 3d b4 2a 10 bd
       0.0060912394 0.035394482 0.0487588 -0.035196975
0002d0 d3 aa c4 bc f3 99 0d 3d a8 5a 1d 3d 1c 68 de bc
       -0.024007237 0.034570646 0.038416535 -0.027149253
0002e0 20 07 04 bd 16 6d cf bc b8 1e c8 3c 5b 49 1b bd
       -0.032233357 -0.02532057 0.02442871 -0.037911754
0002f0 fb 2f 4c 3c 72 b3 e1 bc ea 2d 0b 3d 39 a4 de ba
       0.012462611 -0.027551387 0.033979334 -0.0016986198
000300 86 ba 15 3c 4c 58 5a bb 51 5e 0e bd 83 d0 2f bd
       0.009138709 -0.003331679 -0.034757916 -0.04292346
000310 df fd 25 bd 58 28 19 bd 97 39 b0 bc 7a 3f 84 3c
       -0.040525313 -0.03739199 -0.021511836 0.01614355
000320 ed 01 c7 bc 6c 4e 26 3d a9 f5 69 bd 30 e5 72 3d
       -0.02429291 0.040602133 -0.057119045 0.0593006
000330 b0 29 c3 bb 84 93 bd bc 32 e4 71 3c 18 70 27 3d
       -0.0059558973 -0.02314163 0.014763879 0.040878385
000340 a4 a5 48 3d 02 4d ca 3b e9 67 29 3b 69 79 5b bc
       0.048986092 0.006173731 0.0025849289 -0.013395646
000350 34 8a 93 bb 17 8c 98 bc a7 82 cc bc 11 fd 11 3c
       -0.004502559 -0.018621488 -0.024964644 0.008910433
000360 3a 8e 1b 3d 16 60 78 bc df a1 ca bc 8a 99 3b bc
       0.037977435 -0.015159627 -0.02473539 -0.011450181
000370 37 a8 22 bd 84 b0 65 3c 8b cc 72 3d 6b cc ed 3c
       -0.039711203 0.014019135 0.0592771 0.029028138
000380 03 62 3d 3d f7 1f 2b bd ff 4e 28 3d 98 e4 1a 3d
       0.04623605 -0.04177853 0.04109096 0.03781566
000390 8c 09 37 3d c4 ca 3c bd 54 37 df bb 41 61 4f bc
       0.04468684 -0.04609181 -0.0068120155 -0.0126574645
0003a0 a0 0b 0f bd c9 af f2 bc 9b 46 95 ba ee 79 cb 3c
       -0.034923196 -0.029624837 -0.001138884 0.024838414
0003b0 80 2f 73 3d f6 97 2f bd ed c3 36 3d 88 3d ba 3a
       0.05937147 -0.04286953 0.044620443 0.0014209012
0003c0 39 b5 f8 bb 3f 6b b2 3b 31 06 4d bd 4a 4b 59 bd
       -0.007589963 0.0054449136 -0.050054733 -0.053050317
0003d0 fa 40 a2 bc 5b 78 93 3b c3 31 0f 3d 1c 2f e9 3b
       -0.019806374 0.0045004315 0.034959566 0.0071162116
0003e0 3e d3 3a 3d 22 12 ef 3c 3f 0e 59 bd 98 1b 9c 3c
       0.045611612 0.029183451 -0.0529921 0.019056126
0003f0 e6 75 38 3d 81 59 c7 bc 23 cc 6d bd af 02 df bc
       0.04503431 -0.024334671 -0.058056008 -0.02722296

predictor.2.bias f4 [128]
000000 eb bf d5 3c e3 ca 9b 3b 4c 3c b1 3b 54 30 59 bd
       0.02609249 0.0047544106 0.0054087993 -0.053024605
000010 71 cd 6c bc fc 94 07 3c be 66 e3 3c 56 a5 05 3d
       -0.014453278 0.008275267 0.027758952 0.03262838
000020 20 42 a2 3c f8 ac c1 bc 04 77 41 3d 9e 22 be 39
       0.019806921 -0.023642048 0.047232643 0.00036265416
000030 08 a5 5f bd 63 b3 19 bd f1 8d 82 3c 04 25 1a 3d
       -0.054600745 -0.037524592 0.015936824 0.037632957
000040 97 2e 40 bd 4c ad f5 bc ea 4c e4 3c 17 79 43 bd
       -0.04691943 -0.029989861 0.027868707 -0.047722902
000050 ce c2 90 3b 0f b1 0e 3c 38 5d 1b 3d 60 02 ee bc
       0.004417754 0.008709206 0.037930697 -0.029053867
000060 bb a9 b7 3c 67 45 32 3d d7 cf 75 bd 4e 8c a5 3c
       0.022419801 0.04352322 -0.060012665 0.020208504
000070 5f fd 6f bd 63 41 a5 bc 1d 42 0d 3c 33 b5 c6 bb
       -0.058591243 -0.02017278 0.00862172 -0.006064081
000080 9a de 79 3b 6c 79 2c 3d 07 5c 5b 3b 8c 38 83 3c
       0.0038127066 0.042107984 0.00334716 0.016018175
000090 01 33 f2 3b a4 af 82 bc 0f 30 cf bc cd d3 1e 3d
       0.007391334 -0.015952893 -0.02529147 0.038776208
0000a0 18 10 23 3d 65 95 52 bd d1 24 20 bd b6 fc 74 bc
       0.03981027 -0.051412005 -0.03909761 -0.014952829
0000b0 e2 67 21 bd 53 5f 28 bd 34 6e 4d bd 79 5b 94 3b
       -0.03940571 -0.041106533 -0.050153926 0.004527506
0000c0 a4 da 30 bd 07 25 18 bc 4d d9 1b bc 99 16 35 3c
       -0.043177262 -0.009286172 -0.009512258 0.011052751
0000d0 07 b9 ff 3c 7f ab 66 3c de 17 61 3d 5b d9 4b 3d
       0.031216158 0.014078974 0.054954402 0.049767833
0000e0 80 ce de 3c e6 81 66 3d b4 00 07 bd 7d 02 03 3c
       0.027198076 0.056276225 -0.032959655 0.007996199
0000f0 6d 79 00 bd c9 bd 65 3d cf ec 4a 3d 9b ce 6c 3d
       -0.0313658 0.056089196 0.049542245 0.05781422
000100 88 1a 49 bd f4 9e 10 bd fb d4 7a bd cf 17 2a bd
       -0.049097568 -0.03530784 -0.06123827 -0.041526612
000110 7a ee ff 3c cd d7 40 3c 4b b7 57 3d 88 63 39 bb
       0.031241644 0.011770201 0.052665036 -0.0028288085
000120 ff dd f0 3c ef 7b 55 bd 8b 6a 2c 3d 8f f6 d6 bc
       0.029402731 -0.052120145 0.042093795 -0.026240615
000130 5f aa 20 bd 9f 2f 0f bd 6b 4e cd bc 4d 3d 37 bc
       -0.03922498 -0.034957524 -0.025061807 -0.011184049
000140 a3 87 5b 3d 53 a8 80 3c 02 cc 51 bc a8 fc 72 3c
       0.05359615 0.015705263 -0.012804987 0.014830746
000150 eb 1c 34 3d a1 dc 5b bd b7 8d 33 bd a4 a2 22 3d
       0.04397289 -0.053677205 -0.04383632 0.039705887
000160 e1 4a 5f bd 12 04 fc 3c a9 02 a9 bc 4e 2a 3e 3d
       -0.05451477 0.03076366 -0.020631151 0.046427064
000170 69 e7 a3 3c 18 75 68 3d 8e 91 fe 3c d9 5c 31 3d
       0.020007806 0.056752294 0.031075265 0.043301437
000180 a0 82 f9 bc dc d4 b2 bb 9c 34 0b bc 0b 69 79 bd
       -0.030457795 -0.0054575037 -0.00849643 -0.060891192
000190 6a 16 66 bd 6a 3b 13 bd 20 0b f5 3c 85 3d c9 bb
       -0.05617372 -0.035945334 0.029912531 -0.006141367
0001a0 03 bb 0f 3d 40 12 a5 bc f2 58 63 bd 28 11 65 bb
       0.035090458 -0.020150304 -0.055504747 -0.0034952853
0001b0 0d a3 41 3d cf a6 a9 bc eb 09 cb bc a8 17 c9 3c
       0.047274638 -0.020709423 -0.024785003 0.024547413
0001c0 a5 4b 01 3a 93 2c 6b 3d 4f c2 43 bd a3 a5 16 3d
       0.00049322314 0.057415556 -0.04779273 0.036779057
0001d0 f7 3b eb bc 2b 00 30 bd 65 a4 72 bd ea 3b 48 3c
       -0.028715117 -0.04296891 -0.05923881 0.012221316
0001e0 a0 23 7e bd 9a df 62 bd 85 76 66 3c ba 0c 91 bb
       -0.062045693 -0.055389024 0.014066343 -0.004426566
0001f0 92 ee 2c bc 25 01 8c bc 59 41 e4 3c be 51 bc 3c
       -0.0105549265 -0.01709039 0.027863191 0.022988196
