energy_sampling/results_pis_architectures/many_well/exploration_wd_0.1__clipping_lgv_100.0_gfn_10000.0_gfn/fwd_bwd/fwd_tb_bwd_tb/local_search_iter_200_burn_100_cycle_100_step_0.1_beta_1.0_rankw_0.01_prioritized_rank/T_100/tscale_1.0/lvr_4.0/seed_12345/model.pt (torch, 183012 bytes, 23 tensors)

t_model.timestep_phase f4 [1, 64]
000000 c8 77 7b bf b1 81 30 be 07 8a 26 3e 99 db f2 be
       -0.98229647 -0.17236973 0.16263591 -0.47433165
000010 b5 32 23 bf 83 16 94 be 29 e2 bb 3e 7d 2b e5 3e
       -0.6374925 -0.28923425 0.36695984 0.4475974
000020 c1 c7 59 bf 9f 9b a1 3d 5f 9a 23 3f 10 74 01 3f
       -0.85070425 0.078910105 0.63907427 0.5056772
000030 44 64 d6 be d3 76 6a bf ba 51 32 3f cb 85 4f bf
       -0.41873372 -0.9158756 0.69655955 -0.81063527
000040 ac 9d 5d bf 60 01 02 bf 90 47 4d bf 43 24 e5 bf
       -0.86568713 -0.5078335 -0.8018732 -1.7901691
000050 5a 05 64 3f e5 91 89 3f 85 95 64 3f c4 68 89 be
       0.89070666 1.0747648 0.8929065 -0.26837742
000060 d6 69 67 3e cb 07 97 bf 62 c7 32 3f 32 08 21 3e
       0.22598967 -1.1799253 0.69835484 0.15725783
000070 ea 8a 02 40 e1 b1 33 40 a5 84 3b 3d 94 95 3e bf
       2.0397286 2.8077319 0.045780797 -0.7444699
000080 8e 1d 30 3f aa 1b 86 3f af d5 5e bf 81 fb 3a 3f
       0.68795097 1.0477192 -0.87044805 0.73040015
000090 d8 27 75 3f cf 7d fb 3e 54 a5 05 40 c8 cc de bf
       0.9576392 0.49119422 2.0882158 -1.7406244
0000a0 92 3d b1 3e 0a 41 9f bf 3c 96 4b bf d5 7e 17 3e
       0.34617287 -1.2441723 -0.79526114 0.14794476
0000b0 86 f5 de 3f 72 1b a6 be 55 ea 0a 3f 75 17 5b 3e
       1.7418678 -0.32442814 0.5426381 0.21395667
0000c0 ee 1b f4 bc 51 2e 18 bf 95 d1 24 3f a4 d9 be 3f
       -0.029798474 -0.59445673 0.64382297 1.4910169
0000d0 6c ce 40 3f 1e e9 3c be 81 dd 7f 3e a7 c7 d2 bd
       0.75314975 -0.18448302 0.24986841 -0.10291987
0000e0 c1 2e 2c 3f 6c c7 a7 bf 19 71 58 bf 3f c9 74 bf
       0.6725884 -1.3107734 -0.84547573 -0.9561958
0000f0 e2 51 19 bf de a7 ec be c8 a4 93 be e9 25 4e 3f
       -0.5989057 -0.46221823 -0.28836656 0.80526596

t_model.pe f4 [1, 64]
000000 cd cc cc 3d 7d c5 d7 3f 16 5f 51 40 b7 6d 9b 40
       0.1 1.6857144 3.2714286 4.857143
000010 e3 2b ce 40 08 75 00 41 1e d4 19 41 34 33 33 41
       6.4428573 8.028572 9.614286 11.200001
000020 4a 92 4c 41 60 f1 65 41 76 50 7f 41 c6 57 8c 41
       12.785715 14.371429 15.957144 17.542858
000030 51 07 99 41 dc b6 a5 41 67 66 b2 41 f2 15 bf 41
       19.128572 20.714287 22.300001 23.885715
000040 7d c5 cb 41 08 75 d8 41 93 24 e5 41 1e d4 f1 41
       25.47143 27.057144 28.642859 30.228573
000050 a9 83 fe 41 9a 99 05 42 60 f1 0b 42 25 49 12 42
       31.814287 33.4 34.985718 36.57143
000060 ea a0 18 42 b0 f8 1e 42 75 50 25 42 3a a8 2b 42
       38.157143 39.74286 41.32857 42.914284
000070 00 00 32 42 c6 57 38 42 8b af 3e 42 50 07 45 42
       44.5 46.085716 47.67143 49.25714
000080 16 5f 4b 42 dc b6 51 42 a1 0e 58 42 66 66 5e 42
       50.842857 52.428574 54.014286 55.6
000090 2c be 64 42 f2 15 6b 42 b7 6d 71 42 7c c5 77 42
       57.185715 58.77143 60.357143 61.942856
0000a0 42 1d 7e 42 84 3a 82 42 66 66 85 42 49 92 88 42
       63.528572 65.11429 66.7 68.28571
0000b0 2c be 8b 42 0f ea 8e 42 f2 15 92 42 d4 41 95 42
       69.87143 71.457146 73.04286 74.62857
0000c0 b7 6d 98 42 9a 99 9b 42 7c c5 9e 42 5f f1 a1 42
       76.21429 77.8 79.38571 80.97143
0000d0 42 1d a5 42 25 49 a8 42 08 75 ab 42 ea a0 ae 42
       82.557144 84.14286 85.72858 87.314285
0000e0 cd cc b1 42 b0 f8 b4 42 92 24 b8 42 75 50 bb 42
       88.9 90.48572 92.07143 93.65714
0000f0 58 7c be 42 3b a8 c1 42 1e d4 c4 42 00 00 c8 42
       95.24286 96.828575 98.41429 100.0

t_model.t_model.0.weight f4 [64, 128]
000000 04 3d 6d 3b dc b7 90 bd a9 5a 96 bd 1a df a5 bc
       0.0036199698 -0.070663184 -0.07341511 -0.020247985
000010 19 01 60 be 31 f7 4f bc 12 af 17 bd 28 8f 17 bc
       -0.21875419 -0.012693212 -0.037032194 -0.00925044
000020 ca 6a 72 bd 79 dc ae bd db 2b 39 bc db df 39 3d
       -0.059183873 -0.085381456 -0.01130196 0.0453795
000030 04 04 34 3b 22 9c 5d 3d ab f3 ca bd 86 eb 6b bd
       0.0027468214 0.054103978 -0.09909757 -0.05759766
000040 5a e4 35 3c 74 c3 9a bd 1d c2 8e 3d 15 ee d5 bc
       0.011101807 -0.07556811 0.06970618 -0.026114503
000050 e0 f0 d8 bd 79 bf d2 bc 4b 88 e1 bc 81 bc 06 be
       -0.10592818 -0.025726067 -0.02753081 -0.13157846
000060 08 cc ac 3c 90 4b 0b bd 4f a9 aa bc a7 31 36 bd
       0.021093383 -0.03400761 -0.020832686 -0.044480946
000070 3b 5a 8d bb 76 e3 3f 3d 1e a1 ec bc 19 4a 43 bd
       -0.004313735 0.046847783 -0.02888542 -0.047678087
000080 91 fe 98 3c 1f 53 48 3d f3 b3 03 3e 6e f1 42 bd
       0.018676074 0.048907395 0.12861614 -0.047593527
000090 d5 68 78 3b 42 b6 81 3d 63 dd cd 3d 95 2a 85 3d
       0.0037904282 0.06333591 0.10051992 0.065022625
0000a0 b9 d1 55 3b e0 c9 51 3d d0 d4 c3 3c 34 9a 56 3d
       0.0032626225 0.051217914 0.023905188 0.052393153
0000b0 a5 08 7d 3d 35 b3 9a bd af 1d b5 bd 7a 52 24 3b
       0.061775822 -0.07553712 -0.08843552 0.0025073574
0000c0 01 5a 2f 3d 7e 67 e4 bc 45 2a 83 3d dc 52 40 3d
       0.042810444 -0.02788138 0.06404547 0.04695402
0000d0 9b c1 d7 bb 24 ad 96 3d d5 ac 52 bd 13 8a d8 bc
       -0.006584359 0.07357243 -0.051434357 -0.026433026
0000e0 17 de bd 3c 8d df 5c bd 01 b6 0c 39 3e 8e 98 bc
       0.02317719 -0.053924132 0.00013419242 -0.018622514
0000f0 a5 ee 35 39 ca 05 76 3c 78 02 63 bd 49 33 a4 bc
       0.00017350407 0.015016029 -0.055422276 -0.020043986
000100 39 6e 42 bd 92 ec e1 bd df b5 e5 bd b7 71 1a be
       -0.047468398 -0.1103145 -0.1121633 -0.15082441
000110 6a 44 b5 bd c1 09 be bc 99 c0 e9 bc 7b bb 00 bd
       -0.088509396 -0.02319801 -0.02853422 -0.031428795
000120 d0 0f 30 be 96 07 79 3c 81 a0 00 3d 6a 69 0a 3e
       -0.17193532 0.015199563 0.03140307 0.13516775
000130 47 5d 3d 3d 4b 8b 3f bd 7c 5c 4e bd 2d 17 90 bd
       0.046231534 -0.0467637 -0.05038117 -0.070356704
000140 8e 10 7b bc 14 01 59 3d 95 6b 21 3d 94 2e d5 3c
       -0.015323771 0.052979544 0.03940924 0.026023187
000150 f6 0f 47 bd 8f 06 02 3d 4e 6a 9e 3c e2 eb d9 3b
       -0.048599206 0.031744536 0.0193378 0.006650434
000160 78 43 e3 3b 0b d2 cd 3d 49 d8 9a bd ae ff 81 bd
       0.006935533 0.10049828 -0.07560784 -0.06347595
000170 c7 14 d4 bd 4f f4 45 3d 83 9e da 3c 7a b3 9c bd
       -0.103555255 0.048328694 0.026686912 -0.0765142
000180 45 79 d9 3a 7a d0 c2 bb df 35 29 bd d0 73 3e 3d
       0.0016591927 -0.0059452625 -0.04131114 0.046497166
000190 4e 1a 34 3c 2e 4d b6 3d c5 e4 1f 3d 19 e1 c2 3d
       0.0109926 0.089014396 0.03903653 0.0951559
0001a0 ef 8d 90 3c 6a f6 4f 3d f6 2f f7 bc ab d4 ee bc
       0.017645804 0.05077211 -0.030174237 -0.029154142
0001b0 dd 7d 5e 3c 38 d2 8b 3d e2 0b dd bc ea d3 1b bd
       0.013579813 0.068272054 -0.026983205 -0.038043894
0001c0 93 29 93 bc f0 66 43 3c bc 63 2f 3d d1 69 98 3d
       -0.01796416 0.011926398 0.042819723 0.07442058
0001d0 12 fb e9 3c 99 75 cd bb f6 74 ca bc f9 a3 14 3d
       0.028562102 -0.0062701222 -0.024713974 0.03628919
0001e0 5c f8 8e bc 5b d2 7f bd de ea 78 bd 17 76 97 bc
       -0.017452411 -0.06245647 -0.06077086 -0.018488927
0001f0 75 61 3c 3b 5e f1 98 bd af dd 52 3d 6e 78 4e 3c
       0.0028744612 -0.07467912 0.051480945 0.012601955
000200 14 da 27 3e 98 b2 dd bd 97 12 40 be c3 33 08 be
       0.16391784 -0.1082508 -0.18757091 -0.13300996
000210 d2 1f bb 3d 5d a8 1f bc 92 37 9e bd 60 24 11 bd
       0.091369286 -0.009744731 -0.07725443 -0.03543508
000220 83 ae 4c 3d bc 40 d6 bb fe 0a 84 bd 42 a2 93 bb
       0.049971115 -0.0065384787 -0.06447409 -0.0045054266
000230 ed c2 a3 3c b5 7f 86 3d a6 77 d2 bd 26 44 46 bd
       0.019990409 0.06567327 -0.102767274 -0.048404835
000240 5c ec 3e 3c f3 61 43 bd f4 fe a9 3c e5 d0 8b bd
       0.011653032 -0.047700834 0.020751454 -0.06826953
000250 fa 30 24 3d 79 48 8c bd 77 b8 1a bd fc 29 c3 bb
       0.04008577 -0.068497606 -0.037773576 -0.0059559327
000260 b1 44 9c bd a4 59 82 bc 1f 15 f9 bd 31 e8 a4 bd
       -0.07630289 -0.015911885 -0.12162232 -0.080520995
000270 5d 1a e0 3c 20 a4 c6 bd 38 ca 55 bc 0b 29 ec bd
       0.027356321 -0.09699273 -0.013048701 -0.11531266
000280 71 00 a3 39 29 cb 1a bd ce ee c6 3d 6f ce 11 3d
       0.00031090112 -0.037791405 0.09713517 0.03559726
000290 ea ea 13 3d fc 39 81 3c ca 40 c9 3c b3 a9 94 3d
       0.036112703 0.01577472 0.024567027 0.0725893
0002a0 4e 38 91 bd 78 61 53 bd 20 df d0 bc fc ea 5f bb
       -0.070908174 -0.051606625 -0.02549702 -0.0034167161
0002b0 49 13 22 bd 80 2e ae 3c 78 30 2c 3d 79 93 67 3b
       -0.039569173 0.021262407 0.04203841 0.0035335703
0002c0 93 26 19 3c 89 22 05 3d 3d 56 c5 bc 51 6f 34 3d
       0.009347576 0.03250364 -0.024088973 0.044051472
0002d0 f6 2f 23 bb 6e 3d ad 3b a7 b2 b9 ba a9 57 88 3d
       -0.0024900413 0.005286864 -0.0014167622 0.06657345
0002e0 44 b5 5d 3d 8c f9 6f 3c 95 a1 ad bd d4 50 83 bc
       0.054127946 0.014646899 -0.08478085 -0.016029753
0002f0 53 1d 4b 3b f0 fe 7b bd 28 6f ad bd ec 39 40 3d
       0.003099282 -0.061522424 -0.08468467 0.04693024
000300 b2 1f 24 be 93 94 83 be 00 ac b3 3d 8e 02 6c 3d
       -0.16027716 -0.2569929 0.08773041 0.057619624
000310 69 98 1d 3d 0f f0 00 be a6 21 c9 3d 8f 6f 63 3c
       0.038475428 -0.12591575 0.09820871 0.013881578
000320 87 90 24 3d d7 74 e0 bd 78 8a 81 3d b0 ca 87 3d
       0.040176895 -0.109597854 0.06325239 0.066304564
000330 0d 8c 94 3d 98 17 f2 ba 64 6c 84 3d a9 77 18 bd
       0.07253275 -0.0018470166 0.06465986 -0.03722349
000340 30 64 84 3d 28 a0 76 bd 62 38 ae bd 76 cd df 3a
       0.06464422 -0.06021133 -0.08506848 0.0017074782
000350 06 97 9a 3d 7f c4 b3 bd 34 ae ce 3c 72 4a 76 3d
       0.07548337 -0.08777713 0.02522955 0.06012959
000360 d2 b4 a3 3d 75 3c 36 3d 4b 04 27 3d 19 b1 6f 3c
       0.07993473 0.04449125 0.04077558 0.014629626
000370 3c 18 97 3d 75 7f 9e bc 08 1d d1 bd 3b 55 c7 bd
       0.07377669 -0.019347886 -0.102106154 -0.09733053
000380 b6 0b e4 3b 9b 69 a5 bc 1b e5 95 bb 25 35 b1 bd
       0.006959404 -0.020191958 -0.0045744306 -0.08652715
000390 c5 e3 2d bb 64 3d 0f 3e fe 39 85 bd dd 0d d4 bc
       -0.0026533466 0.13988262 -0.06505202 -0.025885517
0003a0 dc 78 8a 3d 08 7a c2 bc ee fb 42 bd 59 0e 43 bd
       0.06761333 -0.02373983 -0.04760354 -0.047621105
0003b0 40 86 82 3c dc 1f 10 bd d2 cc 17 3d 1e a7 9e bd
       0.015933156 -0.035186633 0.037060566 -0.07746719
0003c0 4a 51 37 3c da 1b 37 3d 5d 79 94 3d 63 07 45 3b
       0.011188814 0.044704296 0.07249711 0.0030064217
0003d0 2b 42 3f bd 46 35 d8 bc 70 2b d7 3c f4 35 33 3d
       -0.046693962 -0.02639259 0.02626583 0.043752626
0003e0 cb 6b 0e 3d ec 82 91 bd 62 11 a7 bc be 46 ed 3d
       0.034770768 -0.071050495 -0.020394031 0.115857586
0003f0 a1 a6 1d bd d3 6d e5 ba bc e0 3f bd 20 7a 81 bd
       -0.038488988 -0.0017504044 -0.046845183 -0.063221216

t_model.t_model.0.bias f4 [64]
000000 f6 a4 e8 3c 60 7e 4c be d5 3e 2c be 99 89 15 3e
       0.028398972 -0.19970083 -0.16820844 0.1460327
000010 b4 b0 68 bd 4d 91 69 be e0 99 79 bd 6e ea 19 be
       -0.056809142 -0.22809334 -0.060937762 -0.15030834
000020 6a 37 3b be ce a7 8b bd 7a e7 86 bd a5 d4 02 3e
       -0.18282858 -0.068191156 -0.065871194 0.1277643
000030 e8 f9 1d 3d f2 35 2b 3e 8b de ed bd f2 93 d0 3d
       0.038568407 0.16719797 -0.11614712 0.10184468
000040 fc d2 7a bd 8c 38 85 bd 07 b9 a4 3e 0f 47 cc bd
       -0.061236367 -0.06504926 0.32172415 -0.09974491
000050 8a 4d 63 be ab b4 9a bd e3 e7 00 be 93 07 2e bc
       -0.22197548 -0.07553991 -0.12588458 -0.010621923
000060 14 1d 62 bd 59 08 e6 bd d3 93 05 3e 7f ab 0d be
       -0.055203512 -0.11232061 0.13044672 -0.13834952
000070 1b 81 f5 3c db fb e3 bd 42 6a 1d be f7 99 25 bd
       0.029968789 -0.11132022 -0.15372565 -0.040430035
000080 d6 c5 37 bd 00 41 63 bc d9 a7 39 be 0e 2b 0e 3e
       -0.044866405 -0.013870478 -0.18130435 0.13883612
000090 63 5a db bc 61 29 3c be f9 d3 67 be c4 d0 3e 3e
       -0.026776498 -0.1837516 -0.22639455 0.18634325
0000a0 82 76 3c be 6e ff 4f be ec 09 6e be 91 30 df bc
       -0.18404582 -0.20312282 -0.23245972 -0.027244838
0000b0 ed ba ae bd c3 d8 16 3e 8b 9a 39 bd 31 0c f8 bd
       -0.08531747 0.14731126 -0.0453134 -0.121117
0000c0 94 ff 9d bd 70 85 3a be 9f e2 6f 3d 82 0c 74 bd
       -0.07714763 -0.18214965 0.058565732 -0.05958224
0000d0 40 b9 fb bc 42 9f c0 bd 05 5e 95 bb 08 bc cf 3e
       -0.030727983 -0.09405376 -0.004558327 0.40573144
0000e0 fc 86 c1 bb 38 68 31 3c 51 f4 60 3e 31 01 8d be
       -0.005905984 0.01082807 0.219682 -0.2753997
0000f0 21 ad 89 3d d9 8c 66 3d 28 cd 59 be 05 ae ea 3c
       0.06722475 0.056286667 -0.21269667 0.028647432

t_model.t_model.2.weight f4 [64, 64]
000000 20 94 d1 3d 88 58 bf bc 72 18 b2 bd fe 20 4a 3e
       0.10233331 -0.023357645 -0.08696069 0.19739148
000010 5a 13 1a bd c4 be 82 bd dc b7 50 3e 27 10 67 3d
       -0.03761611 -0.06384042 0.20382637 0.05641189
000020 44 5a bd 3b f0 3f a5 bd f0 9f 99 bd 95 f1 17 3e
       0.0057785828 -0.08068836 -0.07501209 0.1483825
000030 eb e1 36 3e 5f b3 e1 3d 1c ac f5 3d ba 53 5e 3d
       0.17859618 0.110205404 0.11995718 0.054279067
000040 2f de a4 3d 9d b4 d8 3d 8f 26 81 3e f2 09 9c 3b
       0.08050191 0.10581324 0.2522473 0.0047619278
000050 eb 0d a1 3d 98 e1 07 be 38 70 ac 3d 11 9a 11 3d
       0.07863983 -0.13269651 0.084198415 0.03554732
000060 02 61 73 bd 85 d8 8a 3d 07 4c 59 3c 54 dc 69 be
       -0.059418686 0.06779579 0.013262755 -0.22837955
000070 a9 1b ef bd 92 8f 80 3d ea a1 6e 3d 44 8a 14 3e
       -0.11675198 0.06277384 0.058259882 0.14505869
000080 f9 b1 b9 bc 6b 92 6c 3c a3 f6 07 be ba ea 02 3e
       -0.022667872 0.014439206 -0.13277678 0.12784854
000090 df 05 43 3e 1e 9f df 3c 99 0d 09 bd a1 78 40 3e
       0.19045208 0.027297553 -0.033460233 0.18796016
0000a0 62 61 8b 3c 95 01 90 be 58 9b 65 be 1f 84 e6 3d
       0.01701421 -0.28126207 -0.2242254 0.11255669
0000b0 1f 19 ef 3d 40 79 43 3e ec 7b 8b be f1 58 2e bd
       0.11674713 0.19089222 -0.27242982 -0.04256529
0000c0 96 7f 1f 3d 11 1a 54 be 77 ce 21 3e b1 2b b8 3d
       0.038940035 -0.20713069 0.15801416 0.089927085
0000d0 cb d5 02 3d 5d 4f 46 3d 80 70 31 3c 5c 32 2b 3e
       0.03194217 0.04841553 0.010830045 0.1671843
0000e0 ac be 21 3e ea f5 43 3d f7 41 12 3e 90 b4 03 bc
       0.15795392 0.047841944 0.14282976 -0.008038655
0000f0 33 0d 15 3d 15 a5 0e 3d e0 f1 cd 3c fa ff 07 3e
       0.03638954 0.034825403 0.025139749 0.13281241
000100 c0 18 aa 3d ad 57 12 bc a4 3f b4 3c 01 84 bd 3d
       0.08305502 -0.008932036 0.022003002 0.09253693
000110 58 dc 34 3c 6d 69 ed bc f4 16 a5 3d 91 c1 1e 3e
       0.011038862 -0.028980935 0.080610186 0.15503527
000120 e4 3b 9e 3c 45 a5 e3 3c 61 d5 0d 3d ee 56 d9 3d
       0.019315667 0.027788768 0.034627322 0.10612284
000130 41 23 ee 3d 27 61 10 3e 9d 5d ad 3c 77 eb 14 3d
       0.11627818 0.1409956 0.021162802 0.03635737
000140 8a 45 a7 3d 02 f5 47 3d 1e 96 91 3d f4 bd 76 3d
       0.081675604 0.048817642 0.07108711 0.060239747
000150 bc 40 fa bc ca 72 4e 3d de 3d 87 bd ac 2f 36 3d
       -0.030548446 0.05040244 -0.06603597 0.044479057
000160 27 28 be 3d 08 3d c1 3b 8f 81 f8 3d 37 f3 dd bd
       0.09285002 0.005897168 0.12134086 -0.10837405
000170 31 91 6c bd cf 4e 53 bd 7d 6f ea bd 75 d3 51 3e
       -0.057755653 -0.05158883 -0.11447046 0.2049082
000180 da d2 ff 3c 4f 1a c6 3c 4c a3 6a 3c 05 b7 20 3e
       0.031228472 0.024182467 0.01432116 0.15694816
000190 e0 86 d2 3d 20 2b f3 3c 16 1c 38 3d e4 0a 26 3e
       0.102796316 0.02968365 0.04494866 0.16215092
0001a0 29 87 8d 3d 2e e1 06 be c6 37 8a bc 6c d7 c1 3d
       0.069105454 -0.13171837 -0.016872298 0.094649166
0001b0 86 f4 9a 3d 08 2f 94 3d 2c be bc bd 88 0c 7b bd
       0.075661704 0.07235533 -0.0921596 -0.061291248
0001c0 4b 69 bf 3b 93 3f e0 bd 44 3e 60 3d da 65 fb 3c
       0.0058414093 -0.10949626 0.05474688 0.030688215
0001d0 e3 71 82 bc e9 95 b9 3d 55 54 a5 3d 69 cb cf 3d
       -0.015923446 0.09061796 0.08072726 0.10146219
0001e0 1a 96 03 3d 2e 97 a7 3d 0a 2d 13 3e 34 3c ac 3d
       0.03212557 0.08183132 0.1437265 0.0840992
0001f0 77 7f 03 3e 29 0f e6 3d 90 c6 0b bb 1d 1b 02 3d
       0.12841593 0.1123336 -0.002132807 0.03176414
000200 5a 5b aa bc 39 b7 a7 3d 71 0a d6 3d ea 57 0d bd
       -0.020795513 0.08189244 0.1045121 -0.03450767
000210 25 4b 2b 3d 75 61 03 3e 24 97 bd 3d 5d 15 f2 bb
       0.04181971 0.12830146 0.092573434 -0.0073878006
000220 17 6d 89 3d df ea 33 3d 7e a5 83 bc 47 4f b5 3d
       0.0671026 0.043925162 -0.016070124 0.088530116
000230 d0 c7 5e 3d ed ec cf 3c 2b 7c 7e 3d 8d bb 08 3e
       0.054389775 0.02538153 0.062130135 0.13352795
000240 a9 52 a9 3d d8 7d c8 3d 64 a8 39 3b 76 f2 b7 3d
       0.08267719 0.09789628 0.0028329128 0.08981793
000250 e0 b5 d2 3d a9 83 d0 3c c7 e9 d8 3d 8a 61 c7 3d
       0.10288596 0.025453405 0.105914645 0.09735401
000260 ea 7a ab 3d 1c 3e c8 3d 7d 08 ea 3d 3c b4 2e 3d
       0.08373053 0.097774714 0.114274 0.042652354
000270 20 f3 97 bd 02 77 19 3d 32 35 ee 3d 06 6c e9 3d
       -0.07419419 0.03746701 0.1163124 0.11397557
000280 a7 31 4c 3d 36 f6 11 3c 83 7b 20 3c 9e f7 03 3e
       0.04985204 0.008908799 0.0097950725 0.12887427
000290 80 53 dc 3d e6 b7 82 3d 3a 05 1b bd cb d4 3f 3c
       0.10758114 0.06382732 -0.03784678 0.011708449
0002a0 f2 1d 75 3d 0e 0a 0d be dc 7d 42 3d 55 50 92 3d
       0.05984301 -0.13773367 0.04748331 0.07144228
0002b0 4f d3 98 3d c9 a9 61 39 ea 7e 1a be 63 c8 a6 3d
       0.07462179 0.00021520922 -0.15087476 0.081436895
0002c0 5f 87 80 3d 92 b2 51 3d 0f 4f 4e bd 70 ae dc 3c
       0.0627582 0.05119569 -0.050368365 0.026938647
0002d0 e7 24 81 3d 2c 27 7d 3d 49 ac a1 39 90 a2 69 bd
       0.06305867 0.061804935 0.00030836675 -0.057039797
0002e0 51 b4 0a 3e 07 fb 9b 3d ab 1e 50 3d 41 1a 88 3d
       0.13545348 0.07616239 0.050810497 0.066456325
0002f0 ef ac d8 3c da 5b ca 3d 7b 84 85 3d 4c 8d 15 3d
       0.026449649 0.098808005 0.06519409 0.036511704
000300 d5 0e 62 bc 13 97 bf 3d 4f a3 00 3d 70 f8 96 bd
       -0.013797482 0.09354987 0.031405743 -0.073716044
000310 9c ec e4 3c 4b cd 17 3e a2 61 c9 3d a9 1a 9e bb
       0.027944855 0.14824407 0.09833075 -0.0048249555
000320 b4 16 86 3d d0 db 0a 3e 58 6d e5 bc 08 f2 02 3e
       0.06547299 0.13560414 -0.02800624 0.1278764
000330 2c 3f ca 3d 12 3b 0b 3e 06 f8 9e 3d 1d 7d 7e 3d
       0.0987533 0.13596752 0.077621505 0.062131036
000340 cb d0 69 3d ae 45 4d 3d 31 94 d9 bd a6 77 22 3d
       0.057083886 0.05011528 -0.106239684 0.039664887
000350 44 ad e8 3c fb e8 5d 3c 97 01 11 3e 98 38 f6 3d
       0.028402932 0.013544316 0.14160763 0.12022513
000360 47 17 fe 3b 72 64 59 3d 3f 60 3c bd 1d e7 c1 3d
       0.0077542397 0.053074308 -0.045990225 0.094679095
000370 d0 58 ba bd be ac 9e 3c 04 c7 af 3d 79 3b 0b bd
       -0.09098971 0.01936948 0.08582881 -0.033992264
000380 c8 d3 86 3d 13 db 40 3c 0d 54 17 3e 3b a9 eb 3d
       0.06583363 0.011770981 0.14778157 0.115068875
000390 6f ac 03 3e ef b2 32 3d 28 b2 0f 3d 7d bb ac 3d
       0.12858747 0.043627676 0.035082012 0.08434198
0003a0 c7 d7 25 3d 6a dd 95 bc 16 83 b4 bd 10 95 a6 3d
       0.040488984 -0.018294055 -0.08814065 0.081339
0003b0 b4 dc af 3c c7 1b 2c 3e c6 62 8d bc 30 5c dd 3c
       0.021467544 0.16807471 -0.017259013 0.027021497
0003c0 50 1b 13 3c a9 39 58 3d 1a 28 a0 bd 18 77 cd 3d
       0.00897868 0.052789364 -0.07820149 0.10032481
0003d0 23 e5 6f 3d dc eb 10 3e 49 32 20 3d 47 a2 ac bd
       0.05856813 0.14152473 0.039110456 -0.084293894
0003e0 6c bc c7 3d 48 bb 92 3d 7e b6 47 3d 1a 8a 63 bd
       0.097527355 0.07164627 0.048758022 -0.055551626
0003f0 2d 22 d8 bc 09 43 15 3e cd 8e 34 3c 00 fd e7 3d
       -0.026383484 0.14576353 0.0110203745 0.11327553

t_model.t_model.2.bias f4 [64]
000000 23 3b 32 3e 32 bb 9b bd 8f d3 69 3d cb 97 9b bc
       0.17405371 -0.07604064 0.057086524 -0.018993279
000010 11 ba 21 be c9 da 92 3e 65 5f c0 bc 8e 40 b5 3e
       -0.15793635 0.28682545 -0.023482988 0.35400814
000020 07 c1 c0 3d f6 99 3b 3d 19 f7 47 bc 42 fd 85 3d
       0.09411817 0.045801125 -0.012204909 0.06542446
000030 f4 21 78 bd 2c 9f a2 bd c4 69 9f bd f4 bb c3 3e
       -0.060579255 -0.07940516 -0.07783845 0.38229334
000040 4d 35 4d 3d 3c a9 2f 3d da 5c 69 3e e4 6a a8 3d
       0.05009966 0.042886004 0.22789326 0.08223513
000050 c9 aa 3b 3e f5 ed ee 3c b4 9b 48 3e 08 6a 88 bd
       0.18326868 0.029166201 0.19590646 -0.06660849
000060 8b f1 d4 3c 0e 77 a0 3e 42 8c 63 be 74 6e 24 3e
       0.025994083 0.31340832 -0.22221473 0.1605776
000070 8c 3b 11 be c5 09 9a bd 48 be 05 be 1f d5 a0 3d
       -0.14182872 -0.07521395 -0.13060868 0.078531496
000080 25 7d 3b bd 06 6e 6c bd eb 41 79 3d ff be 65 3d
       -0.045773644 -0.057722114 0.06085388 0.05609035
000090 1d 21 75 3e 44 9f d3 3c 0e cf 4d 3b 7e e0 79 3e
       0.23938413 0.02583278 0.0031403932 0.24402043
0000a0 9c f0 00 be b1 ae 2c be a1 a9 3a 39 5b 24 7b bb
       -0.12591785 -0.16863514 0.00017801534 -0.003832123
0000b0 27 cb 0b 3e ca f0 47 3e 6c 76 c4 3e 4a fc 57 3d
       0.13651715 0.19525447 0.383716 0.052730836
0000c0 dd 48 09 bd bf 8b ee 3e 84 e7 a6 bc 3b bf 4d 3e
       -0.033516753 0.46590993 -0.020374067 0.2009248
0000d0 ac 13 f4 3c 84 ac 99 3c 78 a9 f1 bd 76 c4 83 bd
       0.029794537 0.01875902 -0.11799902 -0.06433956
0000e0 90 e9 9d 3e 33 d2 2b bd a0 1e 67 3d f2 f7 5f 3e
       0.30842257 -0.04194851 0.05642569 0.21871927
0000f0 4a 54 9b 3d d0 75 ee 3d 91 10 f3 3d e9 70 53 3e
       0.07584436 0.11643565 0.11868394 0.2064854

s_model.x_model.weight f4 [64, 32]
000000 2f 6e 51 3d 48 53 65 39 9f 60 1b be 16 3e 9c bc
       0.05113047 0.00021870167 -0.15173577 -0.019072574
000010 44 3a ef 3e a9 4d 1d bc 04 9a b3 be ea 60 9d 3a
       0.4672414 -0.009601035 -0.35078442 0.0012007032
000020 e5 66 1a 3e 68 85 48 ba 45 78 94 3e de 73 91 3b
       0.15078314 -0.00076492736 0.28998008 0.0044388613
000030 57 db 61 be 03 56 cc bc af ff 7b 3d b2 67 d4 bc
       -0.22056328 -0.024943357 0.061523136 -0.025928352
000040 00 02 a6 be 5d 51 01 3b 18 da 9a 3a ff 03 8f ba
       -0.324234 0.0019732334 0.0011814265 -0.0010911225
000050 ba 03 34 be 40 bc b5 3b a0 b7 9c bd 19 05 dd 3b
       -0.17579547 0.005546123 -0.07652211 0.0067449925
000060 84 22 38 3e 0c 1d 5a bc dd a3 ed be 95 58 9c 3c
       0.17981917 -0.013312589 -0.4641408 0.019085208
000070 1d 3e 3b 3f 9d 54 06 bc 7f 08 87 bd 9b a5 75 bc
       0.7314165 -0.008198884 -0.065934174 -0.014993097
000080 cc 4e d1 be 29 36 7b 3c 67 3c 6b be 73 63 6e 3c
       -0.4088043 0.015332737 -0.2297226 0.014550078
000090 ef 58 2d 3c f2 75 59 3a f6 5c 16 3e ec 4d b3 bc
       0.010580285 0.0008295468 0.146839 -0.021887742
0000a0 29 b8 2c 3d 2b e4 01 bc 12 d5 a4 3d 2a f6 55 3c
       0.042167816 -0.007927935 0.080484524 0.013059178
0000b0 20 2c ed 3d 72 27 2d bc b5 e3 98 3e ba 77 73 bb
       0.11580682 -0.0105684865 0.29861227 -0.003715022
0000c0 ac d6 9b 3c 59 09 b8 bc ef 1e 77 3d f1 a3 4d bc
       0.019023262 -0.022465395 0.060332235 -0.012551294
0000d0 bc 13 2d 3e 64 4d e4 3b ce 61 6f 3c a8 2e dc bb
       0.1690206 0.0069672335 0.014610721 -0.006719429
0000e0 23 ca 14 bf 52 57 07 3c 4a 03 06 be d8 b0 3e ba
       -0.58120936 0.008260565 -0.13087192 -0.00072742766
0000f0 52 04 82 bb 90 fb b5 3b 1c a2 af 3d 6b 5e f8 bb
       -0.0039678 0.00555367 0.08575842 -0.007579615
000100 a7 ab 9b 3e ee 2e 11 3c 28 f4 07 be 2b 48 17 bc
       0.30404398 0.008861287 -0.13276732 -0.009233515
000110 44 85 30 bb b0 8f e3 bb 62 37 8a bd 73 b2 b1 3b
       -0.0026934901 -0.006944619 -0.06748845 0.005422884
000120 53 8a 2a 3d db 30 35 bc 66 25 cf bc e0 e1 10 3c
       0.041635823 -0.011059011 -0.025286388 0.008842915
000130 0c a7 79 3e 01 ba fc bb c0 e4 81 bc 9e bd a8 3a
       0.2438013 -0.007712603 -0.015856147 0.0012873893
000140 7d bb bf 3c 0e 55 7f 3c f8 39 cd be d8 bd d1 3b
       0.023404831 0.015584243 -0.4008329 0.006400805
000150 fc 15 96 3d c7 74 25 3c 5e 88 1e be 31 69 cc bb
       0.07328412 0.010098643 -0.15481707 -0.0062381257
000160 b9 a5 a9 be e2 34 4f 3c 3b 84 67 bd ad 7b 15 3b
       -0.3313425 0.012646886 -0.05652259 0.0022809312
000170 eb 28 23 bd 29 1d 17 3c 57 99 86 bd 68 2a 0d 3c
       -0.039833944 0.009223261 -0.06572216 0.0086160675
000180 74 58 ad bc 0a d5 39 bb 0f a7 49 bd 91 36 b0 3b
       -0.021160342 -0.002835574 -0.049231585 0.0053775986
000190 1a c6 b0 b8 ca 77 51 b9 3b 98 a0 bc 4c 3e 9d ba
       -8.429233e-05 -0.00019976418 -0.01960384 -0.0011996715
0001a0 ad 84 6d bd 97 02 90 bb 38 0a 6b 3d 42 25 17 3b
       -0.057987858 -0.00439484 0.057382792 0.002306298
0001b0 3d d2 c8 bb d4 4b 5d 3b 78 9c 95 3d 1b 2a ea bb
       -0.006128578 0.003376712 0.07305235 -0.0071461326
0001c0 3a e0 9b 3f a5 db 2b bc 66 96 82 3d f9 b9 d9 3b
       1.2177804 -0.010489379 0.063763425 0.006644484
0001d0 f5 b7 11 be 87 52 4b ba 68 68 2a bc 58 23 39 3b
       -0.1423033 -0.0007756133 -0.010400869 0.0028249826
0001e0 04 85 31 be a4 60 67 bb 88 06 6b bc 1a 55 44 bb
       -0.17335898 -0.0035305405 -0.014344819 -0.002995795
0001f0 63 98 13 bd 32 bc a2 39 28 08 c5 3d ac 94 d5 3b
       -0.036034 0.00031039264 0.09620696 0.006517967
000200 20 c4 c9 3d 94 b2 a4 bb 57 3e c6 3e ec bc d5 3c
       0.09851861 -0.005026171 0.38719437 0.026091062
000210 93 b2 c9 3d 89 6d 4e 3c b6 a9 1e 3d d7 42 a3 bc
       0.098485135 0.012599357 0.038736068 -0.019929333
000220 50 2f 0c be 1d a5 a6 3b 0b e2 a5 3e 17 7c 7f bc
       -0.13689923 0.005085601 0.3239902 -0.01559355
000230 ab 65 0a bd 5f 4d fb bb 48 d5 8d 3d 25 46 f2 3c
       -0.033788364 -0.0076691355 0.06925446 0.029574463
000240 79 cb 33 3d 46 51 58 bc 99 c8 91 be 30 64 c6 bc
       0.04389522 -0.013202971 -0.28473356 -0.024217695
000250 6b f4 89 3e b9 06 dc 3c 86 17 48 3e f5 33 80 3b
       0.2694429 0.026858674 0.19540223 0.0039124438
000260 70 db 4b 3d be 31 b5 3c 90 81 1c 3d c3 f5 88 3c
       0.04976982 0.022118445 0.038209498 0.01671875
000270 75 b9 41 3f 4b 0b 81 39 a9 32 bc 3c fd e5 0a 3b
       0.7567361 0.0002461321 0.022973375 0.0021194213
000280 5e 4d 65 bd be 7f a0 bc 38 fa 88 3e 72 6c 47 3c
       -0.055981986 -0.019592162 0.26753402 0.0121718515
000290 fe 34 12 bf 40 74 37 bc be 3a 9d 3e 47 57 09 3d
       -0.5711211 -0.01119715 0.3070888 0.0335305
0002a0 de 06 d2 3d 2d cf 80 bc 0c 4c ab 3d d1 5c 81 bb
       0.10255216 -0.01572379 0.08364114 -0.003947832
0002b0 6c a6 02 3e a2 36 8a 3c 47 f3 08 3e 6d b0 ea bc
       0.12758797 0.016871754 0.13374053 -0.02864858
0002c0 54 f4 b4 3e 89 a0 87 bb 1d 3e c0 bc ea 63 fb 3a
       0.35342658 -0.0041390103 -0.023467118 0.0019179557
0002d0 80 15 3f 3e cc 21 96 3c d8 b8 ec bd c3 26 ce 3b
       0.18660545 0.018326662 -0.11558694 0.006291242
0002e0 5b d7 e6 bd 0e 16 f7 bb e8 ff f2 bd ab 0a f5 3b
       -0.112715445 -0.007540471 -0.118652165 0.0074780784
0002f0 e1 ff 59 be 3b 4d a5 3c 27 06 80 be 57 42 22 3b
       -0.21289016 0.020178428 -0.25004694 0.002475878
000300 06 c1 f0 bd 96 57 ac 3a c8 ab d6 bc a5 ca ee bb
       -0.11755566 0.0013148661 -0.026204959 -0.0072873407
000310 e2 8e 04 3d ac 93 d2 ba b1 3d 2f 3c ba 4c 32 3c
       0.032362826 -0.0016065738 0.010695861 0.010882551
000320 80 ad 89 3c 80 99 ca bc 71 16 91 bd cf 2c 5c 3c
       0.016806364 -0.024731398 -0.070843585 0.013438418
000330 ea 99 0a be 69 b4 3f bb 90 53 ce bd 2b 2d 33 ba
       -0.13535276 -0.002925182 -0.10074532 -0.00068350387
000340 2d 78 1a 3d 1b 87 42 bb 46 1a 1b bd 2d de 02 39
       0.037712265 -0.002968258 -0.037866853 0.00012480533
000350 48 a6 73 3e ae 52 67 3c 0a e1 10 3e ff 3f 7c 3c
       0.237939 0.0141188335 0.14148346 0.015396117
000360 fa f5 3f 3e a3 03 54 3b d8 9b 40 bd c0 6f 5c 3b
       0.18746176 0.00323508 -0.047023624 0.0033635944
000370 43 66 d5 3c 67 91 ca ba a5 57 a9 3f 95 24 99 3b
       0.026049739 -0.001545471 1.3229872 0.0046735504
000380 f0 64 76 be 12 96 38 3c 60 03 12 3e de 39 41 bc
       -0.24061942 0.011266248 0.142591 -0.011793582
000390 c8 88 f6 3d 58 82 88 3c dc ad 97 be f5 d1 79 bc
       0.12037808 0.016663715 -0.29624832 -0.015247812
0003a0 12 20 dc 3d 4a 58 29 bc 82 70 b6 be a1 df 19 3c
       0.107483044 -0.010335991 -0.35632712 0.009391696
0003b0 00 6a e6 bd 10 63 b3 bc 33 d8 07 bf 9a 24 74 bc
       -0.11250687 -0.021897823 -0.5306427 -0.014901305
0003c0 f0 c4 04 3f 07 af 0c bc c3 b7 34 3e 1d 30 80 3c
       0.51863 -0.008586652 0.17648225 0.015647942
0003d0 d7 82 0f 3d 08 52 82 3a 18 49 10 3b db 88 ab 3b
       0.035036888 0.000994266 0.0022016224 0.0052348203
0003e0 5a 0b a9 3e 59 fb 81 bc b1 7d 5c 3e 0e 40 95 bb
       0.33016473 -0.015866922 0.21532322 -0.004554755
0003f0 b0 18 9c 3d 12 88 f3 bb 49 e0 a7 be 2c ce ab 3c
       0.07621896 -0.0074319923 -0.32788303 0.020972334

s_model.x_model.bias f4 [64]
000000 b8 fb 8d 3e 74 bf c5 3d 13 5a 9e bd 02 ba 40 bd
       0.2773111 0.096556574 -0.07732024 -0.04705239
000010 b9 25 cb 3d de 27 9f 3e 4b 63 93 bc 40 26 d0 3e
       0.099193044 0.31085104 -0.017991683 0.40654182
000020 99 88 54 3e 4e 73 32 3e 32 23 af 3d 8f 53 1f 3e
       0.20755233 0.17426798 0.08551635 0.15559219
000030 01 7e ae bd 3e 5f 29 be b6 3b a1 3c e2 9b 70 3e
       -0.08520127 -0.16540238 0.019681793 0.23496965
000040 db 2c b3 bc a7 d7 00 3e 64 46 d3 3e 64 b6 02 3d
       -0.021871975 0.12582265 0.4126464 0.031912223
000050 e7 46 00 3e b1 97 17 3c 3d e8 8e 3e e5 c5 98 3d
       0.12527047 0.009252475 0.2791156 0.074596204
000060 7c 92 55 3e 11 6e d9 3e a0 54 2a be 10 fd 01 3c
       0.2085666 0.42466787 -0.16633844 0.00793387
000070 f4 a4 16 be 81 bb 13 3d 61 b5 b7 bd 05 71 d1 3d
       -0.14711362 0.03606749 -0.08970142 0.10226635
000080 56 a3 81 bd 00 ce 1a 3e ac 59 88 bd bd f6 79 3e
       -0.06329982 0.15117645 -0.066577286 0.2441053
000090 7d ca 8b 3e 0a 52 0d be 68 41 a5 3d bf 61 a0 3e
       0.27302924 -0.13800827 0.08069116 0.31324574
0000a0 fd e5 c9 3d d4 60 e6 bd e2 f8 5f be 7e f7 77 bd
       0.0985832 -0.11248937 -0.21872285 -0.06053876
0000b0 38 69 37 3e 2d 11 4c 3e af e1 c6 3e 72 5d 8b bb
       0.17911232 0.19928427 0.38844058 -0.004253083
0000c0 f6 83 76 bc 76 f1 0b 3f e6 88 3f bd 1c 3a 8a 3e
       -0.01504611 0.54665315 -0.046761416 0.2699746
0000d0 a1 b7 1d be 21 01 8d bd ac cc 87 be 08 03 80 3d
       -0.1540208 -0.06884981 -0.2652334 0.06250578
0000e0 d4 26 a4 3e 2c 71 90 bd fd c5 f2 bd 56 43 c8 3d
       0.32060874 -0.07052836 -0.118541695 0.09778468
0000f0 b3 d2 07 be 1f b2 c2 3d df 2c 06 3d 1c 7b 43 3e
       -0.13263969 0.0950663 0.032757636 0.19089931

joint_model.model.1.0.weight f4 [64, 64]
000000 76 4f db bc a4 4d 34 bd 42 91 da be a9 88 d1 bc
       -0.026771288 -0.044019356 -0.42688948 -0.02557786
000010 d2 19 5f 3e 02 1a 64 3a 8e f8 56 3e ea 09 02 bc
       0.21787193 0.0008701385 0.20993254 -0.007936934
000020 15 c0 c6 3c 7c 72 03 3d 88 ec 41 bc 6e 54 d9 be
       0.024261514 0.032091603 -0.011836179 -0.42447227
000030 9e e3 22 bf 90 58 41 3f c4 53 8d bc 04 78 83 3e
       -0.63628566 0.7552576 -0.017251857 0.25677502
000040 d2 ab b4 bd 8a 22 07 3f 9c 0d 7b bb b5 5a c8 3e
       -0.088218346 0.5278708 -0.0038307672 0.39131704
000050 17 51 c5 3e 77 e1 46 3d 76 2a e8 3e e7 6a 12 be
       0.3853843 0.048554864 0.45344895 -0.14298593
000060 c7 8d af be 27 93 a2 3c 47 84 e3 3e df 81 54 bd
       -0.34287855 0.019845558 0.44436857 -0.051881667
000070 ad 37 a4 be 53 86 86 be 2c 6a 09 3f de 9c f5 bd
       -0.32073727 -0.26274356 0.5367763 -0.11992811
000080 eb 6d cc bb f4 9c 9c 3c 04 57 73 be 76 15 9a 3e
       -0.006238689 0.01911781 -0.23763663 0.30094498
000090 cc de cf bd 0e 46 6e 3d 8c 30 ad bd 02 c3 2d be
       -0.10149917 0.058172278 -0.08456525 -0.16968921
0000a0 51 b6 bf 3c f8 46 64 3d 3c 71 29 3f c7 af 90 3e
       0.023402365 0.055731744 0.66188407 0.28259107
0000b0 0b fd b1 3d 80 71 94 be bc 4f 40 bf c9 80 f6 3d
       0.08690842 -0.28992844 -0.75121665 0.120362826
0000c0 da 01 38 3e d2 e1 27 3e df 5e ef be 00 8a dc 3e
       0.17969456 0.16394737 -0.46752068 0.43074036
0000d0 42 7b 76 3d 35 42 57 3e 78 f5 8b 3e 49 75 f1 bd
       0.06017614 0.2102135 0.27335715 -0.117899485
0000e0 12 ba 33 3e d9 f0 31 bf be aa cd be 1f e1 93 be
       0.17551449 -0.6950813 -0.40169328 -0.2888269
0000f0 43 10 84 be d9 96 15 be 70 8c 7e 3d b0 73 b5 3e
       -0.25793657 -0.14608325 0.06214565 0.35439825
000100 a7 21 c0 3d 4a 6a cc bc 62 df ff bd e3 25 02 3b
       0.09381419 -0.024953026 -0.12493779 0.0019859008
000110 52 5e 3d be 5d 22 96 3d 3d e4 e1 bc 5e c8 1e 3e
       -0.18493012 0.07330773 -0.027574653 0.15506122
000120 66 87 2d bb 1f a9 9a 3e 60 ed 8d 3d ed ea 3d 3e
       -0.0026478409 0.30207154 0.06930041 0.18546648
000130 09 76 87 3e c2 2d 3d bd 5b 28 78 be d7 d1 32 3d
       0.2645724 -0.046186216 -0.24234144 0.04365715
000140 45 05 04 3e d7 8c 6b 3d ab bd 14 3e af fb 16 3c
       0.12892635 0.057507362 0.14525478 0.0092152795
000150 bd 7a eb 3d f1 98 f1 3e 72 e7 2c be 38 da 2a be
       0.1149802 0.47186998 -0.16885164 -0.16684806
000160 71 ca e6 3e 6c 2c 77 3d b3 cd 08 3d 49 bc a5 3d
       0.45076326 0.0603451 0.033399295 0.08092553
000170 7e 35 0f be 8c 18 a7 3e 27 85 24 3e ad 66 19 3e
       -0.1398525 0.32635915 0.16066419 0.14980574
000180 53 6b 2b be ab 2a 5c be 58 bd 52 be 18 20 38 3e
       -0.1674016 -0.21500652 -0.20580041 0.17980993
000190 44 b2 33 bd 66 fb 16 be 03 57 61 3d 5f 78 54 3d
       -0.04387118 -0.14744338 0.05501462 0.051872607
0001a0 6c 38 22 be 01 c4 d3 3d 6f 58 df bc 67 ee 32 be
       -0.15841836 0.10340119 -0.027263848 -0.17473756
0001b0 f9 fc 52 bd 8a a4 29 be cc 1c d0 3d 00 75 49 bd
       -0.051510785 -0.16566673 0.101617426 -0.049183846
0001c0 6c 9d 29 3e d8 76 b5 b9 23 63 bb 3c a1 e4 31 3d
       0.16563958 -0.00034611556 0.02287442 0.04343093
0001d0 d0 12 5c be 7c e7 08 3e 64 6b 2e 3e c9 84 ed 3d
       -0.21491551 0.13369554 0.17033154 0.115975924
0001e0 1c 6d 61 3e 2e f8 f8 3d 62 24 a5 bd fc 40 2a be
       0.22014278 0.121567115 -0.0806358 -0.16626352
0001f0 03 7e ee 3d 36 cf 4a 3d 31 9d 0d bd 8c 2f 15 bd
       0.116451286 0.049514018 -0.034573738 -0.036422297
000200 bf 8c 52 bd 6e a0 6e be 74 7c c0 bd fc f1 32 be
       -0.051403757 -0.23303387 -0.093987375 -0.17475122
000210 0a fb 1c 3e d9 26 14 3e 3b 20 59 bd 0a dc 04 3e
       0.15330139 0.14467944 -0.053009253 0.12974563
000220 27 37 62 3d 00 92 5b be e4 f3 1e be f0 6a a8 bd
       0.05522838 -0.21442413 -0.15522724 -0.08223522
000230 02 93 a2 be 49 d5 62 bd 38 b2 a5 bd 67 18 28 3e
       -0.31752783 -0.055379186 -0.08090633 0.16415559
000240 78 ed b5 3e ec a7 e3 bd 00 b7 55 3c cd 39 25 3e
       0.35532737 -0.11116013 0.013044119 0.1613533
000250 3c e5 54 be 66 10 18 bf fa 61 26 3d 41 65 b0 be
       -0.20790571 -0.5940002 0.04062078 -0.3445225
000260 c5 1f 97 be 4f eb 21 be 16 1a f4 bd 16 5e 54 3d
       -0.29516426 -0.1581242 -0.11919038 0.05184754
000270 0c 38 74 3e c7 71 1b 3e 22 7e 10 bd a6 dd ea bc
       0.23849505 0.15180121 -0.03527654 -0.028670143
000280 c5 d0 55 3d fb 89 1c bd 86 47 17 be ff 5a 5d be
       0.05220105 -0.038217526 -0.14773378 -0.21616744
000290 a0 75 39 3e 88 bb 0c 3e da 0d f1 3d a8 b4 26 3e
       0.18111277 0.13743412 0.1177022 0.16279852
0002a0 2d 13 dd 3d 4c f8 ca bd 6c 0f db 3b 58 9a 16 bd
       0.10794673 -0.0991064 0.006685188 -0.036768287
0002b0 f0 80 2b bd 6b 24 03 bc d2 dc 82 bc 65 db 81 bd
       -0.04187101 -0.008004288 -0.015974436 -0.06340674
0002c0 56 34 0b 3c ec f1 02 bd f6 21 c2 bd fc 20 01 bd
       0.008496365 -0.031968996 -0.09479134 -0.031525597
0002d0 a2 75 a7 3c 0a b4 7b bb a2 6d 12 bf 98 4f 0c 3e
       0.020441834 -0.0038406872 -0.57198536 0.13702238
0002e0 e7 2a a0 3c 2f bc e7 be 14 d2 5f 3e df 83 4d 3e
       0.019551707 -0.4526076 0.21857482 0.20069836
0002f0 db 16 07 bc a7 ac 1f bd 83 42 e7 3d c1 85 22 be
       -0.008245195 -0.038983013 0.11291983 -0.15871336
000300 81 2b 12 be 4a 87 33 3e 01 d2 10 be 24 ff 63 3b
       -0.14274408 0.17532077 -0.1414261 0.0034789527
000310 0f 1e b8 3d 91 e1 cd 3e 2a 7f ce 3d 36 98 c7 bd
       0.08990108 0.40211156 0.10082848 -0.09745829
000320 f3 58 b1 3d d6 5f 8b 3e 16 8b 8f 3d ed e7 54 3e
       0.08659544 0.27221555 0.070089504 0.20791598
000330 6e f7 78 bd 23 b6 96 be ba e0 04 bd c2 9f 41 3e
       -0.060782842 -0.29435834 -0.03244088 0.18908599
000340 66 43 57 3e 4c b1 e1 3d 77 15 99 3e b0 18 e4 3c
       0.21021804 0.11020145 0.2989919 0.027843803
000350 4a 40 49 be aa 6f 05 bd 3b 64 7c 3e f3 04 fc bd
       -0.1965343 -0.032577194 0.2464761 -0.123056315
000360 73 85 41 be 50 86 90 3e 1f 63 71 3e c2 3f 1b bf
       -0.18898563 0.28227472 0.23572968 -0.6064416
000370 79 48 8c 3e 47 e2 a2 3d 3d eb 85 be d9 77 01 be
       0.27399042 0.07953315 -0.26156035 -0.12643375
000380 92 b5 f9 bf 50 9a d1 3d 50 74 3a 3e 93 21 85 3d
       -1.9508536 0.10234511 0.18208432 0.065005444
000390 9b 63 15 3e e6 d4 4d bf 73 05 9c bd 75 91 55 bd
       0.14588778 -0.8040298 -0.07618227 -0.05214067
0003a0 6c 17 09 bd 48 94 94 bb b4 99 8b 3e 82 c2 fe 3d
       -0.033469602 -0.004534278 0.27265704 0.12439443
0003b0 9b 01 6c bb 95 7f e7 bc f6 79 ae 3d b2 fe 76 bd
       -0.00360117 -0.028259078 0.08519356 -0.06030149
0003c0 40 b5 d8 3e ef 7c 44 be 21 e2 c1 3c 15 7e 92 bd
       0.42325783 -0.19188283 0.023667397 -0.071529545
0003d0 2d d1 c9 3d b7 2f b1 3d 11 08 11 3d fe 4a 2e 3d
       0.0985435 0.08651679 0.035408083 0.042551987
0003e0 8e 04 27 3e e3 c2 34 3e 98 7c 9c 3d 0e 9c 75 be
       0.16310331 0.17652468 0.07640952 -0.23985311
0003f0 9d 72 13 3e cd 4d c3 3d 12 07 0c 3e e1 88 84 bd
       0.1439919 0.09536324 0.13674572 -0.0647142

joint_model.model.1.0.bias f4 [64]
000000 10 ae 74 bd 68 81 16 3a 88 94 8e 3c 2c 74 b7 3c
       -0.05973631 0.0005741329 0.01740481 0.022394262
000010 a9 3d fb 3d 7c c1 e0 bd 11 59 2c be a8 0f d9 3e
       0.1226762 -0.10974404 -0.16830851 0.42394757
000020 71 89 c9 3d 3e 57 e7 3d 19 86 8a be 58 00 b8 b9
       0.09840668 0.11295937 -0.27055433 -0.0003509547
000030 c7 0a 9b 3e 07 ad 2c be 44 27 87 3e d3 f6 22 be
       0.3028166 -0.1686288 0.26397145 -0.15914468
000040 58 ff 40 3d 09 5b 52 3d b9 03 b9 3e 1c e7 90 3e
       0.047118515 0.05135635 0.36135653 0.28301322
000050 c8 be 7c 3d 5e a9 fc bd a5 83 74 be 07 d4 12 3e
       0.06170538 -0.12336992 -0.23878343 0.14338695
000060 58 1f 02 bf ef b8 6b 3e 22 46 95 be 7d ab be bd
       -0.50829077 0.23019765 -0.2915507 -0.093100525
000070 d5 c2 52 3e fa 32 cd 3b f0 81 8a 3e 85 eb 30 bd
       0.20582135 0.0062621804 0.2705226 -0.04319336
000080 58 17 e1 3c c8 f7 aa bd f0 18 74 3d f5 72 70 3d
       0.027476951 -0.08348042 0.059594095 0.05870338
000090 58 95 b4 3d 54 a4 e9 3b 95 5c ad bd 57 03 b2 3e
       0.088175476 0.007130185 -0.08464924 0.34768173
0000a0 62 d6 30 3e ef d7 f3 3d 04 f8 91 be 4c fd b7 bc
       0.1726928 0.119064204 -0.28509533 -0.022459649
0000b0 af b1 2b be 00 cf 31 3e 09 28 5d bd fa 2b a2 3e
       -0.16767 0.1736412 -0.05399326 0.31674176
0000c0 b7 47 18 3d f5 9e a7 be be 41 88 be d0 b9 ab be
       0.037177768 -0.32738462 -0.26612657 -0.335402
0000d0 1b d5 e7 bd b1 0a 4b 3e ed d9 5d 3d 8b c4 91 be
       -0.113199435 0.19828297 0.05416291 -0.28470263
0000e0 81 28 3b be c9 6e b3 be 44 de cc bc e7 ff ce be
       -0.1827717 -0.3504546 -0.025008328 -0.40429613
0000f0 49 45 e5 bd 2c 1a 75 be 02 c9 fb bd bc cf 45 bd
       -0.11194856 -0.23935765 -0.122941986 -0.048293814

joint_model.model.2.0.weight f4 [64, 64]
000000 29 5f b5 bc 4e 8e ad 3d 93 ee 0c 3e b2 4d 24 3d
       -0.022140102 0.08474408 0.13762884 0.04011316
000010 81 82 09 bd 82 69 a0 bd fb 30 46 be 4a d9 20 3c
       -0.033571724 -0.07832624 -0.19354622 0.009817431
000020 e9 51 1f bd 1c 16 fc bc 7f 75 70 3d 84 ac 9a bd
       -0.038896475 -0.030772261 0.058705803 -0.07552436
000030 56 1d 9e bd aa fa 4a bc b0 0a 42 3d 5e 01 cc bc
       -0.07720439 -0.0123888645 0.047373474 -0.024902996
000040 fe e7 bc bd 0a b1 4e 3d 57 f5 12 be ed 2c c6 3c
       -0.092239365 0.050461806 -0.14351402 0.024191344
000050 17 b1 a4 bc 8f 5d 9a 3d 11 a5 4d 3f 1b 49 16 be
       -0.020103974 0.07537376 0.80329996 -0.14676325
000060 70 43 3e 3e 0f 55 cc 3d 55 f1 51 bd 2e da 6c 3d
       0.18580413 0.09977161 -0.051255543 0.05782526
000070 c7 aa 20 be 9d 67 cc 3c 49 87 d4 3d c0 12 aa 3d
       -0.15690146 0.02495175 0.10377366 0.083043575
000080 05 52 bc bd dc c1 71 bd b7 33 2d bd 82 8d c1 3c
       -0.091953315 -0.05902277 -0.042285647 0.023627046
000090 bd 64 15 be c2 ab a9 bd c8 23 d5 3d 0e 94 e5 3b
       -0.1458921 -0.08284713 0.10407215 0.007006175
0000a0 f5 9c fe bb 4c f8 d5 3d 57 57 8e bd 9e 89 e2 bd
       -0.0077701756 0.104477495 -0.069502525 -0.11061405
0000b0 db 42 ee 3c 9a ff 92 3d cf f0 7c 3f 8f 8c 3c bd
       0.029084614 0.071776584 0.98804945 -0.046032485
0000c0 61 ee cf bd 21 ba 05 3d 23 12 39 be 05 aa 8b bd
       -0.10152889 0.03264821 -0.18073325 -0.06819538
0000d0 c7 64 fd 3d 42 dd 2f 3c 4d e9 ad 3d 03 85 61 bc
       0.123727374 0.010733904 0.08491764 -0.013764623
0000e0 64 c0 93 3e 44 7e 2a bc e5 3b 81 3d 03 78 e5 bd
       0.2885772 -0.010406081 0.06310252 -0.11204531
0000f0 8b c0 20 3c 42 76 7f 3c 7f d6 92 bd dc 00 5f bd
       0.009811531 0.01559216 -0.07169818 -0.05444418
000100 ab 74 f1 3d 01 ad 26 3d ac be 92 3e c4 cc 02 3e
       0.11789831 0.040692333 0.28661096 0.12773424
000110 a6 ff a3 bd 25 16 07 3f e7 7d 4a be ac 87 88 3e
       -0.080077454 0.52768165 -0.1977459 0.2666601
000120 d3 7d 5b 3e 1b 23 6b 3e 92 9c 8b be cc 40 87 3e
       0.21434717 0.2296261 -0.2726789 0.26416624
000130 9e 8f 6b 3e ed 08 3e 3d 47 ad 9f 3e 22 b3 08 3e
       0.23004004 0.04639523 0.31186888 0.13349584
000140 2c 90 53 3e 73 9d b4 be 1c d3 54 3d 74 6b 9b 3d
       0.20660466 -0.35276374 0.051959142 0.075888544
000150 0e d6 33 3e 6f ca 5c bd f6 eb 6a 3d 1f 30 14 be
       0.17562124 -0.053903993 0.057353936 -0.14471482
000160 87 25 43 3d c4 32 4c bd d6 62 0a 3e 27 c7 71 3c
       0.04764321 -0.0498531 0.13514265 0.014756954
000170 31 b7 84 3e a7 95 b4 bd b2 14 1e 3c 18 22 5d 3d
       0.25921014 -0.088176064 0.009648489 0.053987592
000180 38 1f 95 3e 11 f3 bd 3e af 26 bb 3d 9c 54 cd 3c
       0.2912538 0.37099507 0.09138238 0.025064759
000190 58 6b cf be 22 c1 03 bd 8d ee da 3e 1e 7e 8a bd
       -0.40511584 -0.032166608 0.42760125 -0.06762336
0001a0 6f 95 dd 3d b8 e8 6d bd 43 4a 16 be 43 6c 33 be
       0.10819518 -0.058083266 -0.14676766 -0.17521767
0001b0 a7 8a b4 3e 37 0f 3c 3e c7 66 ef 3b b9 45 72 be
       0.35262033 0.18365179 0.007305953 -0.2365941
0001c0 0b b0 9b 3e 60 a3 8b 3d f3 79 e4 bd b9 76 b8 be
       0.30407748 0.06818271 -0.111560725 -0.36028078
0001d0 fd eb 82 3e 39 11 ac 3d 40 1b e6 bd 48 00 a9 be
       0.2557067 0.084017225 -0.11235666 -0.33008027
0001e0 71 e2 53 3c 17 18 1b 3e 2c 29 63 be 0f 77 9d be
       0.012932406 0.15145908 -0.22183675 -0.30754897
0001f0 d4 72 00 be ca 65 6d 3d e0 34 72 3e 1f 55 ca bd
       -0.12543803 0.0579584 0.23652983 -0.09879517
000200 fa 01 8c bc d3 8b 5e bb 2b 02 a9 bc a0 2f 58 3d
       -0.017090786 -0.0033957853 -0.020630917 0.052779794
000210 21 36 94 3c c8 f5 07 be 1d f7 24 3e 4b ca 26 be
       0.018092217 -0.13277352 0.16109891 -0.16288106
000220 d7 01 31 be cb 0c a2 3d 31 fe 59 3e ec 92 65 38
       -0.17285858 0.07912596 0.21288373 5.4734686e-05
000230 ea cb 96 3d 2e 1d 8d 3c 40 43 92 3d 9a f8 cd 3d
       0.07363112 0.017225828 0.07141733 0.100571826
000240 4d fa 0d be 2b 6d b9 3a a8 a4 28 be 7d ab 38 bd
       -0.13865013 0.0014146914 -0.16469061 -0.04508542
000250 b1 d1 1a be 8f 9a 1e 3e f1 a0 db bd b0 c8 ea bb
       -0.15119053 0.15488647 -0.107240565 -0.007165037
000260 f4 0b d0 3e 77 30 b4 3d aa fe 1a bd 7b b4 7b 3d
       0.4063412 0.087983064 -0.037840523 0.061451416
000270 ed a8 8b 3b 4e 1e 4a 3d 16 20 bd 3d 16 a7 95 3d
       0.004262081 0.049345307 0.092346355 0.0730726
000280 9e ff f2 3d 8b 2b ab 3c d4 35 6c bb 84 cd aa bc
       0.11865161 0.020894786 -0.0036042826 -0.02084995
000290 cd 1f 1d be 8f ef 52 3d d1 fa a6 bd a3 c7 96 3d
       -0.15344162 0.051497992 -0.08153308 0.073622964
0002a0 ed f1 97 3d f2 68 2a 3c 2e fe c5 3d 8d f1 bc 3d
       0.074191906 0.0104009975 0.096676216 0.0922576
0002b0 4d 65 7f 3d 00 15 d9 bc 90 40 94 bf cc 7f 89 bd
       0.062352467 -0.026499271 -1.1582203 -0.067138284
0002c0 4f e8 55 bd bd c3 9c bc 60 a1 8f bc 31 83 87 3d
       -0.0522235 -0.019136304 -0.017533004 0.0661682
0002d0 bb dc 0e 3e 3e 35 cf 3c e3 d2 c9 3d 0a a8 25 3e
       0.1395139 0.025293943 0.098546766 0.16177383
0002e0 a0 de 01 3f f2 9f c6 3c 45 d4 a7 3d 75 5d b3 bd
       0.50730324 0.02424619 0.08194784 -0.0875806
0002f0 76 8a 03 3d 82 55 d7 bf c1 8a 30 be 9e 4a b7 bd
       0.03211447 -1.682297 -0.1724043 -0.08949779
000300 80 84 b7 bd ed 4b 12 3e 95 5a 34 be c5 6d d5 3d
       -0.08960819 0.14286776 -0.1761268 0.104213275
000310 77 08 a3 3c c7 bd ca 3e 13 e9 27 be 37 de 82 bc
       0.019901497 0.39597914 -0.16397505 -0.0159751
000320 49 97 0b 3d c7 99 d5 bd 4e 1c a0 3e 41 28 2e bd
       0.034079824 -0.10429721 0.31271595 -0.042518858
000330 4d f6 85 ba b5 59 0f 3d ab 41 8a bd 81 de 7c 3d
       -0.0010220498 0.03499766 -0.067508064 0.061735634
000340 54 1d 19 3f 14 ca fb bc 2a 3a 89 3d db 69 ee be
       0.59810376 -0.030736007 0.06700547 -0.46565136
000350 2f a1 10 bd 0c a2 d8 bc d5 a0 7e be 89 ae 06 3d
       -0.035309967 -0.026444457 -0.2486604 0.032881293
000360 86 de e5 3c 5a 17 8f 3d 5e 56 55 bf 5b 2d 57 3e
       0.028060209 0.06986876 -0.8333491 0.21013395
000370 5a 9d 7b 3e 86 b6 31 3e 7f 21 80 3e 04 a8 c5 3c
       0.24571744 0.17354783 0.25025555 0.024127968
000380 59 56 96 3d 41 13 99 bd a6 87 01 3e 38 c0 2a bd
       0.07340688 -0.074743755 0.12649402 -0.04168722
000390 c7 eb 66 3d e2 10 92 bd c0 6e f4 bd a8 28 a8 3d
       0.0563772 -0.071321264 -0.119351864 0.082108796
0003a0 c7 3e 01 be 4a e8 4d 3d 60 09 9d be 3e 70 89 bd
       -0.12621604 0.050270356 -0.30671215 -0.067108616
0003b0 2d df d0 39 6b f9 f9 3d 39 c6 18 3e b9 a6 aa 3d
       0.0003983913 0.12205776 0.14919366 0.08332581
0003c0 fa 4e be bc eb ca 2c be 66 89 fc bc f8 f3 72 be
       -0.023231018 -0.16874282 -0.030827235 -0.23725879
0003d0 bc 74 9d 3e ec bf 1b 3e 21 29 72 3e 51 41 e0 bd
       0.30753124 0.15209931 0.23648502 -0.10949958
0003e0 1e 33 dd bd f6 4f 3e be 6e 9e 62 3e 0e af 9f bd
       -0.108007655 -0.1858519 0.22130749 -0.07797061
0003f0 05 0f 01 be ee 87 8d 3d f3 f4 a3 3c da 4f 3f 3c
       -0.12603386 0.06910692 0.020014262 0.011676753

joint_model.model.2.0.bias f4 [64]
000000 89 28 f0 bd 3f e7 15 3e 09 b4 8e be 43 0b b2 3e
       -0.117264815 0.14638995 -0.2787173 0.34774217
000010 66 01 94 be be 93 1c be e0 46 09 bd c9 37 d3 3e
       -0.28907317 -0.15290734 -0.033514857 0.41253498
000020 56 e8 7e be 1b b2 9c 3d 80 a7 65 3e ca 49 46 be
       -0.24893317 0.076511584 0.22427177 -0.19364086
000030 27 db 9b 3d d2 7a 38 3e b1 af cf 3e 86 eb a3 be
       0.07610159 0.18015602 0.4056373 -0.32015628
000040 d4 3d 6b 3e 3c 73 d8 bd d2 c6 94 be 09 fe 4a bd
       0.22972804 -0.10568854 -0.29057938 -0.049558673
000050 88 91 a9 bd 11 2a f6 3e f6 9d 34 be 54 fe 50 3e
       -0.08279711 0.4807897 -0.17638382 0.20409518
000060 97 2f 6f 3e 4f 68 19 3e a1 25 53 be ff 3f de bd
       0.23357998 0.14981197 -0.20619823 -0.1085205
000070 a8 32 94 3e 67 e6 64 be 5c c2 81 bc ea f9 c6 3e
       0.28944898 -0.22353517 -0.015839748 0.38862544
000080 3d 20 ae 3e ac 93 3a 3e 08 06 c5 be b3 3e 87 3e
       0.3400897 0.18220395 -0.38481164 0.26415023
000090 1f 22 b3 3d 11 8e 29 3e 35 0d 2a bd 27 cd 82 3e
       0.087467425 0.165581 -0.0415165 0.25547144
0000a0 a2 db 52 be a8 97 b8 3e 23 43 8e 3e b5 65 9c be
       -0.20591596 0.36053205 0.27785596 -0.30546346
0000b0 8b b3 a4 bb 60 05 ae 3d 81 f6 a8 bc 53 6e b5 bd
       -0.005026286 0.08497119 -0.020625355 -0.08858933
0000c0 45 f3 07 3e aa db e6 bd 9f b3 8d 3e d4 f2 79 3e
       0.13276394 -0.11272366 0.27676103 0.24409038
0000d0 41 0f a4 3e e8 6e 02 be c9 db cd bd 1d 26 ce 3d
       0.32042888 -0.1273762 -0.10051686 0.10065863
0000e0 ff d8 37 3d 49 c9 cf 3d ed 1e c4 be 43 23 ae be
       0.044884678 0.10145814 -0.38304844 -0.34011278
0000f0 de bd 8a 3d f6 0c c9 3e 5a 79 d0 be 83 06 3d bb
       0.067744955 0.392677 -0.40717584 -0.0028842993
