energy_sampling/results_pis_architectures/many_well/langevin_clipping_lgv_100.0_gfn_10000.0_gfn/fwd/fwd_tb/T_100/tscale_1.0/lvr_4.0/seed_12345/model.pt (torch, 183012 bytes, 23 tensors)

t_model.timestep_phase f4 [1, 64]
000000 19 67 67 bf bf 60 af 3e 4a 53 24 3f 1e 2b 15 be
       -0.9039169 0.342535 0.6418959 -0.14567229
000010 23 88 1a bf 38 ea a2 be 68 1a 0c 3f 81 11 21 3f
       -0.6036398 -0.3181932 0.5472779 0.62917334
000020 6b 12 42 bf 3d bd 0a 3c b5 d2 13 3f 3d 59 f2 3e
       -0.75809354 0.0084679695 0.5774339 0.47333708
000030 a7 26 d2 be e0 26 79 bf b4 1a 2b 3f 3b cd 3a bf
       -0.41045114 -0.97324944 0.6683762 -0.72969407
000040 eb 53 55 bf bf 73 03 bf ab f5 1e bf 24 55 e6 bf
       -0.83331174 -0.5134849 -0.6209361 -1.7994733
000050 81 80 5c 3f f4 88 83 3f 2e 08 67 3f bf e7 af bd
       0.8613358 1.027617 0.90246856 -0.08589124
000060 be 73 86 3e 55 55 8a bf af 16 50 3f 3f f7 c3 3e
       0.2626018 -1.0807291 0.8128461 0.3827457
000070 22 00 10 40 d3 bd 3c 40 b9 f3 53 3e 7a 8f 3f bf
       2.250008 2.949086 0.20698442 -0.748283
000080 4b 44 3c 3f 4d e5 79 3f 44 0a 6e bf 10 32 13 3f
       0.73541707 0.9761551 -0.92984414 0.57498264
000090 aa 43 52 3f 52 58 b1 3e b3 70 fb 3f 33 1b ed bf
       0.821345 0.34637696 1.9643768 -1.8523926
0000a0 3b 3b c4 3e 18 dd a8 bf 3c 7e 45 bf e2 a1 95 3d
       0.3832644 -1.3192472 -0.77145743 0.07306267
0000b0 3a 2b d3 3f 3d 3f 9a be c3 eb 28 3f 85 78 79 3e
       1.6497567 -0.30126372 0.65984744 0.24362381
0000c0 63 96 34 3d 37 02 0b bf 56 c1 4b 3f bb db ca 3f
       0.044088732 -0.54300255 0.7959188 1.5848306
0000d0 37 10 51 3f 29 4f 12 be d9 cb 73 3e 3b 10 b3 bd
       0.81665367 -0.1428801 0.2380823 -0.0874333
0000e0 11 68 2d 3f 97 b3 a6 bf 6d f4 59 bf 13 5a 5a bf
       0.6773692 -1.3023556 -0.8513859 -0.8529369
0000f0 55 f3 f0 be 72 a8 02 bf df 88 86 be fd 1e 56 3f
       -0.47060648 -0.5103828 -0.262763 0.83641034

t_model.pe f4 [1, 64]
000000 cd cc cc 3d 7d c5 d7 3f 16 5f 51 40 b7 6d 9b 40
       0.1 1.6857144 3.2714286 4.857143
000010 e3 2b ce 40 08 75 00 41 1e d4 19 41 34 33 33 41
       6.4428573 8.028572 9.614286 11.200001
000020 4a 92 4c 41 60 f1 65 41 76 50 7f 41 c6 57 8c 41
       12.785715 14.371429 15.957144 17.542858
000030 51 07 99 41 dc b6 a5 41 67 66 b2 41 f2 15 bf 41
       19.128572 20.714287 22.300001 23.885715
000040 7d c5 cb 41 08 75 d8 41 93 24 e5 41 1e d4 f1 41
       25.47143 27.057144 28.642859 30.228573
000050 a9 83 fe 41 9a 99 05 42 5f f1 0b 42 25 49 12 42
       31.814287 33.4 34.985714 36.57143
000060 ea a0 18 42 b0 f8 1e 42 75 50 25 42 3b a8 2b 42
       38.157143 39.74286 41.32857 42.914288
000070 00 00 32 42 c6 57 38 42 8b af 3e 42 51 07 45 42
       44.5 46.085716 47.67143 49.257145
000080 16 5f 4b 42 db b6 51 42 a0 0e 58 42 66 66 5e 42
       50.842857 52.42857 54.014282 55.6
000090 2c be 64 42 f1 15 6b 42 b6 6d 71 42 7c c5 77 42
       57.185715 58.771427 60.35714 61.942856
0000a0 42 1d 7e 42 84 3a 82 42 66 66 85 42 49 92 88 42
       63.528572 65.11429 66.7 68.28571
0000b0 2c be 8b 42 0e ea 8e 42 f1 15 92 42 d4 41 95 42
       69.87143 71.45714 73.042854 74.62857
0000c0 b7 6d 98 42 9a 99 9b 42 7c c5 9e 42 5f f1 a1 42
       76.21429 77.8 79.38571 80.97143
0000d0 42 1d a5 42 24 49 a8 42 07 75 ab 42 ea a0 ae 42
       82.557144 84.14285 85.72857 87.314285
0000e0 cd cc b1 42 b0 f8 b4 42 92 24 b8 42 75 50 bb 42
       88.9 90.48572 92.07143 93.65714
0000f0 58 7c be 42 3a a8 c1 42 1d d4 c4 42 00 00 c8 42
       95.24286 96.82857 98.41428 100.0

t_model.t_model.0.weight f4 [64, 128]
000000 ff d5 d3 3c 4e 8f be bd 27 35 ce bd 21 8c ee bd
       0.025858877 -0.09304677 -0.10068732 -0.11647821
000010 18 5e 9a be 09 14 b5 bd 01 98 c8 3d 6f e5 b4 3d
       -0.30149913 -0.08841712 0.097946174 0.088328235
000020 ac 34 dc 3a 3d 14 19 be 73 28 b0 3d 4b 32 2d 3e
       0.0016800365 -0.14949127 0.08601465 0.16913716
000030 8d 84 f1 3d 2e ae 0a 3e 69 59 25 be 17 05 e5 bd
       0.1179286 0.13543007 -0.16147389 -0.111826114
000040 f9 32 09 bd ab f9 e4 bd 04 36 78 3d 4e d4 53 bd
       -0.033495877 -0.11180433 0.06059839 -0.05171614
000050 10 e3 91 bd e6 50 67 3d bb 63 73 3d ee 84 a7 b9
       -0.07123387 0.056473635 0.059421282 -0.00031951763
000060 b4 4b d2 bd fc b2 c0 bd 83 35 1e bb 2d 8d 11 3c
       -0.102683455 -0.094091386 -0.0024140782 0.008883757
000070 6d f1 6f 3b 06 5f 8f 3d 7e 31 ba 3d 5c 7a f3 3d
       0.0036612407 0.07000546 0.09091471 0.118885726
000080 4e 9a db bd 41 bd 14 be 1a 6b 99 bd ab 17 8a 3d
       -0.10722791 -0.1452532 -0.07491131 0.067427956
000090 11 64 08 3e 35 17 a5 3d cf a2 b8 3d 27 aa 69 bb
       0.13319422 0.08061067 0.09015428 -0.0035654397
0000a0 55 f0 f2 3d 7c fa 1c 3e 46 73 24 3e 14 cb b4 bd
       0.11862246 0.15329927 0.16059598 -0.088277966
0000b0 8b a3 fa 3d 20 c2 2d be 7b 71 69 3d df a4 10 3e
       0.122382246 -0.16968584 0.05699299 0.14125393
0000c0 f3 af f6 3d de ad bb 3c 00 a3 95 bc bc 7d 2c 3d
       0.120452784 0.022910055 -0.018266201 0.042112097
0000d0 2d 9c 04 bc e2 ea 44 3d d2 fc ad bd cc 11 88 bd
       -0.008093876 0.048075564 -0.08495487 -0.066440195
0000e0 33 8c 0e 3e d1 1b 44 bd a0 7d 4a 3e 9b 25 f0 3d
       0.1392067 -0.04787809 0.19774485 0.11725923
0000f0 4b de c7 bd 9f e7 ca bd 82 25 da bd fa a1 ed bc
       -0.09759196 -0.099074595 -0.10651685 -0.0290079
000100 2d 09 82 bd 5c e8 ec bd 1d 03 15 be 2b bd 64 be
       -0.063494064 -0.115677565 -0.14551969 -0.22337787
000110 a6 e0 25 bd 56 00 c1 3d 60 30 b1 3c 9f 3b ed bd
       -0.040497445 0.09423892 0.021629512 -0.115836374
000120 3b 6e 6e be 4b 27 26 3d 44 c7 c6 3d 33 65 91 3d
       -0.23284237 0.040564816 0.09705976 0.0709938
000130 0c 1a 92 bc 8b db 06 be c0 10 70 bd 2b 88 da bd
       -0.017834686 -0.13169686 -0.058609724 -0.10670503
000140 88 6d bd bc eb 17 d2 3d db ec e6 3d 35 e2 87 3d
       -0.023123518 0.10258468 0.11275645 0.066349424
000150 d4 ea 5b bd 57 ae a1 ba d8 1f b1 bd 32 c8 03 be
       -0.053690746 -0.0012335283 -0.08648652 -0.12869337
000160 11 4b 19 be 8a 32 5d bd 0d f9 40 3d da a1 02 bc
       -0.14970042 -0.054003276 0.047112513 -0.007973159
000170 3f a5 e7 bd 61 5f 01 bd 1d c5 b2 3d 36 d1 6e b9
       -0.11310815 -0.0315851 0.087290026 -0.00022775386
000180 6f 02 23 be d2 54 ab 3d 9b ae fb bd a7 0c 4b 3e
       -0.15918897 0.083657876 -0.12289163 0.19829045
000190 46 92 67 bd b8 22 f1 bb b2 09 d7 3d 32 8d 3a 3d
       -0.05653598 -0.007358875 0.10499896 0.04554481
0001a0 df 5f 6b 3d d6 a8 25 3e fc a4 03 be e7 2e 04 be
       0.057464477 0.16177687 -0.12855905 -0.12908517
0001b0 6e f9 3a 3e 25 97 45 3e 56 0f c0 3c e3 63 47 bd
       0.18259212 0.19295938 0.023444813 -0.048679244
0001c0 40 7b bc bd b6 ea 86 bd 81 08 16 3d 1f c8 08 3e
       -0.092031956 -0.06587736 0.036629204 0.1335759
0001d0 af f1 8b 3d 73 1d e9 3b 41 6e 31 3c bd da d5 3d
       0.06833207 0.0071141063 0.010829509 0.10442112
0001e0 2c c8 bd 3c 84 34 e1 3d 7b 0d 49 bd cb d1 26 be
       0.023166738 0.10996345 -0.04908512 -0.16290967
0001f0 0d 85 1d be 8c 1c c3 bd 9b 51 a6 3d 53 3e 72 3d
       -0.15382786 -0.09526929 0.08121034 0.05914147
000200 3e 00 59 3e c8 6a 35 be 85 18 25 be 30 e9 00 be
       0.21191499 -0.17716515 -0.16122635 -0.12588954
000210 15 a9 52 3d 41 dc 5a bd e8 c9 63 bc 29 bf 20 bd
       0.05143078 -0.053432707 -0.013903119 -0.039244805
000220 dd 08 f3 3c ee 51 f4 bb 64 c4 85 3c 4e 1e be 3c
       0.029667312 -0.007456056 0.016328998 0.02320781
000230 bc 78 56 3c 49 bc b6 3c e2 42 3c bd bc 06 f3 bc
       0.013090309 0.022306578 -0.045962222 -0.029666297
000240 70 20 57 bc 56 17 c0 bd 7d 7b 1c bc 9f ff 7b bd
       -0.013130292 -0.09379451 -0.009550926 -0.061523076
000250 8a d9 02 3c b6 64 c2 bc 12 d0 4c 3d 10 5e 5e 3d
       0.007986436 -0.023729663 0.05000312 0.054288924
000260 3e e0 7e bd f0 d1 46 bd 86 3d 8b bd c6 26 0f bd
       -0.062225573 -0.048540056 -0.06798844 -0.034949087
000270 4d 95 24 3c f4 3f 4c bd 68 01 ee 3c d9 4e 47 bd
       0.010045362 -0.049865678 0.029053405 -0.04865918
000280 52 00 c0 bb 04 37 a4 bd b5 52 81 3d bf 53 8d 3d
       -0.005859413 -0.08018306 0.06314603 0.06900739
000290 34 1b 8a 3d d0 5d 21 3c bb 47 14 3d 7c a5 17 3d
       0.0674347 0.009849027 0.03620122 0.037023053
0002a0 9b 5e d5 bc 14 44 e2 3b 94 6b 94 3c 71 59 c1 bc
       -0.026046088 0.006905088 0.018117703 -0.02360222
0002b0 96 a3 8d bd 98 d3 4a 3c 9a 10 58 bc 06 d4 46 bd
       -0.06915967 0.012379549 -0.013187552 -0.048542045
0002c0 11 ac 4a bc 66 b0 13 3d 0c f4 60 3c 93 22 c1 3c
       -0.012370125 0.0360569 0.01373006 0.023576057
0002d0 59 60 18 ba f6 71 21 3d 2e 7a d5 bc 00 75 0c bc
       -0.0005812697 0.039415322 -0.026059236 -0.008572817
0002e0 5f 49 8e bc e3 d1 f3 bc 3a 64 e7 bd 2c 42 69 bd
       -0.01736897 -0.029763168 -0.112984136 -0.056947872
0002f0 0e 24 a4 bd ed 38 81 bd 8d 04 38 bd 93 04 0c bc
       -0.080146894 -0.06309686 -0.044926215 -0.008546012
000300 8c 37 61 be a9 a9 19 be 10 bd 0c 3e 17 99 68 3d
       -0.21993846 -0.15006126 0.13743997 0.056786623
000310 06 85 44 3d 5e 63 3f bd 4c 54 00 3e 28 73 f6 3c
       0.047978424 -0.046725623 0.12532157 0.030084208
000320 1e b7 b1 3c 60 47 c3 bc a3 b9 49 3d 0e 2b c9 3b
       0.021693762 -0.023837745 0.049249303 0.0061391657
000330 25 a2 c8 3c c9 cc 89 bc 9b 2f a0 3d 84 7a ee bc
       0.024491379 -0.016821282 0.0782158 -0.029111154
000340 b8 c1 ff 3c c2 12 34 bd 35 dd 6d bd 0f 62 aa 3c
       0.031220302 -0.0439632 -0.058072288 0.020798711
000350 6b f2 bb 3d d1 33 c7 bc ec e6 14 3d fd b3 69 3d
       0.09177097 -0.0243167 0.036353037 0.057056416
000360 fe 8b 53 3d 55 76 85 3c 6a e9 84 3d 08 3a 14 bb
       0.05164718 0.016291777 0.06489833 -0.0022617597
000370 87 0f e2 3d 34 3f 68 bd 3c 7a d9 bc 82 8e a8 bc
       0.11038118 -0.0567009 -0.026547544 -0.020575766
000380 65 7e a0 bd 4d 88 dd bc 44 72 9d bc ae c6 78 bd
       -0.07836608 -0.027042532 -0.019219525 -0.06073635
000390 54 b2 28 bd f2 00 d7 3d 0d 1e 24 bd fe 3b c6 bc
       -0.041185692 0.10498227 -0.04006772 -0.024198528
0003a0 67 2b 30 3d c1 5a 99 bb e9 ba af bd ac 31 a5 bd
       0.04301014 -0.004680008 -0.08580572 -0.08066115
0003b0 bb 62 21 3d fd 1d b6 bd 8a 13 16 3d 7f d3 28 bd
       0.039400797 -0.088924386 0.036639728 -0.041217323
0003c0 9f 35 97 3d 28 6d b8 3d df 52 12 3d e3 f3 08 bd
       0.07383274 0.09005195 0.035723563 -0.033435713
0003d0 a2 56 9e bd 38 81 57 bd 50 c2 36 bd 80 b5 ec bc
       -0.07731368 -0.052613467 -0.044618905 -0.02889514
0003e0 4e e6 ca 3d 65 0b d6 bd 25 15 32 bd e2 ac ab 3d
       0.099072084 -0.10451392 -0.043477196 0.08382584
0003f0 43 e2 01 bc ef 91 5e 3d b5 ea 64 bd c8 93 5d bd
       -0.00792748 0.054338392 -0.055887897 -0.054096013

t_model.t_model.0.bias f4 [64]
000000 b6 94 0b 3c 05 bc 81 be 2c c5 35 be 96 a8 04 bd
       0.008519342 -0.2533876 -0.17750996 -0.03238734
000010 33 a1 80 bd 01 57 2f be 2a 9f 34 be d0 a5 48 be
       -0.06280746 -0.17123033 -0.17638841 -0.19594502
000020 39 24 63 be 84 99 70 bd cd 5c 07 be 34 40 34 3d
       -0.22181787 -0.058740154 -0.13218994 0.04400654
000030 57 3e 49 bc 55 6e 46 3d 25 58 6f be 17 45 14 bc
       -0.012282929 0.048445065 -0.23373468 -0.009049675
000040 fe 04 1c be 2f ea 30 be ac fb 37 be e4 8e fe bc
       -0.1523628 -0.17276834 -0.17967099 -0.031073995
000050 89 05 a7 bd 84 69 77 bc be 5c 27 bc a2 1f 5b bc
       -0.081553526 -0.0151008405 -0.010214983 -0.013374241
000060 a2 51 e2 3c 7c 59 d5 bd 58 7f 0b bd 85 3a b2 bd
       0.027626816 -0.104174584 -0.03405699 -0.08702568
000070 35 ec 20 be 14 7d 42 be a1 79 02 be b6 f0 de bc
       -0.15715106 -0.18993026 -0.1274171 -0.02721439
000080 da 32 4e bd 94 eb da bd 82 0a a8 bb f6 d6 8c 3d
       -0.050341465 -0.10689464 -0.0051282058 0.06876938
000090 c9 bc 88 be 89 04 38 be 76 06 8d be c2 30 06 3e
       -0.26706532 -0.1797048 -0.27543992 0.13104537
0000a0 ca 9e 3f 3d 92 de 9d bc 5f 73 65 be 84 da b7 bd
       0.046782292 -0.019271169 -0.22407292 -0.089772254
0000b0 a4 4b 75 be 44 eb 1d 3b d8 e5 3f 3d 7f a5 e2 bd
       -0.23954636 0.0024096528 0.046850055 -0.11066722
0000c0 1b 2c 92 bd 5e ff 32 bd 54 a4 62 bd 50 f7 c5 3c
       -0.07137319 -0.04370057 -0.055332497 0.02416578
0000d0 8e 72 52 be be 06 a6 bd fe e5 a9 3d 58 8b 0e be
       -0.20551512 -0.08106755 0.08295821 -0.13920343
0000e0 12 14 05 be c2 bb 85 bc aa 2f 26 bd e4 14 77 be
       -0.12995937 -0.016324881 -0.0405728 -0.24129063
0000f0 de 78 31 be 44 bf 1c 3d f9 6b 80 be 7b 69 9e bd
       -0.17331263 0.038268343 -0.25082377 -0.077349626

t_model.t_model.2.weight f4 [64, 64]
000000 96 86 bb 3b 60 a9 e9 3d f4 1b 67 bd 56 2b a3 3c
       0.005722831 0.11409259 -0.056423143 0.019918125
000010 4b 66 81 3d 9e 9d 1e 3d 70 bb c5 3d 71 f2 cc 3d
       0.06318339 0.038724534 0.096548915 0.100071795
000020 13 86 1a 3e 76 25 06 be c1 54 b4 3b b3 6f af 3d
       0.15090208 -0.13100228 0.0055032675 0.08566227
000030 27 50 39 bc 41 13 aa bc c1 81 2f bd 02 4f 0c be
       -0.011310614 -0.020761134 -0.042848352 -0.13702014
000040 ce aa ba bd 6e 43 34 3e 65 95 ec 3d 5e 70 1f be
       -0.0911461 0.17603847 0.11551932 -0.15570208
000050 0c 98 6d 3d 6e de 49 be c0 ba 2a 3e 38 aa 4f be
       0.05800633 -0.19713756 0.16672802 -0.20279777
000060 86 b5 2b be 45 e8 2f 3e 42 17 88 bd 4e cf 22 3d
       -0.16768464 0.17178448 -0.06645061 0.039748482
000070 15 1f 37 bd a2 b0 9f 3d 3c c3 d0 bc 37 17 0f be
       -0.044707377 0.07797362 -0.02548372 -0.139737
000080 e8 52 a1 3d 67 1f e9 bc d3 49 a3 bd db 3b 4e 3d
       0.07877141 -0.028457357 -0.07973065 0.05035005
000090 76 40 56 bc 67 46 7f bd 0e 2a df 3d 35 2b 84 bd
       -0.013076892 -0.062323 0.10896693 -0.064535536
0000a0 66 3d 1c be 49 a8 d2 bd 83 30 9e bd 63 07 83 3c
       -0.15257797 -0.10286004 -0.077240966 0.015994733
0000b0 77 f9 ee 3c 05 d9 2f 3e af d2 72 3d b8 18 09 be
       0.029171688 0.1717263 0.059282955 -0.13388336
0000c0 aa 35 f9 3d 37 a1 42 be f9 2d 20 3e cb ec cb bc
       0.12168439 -0.19006811 0.15642537 -0.024893185
0000d0 e8 ab 18 bc 14 8d fc bb ae ca 21 be 9d 7f c2 3d
       -0.009318329 -0.0077072475 -0.15799972 0.094969966
0000e0 03 be 34 bd 6b bd 43 bc 1b 7f 24 bd 83 5a 29 3e
       -0.04412652 -0.011947016 -0.04016028 0.16538434
0000f0 d6 98 d5 3d 58 46 70 be 72 01 a7 bc fd 6e 5e bc
       0.10429542 -0.23464334 -0.020386431 -0.013576266
000100 70 ea 36 3d 63 db cd bd b7 9e 25 bd de f5 dd bc
       0.04465717 -0.1005161 -0.040434565 -0.027094778
000110 2c 29 cc bc d9 17 1b be 58 68 c6 3b 02 6d 92 3d
       -0.024921976 -0.15145816 0.006054919 0.07149698
000120 c3 c6 b4 bd 0d d9 96 bc d8 c8 1b be cb a5 aa bd
       -0.08826973 -0.018414045 -0.15213335 -0.08332404
000130 be 8d 9f 3c 7b 15 ea 3d 5e 8c ac bd aa 8c 15 be
       0.019476768 0.11429878 -0.084252104 -0.1460444
000140 65 77 e5 3d da ac b3 3d 77 46 2d be 2b e9 97 bd
       0.11204413 0.08773203 -0.16921411 -0.0741752
000150 10 78 d2 bb f0 c9 d8 bd 64 1b e8 bd 96 34 42 be
       -0.006423004 -0.105853915 -0.11333349 -0.18965372
000160 b9 2b b0 3d 2b 87 03 3d e3 e8 3b be 3b ce 2f be
       0.086020894 0.032111328 -0.18350558 -0.17168514
000170 38 75 67 be 13 cb b4 bd 75 e2 b7 bd c3 02 98 bd
       -0.22603309 -0.08827796 -0.0897874 -0.07422402
000180 a6 ca fe bd 67 e5 f8 3d 4b 89 37 3d 43 83 f3 bc
       -0.12440996 0.1215313 0.044808667 -0.029725676
000190 bc b1 79 3c 85 7d 6e be 75 80 34 bd 6c 89 9d 3d
       0.015240129 -0.2329007 -0.04406782 0.07692227
0001a0 5d b5 57 3a 34 c3 78 ba 2f 37 d7 bd 32 c0 9f bd
       0.00082286244 -0.0009489537 -0.10508572 -0.0780033
0001b0 fd d2 7e bd 0b 44 d1 bd ae 0f c0 3d 47 d2 8e bd
       -0.062212933 -0.10218056 0.09377991 -0.06973701
0001c0 21 4f 9c 3b a2 0a 1b be 8a fc 21 bd 17 fe 32 3d
       0.004770175 -0.15140775 -0.03954748 0.04369935
0001d0 3a 66 42 be 37 00 38 3e 66 1b 90 bd a3 aa 26 3d
       -0.18984309 0.17968832 -0.07036476 0.040690076
0001e0 fd 41 7f bd ba 9f 0f be 1c a3 55 3d e4 34 f5 3d
       -0.06231879 -0.14025775 0.052157506 0.11972979
0001f0 84 6e 2a 3c ed 9c ae bd 27 94 be 3b 21 6a 47 be
       0.010402326 -0.08526025 0.005816001 -0.19474079
000200 08 d5 d3 bb 51 04 f6 3c ae c9 31 bc c9 2a 08 bc
       -0.0064646043 0.030031355 -0.010851307 -0.008310982
000210 9b 3f 0a 3d b4 8e e9 bb 15 39 9a 3b bb 5e b8 bc
       0.033752065 -0.0071276072 0.0047065117 -0.022506109
000220 62 08 4a 3d 95 10 2d bd 03 1b 58 3e 77 bf ad 3d
       0.0493244 -0.042252142 0.21104054 0.08483785
000230 18 fc 29 3d a5 b4 1b be 54 ab b3 3d 9e c4 ae 3d
       0.04150018 -0.15205629 0.087729126 0.085335955
000240 4c ed 4c bb 3b 13 0c 3d 7d 75 eb 3d d1 ea 6d 3e
       -0.003126937 0.034198027 0.114970185 0.23234107
000250 e0 96 ea bc 2e 1e f9 bd b0 3c 2b 3d b4 de 82 3d
       -0.028636396 -0.121639594 0.041805923 0.063901335
000260 8c 3e a7 3d a7 69 9d bd bb 75 a1 3d 7a 25 0a 3e
       0.08166227 -0.07686167 0.078837834 0.13490859
000270 38 b9 71 bc 9b 08 00 be e8 fb 7d 3c d6 43 9e 3d
       -0.014753632 -0.12503283 0.015501954 0.077277824
000280 e9 7d ae bc 9d 46 30 bd 54 22 fc bd 98 e3 b9 bc
       -0.021300273 -0.043036092 -0.12311235 -0.022691533
000290 53 89 ac 3b 88 d4 7c 3d 12 64 15 be 28 fb 0d be
       0.0052653938 0.061726123 -0.14588955 -0.1386534
0002a0 5d 82 d4 bd 7b 0f a9 bc b1 66 97 3d a0 81 af 3d
       -0.10376427 -0.020637264 0.07392634 0.08569646
0002b0 0d 95 ae 3d d3 e6 32 bd 42 7e 77 bd da 74 09 3e
       0.08524523 -0.043677162 -0.060423143 0.13423482
0002c0 91 12 19 3d e6 60 5d 3d 5d 97 59 be 94 b5 f0 bd
       0.037371222 0.054047488 -0.21249147 -0.11753383
0002d0 23 f7 b9 3c 0a 81 07 bd 92 b9 d9 bd e9 a0 5b be
       0.022700852 -0.033082046 -0.10631098 -0.21448101
0002e0 22 38 e4 3d ee 71 aa 3d b0 88 65 bb 26 f9 b3 3c
       0.11143519 0.083225116 -0.00350241 0.02196939
0002f0 0d f8 eb 3d ce d0 93 3d ae aa 59 bd 0b 0e 5a bc
       0.11521921 0.07217561 -0.05314129 -0.013309012
000300 c9 28 28 be 5e 96 89 3d 55 85 0d be 10 4a 4e be
       -0.16421808 0.067181334 -0.13820393 -0.2014544
000310 72 3c 5c 3c 78 4f a8 3d b0 b4 2b bd ce fc 32 be
       0.013442146 0.082182825 -0.041920364 -0.1747925
000320 cf c0 79 bd 21 29 80 3d 95 67 25 3d 97 ee 36 3e
       -0.060974892 0.06257845 0.040381987 0.17864452
000330 a4 eb 23 3c 15 55 a1 3d 97 be 82 bd 54 de 94 be
       0.010004912 0.07877556 -0.063840084 -0.29075873
000340 81 93 4d be 32 f4 c6 bd 23 50 64 3c af c9 00 3d
       -0.200758 -0.09714545 0.013935122 0.03144234
000350 ba b7 4d bc 87 5e 3f be ca f4 9a 3e 8d 28 52 be
       -0.012556011 -0.18688403 0.30264884 -0.20523281
000360 9a f2 af bd 83 0d e4 bd 8f 6a df 3c 2a c5 2e 3e
       -0.085911945 -0.1113539 0.02727249 0.170674
000370 39 37 0d 3e 33 67 b1 3d 9e 96 dc 3c a7 58 72 be
       0.13790597 0.08662262 0.026927289 -0.2366663
000380 2c 27 03 bd bc d6 71 3e 6e 4b c5 bd f7 df d5 3d
       -0.03201978 0.23617071 -0.09633528 0.104431085
000390 60 02 0f bc 47 ad 10 be 35 df ac 3d e8 1b 1b 3e
       -0.008728594 -0.141286 0.08441011 0.15147364
0003a0 bd 13 00 bb 8c df 00 3e 57 97 4d be d7 60 1f 3c
       -0.0019543015 0.12585276 -0.20077263 0.009727678
0003b0 1e d5 f3 bd 7c 52 3b 3d 19 63 3a 3d c6 c9 39 be
       -0.11905883 0.04573296 0.045504663 -0.18143377
0003c0 16 9c 50 be 62 ef 03 be d6 31 49 3e 3a 11 ff 3d
       -0.20372042 -0.12884286 0.19647917 0.124544576
0003d0 cf 08 ea bd 6c 2d 06 3d 6f e3 f2 bd e2 d4 8e 3d
       -0.11427461 0.03275816 -0.11859786 0.06974198
0003e0 ea 9d ef bd 7c 88 53 bd 79 bc b9 3c 87 9f 28 be
       -0.117000416 -0.051643834 0.022672879 -0.16467105
0003f0 92 de 68 3d 9d e3 05 be ff 06 0b be 52 1c c2 bd
       0.056852885 -0.13075109 -0.13576888 -0.09478058

t_model.t_model.2.bias f4 [64]
000000 77 f2 4a be 41 c9 2f be 82 eb 4d bd 15 45 13 be
       -0.19819055 -0.17166616 -0.050273426 -0.14381821
000010 af 82 27 be 90 ca b2 3c 8a 6d f2 bd 31 96 89 3d
       -0.16358446 0.021825105 -0.11837299 0.067181
000020 02 b5 86 be 34 20 24 be 3d 1e 1b bd b5 34 e1 3d
       -0.26309973 -0.1602791 -0.037870634 0.10996381
000030 20 59 90 be b9 5f 0b be f0 f9 f7 bd 76 a6 05 bd
       -0.28192997 -0.13610734 -0.12108219 -0.032629453
000040 98 15 cb bc 56 a3 7b bd a7 39 42 be ce 5b 0b be
       -0.02479057 -0.061435066 -0.18967305 -0.1360924
000050 71 0f 21 3d ad c1 bc 3d 9a 6f 80 be 30 ac 90 3c
       0.039321367 0.09216628 -0.25085145 0.01766023
000060 27 ac a2 bd a2 92 cd 3a c4 2c 6d be 35 6e 10 bd
       -0.07942992 0.0015683959 -0.23161608 -0.03526135
000070 3c 5c 0b be 02 4c 71 be 41 c1 35 be 9f f5 4f be
       -0.13609403 -0.23564151 -0.17749502 -0.20308541
000080 b0 93 5b be c9 9b 94 bd 52 23 8e 3c 35 eb 78 be
       -0.21443057 -0.07256276 0.017350826 -0.24308474
000090 3f 89 0b bd 4c 41 dd bd 7d 2e 44 be ec 7b ef 3d
       -0.034066435 -0.1080347 -0.19158359 0.11693558
0000a0 a1 2e 08 be ae 38 47 bd 38 5b b3 bd 9c ab 64 3d
       -0.13299038 -0.04863804 -0.08757633 0.055827722
0000b0 1e fa 2f 3d b4 8f e1 3c 59 0b f9 3c 28 36 40 be
       0.04296314 0.027534343 0.030400919 -0.18770659
0000c0 42 10 00 be 94 16 25 3d 3e 52 14 be 8c a1 d6 bc
       -0.12506202 0.040304735 -0.14484498 -0.026200078
0000d0 3d 9a 42 be d6 4f 46 be c3 17 27 be 35 40 a0 bd
       -0.1900415 -0.19366392 -0.16317658 -0.078247465
0000e0 74 37 1f 3e cc 8d 27 bd c4 44 a4 3c 30 e2 a8 3d
       0.15548497 -0.040906712 0.020052321 0.08246267
0000f0 98 d1 af bd 04 29 d3 bd f2 6e e6 bd 12 fc 1e be
       -0.08584899 -0.103105575 -0.1125163 -0.15525845

s_model.x_model.weight f4 [64, 32]
000000 6e e6 24 3d 76 fd 3d be ec 6b 65 3d f0 41 76 bd
       0.040258817 -0.18553719 0.056011125 -0.060121477
000010 fd 2c af 3d f7 b7 31 3e 26 9a 48 be ea 9e 15 3d
       0.08553503 0.17355333 -0.19590053 0.036528505
000020 cb 5a b1 bd c3 e5 8d 3c 06 02 21 bd 09 a8 b3 bd
       -0.086598955 0.017321473 -0.03930857 -0.087722845
000030 89 5f 12 bd 28 ac 07 be 6a 8e c2 3d 3f dd 2d be
       -0.03573564 -0.13249266 0.094998196 -0.1697893
000040 0e 03 f9 bd 11 ec 7d 3d 9d 3b ea 3c cb ba 14 3d
       -0.12158786 0.06199271 0.028592879 0.036310952
000050 1e fe 22 be bf 9c 3f bd ac ee 24 be 93 fb 51 be
       -0.1591725 -0.046780344 -0.16106671 -0.20506124
000060 ce e8 18 bd 4c b4 b4 3d b0 b5 f7 bd c6 a8 25 be
       -0.037331395 0.088234514 -0.12095201 -0.16177663
000070 d6 0f 8d 3c 2c 47 59 bd c6 94 2e bd c7 20 27 3e
       0.017219465 -0.05304639 -0.04262235 0.16321097
000080 69 dc 17 be 18 cf 00 be 85 69 01 be a0 d3 8a 3e
       -0.14830174 -0.12579 -0.12637909 0.27114582
000090 b0 cc ca bd 55 be 56 be 21 57 8d 3e 9d 9b 83 3d
       -0.09902322 -0.20971043 0.27605537 0.06426165
0000a0 ae a1 02 bd f4 1c 52 3e 20 ed 2d be c0 36 05 be
       -0.03189247 0.20518857 -0.16984987 -0.13009167
0000b0 e2 31 a9 bd c4 ec 2e be 0f fd e8 bd df 14 a0 3d
       -0.082614675 -0.17082506 -0.11376392 0.07816481
0000c0 1a 2a f5 bd ce a5 15 3e ca 34 a4 bd 08 70 b2 3d
       -0.11970921 0.1461403 -0.08017881 0.087127745
0000d0 85 ca ff 3c 7f f3 cf bd f6 7e 31 be 40 f1 12 3e
       0.031224499 -0.10153865 -0.17333588 0.14349842
0000e0 bf da de 3d f5 7a cf bb 92 1a f7 bd f8 fc 2a be
       0.10881566 -0.0063317963 -0.12065615 -0.16698062
0000f0 b8 71 13 3d 15 62 f9 bd 74 37 b2 be 4e e4 bf ba
       0.035997123 -0.12176911 -0.34807932 -0.0014640184
000100 93 a9 30 3d bf 4a 67 bd 12 6d 88 be c0 4e f8 bd
       0.04313047 -0.056467768 -0.26645714 -0.12124395
000110 b7 31 67 be cd 2a 44 3e c6 32 18 bb 37 03 e4 3c
       -0.22577558 0.19156952 -0.0023223623 0.027833564
000120 8b 38 84 3d b9 f9 b2 ba 3c 8a 87 bd d2 03 e2 bd
       0.06456097 -0.0013654745 -0.06618163 -0.11035885
000130 9d 9d 40 3c 22 69 eb 3d aa 08 54 be ae 13 3b 3e
       0.011756328 0.11494662 -0.2070643 0.18269226
000140 50 92 49 bd f7 33 4c 3d a8 2c 57 be 10 0f 2c be
       -0.0492118 0.049854245 -0.21013129 -0.16802621
000150 85 ef 87 3d 81 6a 47 3d 96 64 f6 bc 1e d0 c5 bc
       0.066374816 0.048685554 -0.03007726 -0.02414709
000160 b2 36 3e be d4 e1 dd bd b3 ca 9a bc 25 33 b8 3d
       -0.18575552 -0.10834089 -0.018895483 0.0899413
000170 fa 8e 5f bd b1 3d e3 3c 4d 05 f5 bc b4 00 10 be
       -0.054579712 0.027739378 -0.029909754 -0.14062768
000180 f8 73 9c be 2c 5f b8 3d 0e 48 18 3e 2f ff 9e 3d
       -0.30557227 0.090025276 0.14871237 0.07763516
000190 89 2c 79 3d e8 ea ac 3d 04 21 f6 3c 13 0b dd bd
       0.060833488 0.08443242 0.03004504 -0.10793128
0001a0 2b 80 01 be 89 6c 00 be 76 e3 ad 3d 6a 0f 0e be
       -0.12646548 -0.12541403 0.0849065 -0.13873067
0001b0 44 e0 2e 3d 90 26 20 3c be c8 14 bc 1e 1a 22 be
       0.042694345 0.009774819 -0.009081064 -0.15830275
0001c0 3e 7d 12 3d 68 bb c6 3d 7e 3d ab bc f3 ad cd 3d
       0.03576397 0.09703714 -0.020903345 0.10042944
0001d0 37 5d 82 bc 4a d2 06 bd e5 4e d8 3c 0d c7 e0 bd
       -0.015913589 -0.03291539 0.026404807 -0.10975466
0001e0 dd 48 a1 be 3c c2 5f be ed 4a 29 be ef 3e 72 3e
       -0.31500903 -0.21851438 -0.16532488 0.2365682
0001f0 7d fb 19 be 92 f4 b4 3c a1 69 d4 bd 5c 79 f5 ba
       -0.15037341 0.022089276 -0.103717096 -0.0018728185
000200 bc 1c a8 3e 10 1e cf 3d 0f d7 35 3e 02 b0 42 3d
       0.32834423 0.10113156 0.1775782 0.047531135
000210 cc f1 51 3d df bf 40 be 0a 52 20 3c ec 80 0a be
       0.051255986 -0.18823193 0.009785185 -0.13525742
000220 28 99 85 be 78 85 b5 3d 20 86 28 3e b1 b9 a3 3e
       -0.2609341 0.08863348 0.16457415 0.3197761
000230 37 27 91 be 02 ab 18 3e 1c 95 de 3c 0d 96 b7 3c
       -0.2835023 0.14908984 0.02717071 0.022410417
000240 12 c5 51 bd 3e 88 0d 3d 57 98 8b be 5d 19 75 bd
       -0.05121333 0.03455376 -0.27264664 -0.05983864
000250 41 31 ca 3d 7b 47 cd 3d 3c 00 95 bd fe b6 1a be
       0.09872676 0.100233994 -0.07275435 -0.15108868
000260 1b 43 19 bd 85 dc 9c 3d 9f 3b 13 be 8f c4 49 3c
       -0.037417512 0.07659248 -0.14378212 0.01231493
000270 e1 6f a6 3e 15 25 0b be e0 59 4d bd de 6e 0f be
       0.32507232 -0.13588364 -0.05013454 -0.14007136
000280 39 af 8c 3d 1a dc 64 bd d3 32 c6 3d 94 29 be 3d
       0.068693586 -0.055873968 0.09677663 0.09285274
000290 5a 2d 2f be 4e 54 78 3e 02 3f c7 3d 84 86 70 3e
       -0.17107144 0.2425091 0.09728815 0.23488814
0002a0 4a be 78 3d d8 1f 31 3e 8e c7 91 3d 53 8a d4 bd
       0.06072835 0.17297304 0.0711814 -0.10377946
0002b0 b4 86 02 3e a5 ba ab 3d 72 d2 94 3c bd 6b 06 3e
       0.12746698 0.08385209 0.018166754 0.13127036
0002c0 95 01 52 3e 5c a1 96 3d a6 7f f7 3c 88 8d 33 bd
       0.20508416 0.073549956 0.030212235 -0.043836147
0002d0 f2 42 55 3d 6a 0b 84 be f5 d2 25 3e 7f 2d 38 3e
       0.052065797 -0.25789958 0.16193755 0.17986105
0002e0 1d c3 15 be cc 9f 43 be 24 f4 60 3c eb 72 64 be
       -0.14625211 -0.19103926 0.013730083 -0.22309463
0002f0 69 fc 2f 3c 4f 5e f3 bd 37 05 d8 bd fa d9 40 3e
       0.010741332 -0.11883222 -0.1054787 0.18833151
000300 e7 4b 31 be 76 9d 32 bd 5a 45 3d bd 77 67 79 be
       -0.1731411 -0.043607198 -0.046208717 -0.24355875
000310 8b 2e c8 3c 2c 08 da bd 2b b7 1e 3e b7 a2 2d 3e
       0.024436256 -0.1064609 0.1549956 0.16956602
000320 48 8a f4 3d 5d 48 4e be 6e c8 af 3b 38 99 cf bd
       0.119404376 -0.20144792 0.0053644693 -0.10136646
000330 9d 44 3d bd 0d e9 78 be a3 1d 1f be 6c d2 f3 bd
       -0.046208013 -0.24307652 -0.1553865 -0.11905369
000340 15 fc b4 3d 7d 9e 08 3d 99 19 9a bd c8 18 26 be
       0.08837143 0.03335427 -0.075244136 -0.16220391
000350 71 36 00 bc c0 25 16 3e 3f ff 43 3e ce 4b d9 bd
       -0.00782548 0.14662838 0.19140337 -0.10610162
000360 fc 97 10 3d 36 cc 5c 3d 7f fb 05 3e 04 8b 13 3d
       0.035301194 0.05390569 0.1308422 0.036021248
000370 a8 c2 39 3e 4d 05 5f 3e 3f 70 93 3d 15 71 41 be
       0.18140662 0.21779366 0.071991436 -0.18890794
000380 9e 17 d8 bd a1 1a 61 bc da 34 78 bd a6 38 10 be
       -0.105513796 -0.013739259 -0.06059728 -0.1408411
000390 87 bd 4f 3d 79 35 1d 3e 39 e0 4c 3c 52 41 5a 3d
       0.050717857 0.1535243 0.012504631 0.05328495
0003a0 10 9e c5 3c ea b6 a2 3d cd 11 0c be 0e 90 e5 bb
       0.024123222 0.07945044 -0.13678665 -0.007005698
0003b0 47 78 20 be 64 0b bf bd a5 bf 9d be ba 7c a6 3d
       -0.15670882 -0.093283445 -0.30810276 0.081292585
0003c0 4f 5f b7 bb 08 3f 09 3e 99 af e9 3d 87 01 b2 3e
       -0.0055960785 0.13402951 0.11410446 0.3476679
0003d0 17 ca ad 3d f5 c3 cc b9 9f 58 60 3d 24 20 1b be
       0.08485811 -0.00039055911 0.054772016 -0.1514898
0003e0 07 e8 84 3c 76 7c 98 3d fa a2 e2 3d 94 70 8c be
       0.01622392 0.07445614 0.110662416 -0.2742964
0003f0 01 85 36 bb 72 aa 64 be f4 5b 36 be 8d 00 02 3e
       -0.0027850273 -0.22330645 -0.17808515 0.12695523

s_model.x_model.bias f4 [64]
000000 8b 6b c2 bd df 04 74 3a b7 1c 3d be ae 00 30 be
       -0.094931684 0.0009308587 -0.18467985 -0.1718776
000010 22 94 bf 3d 89 ce 3b 3d 88 2e e7 bd 91 2d f5 3d
       0.09354426 0.045851264 -0.11288172 0.11971582
000020 c7 41 19 be 35 4d 02 bd cf 25 75 3d 1b ef 4c 3e
       -0.14966498 -0.03181191 0.05985051 0.20013086
000030 65 f4 9c be e4 6f 63 be 6d 03 c1 bc 23 45 38 be
       -0.30655208 -0.22210652 -0.023561204 -0.17995124
000040 24 2b c6 bd 6f 24 b0 3c 07 2d a1 bb 99 e3 3e be
       -0.09676197 0.021501748 -0.0049186978 -0.18641509
000050 05 03 99 bc 5c f9 93 3d 71 aa 2b be 88 ad 22 3e
       -0.018678198 0.07225296 -0.16764237 0.1588651
000060 a1 3c d3 3d 97 12 e7 3d a7 f4 33 be f6 69 40 be
       0.103142984 0.112828426 -0.17573796 -0.18790421
000070 9b c5 10 be 0e b0 fe bd 17 de 0b be 9a a7 37 be
       -0.1413788 -0.124359235 -0.1365894 -0.17935029
000080 12 86 6d be 4e 9b 0b 3e 57 72 e1 bd 22 90 61 bd
       -0.23195675 0.13633463 -0.11008137 -0.055069096
000090 cc 9d dc b9 43 33 8b be 46 8a e9 bd 3c a1 3e 3e
       -0.00042079238 -0.27187547 -0.11403327 0.18616194
0000a0 af 69 bb 3d 28 07 f6 3b 98 ea 9c be 7d 75 66 ba
       0.09151017 0.0075081773 -0.3064773 -0.0008791311
0000b0 a0 38 af 3d b7 49 01 3d e7 df 0f 3d 38 90 7a be
       0.08555722 0.03156444 0.03512564 -0.24469078
0000c0 5b 4c da bd 3c e7 f7 3d 8d 57 2f be 1b 81 2f 3d
       -0.10659095 0.12104651 -0.17123242 0.042847734
0000d0 5f 6a bf be fa 02 90 be 32 ee 9e be 9b 0e 47 3d
       -0.37385842 -0.2812727 -0.31041104 0.048597913
0000e0 15 b2 2b 3e d7 4e 8e bd f0 a1 1e be 72 95 1d bd
       0.16767152 -0.06948631 -0.15491462 -0.0384726
0000f0 e3 b2 96 be e7 ec fe bd 84 34 4b be d2 f1 2e be
       -0.29433355 -0.12447529 -0.19844252 -0.17084435

joint_model.model.1.0.weight f4 [64, 64]
000000 5f 40 2f 3d f3 f2 d3 bb b6 08 03 be 4d 23 9d bd
       0.042786 -0.006468171 -0.12796292 -0.07672749
000010 81 b7 c0 bc ae b3 5f 3d 34 51 8b ba 68 08 18 bd
       -0.023525001 0.054614715 -0.0010629059 -0.03711739
000020 d0 dc 80 be 69 2c a7 bc 97 27 77 bd 6f 10 eb bd
       -0.25168467 -0.020406919 -0.06034049 -0.11477744
000030 e6 01 bf bd ca c2 d0 bc b8 32 e1 3d 8e ac 0e bd
       -0.09326534 -0.025483508 0.10996002 -0.03483253
000040 d0 40 09 bd e7 8e 92 3d 04 53 d6 3c e5 87 c6 bc
       -0.033509076 0.07156163 0.026162632 -0.024234721
000050 ae dd b5 bc 70 11 b8 3d 72 d2 53 bc eb d8 24 bd
       -0.022200432 0.08987701 -0.012928592 -0.04024593
000060 63 b2 30 bd e3 b8 72 bd 97 31 09 be cc 7b 28 bd
       -0.043138873 -0.059258353 -0.13397823 -0.041133687
000070 9c 0f 25 be ba 5a a7 3d 9b 5e 76 3d 97 4d 53 3c
       -0.16119236 0.081716016 0.060148817 0.012896917
000080 de 42 fd bd 90 a9 e3 bd dd d7 a8 3d 21 69 d3 bc
       -0.123662695 -0.11116326 0.08244298 -0.025806965
000090 55 ba 09 be da 93 1a bd 37 9f aa bc 71 48 93 3d
       -0.13449986 -0.03773866 -0.020827873 0.071915515
0000a0 f9 10 12 be 12 45 cd bd 81 4f 70 bd a9 0c 82 3d
       -0.14264287 -0.1002294 -0.05866957 0.06350071
0000b0 71 c5 84 3d ff 88 00 bd 28 f4 59 3c 41 76 51 bd
       0.064829715 -0.03138065 0.01330284 -0.051138166
0000c0 4d 98 4d bd 35 4e 2c 3d 65 5e fb bd bb 73 44 3e
       -0.050194073 0.04206677 -0.12273864 0.19184773
0000d0 f1 be 3f be 5f 2a 02 3e 4c 59 cd 3d 41 56 3c be
       -0.18725182 0.12711476 0.10026798 -0.18392278
0000e0 aa 11 65 bd eb 68 55 bd 2e 82 bc 3b 26 7d a8 3d
       -0.05592505 -0.05210201 0.0057528233 0.08226995
0000f0 68 da 11 be 6e ec 1d be 38 48 12 bd 11 bc 4a 3d
       -0.14243472 -0.15422222 -0.035713404 0.04949576
000100 1c 34 0d be e7 58 30 3d 1e 06 32 3d 33 a7 d8 3c
       -0.1378941 0.043053534 0.043462865 0.026446914
000110 87 92 46 be cd a8 61 bc 84 62 5d bd 92 c1 b4 3d
       -0.19391833 -0.013773155 -0.05404903 0.08825983
000120 d5 94 ec ba 69 57 dd bd fa 15 99 3d d8 e2 e0 ba
       -0.0018049726 -0.10807688 0.07474895 -0.0017157448
000130 16 5c 1d bd cc 08 08 be 76 0e 19 be 77 4b 97 3d
       -0.038417898 -0.13284606 -0.14946923 0.07387441
000140 06 75 8d bd 88 f3 0a 3d bf 02 84 bd 5a a4 65 bc
       -0.06907086 0.033923656 -0.06445836 -0.014016235
000150 9e 85 d3 bd 97 3a 22 3e 2d 89 19 be de 89 8f 3b
       -0.1032822 0.15842663 -0.14993735 0.0043804487
000160 db a0 71 3d 35 6b ab bd 47 61 05 bd aa cf ee 3c
       0.058991294 -0.083700575 -0.032563474 0.029151756
000170 42 61 d1 3c bd 38 b2 3d 1d 9b 2f 3d bb 73 78 bd
       0.025559071 0.08702228 0.042872537 -0.060657244
000180 15 e0 35 be 1a 86 0e be 4c 06 08 be d0 ea 2b bd
       -0.17761262 -0.13918343 -0.13283652 -0.04197198
000190 f7 e4 09 be 2c dc b3 bd aa e8 8e bc 18 5e 2e bc
       -0.1346625 -0.08782229 -0.017444927 -0.010642551
0001a0 5b db 2a be c5 91 69 3d be 5e 89 bc 0d 96 2a be
       -0.1668524 0.057023782 -0.01676881 -0.16658802
0001b0 93 94 62 bd 19 bf 03 3a 82 e1 97 3c 1a 58 ff bd
       -0.055317473 0.0005025729 0.018540148 -0.12467976
0001c0 1f 26 ce 3d 2f f7 38 be e0 76 00 be a8 62 d2 3c
       0.10065865 -0.18063043 -0.12545347 0.025681809
0001d0 19 55 1a be 11 d9 2b 3e 1c af 84 be a1 36 e6 bd
       -0.15071525 0.16782023 -0.25914848 -0.112408884
0001e0 5f 18 1c 3e 6c cf aa 3d 46 db 2f 3e 60 3a a8 bd
       0.15243672 0.08340344 0.1717349 -0.08214259
0001f0 3d 6b 40 bd ba e3 a1 bd 83 32 12 bb f9 2b 78 3d
       -0.04697727 -0.079047635 -0.002230794 0.06058881
000200 c4 89 07 3d 1f 3c ac 3d 16 24 d2 3d d3 85 1a be
       0.033090368 0.08409905 0.10260789 -0.15090112
000210 a4 b2 10 be ad 48 bc 3c 70 4e 62 bd 50 db f1 3d
       -0.14130646 0.022983873 -0.055250585 0.11809409
000220 90 1a 52 bd 14 9b 82 be ee bb 51 bd 8e 91 39 be
       -0.051294863 -0.2550894 -0.051204614 -0.18121931
000230 92 e6 47 bd f2 46 83 bd 3f f8 e9 3d 2d 7f dd bc
       -0.048803873 -0.06410016 0.11424302 -0.027038181
000240 ed 9f ea bb 6c 8c f0 bd e3 1c ad 3d d1 14 c6 bc
       -0.007160178 -0.11745533 0.08452775 -0.024179848
000250 39 88 20 3c e4 de 22 3d ce 1f 39 3d dd 45 f6 bd
       0.009798103 0.039763346 0.045196347 -0.12025044
000260 22 06 1b bd 7b 0a 0d bd e0 79 7d 3b 4a e2 25 3e
       -0.037847646 -0.034433823 0.003867738 0.16199604
000270 42 0b 47 bc 0b 6e 52 3d 97 11 6e 3c b2 c9 d5 bd
       -0.01214868 0.051374476 0.014530561 -0.10438861
000280 8d 81 d7 3d aa 36 b5 bd 94 e8 23 3e 44 e0 10 bd
       0.10522757 -0.08848317 0.1600669 -0.035370126
000290 91 92 7a bd e4 6f 12 be fb 45 ca bd 38 44 cf 3c
       -0.061174933 -0.14300495 -0.09876629 0.025301084
0002a0 80 4a d6 bc 16 8e cf bd 7d 90 d8 bd b4 a8 ab bd
       -0.026158571 -0.101345226 -0.10574434 -0.08381787
0002b0 da 3b d9 bc 31 d3 1f 3d 0a d2 c8 bd ee 2c 5d bd
       -0.026517797 0.039019767 -0.09805687 -0.053997926
0002c0 f7 d2 28 be cb 4c 8a bd 10 da 10 3d 7b 53 ff 3d
       -0.16486727 -0.06752928 0.03536421 0.124670945
0002d0 a9 d8 a2 3d 7f 70 2a 3d 8c 2d 45 ba 35 00 ac 3a
       0.07951481 0.04161119 -0.00075217406 0.001312262
0002e0 e1 06 ca bc 52 d7 17 bc 54 c3 c8 bc 74 6a 43 3d
       -0.024661483 -0.009267645 -0.024507202 0.047708943
0002f0 6f 74 99 bd 09 7d 8c bd e4 c9 02 bd 94 56 22 bd
       -0.07492911 -0.06859786 -0.03193082 -0.03963335
000300 0f c0 11 bd c0 2e bd bd 6b bb 06 3d a0 18 c9 3d
       -0.035583552 -0.092374325 0.03289358 0.0981915
000310 13 72 41 bd 43 da f3 3d cc fa 6b be 6e 2f 81 bd
       -0.04722793 0.119068645 -0.2304489 -0.063078746
000320 ab e9 0e bd 3e 4a 52 3c 50 cd c7 3d cb 23 9c be
       -0.034890812 0.0128350835 0.09755957 -0.30496058
000330 47 88 ae bc 2c bd 9c bd 7e 54 f2 bd 9d c8 e1 3d
       -0.021305216 -0.07653269 -0.11832522 0.11024592
000340 cf af 77 3d ae f9 c8 bd a5 53 17 3e 9f 3d dc bd
       0.0604704 -0.098132476 0.14778002 -0.10753941
000350 94 25 0d be 91 c8 30 bd 69 f1 7b bd ce a1 72 bd
       -0.13783866 -0.043160025 -0.061509524 -0.05923634
000360 c9 f1 b1 bd 6e 0e 05 3d f0 7f c0 3c 7d da 84 3c
       -0.08688695 0.032484464 0.023498505 0.016217465
000370 06 3e 1e 3e c8 ec bb 3c 08 51 b9 3d d8 44 9f bd
       0.15453348 0.022940055 0.090486586 -0.07776803
000380 97 2d 14 3e 8f 03 2b be d1 20 46 be 39 d8 98 bd
       0.14470516 -0.16700576 -0.19348456 -0.07463116
000390 07 48 54 bb d8 28 ed bd 5b 8e f5 bd 1f 52 b3 bc
       -0.0032391564 -0.11580056 -0.11990043 -0.021889744
0003a0 d7 bf 64 bd f6 67 3e 3c 82 94 ba bb 63 81 d3 bd
       -0.055847015 0.011621466 -0.005693973 -0.10327413
0003b0 e5 09 c0 bd 7d f7 11 be f2 d6 0b 3d 63 69 a7 3d
       -0.09376887 -0.14254566 0.034140535 0.08174398
0003c0 4d 6b 9b 3d 78 5c 49 be 04 f1 a0 bd ce 4b cc bc
       0.075888254 -0.1966418 -0.0785847 -0.02493849
0003d0 95 c3 9c 3d bf 97 47 bc a9 1d 68 bd e6 f6 2e be
       0.07654492 -0.012182175 -0.05666891 -0.17086372
0003e0 3a de 4b bc 2b de 01 be 9d 90 21 be 21 fc c0 3d
       -0.01244312 -0.12682407 -0.15777822 0.0942309
0003f0 c4 ea 78 3e 3b 73 24 3d a8 0a 18 3e 81 f1 06 be
       0.24308306 0.040148955 0.14847815 -0.13178064

joint_model.model.1.0.bias f4 [64]
000000 9b 20 e8 3d 9d 63 ff 3d e7 45 0d be 8a b3 8a be
       0.11334344 0.124701716 -0.13796197 -0.27090102
000010 e7 c1 8e bb 0c 83 a2 3c b6 9a f8 bc 68 3e 86 bd
       -0.004356611 0.019837879 -0.03034721 -0.06554872
000020 f6 42 9f bd 93 36 01 3d 32 ec ef bd 13 18 89 3d
       -0.07776444 0.031546187 -0.117149726 0.06694045
000030 ef fb 7c 3d 28 02 17 be f3 6f ac bc 05 1c bc bd
       0.0617637 -0.14746916 -0.021049475 -0.09185032
000040 0d 96 4a bd 12 30 a4 3c ef f2 8e 3d d1 34 f4 bd
       -0.049459506 0.020042453 0.0697993 -0.119241364
000050 05 0e ac bd 0b 72 6f bd 5f c5 87 bd 9d ee 55 be
       -0.084011115 -0.05845837 -0.066294424 -0.20891805
000060 5c a0 5f be 90 84 20 bd e5 38 5c bc 2d 4a ed bd
       -0.21838516 -0.03918892 -0.013441299 -0.115864135
000070 dd aa 0e 3d 4e 03 09 bd 1c 81 0f be ca c0 bc 3c
       0.034830917 -0.033450417 -0.14014095 0.023041148
000080 b8 40 05 be 95 78 86 be 5a b6 bc bc 8e 2a cf bb
       -0.1301297 -0.26263872 -0.02303617 -0.0063222116
000090 66 5c f4 bd c3 d6 29 3c 0a 6a 3b be 94 b9 0c 3d
       -0.11931686 0.010366145 -0.1830217 0.03435667
0000a0 b5 ea b5 bd 4c 5b 81 3d b5 05 af bd 9c a8 3c be
       -0.088826574 0.063162416 -0.085460104 -0.18423694
0000b0 a8 5e 44 3c 90 8d 78 be f6 f0 e0 bd 2e c9 73 bd
       0.011985458 -0.24272752 -0.1098346 -0.05951803
0000c0 fb 00 28 be ff 04 ce be df c3 b2 be f8 9e a1 be
       -0.16406624 -0.40238187 -0.34915063 -0.31566596
0000d0 a6 3d 1f be 1d 2c d8 3d 66 be 14 be a2 a4 28 be
       -0.15550861 0.10555289 -0.14525756 -0.16469052
0000e0 15 a7 b5 3d e6 19 cb be 88 b2 d5 3d 7e 2d 73 be
       0.08869759 -0.39668196 0.10434443 -0.23747823
0000f0 c2 8c 0f be 5a e2 9c bb 5a 35 a7 be 87 3b d7 3d
       -0.14018539 -0.0047877254 -0.32657892 0.10509401

joint_model.model.2.0.weight f4 [64, 64]
000000 ba a4 98 3d a5 da c6 3d 36 a4 41 bd 83 14 f6 3b
       0.07453294 0.09709672 -0.047275744 0.0075097694
000010 11 4a 59 bd af 48 9a bd 14 f1 c5 bd 28 6a 2f bc
       -0.05304915 -0.075333945 -0.09665123 -0.010706462
000020 95 e5 88 bb da 99 b3 3d 65 50 84 bd b8 d1 95 3d
       -0.004177759 0.08769579 -0.064606465 0.07315391
000030 d4 bf ea 3c 2a f3 97 bd cb b7 98 3c c7 70 98 bd
       0.028655924 -0.07419427 0.018642327 -0.074433856
000040 ef 19 a7 bd 73 46 59 3d 95 f7 6c 3d aa fd 21 be
       -0.08159243 0.0530457 0.0578533 -0.15819421
000050 4e d6 b4 3d 18 0a 00 3c cf 4b 44 3d 0a e7 01 be
       0.08829938 0.007814907 0.04792386 -0.1268579
000060 3f 24 e9 3c 56 ff 91 3d 4b b4 c1 bd f5 44 be 3c
       0.028459666 0.071287796 -0.09458216 0.02322624
000070 bd 9e 37 bd c7 b4 ab 3d 59 0e 22 3d 58 ad 84 3d
       -0.04482912 0.0838409 0.039564464 0.06478375
000080 84 bc 9f bd a7 3a 03 be 9e cf 83 3c 89 0e 91 bd
       -0.077996284 -0.12815343 0.01609021 -0.070828505
000090 19 0b 18 be d1 52 3e be 3c 66 cc 3c cf 62 b4 bb
       -0.14847983 -0.1858628 0.024951093 -0.005504943
0000a0 0f 33 2a bd d7 e2 37 bd 5a fe d5 bd 8f 79 5c 3d
       -0.0415526 -0.044894066 -0.10448904 0.053826865
0000b0 41 b8 71 bd ff 55 d7 bd 30 af 81 3b 5c 9c b1 bd
       -0.05901361 -0.10514449 0.0039576516 -0.08672401
0000c0 6b d0 9b bd ed 3e 76 bd 46 e8 a0 bd fa e4 4f 3d
       -0.07608112 -0.060118604 -0.07856803 0.05075548
0000d0 30 0f 82 3d 64 51 2c 3d 68 5c 41 be 47 29 03 be
       0.06350553 0.042069808 -0.18882906 -0.12808715
0000e0 38 5b 9f bd 7f 97 af bd 3c de 05 3e c5 1b 34 be
       -0.077810705 -0.085738175 0.13073057 -0.17588718
0000f0 5c 30 40 3d fc ec 21 bd 3e 64 a3 3c 49 1d 92 3d
       0.04692112 -0.039532647 0.01994526 0.07134492
000100 ae 5a 99 3d ee a1 9c 3b fa c4 2c 3e 32 b1 e3 3d
       0.07487999 0.0047800457 0.16872016 0.11117782
000110 98 36 b9 3b 03 42 64 3d 9a f7 9b 39 32 53 d5 3b
       0.00565226 0.055727016 0.0002974838 0.006510162
000120 f6 11 0a 3d 74 bd a1 bc f8 63 14 3d 42 60 4b 3d
       0.033708535 -0.019743659 0.03622815 0.049652345
000130 00 aa ea 3d 47 ad 99 bc 46 5b e0 bd 79 9f e1 bd
       0.11458206 -0.018759383 -0.10954909 -0.11016745
000140 a6 f5 d5 3d 2c 82 ec bb 75 8c d2 3d b8 75 cf bd
       0.10447244 -0.007217666 0.10280696 -0.10129875
000150 34 7b 08 3e cd 51 de 3d 7c 69 de bb d6 3d 1f be
       0.13328248 0.10855446 -0.006787477 -0.15550932
000160 68 78 c0 3b d3 73 24 3c bd 9e e8 3d 94 15 71 bd
       0.0058737285 0.01003738 0.11358402 -0.05885847
000170 9b be fe 3c 07 83 15 3c b7 23 20 bd 8d c3 d9 3d
       0.031096747 0.009125478 -0.03909656 0.106330015
000180 d6 07 06 bd 31 73 f0 bb e4 88 5a 3d ef 55 70 3b
       -0.032722317 -0.0073379506 0.053353205 0.0036672314
000190 b5 78 5b bd f2 34 ed bd 29 d6 2d 3e 13 ee 3b be
       -0.053581912 -0.11582364 0.16976227 -0.18352537
0001a0 06 75 5e bc 0e fd da bc 5e 17 ec 3d 6e f8 0d bd
       -0.013577705 -0.026731994 0.115278944 -0.03466075
0001b0 63 61 aa bd 8e 6e 2a 3d 16 7b e4 bc 8a 82 9e bd
       -0.08319356 0.04160934 -0.027890723 -0.07739742
0001c0 ab ed 8e 3d 1b 0b be bd 04 1a ed bc 8d 00 9f 3d
       0.06978925 -0.09279462 -0.02894307 0.07763777
0001d0 04 6d ef 3d e0 b4 9f ba 6c 6e 7c 3c 59 90 ba bd
       0.11690715 -0.0012184642 0.015407186 -0.091095634
0001e0 00 b6 2b 3d 04 75 ff bc 5c 79 c0 bd 7f fa af 3d
       0.041921616 -0.031183727 -0.093981475 0.085927
0001f0 87 0a 99 3d 1a 13 0f 3e 5b 20 21 bb 4f cf 59 bd
       0.07472711 0.1397213 -0.0024585936 -0.05317622
000200 e1 a7 c8 bd 6b b0 c0 bd bc ca 79 bd 12 dd 49 3d
       -0.09797645 -0.09408649 -0.06098436 0.049283095
000210 e2 82 0c bd 28 1b aa bd d6 2f 47 3c 2a 17 99 3d
       -0.034304507 -0.08305961 0.012157401 0.07475121
000220 58 09 15 be 70 20 6b bc 16 c5 5d 3d 7a ee 80 3d
       -0.14554346 -0.014350995 0.054143034 0.06295486
000230 e4 f3 b3 bc 7e 55 88 3d 36 b5 4e bc 90 44 ca 3c
       -0.021966882 0.06656931 -0.012616446 0.024690896
000240 97 84 21 be 81 78 40 be ea 38 3e be a1 f0 41 bd
       -0.15773235 -0.18795969 -0.18576398 -0.047348622
000250 81 8c a8 bd cc db fa bb 26 38 03 be af f7 a6 3d
       -0.08229924 -0.0076555964 -0.12814388 0.08152711
000260 ce 13 dc 3d f9 0d 65 3d f4 f0 7e be 19 73 b6 bd
       0.10745965 0.05592153 -0.24896604 -0.08908672
000270 dd 99 31 bd d9 ad 77 bd 55 4f 27 3d 69 e7 c4 bd
       -0.043359626 -0.06046853 0.04084714 -0.096144505
000280 56 e9 09 3e bf 31 80 3d 63 bc 1d be b9 3f b8 3d
       0.13467917 0.06259488 -0.15403895 0.08996529
000290 c7 a2 5e bd f4 8a 2c bd 26 1b 08 be ad e1 b4 3d
       -0.054354455 -0.042124704 -0.13291606 0.08832107
0002a0 10 fa 1f be 16 1f 80 3d d9 0c 3d be f4 a3 9c 3d
       -0.15622735 0.06255929 -0.18461932 0.07648459
0002b0 e0 66 6b 3c f5 9d bf bd 43 3a 81 bd b2 3e d9 bd
       0.014367789 -0.093563 -0.06309941 -0.10607661
0002c0 d7 74 1e be c0 52 03 3e a4 10 e0 bd d8 3d 0d 3e
       -0.15474258 0.12824535 -0.10940674 0.13793123
0002d0 db dd b1 3d 06 c6 7d bc 32 2a cd bd fb da 8a 3d
       0.08684894 -0.015489107 -0.10017814 0.067800485
0002e0 be 75 b4 bd f6 c5 44 bd a4 77 9d 3c 37 54 88 bd
       -0.0881152 -0.048040353 0.019222088 -0.06656688
0002f0 f7 24 c5 3c f7 b3 e1 bd ae 48 07 bd c8 2e 18 be
       0.024065478 -0.11020654 -0.033028297 -0.14861596
000300 17 6d 58 be 0b 53 17 bc 73 5c cc 3d bd 5e cf 3d
       -0.21135364 -0.009236108 0.09978571 0.10125492
000310 3e fa 62 3d 5b af 87 bd 41 80 b5 bd 3d 59 15 3d
       0.05541443 -0.06625243 -0.08862353 0.036462057
000320 07 b8 0d bd 2c 42 1e be a1 89 57 3d bd 1c 1a 3d
       -0.03459933 -0.1545493 0.052621488 0.037625063
000330 eb 2b a0 bd f0 5b 0e 3e c1 ac 6f 3b b6 44 8b 3c
       -0.07820877 0.13902259 0.0036571475 0.017000537
000340 c7 2a a4 3d 74 29 30 be a9 21 86 3d 7e 83 ed 3d
       0.08015972 -0.17203313 0.06549389 0.11597346
000350 92 ed 97 3d d4 af 87 bd 84 91 2a bd 8d cb 5b bd
       0.0741836 -0.066253334 -0.04164268 -0.053660918
000360 ed fd 83 3d 1d 13 51 bd f1 2a 76 be 67 8d a2 bd
       0.06444917 -0.05104362 -0.24039818 -0.079371266
000370 76 62 53 3e fa 43 59 3d a8 d3 92 bb 7a 19 0b 3d
       0.20643029 0.053043343 -0.004480798 0.033959843
000380 d1 24 11 3d 23 a8 44 3d 58 ed a6 bd 07 9d a6 bd
       0.0354355 0.04801191 -0.081507385 -0.08135419
000390 90 1b d7 3c a0 68 1e be 1f 0a 49 3d 77 49 c2 3d
       0.02625826 -0.15469599 0.049081918 0.094866686
0003a0 b1 9c b5 bd a3 84 94 bd c7 20 6a 3d 4a ad d8 bc
       -0.08867777 -0.07251861 0.057160165 -0.026449818
0003b0 ef a2 92 bd 29 3c a0 3d 8f 8e 3d bd 5e af 19 3e
       -0.07159983 0.07823975 -0.046278533 0.15008304
0003c0 89 5c 8d bd af 14 a9 3c 73 30 37 bb 69 62 dc bd
       -0.06902415 0.020639746 -0.0027952462 -0.10760958
0003d0 4a 22 06 3e 43 80 d9 3b e9 67 2f be b8 14 fc 3d
       0.13099018 0.0066376044 -0.17129482 0.12308639
0003e0 b4 96 0b be 31 e7 25 bd 92 8e 7f 3d 30 2c f0 bd
       -0.13631707 -0.040503684 0.062391825 -0.11727178
0003f0 c5 0f 53 bd 73 dd 0b 3d b3 16 3d 3d 85 aa c8 bd
       -0.05152871 0.034146737 0.046164226 -0.09798149

joint_model.model.2.0.bias f4 [64]
000000 c3 68 3a 3e 5f 09 37 3d 65 a4 92 bd fe 68 8a 3d
       0.18204026 0.04468667 -0.07160262 0.06758307
000010 03 ee 01 3e e2 f3 46 3d 96 31 93 be 48 6b df 3d
       0.1268845 0.04857243 -0.2874877 0.10909134
000020 9f aa 38 be ae 01 e3 3d ed 03 a4 be 82 18 6e 3e
       -0.18033837 0.11084305 -0.32034245 0.23251536
000030 ea 5b 7c be 20 f5 03 3e 0b 97 86 3d cf 3f b0 be
       -0.24644437 0.12886477 0.06571778 -0.34423682
000040 09 7c ab 3d 47 5e 2a be f6 4e c4 be ed 4d 09 3c
       0.08373267 -0.16637526 -0.38341492 0.008380395
000050 e4 44 6d be 74 38 f7 3d 56 9c 88 be cc b4 29 3e
       -0.23170811 0.120713145 -0.26681775 0.16572875
000060 01 d2 8f 3d 6b 07 01 3e 13 20 09 3e fb 08 90 3d
       0.07022477 0.12600486 0.13391142 0.07032963
000070 75 0e 5e bd 2f 2e 28 be ba e4 8d bc 9c 4f d2 3d
       -0.054213006 -0.16423868 -0.01732098 0.102690905
000080 f2 a7 a6 3c 92 ca d5 3c b4 76 80 be ef d4 38 3d
       0.020343754 0.02609757 -0.25090563 0.045124944
000090 49 49 c7 bd be 28 b2 3d 21 f8 aa be 17 ee ef bd
       -0.09730775 0.08699177 -0.33392432 -0.11715334
0000a0 a1 2a 82 be 36 09 20 3d 49 f5 a0 3d 65 78 65 be
       -0.25423148 0.039071284 0.078592844 -0.22409208
0000b0 b2 ec 85 3d 21 b1 d6 be 97 00 0c be 27 84 f8 bd
       0.06539287 -0.41932014 -0.136721 -0.12134581
0000c0 2d db a7 3d fa 30 d0 be 69 6c 2f be 46 eb bf be
       0.08196101 -0.40662366 -0.17131199 -0.37484187
0000d0 0a 28 18 bc 2b 67 96 be 3d 99 8f be c1 c1 72 3c
       -0.00928689 -0.29375586 -0.280466 0.014816702
0000e0 7b 34 7b be d7 6e 89 be 01 db a4 bd f6 dd 26 3e
       -0.24531738 -0.26842377 -0.08049584 0.16295609
0000f0 d4 e0 c4 be 65 ab ed 3d a4 95 24 bd e2 14 02 be
       -0.3845278 0.116049565 -0.04018177 -0.12703279
