energy_sampling/results_pis_architectures/many_well/exploration_wd_0.2_langevin__clipping_lgv_100.0_gfn_10000.0_gfn/fwd_bwd/fwd_tb_bwd_tb/T_100/tscale_1.0/lvr_4.0/seed_12345/model_final.pt (torch, 184646 bytes, 23 tensors)

t_model.timestep_phase f4 [1, 64]
000000 67 4e 5f bf 05 67 1d 3e ea dd be 3e d1 2d a0 be
       -0.8722901 0.1537133 0.37278682 -0.31284955
000010 04 a0 3e bf 4b f6 aa be b1 21 08 3f 11 81 f5 3e
       -0.74462914 -0.33391032 0.5317641 0.47950032
000020 b2 ca 5c bf fe 5d a7 3d d2 57 1e 3f 8d aa 10 3f
       -0.8624679 0.081722245 0.61852753 0.5651024
000030 b4 10 cc be c3 92 5a bf 1d 4e 4d 3f 00 e1 2b bf
       -0.39856493 -0.8538019 0.80197316 -0.671402
000040 19 9f 4f bf 52 27 0f bf f9 82 3f bf b5 ef e8 bf
       -0.8110214 -0.55919373 -0.74809223 -1.8198153
000050 ff 33 65 3f bb bb 8d 3f 73 4f 6f 3f 87 0f 5c bd
       0.89532465 1.1072916 0.93480605 -0.053725746
000060 4d 24 ca 3e bc 93 8d bf 6a 2b 40 3f 63 34 4c 3e
       0.3948082 -1.106071 0.75066245 0.19941859
000070 12 e4 0b 40 5a 38 39 40 e2 a6 6b 3e fa f4 3c bf
       2.1857953 2.8940644 0.2301288 -0.73811305
000080 fe 67 47 3f 15 b5 84 3f 49 65 5e bf 5b 8f 33 3f
       0.77893054 1.0367762 -0.868733 0.7014062
000090 19 e1 71 3f c5 ab ee 3e 5e b8 02 40 de 7f e4 bf
       0.94484097 0.46615425 2.0425029 -1.7851522
0000a0 1f 4c e1 3e e6 06 9d bf 13 42 41 bf ab 64 23 3e
       0.44003388 -1.226773 -0.75491446 0.1595637
0000b0 09 09 dd 3f 9b 24 ac be 15 7d 14 3f 2f e2 38 3e
       1.7268382 -0.33621678 0.5800336 0.18055032
0000c0 00 93 7f bd 77 25 0a bf 55 86 28 3f a8 80 c1 3f
       -0.06239605 -0.53963417 0.65829974 1.5117388
0000d0 aa 27 44 3f f5 98 50 be 5d 72 81 3e 6d b0 5c bd
       0.7662302 -0.20370848 0.25282565 -0.05387919
0000e0 19 a1 43 3f 20 11 a5 bf 50 0f 54 bf f1 6e 65 bf
       0.7641769 -1.2895851 -0.82835865 -0.8962241
0000f0 ac e4 e9 be 49 59 cf be 1e 6a 65 be f0 65 46 3f
       -0.45682275 -0.40497807 -0.22403762 0.77499294

t_model.pe f4 [1, 64]
000000 cd cc cc 3d 7d c5 d7 3f 16 5f 51 40 b7 6d 9b 40
       0.1 1.6857144 3.2714286 4.857143
000010 e3 2b ce 40 08 75 00 41 1e d4 19 41 34 33 33 41
       6.4428573 8.028572 9.614286 11.200001
000020 4a 92 4c 41 60 f1 65 41 76 50 7f 41 c6 57 8c 41
       12.785715 14.371429 15.957144 17.542858
000030 51 07 99 41 dc b6 a5 41 67 66 b2 41 f2 15 bf 41
       19.128572 20.714287 22.300001 23.885715
000040 7d c5 cb 41 08 75 d8 41 93 24 e5 41 1e d4 f1 41
       25.47143 27.057144 28.642859 30.228573
000050 a9 83 fe 41 9a 99 05 42 5f f1 0b 42 25 49 12 42
       31.814287 33.4 34.985714 36.57143
000060 ea a0 18 42 b0 f8 1e 42 75 50 25 42 3b a8 2b 42
       38.157143 39.74286 41.32857 42.914288
000070 00 00 32 42 c6 57 38 42 8b af 3e 42 51 07 45 42
       44.5 46.085716 47.67143 49.257145
000080 16 5f 4b 42 db b6 51 42 a0 0e 58 42 66 66 5e 42
       50.842857 52.42857 54.014282 55.6
000090 2c be 64 42 f1 15 6b 42 b6 6d 71 42 7c c5 77 42
       57.185715 58.771427 60.35714 61.942856
0000a0 42 1d 7e 42 84 3a 82 42 66 66 85 42 49 92 88 42
       63.528572 65.11429 66.7 68.28571
0000b0 2c be 8b 42 0e ea 8e 42 f1 15 92 42 d4 41 95 42
       69.87143 71.45714 73.042854 74.62857
0000c0 b7 6d 98 42 9a 99 9b 42 7c c5 9e 42 5f f1 a1 42
       76.21429 77.8 79.38571 80.97143
0000d0 42 1d a5 42 24 49 a8 42 07 75 ab 42 ea a0 ae 42
       82.557144 84.14285 85.72857 87.314285
0000e0 cd cc b1 42 b0 f8 b4 42 92 24 b8 42 75 50 bb 42
       88.9 90.48572 92.07143 93.65714
0000f0 58 7c be 42 3a a8 c1 42 1d d4 c4 42 00 00 c8 42
       95.24286 96.82857 98.41428 100.0

t_model.t_model.0.weight f4 [64, 128]
000000 bf ac 74 bc 67 53 96 bd 2c a2 22 bd 6b 4d b6 bd
       -0.014933764 -0.073401265 -0.03970544 -0.08901485
000010 11 dc 4e be af ae 91 3d 43 d9 59 bd fe 55 20 bd
       -0.20201136 0.071133964 -0.053185713 -0.03914451
000020 3e cf c6 bd 4e d5 d2 3c f6 20 0a 3c 5e a1 15 bd
       -0.09707497 0.025736477 0.00843071 -0.036530845
000030 cb 03 84 bd 2d 96 bf 3c 99 7f 7f bd 06 28 5a bd
       -0.06446036 0.02338704 -0.062377546 -0.053260826
000040 8e a9 ac bb 73 b9 8c bd 52 47 d0 3d d1 c7 d9 3b
       -0.005269236 -0.06871309 0.10169853 0.0066461344
000050 11 a6 d4 bd 5e ea 48 3d 9e b6 22 3c 8c 44 d6 bd
       -0.10383237 0.049051635 0.009931235 -0.10462293
000060 43 3e 21 bd 8a 9b 88 bd c6 ac 12 bc 56 76 27 bd
       -0.039366018 -0.06670292 -0.008952325 -0.04088434
000070 31 87 b5 3c 0b d3 68 3d 2b dc f6 3c b7 10 2c 3c
       0.02215919 0.05684189 0.030134281 0.010502032
000080 dc 33 a0 bc b4 b1 ee 3c b0 4b cf 3d ca 16 a2 bc
       -0.019555978 0.02913747 0.10121858 -0.019786257
000090 ea 79 34 3c f5 a2 3e 3d 5a 89 9b 3d ea ae 92 3d
       0.011015395 0.046542127 0.07594557 0.071622685
0000a0 c4 17 12 3c 61 82 4d 3d a5 c6 60 3d 9c bc 1c 3d
       0.008916799 0.050173167 0.054876942 0.03826581
0000b0 b9 9b ba 3d 40 45 89 bd b6 33 86 bd 8d 9e 1f 3c
       0.09111733 -0.067026615 -0.06552832 0.009742391
0000c0 1f 9b 34 3d 0c 4c 50 bc 6f e6 84 3d b3 84 b3 3c
       0.044093248 -0.0127134435 0.06489264 0.021913862
0000d0 aa dd c5 bc 2c e7 65 3d ad 6a 87 bd 4a 00 63 bd
       -0.02415355 0.056128666 -0.06612144 -0.055420198
0000e0 e3 d6 73 3d 7f e1 ae bd c8 85 05 3d 53 7c 0e 3c
       0.059531104 -0.08539104 0.032598287 0.008696633
0000f0 a6 d5 df b8 c5 b2 61 3d 96 fd f6 bc fd 7e 75 bd
       -0.00010673264 0.05510213 -0.030150216 -0.05993556
000100 d8 71 f9 bc d9 a5 03 bd e7 68 bf bd 11 34 00 be
       -0.030449793 -0.032140587 -0.093461804 -0.12519862
000110 4b ee 8d 3c bf b7 79 bb af 02 a2 bd d5 ae 33 3b
       0.017325541 -0.0038103906 -0.07910668 0.002741744
000120 66 0e e1 bd bf ef 3d 3d 74 a8 c2 bd 16 ad 6d 3d
       -0.109890744 0.046371218 -0.09504786 0.058026396
000130 a4 be 88 3b fd 1b da bc d4 87 96 bd d6 3e b6 bd
       0.0041731168 -0.026624674 -0.07350126 -0.08898704
000140 5e 58 93 bc e8 54 9f 3d c6 ac 40 3d 6d 8e e4 3a
       -0.017986473 0.077798665 0.04703977 0.0017437466
000150 f1 49 60 3b 85 3e f5 3c e7 26 18 bd 86 df 6d bd
       0.003422376 0.029937038 -0.037146475 -0.058074497
000160 1d a7 ae bb e6 69 ae 3d 4a 90 70 bd a8 ca 91 bd
       -0.00532998 0.08516292 -0.058731355 -0.07118732
000170 d0 8b af bd d4 2e 46 bc 1f 54 0b 3d 6b 80 8f bd
       -0.08571589 -0.012096126 0.03401577 -0.07006916
000180 bc dc cb bc 73 e5 7d 3c f4 e3 04 bd 93 24 25 3d
       -0.024885528 0.0154965995 -0.032443956 0.040318083
000190 ca ca d6 bc 61 af 5a 3d 2e db a5 3d c5 75 5a 3d
       -0.026219744 0.05338991 0.08098446 0.05333497
0001a0 69 84 69 3d f7 95 9d 3d c7 2d f0 bc 18 10 33 bd
       0.05701104 0.07694619 -0.029318703 -0.04371652
0001b0 f4 00 e7 3c 8b b0 bf 3d 17 c4 4c bd a5 0b 4b bd
       0.028198697 0.09359845 -0.049991693 -0.049571652
0001c0 db b9 12 bc ac cf b1 3c 38 69 7f 3c 25 87 96 3d
       -0.008955444 0.021705471 0.015589051 0.073499955
0001d0 d1 09 1f 3d 72 39 2f bb 2b 3c b7 bc bb 8b 7d 3d
       0.03882772 -0.002673712 -0.022367558 0.061900835
0001e0 76 8c 96 3c a4 35 43 bc de af ec bc c1 7c d0 bc
       0.018377524 -0.011914644 -0.028892454 -0.025450112
0001f0 dc b9 2b 3c 68 2e 98 bd 98 52 cf 3b 7d 54 9e 3c
       0.010481324 -0.07430726 0.0063269846 0.019327397
000200 c9 7d 22 3e d7 6c d5 bd b0 0c 36 be 1d 6a 03 be
       0.15868296 -0.1042115 -0.17778277 -0.12833448
000210 9d 04 a2 3d 73 4d d3 bc a0 f0 4e bd 81 fe 5c bd
       0.07911036 -0.025793767 -0.050522447 -0.05395365
000220 cd b9 c0 3c e0 d9 e5 bc 74 3d b6 bc e0 94 40 bc
       0.023526097 -0.028057992 -0.0222461 -0.011754245
000230 78 8d b0 bc e6 38 84 bc 6d fe 44 bd 29 c8 95 bc
       -0.021551833 -0.016140413 -0.0480942 -0.01828392
000240 34 64 5c 3c 07 4e c4 bd e6 d6 65 3c e6 7d 2a bd
       0.013451625 -0.09585195 0.014028287 -0.041623972
000250 41 af c6 bc 14 73 87 bd 09 91 d1 3c 07 42 67 3d
       -0.02425349 -0.06613746 0.025581853 0.056459453
000260 b3 2f bb bd d2 d0 17 bd b3 ca 98 bd 71 de 8d bc
       -0.09139957 -0.03706438 -0.07460537 -0.017317982
000270 02 66 ac bc 8b 9d 47 bd 80 55 42 bb 91 d5 5c bd
       -0.021044735 -0.04873423 -0.0029653013 -0.05391461
000280 95 46 b5 bc c7 0c cd bd df 22 80 3d 7d 4a 82 3d
       -0.022128383 -0.10012203 0.06256651 0.06361864
000290 7e 26 3d 3d 1c 3e 8e bc 6b 1b 01 3d d1 7b 53 3d
       0.046179287 -0.0173636 0.03152029 0.051631752
0002a0 b6 96 48 bd 5f 68 8d bb 17 0c 83 bc 9e fb eb bc
       -0.048971854 -0.0043154205 -0.015996976 -0.028806504
0002b0 3c 18 26 bd 32 ec 01 3d 0a 65 9c 3c 70 0d 4f bc
       -0.040550455 0.031719394 0.019091148 -0.012637481
0002c0 bc bb 7c 3b bc 34 5b 3d f1 3e e5 bc 58 fd a1 3c
       0.0038564047 0.05351709 -0.027984114 0.019774124
0002d0 95 11 8f ba b8 3c d4 3c f7 2e 6a 3c dd 33 4d 3d
       -0.0010915274 0.02590786 0.014293424 0.05009829
0002e0 de 94 76 3d 7a e4 3a 3c a2 09 e6 bc 0f 5e 48 3c
       0.060200565 0.011407012 -0.028080765 0.012229457
0002f0 04 a5 b3 bc 1f 3b f3 bc 74 8d c1 bc cb 57 65 3c
       -0.021929272 -0.029691277 -0.02362702 0.013997982
000300 ea bf 27 be 62 46 26 be 32 c2 89 3d a6 88 ce 3b
       -0.16381803 -0.16237786 0.06726493 0.006302911
000310 7b 45 04 3d b0 e8 b4 bd 4b c0 d8 3d 50 ce 0c bc
       0.032292824 -0.08833444 0.10583552 -0.008594111
000320 aa c4 8f ba 1d 9d 61 bd 6a 1d 44 3d 48 cc 2a 3b
       -0.0010968645 -0.055081476 0.047879614 0.0026061703
000330 31 c2 68 3c 15 71 cc bc ee ca c2 3d 72 98 08 bd
       0.014206455 -0.024956265 0.09511362 -0.03334851
000340 61 5b 8e 3c d1 ae 94 bd 0b 8d 4b bd ac 1d 1d 3d
       0.017377557 -0.07259906 -0.049695056 0.038358375
000350 f0 50 97 3d 8b b2 c9 bc a8 0f 5a 3d 68 88 49 3d
       0.073884845 -0.024621269 0.053237587 0.049202353
000360 46 af 0e 3d 62 3d 97 3b f8 81 78 3d 48 0e fc bc
       0.034835123 0.0046154717 0.060670823 -0.030768529
000370 59 ec fb 3d e5 66 9c bb 8c 15 40 bd ab 19 4c bd
       0.12300939 -0.004773008 -0.04689555 -0.049829166
000380 61 e5 89 bd 11 96 5c bc f6 b1 d2 bc 36 b9 a8 bd
       -0.06733204 -0.013463513 -0.025719624 -0.08238451
000390 a8 4e 7d bd 38 1e bc 3d 54 43 da bc f2 31 0a bd
       -0.06184259 0.09185451 -0.026643433 -0.033739038
0003a0 e9 18 24 3d 2a 27 11 bd d3 a2 bd bd f9 0b 4d bd
       0.04006282 -0.03543774 -0.09259572 -0.050060246
0003b0 a5 f7 89 3c ef 6b 69 bd db 8d 86 3c 22 e7 ad bd
       0.016841719 -0.0569877 0.016425064 -0.08491351
0003c0 d5 d6 a6 3c 20 bb 3f 3d 92 5d 24 3d 5c 4a 7a 3c
       0.020366112 0.046809316 0.040128298 0.015276518
0003d0 06 97 e0 bc d9 39 04 bc 0f 4a 9c 3b 45 51 ca 3c
       -0.027415764 -0.008070433 0.0047695707 0.024696955
0003e0 d4 44 54 3d ab fc f5 bc 21 20 93 bc 3f ec ac 3d
       0.051823452 -0.030027708 -0.017959656 0.08443498
0003f0 87 4b 0a bd ec 7c 11 3d bb 27 90 bd 95 2a a1 bd
       -0.033763435 0.035519525 -0.07038828 -0.0786945

t_model.t_model.0.bias f4 [64]
000000 cb 7a 3d 3d 2f bc 4b be b4 02 fd bc 03 ec f7 3d
       0.046259683 -0.19896005 -0.030885078 0.121055625
000010 ce 59 18 3d fb 0c 67 3e bd 47 4a bc 61 2b 0b 3d
       0.03719502 0.22563545 -0.012346205 0.033976916
000020 e4 32 3f be 98 77 4d 3d 02 75 ba 3d 3e f7 6f 3d
       -0.18671757 0.05016288 0.09104349 0.058585398
000030 31 ae 50 3c 17 ce ef 3d e6 f8 46 be d2 ef f6 3d
       0.012736843 0.117092304 -0.19430885 0.12057461
000040 2f d5 dc 3c d7 ed e3 bb a3 6c d5 3d ab 89 fe bc
       0.026957123 -0.006955843 0.104211114 -0.031071505
000050 01 16 24 be b8 f9 d2 3d 08 f6 46 3d 85 e4 aa bc
       -0.16024019 0.10301536 0.048574477 -0.02086092
000060 fc 4d 36 3d 23 af 65 3c 2e 09 d7 3d d9 c5 36 3d
       0.044507965 0.014018807 0.10499798 0.044622276
000070 18 21 18 3e 6c 75 bf 3d 5f fc 47 3c 2d 32 ff 3c
       0.14856374 0.09348568 0.012206166 0.031151855
000080 a2 38 ee 3d 8c 1c 43 3d e7 5d d9 bd 12 7c a8 3d
       0.116318956 0.047634646 -0.106136136 0.082267895
000090 86 93 80 bd 46 95 69 3e eb 87 29 bd 89 ce b5 3d
       -0.06278138 0.2281085 -0.041389387 0.08877284
0000a0 2b 04 9c 3d 12 c7 2c be de bc 47 be ef c0 5f 3d
       0.076179825 -0.16872814 -0.19505641 0.054627355
0000b0 44 40 a7 3c 19 1e 50 bd 83 a9 cb bd d9 25 86 3d
       0.020416386 -0.050809953 -0.09944441 0.065501876
0000c0 1c 52 7a 3d 8a 4f 23 be 35 e6 ab bc 7b 43 d5 3c
       0.06111346 -0.1594831 -0.020983795 0.026033154
0000d0 36 96 ae 3d 75 75 cb bc 55 df eb 3d 43 e4 77 be
       0.08524744 -0.024836281 0.115172066 -0.24208169
0000e0 6b 27 c7 3c 7c 3a e1 bc be a5 34 3e 4a 3f a2 bd
       0.024310788 -0.027493708 0.1764135 -0.07922228
0000f0 3c 53 df 3d ee a5 1d 3e 1f be 70 be 8e 1c 67 3d
       0.109045476 0.15395328 -0.23510025 0.056423716

t_model.t_model.2.weight f4 [64, 64]
000000 ae 2e ec 3d ed e0 38 3d 21 ff e0 bd 19 a1 53 3d
       0.11532341 0.04513638 -0.10986162 0.051667307
000010 ab c5 51 3d 9c 98 7e be 6a 58 0c 3e b7 6e 43 3d
       0.0512139 -0.24862903 0.13705602 0.047713008
000020 2d 19 36 3d 06 f0 74 bd f0 84 12 3c d1 a7 2d 3c
       0.044457603 -0.059799217 0.008942828 0.010599093
000030 cf 6e 8e 3d ef 22 ea 3c 91 e7 bb 3d 72 26 83 bc
       0.06954729 0.02858111 0.09175027 -0.016009543
000040 ae 4a 8e 3b 35 3d 93 3d 56 82 65 3d 3a e0 ef 3c
       0.0043423986 0.07189409 0.0560325 0.029281724
000050 81 f5 f0 3d 62 ab 4e bd 1f 56 c0 3d 16 80 c1 bc
       0.11765576 -0.050456412 0.09391426 -0.023620646
000060 14 6f a2 bd c3 c2 20 3e 19 4f cf bd ee e3 cd 3b
       -0.07931343 0.15699296 -0.101225086 0.006283275
000070 e8 ef 57 be ca 46 7c 3d b8 03 7c 3d 85 93 8d bd
       -0.2108761 0.061590947 0.061526984 -0.06912903
000080 d1 17 e4 3b 6e ba 2e bd ba de 2f 3d bf fd 88 3d
       0.006960847 -0.042658262 0.042937018 0.06689023
000090 83 b4 7e 3d 33 78 2c 3a f5 12 e7 3d d4 82 8b 3d
       0.06218387 0.00065791904 0.11282913 0.06812063
0000a0 d4 c0 04 3d 24 ea 77 3d 71 fb 02 3d 5f b6 cf 3d
       0.032410458 0.06052603 0.031978074 0.101422064
0000b0 a9 61 00 3e 12 4d 24 3e fd 8c 80 3d bc 75 71 bc
       0.12537254 0.16045025 0.062768914 -0.014737543
0000c0 d4 6e df 3d b6 18 62 bb d1 ff b3 3d f8 69 32 3d
       0.10909811 -0.0034499592 0.087890275 0.04355809
0000d0 35 fc aa 3c 2a 2d 50 3d cd 37 a5 bb bb cb 95 bd
       0.020872215 0.05082432 -0.0050420524 -0.07314249
0000e0 22 ad 09 3e 1d b5 1a 3c 28 bf 2c bb ce e6 f8 3d
       0.13444951 0.009442595 -0.0026359055 0.121533975
0000f0 34 fd ac bc 19 8a 51 bd c6 34 82 bb 7f 4b 3e 3d
       -0.02111683 -0.05115709 -0.0039735762 0.046458717
000100 37 57 9c 3d d4 94 d4 bd 51 30 ae bc 51 56 93 3d
       0.076338224 -0.10379949 -0.021263273 0.07194198
000110 6b 1f 96 3b e5 55 ab bd a0 12 48 3c ad 51 d6 3d
       0.004581382 -0.083659925 0.012211472 0.10464797
000120 72 e9 db bd 3f 7e 10 3d a5 7a 41 bd a0 40 1c 3d
       -0.107378855 0.035276648 -0.047236104 0.03814757
000130 3a 42 9b 3d 0f fe b1 3d 90 87 2d bc 55 81 a0 bc
       0.07580991 0.08691036 -0.010591403 -0.01959292
000140 5c 4d 42 3d ec 06 fb 3b 36 79 dc bc 50 fa 8e bb
       0.047437057 0.0076607373 -0.026913267 -0.0043633357
000150 43 ba 41 3d b4 b3 83 3d 35 fe 06 bc b0 c3 7a bd
       0.047296774 0.0643076 -0.008239319 -0.06122178
000160 5d 66 62 3c 9c 4d 9c 3d 45 b6 0d 3d 73 00 24 bc
       0.013818351 0.0763199 0.034597654 -0.010009873
000170 9a ea 45 bc 3f bf 12 bd 9d 96 84 bd ad 88 ec 3c
       -0.012079859 -0.035826918 -0.0647404 0.028873766
000180 0f ff cd bc a4 ab bc 3d aa fd 15 3e e6 fe d5 3d
       -0.025146035 0.09212425 0.14647546 0.10449009
000190 59 0a 2f bc be a9 81 bd 9a ad 87 bc 86 8a 52 3d
       -0.010683619 -0.06331204 -0.016562272 0.051401637
0001a0 e2 22 71 3b 76 a5 7e 3c 38 f7 6a 3d ac c4 af 3d
       0.0036794473 0.015542379 0.057364672 0.08582434
0001b0 d8 dd 89 3c d4 27 ef bc 54 5b c5 3d ae ce 97 bc
       0.016829416 -0.029193796 0.0963656 -0.01853117
0001c0 50 25 52 3c 69 4e ca bd 2b fe 80 3d 4b 04 03 bc
       0.012826279 -0.09878237 0.06298479 -0.007996629
0001d0 77 c1 48 bd 05 4a c4 3d 53 c1 cf 3d f6 0f 2a bc
       -0.049012627 0.095844306 0.101442955 -0.010379782
0001e0 18 5c 86 bd 62 a2 9a bd f2 9d c0 3d 90 79 d2 3d
       -0.06560534 -0.07550503 0.09405126 0.102770925
0001f0 31 9b 6f 3d 6f ab 9a 3d d8 69 13 bc 7a 71 8f bc
       0.05849761 0.075522296 -0.008997403 -0.017510165
000200 9c 4d 9d 3c 7b a4 ce 3c 34 d7 b5 bc 38 e6 12 3d
       0.019202046 0.025224915 -0.022197343 0.035864085
000210 2b 98 a8 3d ee e9 14 be 7c 9c 22 3e ce 18 05 bd
       0.08232149 -0.14542362 0.15880007 -0.03249436
000220 29 e6 a2 3d d1 60 6f 3d 1c 4f bb 3d 12 db 8f 3d
       0.07954056 0.05844194 0.09145948 0.07024206
000230 3b 95 47 3d cd c6 db bc 1f 79 4c 3d 56 bc 09 3e
       0.0487263 -0.026828194 0.049920198 0.1345075
000240 d4 7f bf 3c 2e 5f b3 3d a2 e0 18 3d 9d c8 0d 3e
       0.023376383 0.087583885 0.0373236 0.13846059
000250 21 d3 72 3c 0b 5e 27 bd 23 03 f4 3c 63 06 04 3e
       0.014820845 -0.04086117 0.029786652 0.12893061
000260 0b 2b dc 3d 34 fa 8f bb ef 54 5c 3d 1f 5c ce 3d
       0.10750397 -0.00439384 0.053791936 0.100761645
000270 2d 00 c7 bd 38 fc 80 3c db 87 57 3d c5 1c 11 3e
       -0.097168304 0.015745267 0.052619796 0.14171131
000280 d2 e5 81 bb 56 00 63 3d 24 a8 97 3d 29 d1 94 3d
       -0.0039641643 0.055420242 0.07405117 0.07266457
000290 59 d6 ed 3d 14 f2 07 3c bf 9f 7e 3c b3 7c 84 bc
       0.11613149 0.008297462 0.015541016 -0.016172742
0002a0 57 f4 b1 bc 18 25 05 3d d1 8d 2c 3e 79 af 16 3e
       -0.021722956 0.03250608 0.16850974 0.14715375
0002b0 c8 fd 13 3e 43 88 92 3b d4 6e 04 3d 3c c0 00 3e
       0.14452279 0.00447181 0.032332256 0.12573332
0002c0 eb 2b 8f b9 81 7d af 3d da ec 56 3c 5b a7 be bc
       -0.00027307807 0.0856886 0.013117993 -0.02327316
0002d0 44 a8 d2 3c 09 dd 06 3d 90 e2 05 bd aa b8 e2 bd
       0.025715 0.03292564 -0.03268677 -0.11070378
0002e0 b3 0e 02 3e ca 32 c0 3d 4e 02 b6 b9 fd f6 bd 3d
       0.1270092 0.09384687 -0.00034715462 0.09275625
0002f0 48 75 69 3d 65 b7 a7 3d 1e 98 36 bb 1a f1 49 bc
       0.056996614 0.081892766 -0.0027861665 -0.0123255495
000300 b9 4c 8d 3c 12 f7 90 bd c6 52 d1 3c 7d 01 32 bd
       0.017248498 -0.07078375 0.025552165 -0.04345845
000310 40 92 df 3c 60 83 8d bc 65 5f 4f 3d e9 90 54 bd
       0.027291417 -0.017274559 0.050628085 -0.05189601
000320 9d 14 f7 bc fc 2b d4 3d 5b a6 f9 3d a2 ac 15 3e
       -0.030161196 0.10359952 0.12189933 0.14616635
000330 8e 24 91 3d 40 f1 ed 3d d4 c0 ec 3d ed 9b c3 bb
       0.070870504 0.116182804 0.115602165 -0.0059695155
000340 d6 6d 60 bc 14 4b 2f bd 9e 02 ee 3d 43 e1 4d 3d
       -0.013698062 -0.04279621 0.11621593 0.050263654
000350 f0 7d c2 3b 4f 16 de bc 98 8b 15 3e a0 c3 99 3d
       0.005935423 -0.027110247 0.14604032 0.07508016
000360 20 74 2f bd f0 0c 30 bd 70 ea 93 3a 95 70 18 3e
       -0.042835355 -0.04298109 0.0011285078 0.14886697
000370 37 d1 ab 3d 46 77 c3 3d 60 29 83 3d 97 c6 1e 3c
       0.08389514 0.09544234 0.06404376 0.009690902
000380 a9 00 f6 bc 9e 7e 03 3e e5 83 c6 3d 6b df c4 3d
       -0.030029612 0.1284127 0.09693126 0.09612926
000390 b9 bb ec 3d 40 89 26 be 60 6c 5b bc 21 db ef 3d
       0.11559243 -0.16263294 -0.013392538 0.117117174
0003a0 7b 56 21 3d ad 9e 18 3d 23 91 fa bc 88 de 6f 3c
       0.039389115 0.0372607 -0.030586785 0.014640458
0003b0 0b ea 03 bd 18 11 ab 3d c8 35 63 bd 12 ca df bd
       -0.032205623 0.0835287 -0.05547121 -0.10927214
0003c0 0d 23 36 bd 40 ac a9 3c d4 a1 ff 3d 28 0d af 3d
       -0.04446702 0.020712018 0.12482038 0.08547431
0003d0 72 d2 e7 bc 0e 65 21 3e d8 68 ba 3c 0d 5f 7b bd
       -0.02829859 0.15761206 0.022755072 -0.061369944
0003e0 96 cc 1f bd 99 f0 24 3d 9e 06 a3 3d ad e1 65 bc
       -0.039013468 0.040268514 0.079602465 -0.014030856
0003f0 d1 87 2b 3d 5d ea 7c bc f3 05 c3 3c 6c a8 5f bd
       0.04187757 -0.015436736 0.023806548 -0.05460398

t_model.t_model.2.bias f4 [64]
000000 a7 4a 68 bd bd 85 89 bd 9b ba 35 3d 68 c7 25 3b
       -0.05671182 -0.06714962 0.044367414 0.0025295857
000010 03 a0 eb bd 4d 38 0e 3e 2c b7 53 bd 6a 69 62 3e
       -0.11505129 0.13888665 -0.05168836 0.22110525
000020 c1 ca 31 bd ab c7 24 3e 73 61 63 3d e8 d8 c2 3d
       -0.04340625 0.16091792 0.055512857 0.09514028
000030 c6 97 ae bc 30 2b e6 3c 82 dc b0 3d f8 00 72 3e
       -0.021312606 0.028096765 0.086358085 0.23633182
000040 d7 75 a8 bc 83 49 b9 bd 62 e8 b2 3d 63 47 01 bd
       -0.020564003 -0.090472244 0.0873573 -0.03156222
000050 c2 02 78 bd 64 9c dc 3d bc a7 a7 3d 40 35 a6 bc
       -0.060549505 0.10772017 0.0818629 -0.020289063
000060 10 34 95 3d 7c 13 4b 3e a1 15 e1 bd d6 e8 2b 3d
       0.07285321 0.19831651 -0.109904535 0.041970097
000070 0e 48 b1 3d ee 1a 02 bd d8 9c d0 bd 94 5f 33 3d
       0.086563215 -0.031763963 -0.101861656 0.043792322
000080 d6 1e 93 bc e8 f0 03 3d 12 19 12 3e 03 62 8f 3b
       -0.01795904 0.032212168 0.14267376 0.0043756976
000090 1f fd f7 3d 0c b1 a2 3c 88 d2 69 bd 02 f2 64 3e
       0.12108826 0.019859813 -0.057085544 0.22357944
0000a0 db 94 95 bd 69 b5 1d bd f8 70 d8 3d 9a f3 a0 3d
       -0.073037826 -0.038503084 0.10568422 0.07858963
0000b0 d0 a3 00 3e 58 d8 0b 3e cc 29 a8 3e b0 4b cc 3d
       0.1256249 0.13656747 0.32844388 0.09975374
0000c0 99 f1 ae 3c 9c 7f 62 3e 23 0d 57 bd 4f 66 a3 3d
       0.021355437 0.22118992 -0.052502763 0.07978498
0000d0 05 79 82 3d 09 dd 0a 3c 82 8e c1 3d 79 45 ba 3b
       0.06370739 0.00847555 0.09451009 0.0056845513
0000e0 1f a7 68 3e 92 44 c4 3c 7a c2 60 3e 89 bf 44 3e
       0.22720002 0.023958478 0.21949187 0.1921369
0000f0 44 bc 31 3e 76 cd 1e 3e e8 e9 ca 3d e3 21 ad 3d
       0.17356974 0.15508065 0.09907895 0.08453729

s_model.x_model.weight f4 [64, 32]
000000 24 a1 de 3d bb 54 1b be 7a 3b a2 3d 41 65 27 be
       0.10870579 -0.15169041 0.079215005 -0.16347219
000010 c8 27 c9 3d 71 ac 37 3e 77 bd 8b be a6 11 7b bd
       0.09822041 0.17936875 -0.27292988 -0.061296128
000020 56 cd 69 3d b8 5d 22 bd db dd 9a 3d 5e b3 0b bd
       0.05708059 -0.03964016 0.07561847 -0.034106605
000030 8c 9a a9 3b 14 a9 23 be 9f ae fa 3d 87 e1 63 be
       0.005175894 -0.15982467 0.122403376 -0.22254
000040 55 74 48 be b2 50 a0 3d 6b 3c 44 3c dc d9 ae 3d
       -0.19575627 0.078278914 0.011977295 0.08537647
000050 bd 32 2b be 96 5b a2 bd d9 69 d8 bd 80 e3 55 bd
       -0.16718574 -0.07927625 -0.10567064 -0.052218914
000060 30 64 5b 3d 6d dd 4c 3e 6e 5f 69 be 54 f4 37 be
       0.053562343 0.20006342 -0.2279031 -0.17964298
000070 ad ef 82 3d ca 1f cb bd b7 74 78 3d 54 8e 37 3d
       0.06393371 -0.09918173 0.060658183 0.04481347
000080 62 fd ba bd be 88 36 bd 56 61 d2 bf bd 8d d8 39
       -0.0913036 -0.044564 -1.6435955 0.00041304334
000090 cc b9 ef 3c 93 2c 71 bd dd e9 61 3d 5c 3e fc 3c
       0.0292634 -0.0588804 0.05515467 0.030791454
0000a0 b5 f0 71 3d cf 08 e5 3c 9b 97 8f 3c b0 92 a1 bd
       0.059067447 0.027958302 0.017528346 -0.078893065
0000b0 80 06 4d bd 29 fc 2a bd 96 f6 54 bd c8 e1 a5 bc
       -0.050055027 -0.041744385 -0.051992975 -0.020249262
0000c0 67 57 02 bd a4 f4 02 3d 5c 91 27 3c dd bc 51 3c
       -0.031821635 0.03197159 0.0102275275 0.012801376
0000d0 bb 27 a4 3b 9c 59 22 bb 58 62 8c bc 2a ee 75 3d
       0.005009619 -0.002477265 -0.017136738 0.060041584
0000e0 60 d3 a5 bc 2c 58 e8 ba 56 7e ad 3b e2 c0 95 bd
       -0.020242393 -0.0017726473 0.0052946014 -0.0731218
0000f0 d0 d6 dd 3c ba ce 0d bd e2 68 0b bc 19 90 9f bc
       0.02707997 -0.034620978 -0.008508893 -0.01947789
000100 6f d4 46 3e 89 3e 03 be b4 b6 9d 3c b0 1e 5d 3d
       0.19416974 -0.12816824 0.019252159 0.053984344
000110 8a ae 4c be 38 9d 5e 3e 65 f2 25 bd 38 d7 97 bd
       -0.19988456 0.21739662 -0.04051437 -0.074140966
000120 bb e3 a2 be 7e d5 28 be bc 33 e0 3d cf 91 eb bd
       -0.3181437 -0.16487691 0.109473675 -0.1150242
000130 75 93 72 3c 76 6d be bd 5c 99 d4 be 77 1e f8 3d
       0.014805664 -0.09298222 -0.41523254 0.12115186
000140 01 ea b6 bd 3c 0b a3 3c 5c 27 e2 bd 17 f3 3d be
       -0.089313515 0.019902818 -0.110426635 -0.18549763
000150 bb ca ab 3d fe 9b ac 3d 4e 9e 35 be 3f 29 d1 bd
       0.08388277 0.08428191 -0.1773617 -0.10212945
000160 f3 b1 2b bd 01 8b 71 be d1 72 83 bc 6e 6c 08 3e
       -0.041917752 -0.23588182 -0.01604596 0.13322613
000170 8a 5f 4f be 4a 71 6e be 3a 19 94 bd ba 2d 79 be
       -0.20251289 -0.23285404 -0.07231374 -0.2433385
000180 39 7c 27 3d 3f 5d a4 3b 43 7a 9a 3b 2d 23 2a 3d
       0.040889952 0.0050159986 0.0047142818 0.041537452
000190 1c d4 39 bd 00 33 5a bd 76 85 48 be 15 97 b0 bd
       -0.0453683 -0.053271294 -0.19582161 -0.086225666
0001a0 2a cd 5a be 7b ee f2 bd 5f 0a c5 3c a0 f6 58 be
       -0.21367326 -0.11861893 0.024052797 -0.2118783
0001b0 b3 ae 4b be 82 02 28 3d 39 b1 fd 3a 6c 86 13 be
       -0.19890861 0.041018017 0.0019355185 -0.14406747
0001c0 a8 56 b6 bc eb 34 03 3d 4f d5 3a be 7a 57 09 3e
       -0.022258118 0.03203289 -0.18245433 0.13412276
0001d0 7d 9d 8d be e7 d8 0d bd 36 e6 6c be 5a ee ca 3d
       -0.27659217 -0.034630682 -0.23134694 0.09908743
0001e0 c9 da 80 be 53 8c d0 bc 3e 23 56 be a2 6a 4d 3e
       -0.2516692 -0.025457537 -0.20911881 0.20060208
0001f0 3e 5f a2 be 79 56 cb b8 bb 90 87 be a3 73 33 bd
       -0.3171329 -9.695901e-05 -0.26477608 -0.04381145
000200 38 97 1e 3e 28 8b 83 3e 1c 7f 10 3c 17 ba 56 be
       0.15487373 0.25692105 0.008819368 -0.20969425
000210 dc 04 ce 3c 29 19 ed bd 5d fa 53 3c cd c7 f7 3a
       0.025148802 -0.115770645 0.012938109 0.001890415
000220 1e 17 14 be db d8 87 3e c8 77 df 3d 5f c2 39 3e
       -0.14461944 0.26532635 0.10911518 0.18140553
000230 9e ab fe bd 27 64 c2 3d 1b b0 a5 bd 98 cb 50 be
       -0.12435077 0.09491759 -0.0809023 -0.20390165
000240 df 0a ef 3c 30 57 70 bd a0 b6 f9 bd cd 56 b1 bd
       0.029179988 -0.0586769 -0.12193036 -0.08659134
000250 69 71 a0 3d 85 b6 5a 3e 45 d8 04 bd 89 2d 86 bd
       0.07834131 0.21358688 -0.032432813 -0.06551654
000260 44 ee 69 3d 4d 10 10 3d 51 18 0b bd cb ed c6 bd
       0.057111993 0.035171796 -0.033958737 -0.09713324
000270 cd 70 1b 3e e2 b6 bd 3d 62 8a 8f 3d 52 0f 91 bd
       0.15179749 0.09263398 0.07008816 -0.07083
000280 24 f1 7c be 8d 2b 81 3d 8d 0f 8e 3d 30 b1 43 3b
       -0.24701363 0.06307135 0.0693656 0.002986025
000290 e3 91 84 be 3a 82 d7 3d 4a ff 13 3d 9f 92 ca 3d
       -0.25892553 0.105228856 0.036132134 0.09891247
0002a0 2a da a7 bd 57 00 31 3e a9 0e 28 3e 18 3f 0d bb
       -0.08195908 0.17285286 0.16411842 -0.00215525
0002b0 9a fd 33 3d c9 a2 3f bb 96 d5 13 3e e6 7e fa 3c
       0.043943025 -0.0029241315 0.14436945 0.030578088
0002c0 f8 35 2c 3d 6a 32 43 3e a4 e5 5e bc 9f 83 25 3c
       0.042043656 0.190622 -0.013604555 0.010102182
0002d0 c7 d6 84 3c 15 d1 9c bd e3 19 c3 3b df ba 2c 3e
       0.016215695 -0.07657067 0.0059540137 0.1686816
0002e0 3b 4e 72 bd 9a 95 d9 bd 4b 51 7a bd ae 0e a6 3c
       -0.059156638 -0.10624237 -0.061112683 0.020270672
0002f0 cd a1 ea bb d6 19 b5 bd 78 0b f4 bd c9 39 a8 bc
       -0.0071604014 -0.088428184 -0.1191625 -0.020535367
000300 9d 1b ac bd 95 2d c5 3d 75 92 ac bd 60 92 63 bd
       -0.08403704 0.09627835 -0.08426372 -0.055559516
000310 9c 6b 03 3e ac 92 a8 3c f1 a1 d8 3d 5a 86 17 be
       0.12834018 0.020577751 0.10577763 -0.14797345
000320 fb 19 97 3e 6b e8 1c be 7a 22 db 3d da 95 36 be
       0.2951201 -0.15323035 0.10699935 -0.17830601
000330 8d cc 8b 3d cd 7f f4 bd 7c a8 94 3d 32 c2 e4 bd
       0.06826124 -0.119384386 0.07258698 -0.11169852
000340 6c 3d 7f 3e 4c 09 48 3d bd f8 ae 3c 11 ed 72 be
       0.24925774 0.04883699 0.021358842 -0.23723246
000350 13 b5 c9 3d 33 2f 00 bd 4f ba 46 3e cb f1 05 be
       0.0984899 -0.031295013 0.19407009 -0.13080518
000360 91 f1 83 3d da e8 38 bd 89 e2 bc 3d 5a be 31 be
       0.064425595 -0.04514394 0.09222896 -0.1735777
000370 25 4d 4b 3e ab 25 46 3e 0c d7 31 3e 1e 70 59 be
       0.19853647 0.19350307 0.1736719 -0.21234176
000380 60 e6 ca bd c3 2e 9f bd 9f b1 08 ba 95 16 73 be
       -0.09907222 -0.07772591 -0.0005214456 -0.23739083
000390 c9 ee 3d 3e 0d f6 44 3e aa b6 50 3d cb 91 88 bd
       0.1854812 0.19234486 0.050955452 -0.06668433
0003a0 f2 84 06 be 57 1f 2f 3c c3 6b 99 bd 52 61 9b bc
       -0.13136652 0.010688624 -0.07491257 -0.018967304
0003b0 5f 33 02 be 10 bf 69 3d 36 51 cc bd bf 1f c0 bd
       -0.12714909 0.057066977 -0.09976427 -0.09381055
0003c0 11 fe 2a 3e d2 ef e9 3d 81 07 08 3e 6f d6 67 3e
       0.16698481 0.11422695 0.13284113 0.22640394
0003d0 1b 20 55 3e 40 43 34 3e 27 9d ef 3d 2b 07 dc bd
       0.20813029 0.17603779 0.11699896 -0.10743555
0003e0 b4 a1 bc 3c d0 72 2a 3e e5 f8 05 3e e4 37 da bc
       0.023026325 0.1664536 0.13083227 -0.026637979
0003f0 1b c4 13 3d 1a 58 19 bd 3a c0 32 be d4 c5 60 3d
       0.036075693 -0.037437536 -0.17456141 0.054876164

s_model.x_model.bias f4 [64]
000000 7e a8 3e 3d 0a f5 d7 3d 2b 66 b8 bd 07 23 d1 bc
       0.046547405 0.10544784 -0.09003862 -0.025529398
000010 ed 7c 11 3e 7e d2 26 3e 45 39 3d bd 89 1a 8c 3e
       0.14207812 0.16291234 -0.046197195 0.27363995
000020 3f 6b 8f 3d 2c 2a 94 3e 59 e9 1c 3e 02 c1 3d 3e
       0.070028774 0.28938425 0.1532339 0.18530658
000030 c4 25 3c bd d2 2a 6d bd ca 4a 3c 3e fb 4a b6 3d
       -0.045934454 -0.057902165 0.18387905 0.0890102
000040 23 83 bd bd 0a ea f6 bb 3d 52 8b 3e 65 b3 a7 bd
       -0.09253528 -0.007535224 0.2721118 -0.08188514
000050 eb c9 f2 bd e6 d3 b3 3d cd 08 29 3e db a2 f7 3d
       -0.11854919 0.08780651 0.16507263 0.12091609
000060 39 c7 82 3e 00 81 9e 3e 43 4b 5d bd 94 a8 e2 bd
       0.2554262 0.30957794 -0.054026853 -0.1106731
000070 38 75 a6 3d 45 da a2 3d 89 ac 79 bd eb 4b 8a 3d
       0.081278265 0.07951788 -0.060955558 0.067527615
000080 01 59 11 bd 63 e5 76 3e 53 ba 79 3c 11 02 45 3e
       -0.03548527 0.24110942 0.015242177 0.1923907
000090 83 72 1e 3e ab 6f 13 be ba a6 a7 3c a9 ea 95 3e
       0.1547337 -0.14398067 0.020465244 0.29280594
0000a0 18 19 1b 3e e2 87 90 3c 29 de e7 bd 9e 42 b3 3c
       0.15146291 0.017642919 -0.113216706 0.021882351
0000b0 54 41 2c 3e d3 f8 0f 3e 0d 95 aa 3e 08 2f 2f 3d
       0.16821796 0.14059763 0.33316842 0.042769462
0000c0 ef 20 23 3d b4 96 9a 3e 34 91 a1 bd ac 67 18 3e
       0.03982633 0.30193102 -0.078890234 0.14883298
0000d0 64 fb f5 bd 4b 10 a2 bd 59 f5 57 bd c2 b5 07 3e
       -0.120108396 -0.07913264 -0.052724216 0.13252929
0000e0 a9 21 75 3e e8 6c 97 bb f7 5f 36 3d 16 d2 91 3d
       0.23938622 -0.004621137 0.044525113 0.07120149
0000f0 fe 01 0f bd 82 eb 08 3e a9 80 57 3c 9c 36 8d 3d
       -0.03491401 0.13371089 0.013153234 0.068951815

joint_model.model.1.0.weight f4 [64, 64]
000000 2f dd fc 3c 7d e7 3f 3e d1 af ab bd 1b 07 8d bd
       0.030867187 0.1874065 -0.08383144 -0.06886121
000010 24 47 f9 3d b1 4c 10 bc 2b 3f 4a 3e 9b 65 31 bd
       0.12171772 -0.008807347 0.19750659 -0.04330979
000020 b3 6d f9 bd 8f 92 f6 3d 8a 74 8a bd 0b 70 9c bd
       -0.121791266 0.120396726 -0.06760509 -0.07638558
000030 8f 5a 3a bd e5 7f 06 3e b2 74 34 3e 56 0d 29 bd
       -0.04549652 0.13134725 0.1762264 -0.041272484
000040 d1 f2 9a bd ad 3f b3 3e 6d 79 2f 3e ea 98 70 3e
       -0.07565845 0.35009518 0.17136164 0.23495832
000050 2b 6e 9c bd e2 23 c8 3d 58 d5 da 3d d8 32 22 be
       -0.076382 0.09772469 0.10685223 -0.15839708
000060 99 08 c4 bd 7d 3a 96 bd be 54 ce bb 84 52 b9 bd
       -0.095719524 -0.073353745 -0.006296723 -0.09048942
000070 31 dd 8d bd 8a b2 b2 3d 43 67 05 3e 1c e6 1b bd
       -0.069269545 0.0872546 0.13027672 -0.038061246
000080 c3 39 80 bd 42 e8 85 bd 0e 39 f9 3d 68 09 be 3d
       -0.06261017 -0.0653844 0.121690854 0.09279138
000090 ac 8a c3 bd 54 56 6f 3d 40 76 f4 bd a5 a0 23 3e
       -0.09547934 0.05843194 -0.11936617 0.1597925
0000a0 0e 96 8e bc b2 cd ad bc f6 36 b0 3c 54 30 29 3e
       -0.017405536 -0.021216247 0.021510582 0.16522342
0000b0 9e c9 e9 3d 9c 08 f0 bc 8c 9e d7 bd 7c 87 09 3e
       0.114154086 -0.02930098 -0.10528287 0.1343059
0000c0 70 1f 46 bd 74 84 00 3e ef 11 7e bd d3 83 c0 3d
       -0.048369825 0.12550527 -0.06202882 0.094001435
0000d0 ee 71 60 bd 0b 98 49 3d e4 e5 25 3e a0 c1 50 bd
       -0.05479615 0.049217265 0.16200978 -0.050965905
0000e0 8a 61 48 bc c7 37 9c bc 4b b5 1d be 34 14 72 3d
       -0.012230286 -0.019069565 -0.15401189 0.0591013
0000f0 c3 65 a5 3b cb 96 26 bd c5 41 e7 3d a7 af bb 3d
       0.0050475313 -0.04067115 0.112918414 0.091643624
000100 87 23 52 bc 78 f1 62 3e fa 41 20 3d a7 14 d9 bb
       -0.012825853 0.22162426 0.03912542 -0.0066247764
000110 1b c7 d3 bc d8 d7 85 3c 9a 17 29 3d 27 b1 43 3d
       -0.025851777 0.016338274 0.041282274 0.047776368
000120 7d d3 13 3e ad bb 19 3e 06 c8 23 3e 64 08 f4 3d
       0.14436145 0.15012999 0.15994272 0.11915663
000130 a9 88 0d bd 9c 00 e3 bd f4 13 2c be 37 71 ec 3d
       -0.034554157 -0.110841006 -0.16804487 0.115450315
000140 81 80 8a 3d 75 04 38 3e de 40 ee 3c aa b1 11 3d
       0.067627914 0.1797045 0.029083665 0.035569824
000150 28 f5 8c bd b2 bb 9d 3d ad 2e 06 be 15 bd f0 bc
       -0.06882697 0.07701816 -0.13103743 -0.029387036
000160 c6 ed 39 3e 8f 2d 94 bb 10 e1 f7 3c 33 ff e7 3d
       0.1815711 -0.0045220326 0.030258685 0.11327972
000170 c2 f1 e6 3d ac 8a ea bc d2 da 3f 3e 6c e7 03 be
       0.112765804 -0.028630577 0.18735817 -0.12881249
000180 51 af 5b be 6a 68 da bd d6 23 c3 bd 85 75 c9 3d
       -0.21453597 -0.10664447 -0.095283195 0.09836868
000190 bb ce 0e bd 9e ac af bd 4f f4 15 be 67 f8 f9 3d
       -0.034865122 -0.08577846 -0.14643978 0.12205582
0001a0 a5 16 c1 bd 1c 0e 9f 3d 00 f1 a1 3d 62 fd c1 bd
       -0.09428147 0.07766363 0.07907295 -0.09472157
0001b0 b3 54 21 be 52 da af bc f4 be 13 be b2 dc 60 bd
       -0.15754966 -0.021466408 -0.14428312 -0.05489797
0001c0 2f 89 8a bc 75 4a a6 bc b9 89 20 be 13 9d 1c bc
       -0.016911117 -0.020299176 -0.15677537 -0.009558934
0001d0 25 47 1e 3c 96 da 87 3d ca 9c 2d be 37 b3 bd 3d
       0.009660517 0.06633489 -0.16954342 0.09262698
0001e0 d7 71 dd 3d 77 ab 89 3e 07 4a be 3d 49 8b c9 bd
       0.10812729 0.2688863 0.09291463 -0.0984102
0001f0 70 71 ca 3d fa c0 33 bd 2f 7a 25 3e 8a db 5d bc
       0.09884918 -0.04388521 0.1615989 -0.013541112
000200 67 f4 d5 3b 55 00 31 be 4c 7f 33 3e 95 3b 4a bd
       0.006529379 -0.17285283 0.17529029 -0.049373228
000210 21 b7 f9 bd 0c 09 46 3d 34 9d ea bd f9 5a 92 3d
       -0.12193132 0.04834847 -0.11455765 0.07146258
000220 d9 10 77 3d 32 b2 5b 3d 54 4e a0 bd 25 d1 dc bd
       0.0603188 0.053636737 -0.0782744 -0.10782079
000230 a4 70 54 be 0f ad 06 3d 1a f7 31 bb f0 a6 58 b8
       -0.20746094 0.032879885 -0.002715534 -5.1653886e-05
000240 1d 54 35 3e b8 7e 1c be 0a 91 85 3d e7 66 9b 3a
       0.17707868 -0.15282714 0.06521805 0.0011856229
000250 be 2c 2c 3d 5c 0f fb 3c b6 9b 1a 3d eb 14 fc bd
       0.042034857 0.030646972 0.037746154 -0.12308677
000260 31 96 cf 3d 52 eb 0d bd a2 68 23 bd 83 25 8c bd
       0.101360686 -0.034648247 -0.039894708 -0.06843092
000270 bd 39 e4 bd c0 30 50 ba 78 e5 54 3d 0f 74 1c be
       -0.11143825 -0.00079418346 0.05197665 -0.15278648
000280 ee b6 fb 3d 95 24 3b 3d 18 bc f6 3d 7a f1 fa 3c
       0.122907504 0.045689184 0.12047595 0.030632723
000290 39 41 29 3e 63 bb c1 bd 5a b0 14 bd 28 3e cc bc
       0.16528787 -0.09459569 -0.036300994 -0.024931982
0002a0 12 07 8a 3d 49 16 57 3d 28 ab af bd 03 f3 ea 3d
       0.0673963 0.052511487 -0.08577567 0.11472132
0002b0 3d 6f f4 3d 15 35 fd 3d 7f e3 b1 bd 76 25 d1 3d
       0.119352795 0.1236364 -0.086859696 0.10212223
0002c0 83 72 15 bd 7a bf f1 3b a0 c1 69 3d d3 f5 b7 3d
       -0.03648616 0.007377562 0.05706942 0.08982434
0002d0 46 04 c6 3c d1 22 ab bd 03 53 27 3e dd 02 38 3e
       0.02417196 -0.0835625 0.1634026 0.17969842
0002e0 33 04 91 bc d5 a8 89 3d 4d ab 87 bd 2f 4d 69 bb
       -0.017702198 0.06721655 -0.0662447 -0.0035598984
0002f0 5e 24 04 be 8d 2b 03 be 22 8c 0c 3e 48 4e fb bd
       -0.12904498 -0.12809582 0.13725331 -0.1227079
000300 94 ce d6 bc e2 f7 62 3e 9a e6 da 3d 12 53 85 3d
       -0.026221551 0.22164872 0.10688515 0.06509985
000310 7e d4 34 bd cf ea a2 3d 21 7d be bd 37 c5 e8 bc
       -0.04414796 0.079549424 -0.0930121 -0.028414352
000320 1b 15 fa 3d eb 78 10 3d 5f b6 e3 3d 93 8d 95 bd
       0.12211057 0.035271566 0.11118769 -0.07302394
000330 56 b0 21 be 75 0f dc bd fa f6 a0 bd 22 30 d4 3d
       -0.15789923 -0.10745136 -0.07859607 0.10360743
000340 8e 0d 60 3d 70 df ce bd 83 f2 e1 3d 14 ea d7 bd
       0.054700427 -0.10101211 0.110325836 -0.10542694
000350 a1 ff 0f 3b 8f d7 f2 bc ff e9 f7 bd 06 3b a0 bd
       0.0021972435 -0.029643802 -0.12105178 -0.07823758
000360 38 4a 4e bd fc 3f 9e 3d 80 c3 77 bc f2 ec 8a 3d
       -0.05036375 0.07727048 -0.015122294 0.06783475
000370 6e 65 e8 3d 98 e0 3c 3e d8 00 c6 3d 38 09 da bd
       0.11347471 0.1844505 0.0966813 -0.106462896
000380 91 e5 91 3c 1d 27 37 be 14 b8 a8 bc f1 d4 89 3d
       0.017809661 -0.17886014 -0.020595588 0.067300685
000390 4c da 05 3e 5f 36 39 be 8b d2 95 3c e2 a5 ee bb
       0.13071555 -0.18087147 0.018288871 -0.0072829584
0003a0 6e 7c 51 3c 43 90 00 3b 6e d3 91 3e 04 e6 14 3d
       0.012786014 0.0019617237 0.2848162 0.036352172
0003b0 96 70 ff bd b2 19 ba bd 91 8c d5 3d 72 0c 9e 3c
       -0.12472646 -0.09086932 0.104272015 0.019293044
0003c0 b5 32 b0 3d 9d b5 cb bd 59 4b 05 be 1d e3 18 bd
       0.086034216 -0.09946749 -0.13017024 -0.037325967
0003d0 ad 98 60 3d 55 48 9e bc 74 97 8a 3c 16 19 98 3d
       0.054833103 -0.0193216 0.016917922 0.0742666
0003e0 81 71 18 bd 4c 91 d5 bd 91 d3 fe 3c 11 5d aa 3c
       -0.03721762 -0.10428104 0.031106742 0.02079633
0003f0 8b 81 25 3e f4 dc 88 3d ff 71 9c 3e 95 30 7a bd
       0.16162698 0.066827685 0.30555722 -0.061081488

joint_model.model.1.0.bias f4 [64]
000000 ab 57 09 3d 32 fd b4 3d 8a c6 85 3c ce 61 02 be
       0.033530872 0.08837356 0.016330022 -0.12732622
000010 01 74 a4 3c 53 5d 82 3e fa 96 36 bd 14 b0 9b 3e
       0.020074846 0.25461826 -0.044577576 0.30407774
000020 86 18 8b 3b 90 41 4b 3d dc 34 60 bd 20 bb 14 3e
       0.004244867 0.049623072 -0.05473791 0.14524508
000030 23 ff 46 3e b1 96 e8 3c ca 3f 07 3e 48 3a 80 3c
       0.19433264 0.028392168 0.13207927 0.01565279
000040 50 b5 50 bd 93 60 0f 3e 3a ae 5c 3e 62 97 00 3e
       -0.050954163 0.14001684 0.21550837 0.12557748
000050 f9 27 69 3d 09 e3 66 bb 13 18 ac bb 70 dc 3d 3e
       0.056922887 -0.0035230538 -0.0052518933 0.18541121
000060 50 06 d2 bd 92 3e 8c 3e 16 5b 84 bc b1 47 9e bd
       -0.1025511 0.27391487 -0.016156714 -0.07728518
000070 81 4c 86 bd bf 9b ac bc ed 49 26 3d 70 ac ca 3d
       -0.06557561 -0.02107036 0.040597845 0.09896171
000080 60 94 e4 3d 5c 2a 2c bd b9 a0 9b 3d a6 a5 63 3e
       0.11161113 -0.042032585 0.07599015 0.22231159
000090 7c 61 79 3d fa c6 41 3e 6a f5 58 bd 3e 48 3e 3e
       0.060883984 0.1892356 -0.05296842 0.18582246
0000a0 dc 2f 93 bd 3c 57 64 3d 14 95 12 3c 4a 3a 68 bd
       -0.07186863 0.055747256 0.008946676 -0.056696214
0000b0 8b 41 2e 3e 02 b0 2a bc 7a e5 1f 3e 2c 19 64 3d
       0.1701719 -0.01041794 0.15614882 0.05568807
0000c0 c7 ac db 3b 36 b8 20 3d 86 17 14 bd 5d 49 07 be
       0.0067039463 0.039238177 -0.036155246 -0.1321158
0000d0 29 58 84 3d dc e8 1b 3e 2d 22 89 3d b1 45 f1 bd
       0.06462128 0.15225548 0.06695972 -0.11780871
0000e0 37 07 e2 3c d2 74 10 3c e8 dd e8 3d 9a d4 92 bd
       0.02759133 0.008816915 0.1137045 -0.07169457
0000f0 57 51 dc 3d 54 a3 90 3d 8d 91 c0 bd 72 4a 87 3d
       0.10757702 0.07062402 -0.094027616 0.06605996

joint_model.model.2.0.weight f4 [64, 64]
000000 3d 5c e7 3d a4 be 36 3e 62 06 0d be 10 6b c7 3d
       0.1129689 0.17846161 -0.13771966 0.097372174
000010 f3 82 95 bd 77 d5 44 bd d0 85 1a be 40 4d 23 3e
       -0.07300367 -0.04805514 -0.15090108 0.15947437
000020 60 bb d8 bc 22 62 08 3e 7d 71 1e 3d 51 e3 1a 3e
       -0.026456535 0.13318685 0.03868245 0.15125777
000030 26 a6 8b 3d d7 5f 54 be d8 25 33 3e 9c d5 28 bc
       0.068188 -0.20739685 0.17494905 -0.010304835
000040 81 75 25 be 54 ac e4 3d fe 8b ee 3c 9c 90 ce bd
       -0.16158105 0.111656815 0.029119488 -0.10086176
000050 e2 a9 85 3d 7a 1e 86 bd 6c 85 67 bd d5 b8 ac bd
       0.06526543 -0.06548782 -0.056523725 -0.084336914
000060 65 27 60 3b a1 19 c0 3d 74 cc be bd b5 d9 59 3e
       0.0034203168 0.09379888 -0.0931634 0.21274455
000070 72 58 8c bd 69 7d 16 3d 7e 71 0e 3e 8c 13 c5 3d
       -0.06852807 0.036740694 0.13910481 0.09622869
000080 68 8c 86 bc ff 8a 0c bc 80 25 93 bb 15 ab 34 3d
       -0.016424373 -0.008578061 -0.0044905543 0.04410847
000090 d1 18 dd bc cf 55 a9 bd da 42 bc bc 92 df dd 3d
       -0.026989372 -0.0826832 -0.022981096 0.10833658
0000a0 ca 9c 34 bd 9d 41 ab bb 93 85 80 be 0e 3e 9c 3d
       -0.04409484 -0.0052263276 -0.2510191 0.076290235
0000b0 7b 9f b1 bd 5b 5a 10 be 29 c7 fa 3d 52 7a 8e 3c
       -0.086729966 -0.14096968 0.12245018 0.017392311
0000c0 4e e3 e9 bd 50 04 5d be 6d 1f 20 bc 71 40 32 3e
       -0.11420308 -0.21583676 -0.0097731175 0.17407395
0000d0 28 e5 a3 3d 8a ea e1 3d 8c 50 bc bd ea 82 dc bd
       0.080026925 0.11031063 -0.091950506 -0.107671574
0000e0 c7 ca 96 bc f1 c7 00 bd 49 cc 40 3d 79 6e ce bd
       -0.018407239 -0.03144068 0.04706982 -0.10079665
0000f0 29 7a 92 3d 1b a6 69 bd b2 96 47 3c 85 d6 0f 3e
       0.071522065 -0.057043176 0.012181925 0.14046676
000100 55 31 33 bd fc 03 51 bd 9b 71 f6 3d 49 6e a9 3d
       -0.04374822 -0.05102919 0.12033387 0.08272988
000110 3d 6c e1 bd c5 18 4c 3c a2 26 e9 bd 64 a7 e0 3d
       -0.11006973 0.012457077 -0.11384322 0.10969427
000120 54 9f 8d 3c f3 c5 42 be 3a ca 0f bd 13 51 16 3c
       0.017287888 -0.19020824 -0.035104968 0.009174603
000130 46 c7 9d 3d 27 c0 38 3b b7 45 53 3d 1f 79 89 bd
       0.07704024 0.0028190704 0.051580157 -0.06712555
000140 35 93 4f 3d f1 4a fd bd 07 7f 87 3d c8 39 53 3d
       0.050677497 -0.123678096 0.066160254 0.051568776
000150 15 ad ad 3d c3 e1 b0 3d e2 e5 31 3d f3 90 ed bd
       0.084802784 0.08636811 0.043432124 -0.115999125
000160 f2 95 27 be f6 73 99 bd 54 f0 1c 3e 65 3c 02 be
       -0.16365793 -0.07492821 0.15326053 -0.12718351
000170 11 e4 a4 3d 8c e4 48 bc 4d 69 6b 3b af 82 f1 3d
       0.08051313 -0.012261521 0.0035920918 0.11792504
000180 cc 71 28 3d a3 95 e2 3d cd 2f 62 3d 6b 44 63 bd
       0.04112415 0.11063697 0.055221368 -0.05548517
000190 b8 15 0a be 41 73 0a be 11 d4 c1 3d c0 dd bd bd
       -0.13484848 -0.13520528 0.094642766 -0.09270811
0001a0 54 7d dd bd 9e 0a 10 3d 53 6b 2d 3e 3e 86 34 be
       -0.1081492 0.035166375 0.16935472 -0.17629334
0001b0 3a 74 15 be ec 92 9a 3d d0 09 a0 bd 81 2b af bd
       -0.14595118 0.075475544 -0.078143716 -0.085532196
0001c0 cb f9 c6 3d 8d 64 18 be 2a f0 07 bd 16 3e 2a 3d
       0.09715613 -0.14882107 -0.033188023 0.041563116
0001d0 6a a5 97 3d 80 fb 05 3c 33 3f 81 bc 3a 98 f4 bb
       0.07404597 0.008177638 -0.015777206 -0.007464436
0001e0 05 12 c1 3d 24 b2 c6 bd ad 99 06 be 02 b4 17 3e
       0.09427265 -0.097019464 -0.1314456 0.14814761
0001f0 f2 ed 06 be 94 2a bd 3d 2e ce 7b 3d 8d ae a2 bd
       -0.13176706 0.09236637 0.061475925 -0.07943449
000200 b7 30 9b 3d db ff d1 3b 3e b8 60 3d b4 f4 c8 bd
       0.07577651 0.006408674 0.054863207 -0.098122984
000210 0c fd e2 3c 0e 8b 5d bd c7 3f 31 3e 31 d8 a0 bb
       0.027708553 -0.05408769 0.17309485 -0.0049085845
000220 97 88 a3 bd e2 8d f0 3d f5 a4 30 3e 90 d9 c8 3d
       -0.07985037 0.11745812 0.17250426 0.09807122
000230 e8 ee 42 3d 37 6d 83 3d 99 06 d4 bd 62 46 92 3d
       0.04759112 0.064173155 -0.10352821 0.07142331
000240 bd 98 9c bd bb a8 a1 bd e7 de d2 bd 59 bb 17 be
       -0.0764632 -0.07893511 -0.102964215 -0.14817561
000250 ac 3b c1 bd d2 29 32 bc ba 4c 24 bd db bf 7f 3d
       -0.0943521 -0.010874229 -0.040112235 0.062438827
000260 7d e2 fa 3d 60 a0 34 3d c2 8f 05 be e7 bd 4f 3b
       0.122502305 0.044098258 -0.1304312 0.0031698884
000270 8f 28 66 3d dc 34 84 3d 41 f7 30 3e 75 cd 6b bd
       0.056191023 0.064553946 0.1728182 -0.057568986
000280 2e 68 c4 3d 36 29 e6 3d e1 a0 5b bc 92 f8 fc 3d
       0.09590183 0.11238329 -0.013405056 0.123520985
000290 41 c2 a5 bd 88 43 86 bd b6 f7 ba bd 60 f3 af 3d
       -0.080936916 -0.06555849 -0.09129278 0.08591342
0002a0 d0 2b 2c be 7b 6a 6d 3d dd dc 3b be d9 13 dd 3d
       -0.16813588 0.057962876 -0.18345971 0.10794801
0002b0 aa c0 1f 3e e0 6e 3a bd 29 76 95 bd 3a 4e dc bd
       0.1560084 -0.045515895 -0.07297928 -0.10757108
0002c0 0f ff 94 bd ff a3 42 3d c4 69 12 bd 42 e6 07 3e
       -0.07275211 0.04751968 -0.035745397 0.1327143
0002d0 59 68 c4 3d 72 76 eb 3c 3e 96 d6 bb 03 d3 80 3d
       0.09590215 0.028743003 -0.006548672 0.06290247
0002e0 94 11 1b bd d9 01 99 3c c1 11 51 3e 7d 2e 87 bd
       -0.03785856 0.018677639 0.20416929 -0.06600664
0002f0 ae 2f 8b 3c 27 1a cb bd 76 f9 39 bd 03 5f 0e 3d
       0.016990509 -0.099170975 -0.04540392 0.03475858
000300 ba 76 21 be 48 cf 8d 3d d7 e3 11 3e d3 b7 70 3d
       -0.15767947 0.069243014 0.1424707 0.05876906
000310 b5 5e 0a 3e 71 45 74 3d ca 74 02 3e 06 49 42 3d
       0.1351269 0.059636537 0.12739864 0.04743292
000320 2e 2b 2c 3d e2 12 6f be 54 49 b1 3d e6 e2 d2 3d
       0.042033367 -0.23347047 0.08656564 0.10297184
000330 36 37 0c be 48 50 0e 3e f9 56 71 be 3d 9e f4 3d
       -0.13692936 0.13897812 -0.23568334 0.11944244
000340 4d f1 c9 3d 19 2c 46 be c6 87 9a 3d 9f 1d f9 3d
       0.098604776 -0.1935276 0.07545428 0.12163853
000350 4e a2 61 bd b4 52 16 bc 0f 3e 9d bc a1 ec 04 be
       -0.055086426 -0.009174991 -0.01919463 -0.12980892
000360 ea e6 41 bd 11 e6 f7 bd cf 20 1b be d6 8e 8e bc
       -0.047339357 -0.121044286 -0.15149234 -0.017402094
000370 a7 2e 0d 3e 2f 07 a8 3d 15 42 4d 3e 42 05 4e 3d
       0.13787328 0.08204495 0.2004474 0.050297983
000380 7e e6 18 3d d5 88 07 3d 90 46 97 bd 2e f7 94 bd
       0.03732919 0.033089478 -0.073865056 -0.07273708
000390 7d ae 9f bc f4 4d 40 bd a7 60 14 3d 92 2b 89 3d
       -0.019492382 -0.046949342 0.036224987 0.066977635
0003a0 ee b1 60 39 7a 1f 9e 3d 83 c7 d1 3c ab d5 54 be
       0.00021428589 0.077208474 0.02560783 -0.20784633
0003b0 ec 62 c2 bc c7 4a 10 3d 4a 3a 46 3c 27 c9 00 3e
       -0.02372881 0.035227563 0.012098858 0.12576734
0003c0 43 91 dc 3b 4f 04 f2 3d fd 92 d8 bd 67 2c 70 be
       0.0067311837 0.11817228 -0.10574911 -0.23454438
0003d0 b6 91 00 3e 42 6a b4 3d 67 7f 3c 3b b0 35 b1 3d
       0.12555584 0.088093296 0.002876246 0.08652818
0003e0 09 cd 9b bd ad 6e 36 bd 87 83 da 3d c7 77 ff bc
       -0.07607467 -0.044539142 0.10669618 -0.031185044
0003f0 5e 05 1c bd 46 a0 27 3d d2 a9 6a 3d 4c 24 f2 bd
       -0.038091056 0.040924333 0.05729086 -0.11823329

joint_model.model.2.0.bias f4 [64]
000000 a5 2c 71 3e f8 cf 4f 3d 79 ec dc bb e6 49 fa 3d
       0.23552187 0.050735444 -0.006742057 0.12221126
000010 5f 9b 6a 3e 87 34 d9 3d fc d8 84 bb 41 ac b4 3d
       0.22910832 0.10605722 -0.004054187 0.08821917
000020 88 7a 8d 3b 08 a2 6d 3d a2 8c 02 bd 24 e4 10 3e
       0.0043175854 0.058015853 -0.0318724 0.14149529
000030 92 25 1c 3e 42 7d 19 3e 29 31 52 3e 3e 44 00 be
       0.15248707 0.14989188 0.20526566 -0.12526032
000040 1c f5 5a 3e 5f 9a f1 3d 78 13 cc bd 49 3d 97 3c
       0.21382564 0.11797022 -0.09964651 0.01846184
000050 90 da 2c bd cb 84 5e 3e d2 66 5a 3d d9 98 3c 3e
       -0.042200625 0.21730344 0.053320713 0.18417682
000060 fe 3e 12 3e 1b 7f d7 3d 02 8f 8a 3e f0 63 24 3e
       0.14281842 0.1052229 0.2706223 0.16053748
000070 71 4e 04 3e 75 82 cf 3d 66 d0 96 3c 52 95 6e 3e
       0.12920548 0.101323046 0.018409919 0.23299149
000080 b5 1e 77 3e 4e 0d 17 3e f5 4a c7 bd 77 11 69 3e
       0.24132808 0.14751169 -0.09731094 0.22760569
000090 c3 3c da bd ef a5 6b 3e 00 87 b1 bb d3 2f 0c 3e
       -0.10656121 0.23012517 -0.0054177046 0.13690118
0000a0 4c 6f 03 be fb 22 8a 3e ef 5f a0 3d 32 67 39 bd
       -0.12835425 0.26979813 0.07830798 -0.04526443
0000b0 51 70 a6 3d 69 4f 16 3e e8 96 db bd 22 a1 82 3c
       0.081268914 0.1467873 -0.107221425 0.015945975
0000c0 bf 38 8c 3e a3 6a ce bd 9e 6c 7d 3e 2b e5 ea bc
       0.27387044 -0.10078933 0.24748465 -0.028673729
0000d0 bc f3 bb 3c 64 bb ad bd 1f 0a d3 bd fc 45 b1 3d
       0.02294337 -0.084830076 -0.10304665 0.086559266
0000e0 a4 9f 77 bd 84 f8 a8 3d 51 f0 7f 3d a1 c9 0f 3e
       -0.06045498 0.082505256 0.062485043 0.14041759
0000f0 21 bc b0 bd f8 e6 e6 3d b5 7f 3e 3e 87 f2 21 3d
       -0.08629633 0.112745225 0.18603404 0.039537933
