results_pis_architectures/many_well/langevin_clipping_lgv_100.0_gfn_10000.0_gfn/fwd/fwd_pis/T_100/tscale_1.0/lvr_4.0/seed_12345/model_final.pt (torch, 184646 bytes, 23 tensors)

t_model.timestep_phase f4 [1, 64]
000000 2d 79 5b bf f7 5d a1 3e 38 3e 06 3f 8b db 23 be
       -0.85731775 0.31517002 0.5243869 -0.16001718
000010 16 82 d4 be ac fd 9f bd d7 68 28 3f cd 11 1a 3f
       -0.41505498 -0.07812056 0.6578497 0.6018341
000020 a3 86 4b bf 92 3b 6b 3d 1d e7 26 3f 78 f7 13 3f
       -0.79502314 0.057429858 0.651964 0.5779948
000030 02 56 b3 be 24 5c 5a bf e1 4f 49 3f 39 aa 41 bf
       -0.35026556 -0.85296845 0.7863751 -0.75650364
000040 f8 37 55 bf bd 90 07 bf ad 65 48 bf ec 18 e6 bf
       -0.83288527 -0.5295523 -0.78280145 -1.7976356
000050 ee 63 60 3f c0 8e 96 3f ee 81 77 3f e6 d9 00 bd
       0.8765248 1.1762314 0.9668263 -0.031457804
000060 c1 73 c9 3e 27 85 8c bf 32 d5 4e 3f ec f3 8e 3e
       0.39346126 -1.0978135 0.8079406 0.27920473
000070 da 50 06 40 30 2a 39 40 05 1b 42 3e 2c 1c 3c bf
       2.0986848 2.8932 0.1895562 -0.73480487
000080 f9 b5 42 3f 15 8c 8e 3f 4d bc 54 bf c5 a2 44 3f
       0.7605892 1.11365 -0.83099824 0.76810867
000090 3f b8 75 3f d4 f1 08 3f 56 02 01 40 fa 92 e7 bf
       0.9598426 0.53494 2.0157676 -1.8091729
0000a0 be 08 ae 3e 00 38 a1 bf 98 de 50 bf db 52 12 3e
       0.33991045 -1.2595215 -0.8158965 0.1428942
0000b0 97 8f d8 3f d5 b4 89 be 99 79 1a 3f 0f c8 6f 3e
       1.691882 -0.26895776 0.60341793 0.2341616
0000c0 da bc 97 3c 94 8a 13 bf 15 70 2a 3f a1 18 c0 3f
       0.018522669 -0.5763333 0.66577274 1.5007516
0000d0 75 14 4d 3f 85 5d 43 be 69 65 70 3e aa 9b db bd
       0.8010934 -0.19078644 0.23476185 -0.1072305
0000e0 b7 89 3f 3f 54 1c a5 bf ae c1 4b bf b9 27 52 bf
       0.7481951 -1.289927 -0.79592407 -0.8209186
0000f0 69 98 e8 be a9 ed db be 0d 57 87 be 3f ba 55 3f
       -0.4542878 -0.42954758 -0.26433602 0.83487314

t_model.pe f4 [1, 64]
000000 cd cc cc 3d 7d c5 d7 3f 16 5f 51 40 b7 6d 9b 40
       0.1 1.6857144 3.2714286 4.857143
000010 e3 2b ce 40 08 75 00 41 1e d4 19 41 34 33 33 41
       6.4428573 8.028572 9.614286 11.200001
000020 4a 92 4c 41 60 f1 65 41 76 50 7f 41 c6 57 8c 41
       12.785715 14.371429 15.957144 17.542858
000030 51 07 99 41 dc b6 a5 41 67 66 b2 41 f2 15 bf 41
       19.128572 20.714287 22.300001 23.885715
000040 7d c5 cb 41 08 75 d8 41 93 24 e5 41 1e d4 f1 41
       25.47143 27.057144 28.642859 30.228573
000050 a9 83 fe 41 9a 99 05 42 5f f1 0b 42 25 49 12 42
       31.814287 33.4 34.985714 36.57143
000060 ea a0 18 42 b0 f8 1e 42 75 50 25 42 3b a8 2b 42
       38.157143 39.74286 41.32857 42.914288
000070 00 00 32 42 c6 57 38 42 8b af 3e 42 51 07 45 42
       44.5 46.085716 47.67143 49.257145
000080 16 5f 4b 42 db b6 51 42 a0 0e 58 42 66 66 5e 42
       50.842857 52.42857 54.014282 55.6
000090 2c be 64 42 f1 15 6b 42 b6 6d 71 42 7c c5 77 42
       57.185715 58.771427 60.35714 61.942856
0000a0 42 1d 7e 42 84 3a 82 42 66 66 85 42 49 92 88 42
       63.528572 65.11429 66.7 68.28571
0000b0 2c be 8b 42 0e ea 8e 42 f1 15 92 42 d4 41 95 42
       69.87143 71.45714 73.042854 74.62857
0000c0 b7 6d 98 42 9a 99 9b 42 7c c5 9e 42 5f f1 a1 42
       76.21429 77.8 79.38571 80.97143
0000d0 42 1d a5 42 24 49 a8 42 07 75 ab 42 ea a0 ae 42
       82.557144 84.14285 85.72857 87.314285
0000e0 cd cc b1 42 b0 f8 b4 42 92 24 b8 42 75 50 bb 42
       88.9 90.48572 92.07143 93.65714
0000f0 58 7c be 42 3a a8 c1 42 1d d4 c4 42 00 00 c8 42
       95.24286 96.82857 98.41428 100.0

t_model.t_model.0.weight f4 [64, 128]
000000 2a cb f4 bc 3d 76 95 bd 2e d8 d9 3c 15 b9 97 3c
       -0.029882032 -0.07297943 0.02659234 0.018520871
000010 cb 27 18 be 05 eb 82 3d 18 58 79 3b 1a 54 b1 bc
       -0.1485893 0.06392483 0.0038046893 -0.021646548
000020 bb 2e bf bd b2 a1 4f 3d 1e 65 70 3d 62 56 1f 3d
       -0.09335085 0.050691314 0.058690183 0.03890074
000030 f3 00 74 bb 91 5b 4a 3d 22 21 92 bd ff b1 4e bd
       -0.003723201 0.04940373 -0.07135226 -0.05046272
000040 bc c9 d3 bc 45 7a b8 bd 8f 2f f0 3d ff 29 1b 3c
       -0.02585303 -0.09007696 0.11727821 0.009470462
000050 d1 4e 03 be 84 60 6d 3d 10 b9 07 3d 63 ca 9a bd
       -0.12823035 0.057953373 0.033135474 -0.075581335
000060 7b 91 5a bd 51 05 cf bd 59 ee b0 3c df 2f ec bc
       -0.053361397 -0.10108436 0.021598028 -0.02883142
000070 4d c3 99 3b 07 d9 9d 3d 73 a3 87 bc 84 49 0f bd
       0.004692471 0.0770741 -0.01655743 -0.03498222
000080 f6 87 c6 bb 7d 74 95 3d e6 97 63 3d 12 3c ae 3c
       -0.0060586883 0.07297609 0.055564784 0.021268878
000090 24 3f 4a 3d c5 f6 98 3d bd 37 87 3d cc 34 89 3d
       0.04937662 0.074689426 0.06602428 0.06699523
0000a0 af ef 18 3c 68 22 99 3b e3 b8 5a 3d c5 f6 14 3d
       0.009334489 0.004673291 0.053398978 0.03636815
0000b0 50 2b de 3d e6 b6 7a bd f8 e8 47 bd 4d 4f 32 3a
       0.10848105 -0.06120958 -0.04880616 0.0006801978
0000c0 ab 2c ac 3c 02 ff 3d bd 06 c4 9c 3d 74 c5 83 3d
       0.021017393 -0.046385773 0.07654576 0.064341456
0000d0 b9 6a aa 3c e8 62 c7 3d 57 4c 74 bd b9 08 ae bd
       0.020802842 0.09735662 -0.059643116 -0.084977575
0000e0 2f f8 86 3d 5e c4 d2 bd 46 44 90 3d a4 21 92 3b
       0.06590306 -0.1029136 0.07044272 0.0044595767
0000f0 76 ea b4 bd 98 23 38 3c a9 b9 64 3b 5c a0 b2 bd
       -0.088337824 0.011238955 0.00349007 -0.087219924
000100 57 d8 90 bc 2f 52 3e 3d 3f 0d 9f bd 74 8f dc bd
       -0.017681284 0.046465095 -0.07766198 -0.10769549
000110 e3 c3 6c 3d ef 0c 3d 3c 84 e5 74 bd fb 39 24 3c
       0.057804 0.011538728 -0.059789196 0.010023589
000120 5c a6 80 bd 49 29 81 3d 93 a4 d6 bd e6 e1 4c 3d
       -0.062817305 0.06306703 -0.10480609 0.05002012
000130 c1 ec 4d 3d 30 c2 92 3a eb ee c1 bd 20 0c d0 bd
       0.050274614 0.0011196788 -0.09469398 -0.10158563
000140 8e ec c2 bc 69 8a d7 3d d7 97 be 3d 88 58 48 3d
       -0.023794439 0.105244465 0.09306305 0.048912555
000150 2c 25 25 bd 9d 3d b0 3c 8f 03 39 bd 8d 67 91 bd
       -0.040318653 0.021513755 -0.04516941 -0.07099829
000160 b8 0a c0 bc e1 9f 7f 3d b0 e6 30 bd 24 44 84 bd
       -0.023442611 0.06240833 -0.04318875 -0.06458309
000170 8d 63 a7 bd fe a8 a4 3c a4 d8 43 3d a0 cb 88 bd
       -0.08173285 0.020100113 0.047814026 -0.066794634
000180 d7 a1 0b 3c f8 56 72 3d 83 6e 37 3c 36 9b 77 3d
       0.008522472 0.05916497 0.011195782 0.060450755
000190 6a 3e 1b bd 36 f4 37 3d 10 9e 8e 3d 9e 5a 47 3d
       -0.03790132 0.044910632 0.06963742 0.048670404
0001a0 b5 71 aa 3d 45 79 a6 3d c9 bd 07 3b 5a ff 43 bd
       0.08322469 0.08128599 0.0020712486 -0.047850944
0001b0 d6 26 18 3d 61 5a f1 3d 0e 38 73 bd f4 41 6f bd
       0.03714641 0.117848165 -0.05937963 -0.058412507
0001c0 63 98 e0 bb 33 66 f7 3c 4c 9a 57 3d 08 84 ab 3d
       -0.0068541034 0.0302001 0.052637383 0.08374792
0001d0 26 1e 56 3d 9b a5 73 3c 44 52 6c bd ef 24 2b 3d
       0.052274846 0.014871026 -0.057695642 0.04178327
0001e0 52 e0 82 3d 4d bc 8e 3c 5c 75 2e bd 4c 31 c3 bd
       0.06390442 0.017423773 -0.04259239 -0.09530887
0001f0 31 bc 11 3c c6 67 53 bc 66 1f 13 3d fc bf d1 3a
       0.008894966 -0.0129031595 0.035918616 0.001600265
000200 a9 3a 05 3c d3 54 0e 3d 87 af 86 bd 84 5e f2 bd
       0.008131661 0.034748863 -0.06576448 -0.11834434
000210 ad 75 fd bc 7d 53 92 bc 43 4b 9f 3d a7 8c b3 bc
       -0.030939901 -0.017862076 0.07778027 -0.021917654
000220 4c ad 24 bc be 4e 97 bc 24 f9 f6 3c aa 10 ed 3c
       -0.010051083 -0.018470164 0.030148096 0.02893861
000230 03 33 e6 bb 96 29 79 bb 2f 4b a5 bc 8d 16 9b 3b
       -0.007025124 -0.0038019172 -0.020177452 0.004732913
000240 17 b2 46 3c a0 97 81 bd 99 4e b0 3c ae cf be bd
       0.012127421 -0.06327748 0.021521853 -0.093169555
000250 45 8f 79 3d b2 15 97 bd 26 b2 33 bd 00 b3 71 bc
       0.060927648 -0.07377185 -0.043871067 -0.01475215
000260 7b 1f ac bc 7d 9f 45 3c d1 d3 e0 bd 96 83 c0 bd
       -0.021011105 0.012061951 -0.10977901 -0.09400098
000270 c3 e6 63 3d a2 7a d3 bd f9 7a 1f 3d 22 84 67 bd
       0.055639993 -0.10326125 0.038935635 -0.056522496
000280 81 9a f2 3b 1b ce 62 bd b6 2f e5 3d 3b da cd 3c
       0.007403672 -0.05537234 0.11190741 0.025128474
000290 8c 0b de 3d 96 8d c5 3d 9e 1a 30 bd b6 30 f4 3d
       0.10842046 0.09646146 -0.042994134 0.119233534
0002a0 7b 89 de bd f0 51 c8 bd cd 5b 56 3d c6 5c bc 3c
       -0.10866066 -0.09781253 0.05233364 0.022993457
0002b0 9f d1 be bd c1 86 26 bd f5 42 b0 3d e8 e1 89 3d
       -0.09317326 -0.040655855 0.08606521 0.06732541
0002c0 c9 1a 7c 3d bc ca 1f 3d 0d 54 98 bd 48 20 d1 3d
       0.06154898 0.039011702 -0.074379064 0.10211235
0002d0 60 53 94 3d b7 5f 9e 3d 76 de 9b bd 25 ce 4a bd
       0.07242465 0.077331 -0.076107904 -0.049513
0002e0 1c 3a f9 3d 6d 2a 9b 3c 62 0f d5 3b f9 80 20 bd
       0.121692866 0.018941129 0.006502078 -0.039185498
0002f0 4c 7f d3 bd 1b 0a 5f bd fa 80 31 bd d1 df 20 bd
       -0.10327014 -0.054452997 -0.043335892 -0.039275948
000300 0c 6f 39 bc 8d 6b 68 bd 72 42 a5 bc 1c 61 6c bd
       -0.01131798 -0.056743193 -0.020173285 -0.0577098
000310 0c 6a 88 3d 5e 2e a8 3d a8 09 97 3d 10 33 68 bd
       0.06660852 0.08211969 0.07374889 -0.056689322
000320 1c 8b d7 bb c0 01 b2 3b d0 f3 92 3d 65 e4 ea 3c
       -0.0065778624 0.0054323375 0.0717541 0.02867336
000330 d4 6c 9c 3d 47 32 1c 3d ac 1c 59 3d a8 2c 81 bc
       0.07637945 0.038133886 0.05300586 -0.015768364
000340 dd 7c 80 3d 4d 8f 1b bd 18 30 58 bd a4 86 01 3d
       0.06273816 -0.03797846 -0.05278024 0.031622544
000350 24 93 55 3d d7 f9 d0 bd 1b 88 16 3d f2 b1 c6 3d
       0.052142277 -0.10203903 0.036750894 0.09701909
000360 df 36 ec 3d f4 90 c1 3d 7b 7a 58 bc d9 b7 fe bc
       0.11533903 0.09451476 -0.013212795 -0.031093525
000370 13 c7 b6 3d 28 5c 88 bd 2c 21 d2 bd 70 a5 f6 bd
       0.08924689 -0.066582024 -0.10260233 -0.120432734
000380 b7 a8 18 bd e2 da 40 bd e0 ad 11 bd e8 08 85 bd
       -0.037270274 -0.047083743 -0.03556621 -0.06495839
000390 27 3d ac 3c 52 4e d2 3d db 02 8b bd 1b 0c 8b bd
       0.021025253 0.10268845 -0.06787654 -0.06789418
0003a0 dc fe d8 3d 25 9a cb 3c 75 c1 29 bb c1 c5 07 be
       0.105954856 0.024853775 -0.0025902663 -0.13259031
0003b0 29 25 ad 3d 3a d6 06 bd 81 55 a4 3d a4 88 b8 bd
       0.08454353 -0.032919146 0.08024121 -0.09010437
0003c0 00 89 20 bd 27 cf 8c bc 87 cb dd 3d 30 f4 a3 3c
       -0.039193153 -0.017188622 0.108298354 0.020013899
0003d0 81 c2 94 bd 62 b5 ac bd 43 54 40 bd 43 94 80 3d
       -0.07263661 -0.084330335 -0.04695536 0.06278279
0003e0 20 55 f9 3d f1 ed e4 3c 59 6c aa bd 38 9f bc ba
       0.121744394 0.02794549 -0.08321447 -0.0014390713
0003f0 38 e2 1d bc ec 02 86 3d f0 2c a2 bd a1 13 b0 bc
       -0.009636454 0.06543526 -0.079187274 -0.021493735

t_model.t_model.0.bias f4 [64]
000000 da b9 75 3d ae f4 41 bd b5 5b 9f bd f7 d6 8f 3d
       0.059991695 -0.047352485 -0.077811636 0.07023423
000010 c6 78 b8 3c de 0c 8f bd 63 85 08 bd 6d 46 18 bd
       0.022518527 -0.06984876 -0.033330332 -0.03717654
000020 5e 3b 56 bd 90 81 da 3c c1 2d d0 3c e7 f6 13 3d
       -0.05230271 0.026673108 0.025412442 0.036124136
000030 b8 3f 80 3c 81 a2 b8 3d 26 c0 1d bd b9 fa aa 3d
       0.015655383 0.0901537 -0.038513325 0.08348603
000040 0c 70 05 bd a5 a4 0e bc 02 4d 3d 3d 2f 37 61 bd
       -0.03257756 -0.0087062465 0.04621602 -0.054984268
000050 26 7e 83 bb ca 35 80 3d cf 50 59 3c 06 fc c7 bc
       -0.004012841 0.062602594 0.013263895 -0.024412166
000060 6d ca 18 3d 04 79 81 3b 48 fe d6 3c 6b 75 9f 3d
       0.037302423 0.0039511938 0.026244298 0.077860676
000070 e6 53 8d bd 95 33 5f 3d 32 0d 1b 3d 72 7b 3b bd
       -0.06900768 0.05449255 0.03785438 -0.045772023
000080 b4 77 b9 3d 5c 3a 22 3d 61 fa 8d 3d 4b 6d 84 3d
       0.09056035 0.039606437 0.069325216 0.064661585
000090 7a 22 5d bd e7 40 95 bd c9 0c 3c bd 02 3e 8f 3d
       -0.053987958 -0.0728777 -0.04591063 0.06994249
0000a0 2e fa a0 3d 2d 00 0d bd bf c8 b2 bd 66 60 bf 3c
       0.07860218 -0.034423996 -0.087296955 0.023361396
0000b0 f8 91 bb 39 c4 0f be 3b 38 2b 89 3d a9 52 ff 3c
       0.00035776175 0.0058002193 0.066976964 0.031167345
0000c0 0c 28 20 3d 24 63 00 bd 26 e3 e3 bc 38 f7 17 3d
       0.03910069 -0.031344548 -0.027818274 0.037101
0000d0 d5 d0 42 3c 97 63 e9 3a 99 d2 a8 3d eb fa b3 bd
       0.01189061 0.0017806169 0.08243293 -0.08788093
0000e0 17 3e 0f bd ec 2c b9 bc 8b d6 bc 3d 27 9d 01 bd
       -0.034971323 -0.022604428 0.09220608 -0.031644013
0000f0 c7 c5 a5 3d 36 9a 8e 3d 90 a3 93 bd 20 82 7d bc
       0.08094364 0.06963007 -0.072089314 -0.015472919

t_model.t_model.2.weight f4 [64, 64]
000000 54 c5 d3 3d aa 63 bd 3c 3e b9 8c bd 90 5f 94 3d
       0.10340372 0.023118813 -0.0687127 0.072447896
000010 0d cf e2 3d de 67 57 bd f0 4e 1c 3e fe 8a e1 3d
       0.11074648 -0.05258929 0.15264487 0.11012839
000020 38 04 ac 3c ef e2 a3 bd 5a 9e 0b 3d ae a0 93 3c
       0.020998105 -0.080022685 0.034086563 0.018020954
000030 4e 17 bb 3d 12 17 88 3c 8c d5 ef 3d c4 97 4f bd
       0.091353044 0.016612563 0.11710653 -0.050681844
000040 18 2b 88 bd 7d 7e b2 3d ea 36 07 3d b0 4c b5 3c
       -0.066488445 0.08715532 0.033011355 0.022131294
000050 ca 75 15 3d fc d1 90 bd d5 90 4b 3d b5 4e 8b 3b
       0.036489286 -0.07071301 0.04969867 0.004251326
000060 f2 20 8f bd 45 b5 cd 3d 8b fd 7e bd e5 52 cb bd
       -0.06988706 0.1004434 -0.062253516 -0.0992792
000070 e9 e4 09 bd bf 08 6c 3d 13 26 cf 3d 55 d8 21 bc
       -0.03366557 0.05762553 0.10114684 -0.009878238
000080 cf 1a 3b bd 55 5b 1f bd 5d 44 f1 bd 49 c2 00 3e
       -0.045679864 -0.03890546 -0.117806174 0.12574114
000090 a5 ff 15 3e ba a7 60 3d 6e 2a 0a 3e 6a b1 e7 3d
       0.14648302 0.054847457 0.13492748 0.11313136
0000a0 0b ac 32 3d 19 a8 8f bd 0e 2b 79 bd 09 5e 0f 3e
       0.043621104 -0.07014484 -0.060832076 0.14000715
0000b0 ce fa 29 3e 2c 1c 4d 3d 2e 79 bc 3d 06 3f 82 bd
       0.1659958 0.050075695 0.09202801 -0.06359677
0000c0 eb 25 ba 3d 0e ab 5a bd df a2 32 3d 28 72 f4 3d
       0.090892635 -0.053385787 0.043612357 0.11935836
0000d0 d6 f1 de 3c d5 cd 0b 3d 8d ad ef bc a3 e8 01 be
       0.027214926 0.034131844 -0.02925756 -0.126864
0000e0 40 49 22 3e e5 da c9 3b 0e 71 20 3d 69 5b 02 3d
       0.15848255 0.0061601275 0.039170317 0.031825457
0000f0 40 43 fb bc 6c 15 f2 bb 3b 75 81 bd 72 f8 e9 3d
       -0.030671716 -0.0073878076 -0.06321188 0.1142434
000100 f4 39 b2 3d ba 51 de bd 51 32 65 bd 9f ab ed 3c
       0.0870246 -0.10855432 -0.05595619 0.0290125
000110 42 f9 08 3c 12 2c 38 bd 84 6a 42 3c 37 8e 2e 3e
       0.008360209 -0.044963904 0.011866216 0.17046438
000120 fe 9c a2 bd e9 b8 51 3d bb 0c 97 bb 5b d5 27 3d
       -0.079401 0.051201735 -0.004609672 0.040974956
000130 51 73 1d 3e 10 93 91 3d 32 d7 25 bd f3 ce 0b bd
       0.15376021 0.07108128 -0.04048843 -0.03413291
000140 1f f4 9d 3d 31 38 96 3d e6 90 00 3c 5a bf 38 3d
       0.07712578 0.073349364 0.0078470465 0.045104362
000150 76 6f b1 3d 3c 12 44 3d ba 95 60 bc fc fa 0f bd
       0.086638376 0.047868952 -0.013707573 -0.035151467
000160 b3 e7 cb 3d a6 76 64 3d a5 61 c5 bc 4d a0 8f bc
       0.099563025 0.055777214 -0.024094412 -0.017532492
000170 24 1b bb bd b3 6a 14 bd 3b d8 53 bd 5e c1 60 3d
       -0.09136036 -0.03623457 -0.051719885 0.05487191
000180 39 c1 61 bd 09 17 17 3e f8 39 f2 3d 2a 24 13 3e
       -0.055115912 0.14754881 0.11827463 0.14369264
000190 aa 2d 06 3a 02 9c 2c bd 99 d7 37 bd 9b 9e c4 3d
       0.0005118499 -0.04214097 -0.044883344 0.09600564
0001a0 29 37 8c 3d 48 9e d6 bd ec 23 a2 3d 46 a8 ba 3d
       0.068464585 -0.104794085 0.07917008 0.09114127
0001b0 74 75 be 3c c4 6d aa bd 59 78 76 3d 56 6e 73 bc
       0.023249365 -0.083217174 0.060173366 -0.014857849
0001c0 db fb c8 3c 8f 43 e9 bd 11 c1 b6 3d 72 31 88 bc
       0.024534157 -0.11389839 0.08923543 -0.01662514
0001d0 63 30 68 bd eb 6c 28 3e 4d a5 23 3e 76 15 b1 bb
       -0.05668677 0.16447799 0.15981026 -0.0054041697
0001e0 d8 36 83 bd 68 81 9d bd f2 29 0f 3e 9c 52 11 3e
       -0.06406945 -0.07690698 0.13980845 0.14191669
0001f0 11 b2 39 3d e1 f3 0f 3e de f4 92 bb e2 33 06 bd
       0.045335833 0.14057876 -0.004484757 -0.032764323
000200 c9 99 a2 bd 3f 0b 28 bc 17 d6 2f bc db 5e 77 bd
       -0.079394884 -0.0102565875 -0.010732195 -0.060393196
000210 e7 a9 f0 bb 48 ab ee 38 a1 b6 fa 3d 3e 65 3c bd
       -0.0073444727 0.00011380628 0.12241865 -0.04599499
000220 89 72 e6 3d 47 7a 82 3c cc fa cb 3d 48 bb 6f 3d
       0.112523146 0.015927447 0.09959945 0.058528215
000230 38 36 bb bb 20 7c cc bd 81 3e 90 3d 46 7b c5 3d
       -0.0057132505 -0.099846125 0.07043172 0.09642653
000240 72 33 56 3d a1 04 81 3d f1 1a 58 3d 0f 67 ff 3d
       0.052295156 0.06299711 0.05276007 0.12470829
000250 3b 36 3c bd e4 cb c8 bd 68 d3 ac bc e1 df b1 3d
       -0.045950156 -0.09804514 -0.0210969 0.0868528
000260 2a 8f e4 3d ce 88 a2 bd c1 ea 4d 3d 6d d1 d3 3d
       0.11160119 -0.0793625 0.050272707 0.10342679
000270 e0 3d 3d bc 8f 6e 96 bd 3d ee 90 3c 2c d7 dd 3d
       -0.011550397 -0.07345306 0.017691726 0.108320564
000280 59 d3 5c bd da 9d a2 3c a2 58 8c bd 2d 57 54 3c
       -0.053912494 0.01985066 -0.06852843 0.012960237
000290 bf 31 c8 3d c9 83 9b 3d ae bd 7c bd 8f 15 d1 bd
       0.09775113 0.075934954 -0.06170433 -0.1020919
0002a0 c9 26 a2 bd b4 f8 c4 bd 9e fc b4 3d 85 c6 d8 3d
       -0.07917554 -0.09617749 0.088372454 0.105847396
0002b0 13 77 17 3e 8b c9 b7 bd da 64 ce bd d6 9a f6 3d
       0.14791517 -0.08973988 -0.1007783 0.12041251
0002c0 48 2d 9a bc 0b 1f da 3d 63 a1 b6 bd 4b 99 84 bd
       -0.01882042 0.10650452 -0.08917501 -0.06474551
0002d0 35 1e b3 bc 29 6e e0 bc 21 bb a2 bd 0b 3a cd bd
       -0.02186499 -0.027396278 -0.07945848 -0.100208364
0002e0 a9 7d dc 3d ad d3 e1 3d fc 17 2c 3d cf 82 8b 3d
       0.10766155 0.11026702 0.04201506 0.06812059
0002f0 76 a7 03 3d b9 ac 2e 3d c9 11 1e bd 51 8b 41 bd
       0.032142125 0.04264519 -0.03859118 -0.047252003
000300 84 aa 9a bc a5 e1 a5 3c f6 59 34 3c 36 9f 8a bd
       -0.018880136 0.020249197 0.0110077765 -0.06768648
000310 6a 21 8d 3d 8b f5 14 3e 68 e6 aa 3d 5e 12 aa bd
       0.06891139 0.14546792 0.08344728 -0.083042845
000320 12 96 cc 3b 3a 37 04 3e 04 76 df 3d 1c b5 23 3e
       0.0062434757 0.12911692 0.109111816 0.15987056
000330 18 d4 b3 3d ed 02 1b 3e fb 73 a6 3d 03 f2 97 bd
       0.08780688 0.15137835 0.0812759 -0.07419207
000340 e2 67 c3 bd 13 0b 23 bd 8a 1a ab 3c a3 42 38 3d
       -0.095412984 -0.039805483 0.020886678 0.044985425
000350 82 f6 60 3b 6b c4 32 bd a0 29 d0 3d af fb 6f 3d
       0.0034326618 -0.04364435 0.10164189 0.058589634
000360 c4 96 b3 39 1b 21 20 be 67 87 4f bd b6 71 fd 3d
       0.0003425387 -0.15637629 -0.05066624 0.12375204
000370 aa b5 0a 3e 18 cf 01 3e 54 6c 59 3d 39 49 07 bd
       0.13545862 0.12676656 0.053081825 -0.033028815
000380 9b 09 ae bd f4 c9 09 3e d0 a9 1c 3d 40 52 04 3e
       -0.08497926 0.13455945 0.038247883 0.12922001
000390 fe 4c 22 3e 00 2e e9 bd 82 9f 13 3c 99 17 06 3e
       0.15849683 -0.11385727 0.009010198 0.1309494
0003a0 91 bc 38 3c ba e8 a7 3a e9 8a c1 bd 32 aa 85 3a
       0.0112754265 0.0012810447 -0.09450323 0.0010197817
0003b0 df 8a 7c bd 3e 0a c8 3b 0a 03 a8 bc d4 7d 71 bd
       -0.061655875 0.0061047366 -0.020509262 -0.05895789
0003c0 8b 80 3c bd 20 0f 21 3d a7 61 a3 3c 8e 8b cc 3d
       -0.046021026 0.039321065 0.019944025 0.099875554
0003d0 98 06 d1 bd 84 c9 d1 3d 2d 3e ef 3b 9b 55 62 bd
       -0.10206336 0.10243514 0.007301113 -0.05525742
0003e0 05 55 c9 bc 71 26 55 3c 80 de bf 3d 46 e1 ea bd
       -0.024576673 0.013009653 0.093686104 -0.11468749
0003f0 42 5c 92 3c 1d b4 e8 3b e3 12 b8 ba 75 92 51 bb
       0.017866258 0.0071015493 -0.0014043715 -0.0031978164

t_model.t_model.2.bias f4 [64]
000000 5e e9 bf bc ce 86 2a bd c0 af 11 3d 3c d9 25 3c
       -0.023426708 -0.041632466 0.035568 0.0101225935
000010 b2 81 b6 bd 1f 4d 7c 3d 31 7d e0 3c b1 76 d5 3d
       -0.08911456 0.061596986 0.027403446 0.10423029
000020 6b 1b d9 bd 70 26 58 bd 7c ee c8 3d c7 60 1f 3d
       -0.10600933 -0.05277103 0.09811112 0.038910653
000030 63 8a 1d bd dd 1b ff 3c 00 8f 30 bb 84 e4 dc 3d
       -0.038462054 0.031141216 -0.0026940703 0.107857734
000040 c3 01 be 3b d3 f2 2a bd dd a8 44 bc 22 f5 ae bc
       0.00579855 -0.04173548 -0.012003151 -0.021357123
000050 21 c0 f9 bb 50 1d b0 3d 14 81 79 3c b8 13 0a bc
       -0.0076217805 0.08599341 0.0152285285 -0.008427553
000060 32 0c 41 bc 86 34 14 3d 99 f3 1e be c6 4b 5c 3d
       -0.011782693 0.036182903 -0.15522613 0.0537832
000070 8b 87 cc bb 92 68 9e bc b1 04 4c bd 07 47 60 3d
       -0.006241744 -0.019336972 -0.04980916 0.054755237
000080 bc e2 c2 bc 05 81 59 bd ab 6c de 3d c4 75 7c bd
       -0.023789756 -0.05310156 0.108605705 -0.061635748
000090 15 c4 8f bb 71 cc d5 3c 90 d2 40 bd 7e 18 66 3d
       -0.0043873885 0.026098462 -0.047075808 0.0561757
0000a0 6c 2b 15 be 64 dd 6b bc c9 45 c1 3d 4a 00 86 3d
       -0.14567345 -0.014396045 0.094371386 0.06543024
0000b0 8e 13 90 3d c8 c0 07 3d 3a c6 0b 3e 54 a1 2c bb
       0.0703498 0.033142835 0.13649836 -0.0026341276
0000c0 ff de 98 3c 5e e7 db 3d 66 90 6d bd 1f 65 78 3d
       0.01866102 0.10737489 -0.057999037 0.06064331
0000d0 19 8c 4c 3d 18 11 8a bb 0e 75 8e 3b 11 8a 67 bd
       0.049938295 -0.0042134635 0.00434745 -0.056528155
0000e0 88 ed da 3d b1 c4 dd bc 11 38 00 3e d9 ca fc 3d
       0.10689837 -0.027071329 0.12521388 0.123433776
0000f0 1a 07 11 3e 7f 3b e8 3d 0b bc b9 3d 61 c9 92 3d
       0.14162865 0.11339473 0.090690695 0.07167316

s_model.x_model.weight f4 [64, 32]
000000 89 63 ee 3d 07 ec de bd f8 05 5b 3e 99 22 a1 bd
       0.116400786 -0.108848624 0.21388996 -0.07867927
000010 0d 1d fd 3d 96 f6 ee 3d dc a7 c5 bd 94 d1 12 3d
       0.123590566 0.11668126 -0.09651157 0.0358444
000020 11 61 93 3d 53 e1 8c bd 46 87 ca 3d db 74 4f bd
       0.07196248 -0.06878915 0.098890826 -0.05064855
000030 51 fa 2c bd cc 65 e3 bd 00 01 19 3e c7 a7 0a be
       -0.042230908 -0.111034006 0.14941788 -0.13540564
000040 30 b9 fb bd 09 f7 80 bc d1 27 9c 3d 91 8b 35 3d
       -0.12291181 -0.015742796 0.07624782 0.044322554
000050 cc 94 d0 bd 0b c9 92 bd 8c 07 44 bd 96 5c 61 bc
       -0.10184631 -0.07167252 -0.04785876 -0.013754984
000060 59 72 97 3d 4a 50 1f 3d e4 31 34 be 6f c5 02 be
       0.07394857 0.03889493 -0.17597157 -0.12770627
000070 c1 7e 3a 3e d5 27 df bd 99 97 98 3d 2b 05 2d 3d
       0.18212415 -0.10896269 0.0745079 0.042241257
000080 84 90 48 be b4 7e b6 bd d1 3b 11 be f7 34 b7 3b
       -0.19586378 -0.089108855 -0.14182974 0.0055910307
000090 c4 5b 2e bd 8c f2 d5 bd 36 b2 03 3e ab 64 31 3d
       -0.042567983 -0.10446653 0.12860951 0.043308895
0000a0 06 32 05 3d b6 79 df 3d a9 92 81 3c c9 87 50 be
       0.03251841 0.109118864 0.015817003 -0.20364298
0000b0 ca 9a c2 bd 29 b5 fa bd fc 95 2c be 3c bf 5b bd
       -0.0950218 -0.12241585 -0.1685409 -0.053649172
0000c0 f9 88 83 bc d0 0a 21 3e 28 82 4f bd be 1c c7 3d
       -0.016056525 0.15726781 -0.050661236 0.09722279
0000d0 e5 13 58 3d 50 92 80 3c bf ce 66 bd 28 68 2a 3e
       0.052753348 0.015694767 -0.056349512 0.16641295
0000e0 f1 80 84 3c f9 fa 6b 3d 38 62 42 3d f3 56 1a be
       0.016174765 0.057612393 0.04745695 -0.15072231
0000f0 d3 43 2a 3b a0 59 ee 3c f5 7c b2 bd c2 14 71 bd
       0.0025980368 0.02909547 -0.0871524 -0.058857687
000100 0f 1e 1b 3e a5 6b f0 bd 9c c5 da bd 4e 22 b2 bd
       0.15148185 -0.117392816 -0.10682222 -0.08697949
000110 56 44 29 be c6 38 06 3e 3a 81 e9 bd 6f c6 96 3d
       -0.16529974 0.13107595 -0.11401601 0.07362067
000120 e6 12 d1 3c b7 2d 0c be e1 10 fc 3c 4a 19 15 be
       0.025521707 -0.13689314 0.030769767 -0.14560428
000130 be 3a d5 3d d4 73 18 bd 6c 24 45 be f5 66 16 3d
       0.10411595 -0.037219837 -0.19252175 0.03671928
000140 80 e5 a6 bc db 99 f0 3d 20 48 30 be 5e 9c 39 be
       -0.020373106 0.117480956 -0.17215014 -0.18126056
000150 d5 69 9a 3d 45 7c ee 3d ca 3b 10 be 63 d9 13 be
       0.07539717 0.11644796 -0.14085308 -0.14438395
000160 f8 41 68 be 0a ac 12 be 36 f9 8f bd 77 85 c0 3d
       -0.22681415 -0.1432344 -0.07029955 0.094004564
000170 c3 eb 01 be 44 45 fe bd 0f 0f a5 bc 5b 90 3b be
       -0.12687592 -0.12415555 -0.020148782 -0.18316786
000180 1a e7 08 be 34 69 8e 3d 19 bc 38 3e 1e b4 57 3d
       -0.13369408 0.0695366 0.18040504 0.052662008
000190 1d 70 87 bd 6c 8f 1b bd 04 95 c5 3d 42 a2 01 bd
       -0.06613181 -0.037978575 0.09647563 -0.03164888
0001a0 ef 2c 8e bd aa 0e 31 bc 35 ea 0a 3e 0e 7f 0b be
       -0.06942164 -0.010806719 0.13565905 -0.13622686
0001b0 57 48 9f 3d ec 40 82 bc 36 15 00 3e 3f 9c b3 bd
       0.077774696 -0.015900098 0.12508091 -0.08770036
0001c0 d0 ef 6a 3e ee 9c 31 3d 65 31 aa 3d 77 da 1a 3e
       0.22943044 0.04336255 0.083102025 0.151224
0001d0 52 a7 49 ba 59 33 57 bd df ac ac 3c 36 f9 8d 3d
       -0.0007692474 -0.052539203 0.021078525 0.06932299
0001e0 5b bc 42 be 7c 74 c7 bd 4a 5d 8a bd 6d 95 2d 3e
       -0.19017164 -0.097390145 -0.06756075 0.16951533
0001f0 c8 1d 10 be 0f 9c 47 bd fc 91 fb bd 74 a6 91 bd
       -0.1407386 -0.048732813 -0.12283704 -0.071118265
000200 3b bf 54 3e e2 36 d6 3d fa 74 36 3d c2 5a 02 be
       0.20776074 0.10459687 0.04454515 -0.12729934
000210 c8 66 18 3e 08 dd cb bd c2 c1 5f bc a8 8d 3d 3d
       0.14882958 -0.09954268 -0.013657035 0.046277672
000220 d0 88 18 be 46 dd ed 3d 71 0b 4b 3e f9 22 b7 3d
       -0.1489594 0.1161447 0.19828583 0.089422174
000230 16 cf 0c 3c 85 98 31 3d a2 95 59 3c 06 99 96 bd
       0.008594295 0.043358345 0.013280304 -0.07353406
000240 ca a5 8d 3d 7d e8 4f bd 75 fb f7 bd 30 8b c9 bd
       0.069163874 -0.050758827 -0.121085085 -0.09841001
000250 e4 2c a3 3d 99 09 bb 3d cb 54 bf 3d 97 4d 51 bd
       0.079675466 0.0913269 0.09342345 -0.051099386
000260 52 6d 80 3d 98 e3 a7 3d e5 03 d8 bd 6f 24 1f be
       0.06270851 0.08197707 -0.10547618 -0.15541242
000270 93 61 54 3e e8 5a ae bc 89 67 34 3b a2 00 17 bd
       0.20740347 -0.021283582 0.0027527532 -0.036865838
000280 9e 48 f5 bd 70 58 0d 3d be a8 ee 3d 4d 83 38 3d
       -0.11976741 0.03450817 0.11653279 0.045047093
000290 a6 2b 48 bd d2 8c 34 3e 04 50 4e 3e 18 54 14 3e
       -0.04886975 0.17631844 0.20147711 0.14485204
0002a0 a7 a2 d2 3c bf 47 2b 3e 26 66 5d 3e ad e1 f7 bd
       0.025712324 0.16726588 0.21620998 -0.12103591
0002b0 cd 75 0d 3e 4b fd a8 3c 18 a6 10 3e b1 bf 9d 3d
       0.13814469 0.020628592 0.1412586 0.07702578
0002c0 53 4d 57 3e 2c 56 0e 3e d5 ee 8b 3c 6d 14 84 3d
       0.2102559 0.1390006 0.017081657 0.064492084
0002d0 ac 68 fe 3d f2 22 b4 bd 11 76 8e 3d 3d ba 2e 3e
       0.12422308 -0.08795728 0.06956113 0.17063232
0002e0 9b a9 30 bd 96 89 02 be e7 36 c2 bb 17 2f 29 bd
       -0.0431305 -0.12747797 -0.005926955 -0.041304674
0002f0 4d a6 cc 3d 6d 2f 06 bc 5c 97 0f be 34 46 d9 3d
       0.09992657 -0.008190018 -0.14022583 0.10609093
000300 c3 6f fe bd 2d f3 1d 3c 79 db 02 bd c8 43 f4 3c
       -0.124236606 0.009640497 -0.031947587 0.029817477
000310 aa 80 2c 3e 2a 7f b7 bb 3a 90 87 3d 54 ac 5b bc
       0.16845956 -0.005599876 0.06619306 -0.013407785
000320 d6 8e 18 3e a3 9f ed bd 00 b9 f8 3d d1 9c 2a be
       0.14898238 -0.11602714 0.12144661 -0.16661383
000330 59 73 d7 3c c6 ec 2a be db c9 ec 3c 9a 6c 0e be
       0.02630012 -0.16691884 0.028904846 -0.13908616
000340 7a 33 4b 3e 3b c4 b5 3c 42 f8 94 bd 82 90 b2 bd
       0.19843856 0.022188297 -0.07273914 -0.08718969
000350 d4 84 5c 3e 9f 09 a5 3d f8 22 e6 3d ed a2 1b be
       0.21535045 0.08058476 0.112371385 -0.1519887
000360 ab 55 23 3e 99 88 f9 bd 60 17 b9 3d 7f cf aa bd
       0.15950648 -0.12184257 0.090376616 -0.08340358
000370 fe 8f 94 3d ff d6 fc 3d d8 94 4c 3e 94 ca 1b be
       0.07254027 0.12345695 0.19978654 -0.15213996
000380 2b ae 9e bd c2 8c 05 3d 66 49 bf 3d d9 5a 15 be
       -0.07748064 0.03260494 0.093401715 -0.14585437
000390 f1 44 0d 3e 48 f6 1a 3e 39 79 c7 3b 52 60 b5 bd
       0.1379583 0.15133011 0.006087449 -0.08856262
0003a0 6e f9 66 3d c7 23 53 bd ed 33 ae bd ea fc 99 3d
       0.05639022 -0.05154779 -0.08505998 0.07518943
0003b0 40 f2 1f bd a6 92 61 3d 3d c5 06 bc 9a 41 e7 ba
       -0.039049387 0.055071495 -0.008225736 -0.0017643452
0003c0 51 49 82 3d bb 89 85 3d c8 98 13 3e e4 2a 3f 3e
       0.0636164 0.065204106 0.1441375 0.18668705
0003d0 34 fc 4d 3e 26 38 ba 3d bc a3 04 3e 7d e7 06 be
       0.20115739 0.09092741 0.12953085 -0.13174243
0003e0 da a6 ac 3b 5d 55 91 3d 71 76 ed 3d 9c 07 0c bd
       0.0052689137 0.0709636 0.115948565 -0.034186944
0003f0 71 fe 4f 3d aa d5 2e be e5 5f 1e be b8 54 eb 3d
       0.050779764 -0.17073694 -0.15466268 0.11490768

s_model.x_model.bias f4 [64]
000000 56 7f a3 3d 9c 1b 06 3e cb 6b ca bd 87 ef 92 bc
       0.07983272 0.1309647 -0.09883841 -0.017936481
000010 22 0c 2c 3e 1c 5b af 3d 90 bc 06 3d d7 86 20 3e
       0.16801503 0.085622996 0.03289467 0.15676437
000020 c8 52 f3 3b 88 06 9b 3d 3e 88 48 3e cc 2c 04 3e
       0.00742564 0.07569605 0.19583222 0.12907714
000030 34 32 81 bd 3e b2 60 bd b1 34 c2 3d 83 a5 21 bd
       -0.063084036 -0.054857485 0.09482706 -0.039464485
000040 99 85 87 bd fc c2 28 3d bb e5 30 3e ee cc 92 bd
       -0.066172786 0.041201577 0.17275135 -0.071679935
000050 8a 64 86 bd e6 54 87 3d db 99 c9 3d ba f6 07 3e
       -0.06562145 0.0660799 0.09843799 0.13277712
000060 92 e3 2e 3e 63 fb 16 3e 63 77 cb bd 39 77 ca bd
       0.17078999 0.14744334 -0.099348806 -0.09886021
000070 2f da 3c bc 6b 4d bc 3d 8a dc 11 bc 95 bf a0 3d
       -0.011526628 0.09194454 -0.008902678 0.078490414
000080 e7 3a 29 bd 14 89 1f 3e 11 38 9a bc b2 69 01 3e
       -0.04131594 0.15579635 -0.018825563 0.12637976
000090 39 af ef 3c 5a 0c 0d be a5 a6 f9 3c 4f 69 00 3e
       0.029258357 -0.13774243 0.03047497 0.12540172
0000a0 04 70 a1 3d 4a 02 2b 3d 70 09 ff bd 3e ec 0e 3c
       0.078826934 0.04175023 -0.12452972 0.008723317
0000b0 0f 4f e7 3d 8d 42 18 3d c4 9c 10 3e 56 32 74 bd
       0.11294376 0.037172843 0.14122301 -0.059618317
0000c0 9c 17 18 3d 94 a1 40 3e df d2 ac bd b9 cd 04 3e
       0.03713189 0.18811637 -0.08438658 0.12969102
0000d0 2f 17 09 be 0d 0d bc bd e9 50 12 be 7a 02 90 3d
       -0.1338775 -0.09182177 -0.14288677 0.07031722
0000e0 9c e2 f3 3d 6e f2 63 bd 2a ca 4b bd 57 be 23 3b
       0.11908457 -0.05565112 -0.049753346 0.0024985278
0000f0 74 eb 88 bd 9b 77 bc 3d aa 1e 9c 3b d6 bb 65 3d
       -0.06685534 0.092025004 0.0047643976 0.056087337

joint_model.model.1.0.weight f4 [64, 64]
000000 b0 14 87 3d 7f 71 94 bd 94 81 c0 bd 54 ec ca bd
       0.06595743 -0.0724821 -0.09399715 -0.09908357
000010 bb 45 0e 3e 01 ba 75 bc 5a 42 f9 3d f9 b0 88 bd
       0.13893788 -0.01499796 0.12170859 -0.0667438
000020 5b 71 e4 bd 44 c3 0a 3e 94 2d 01 be 5c 17 0e be
       -0.11154433 0.1355105 -0.12615043 -0.13876098
000030 79 fb d3 bd c7 c6 d0 3d 62 3d 14 3e 49 c1 3d 3c
       -0.10350699 0.10194164 0.1447654 0.011581727
000040 fd b2 24 bd 9b 9c 28 3e 73 45 de 3d f7 75 04 3e
       -0.04020976 0.1646599 0.1085309 0.12935625
000050 86 ac 91 3d ce 77 8f 3d fa da 38 3d 56 45 56 bd
       0.07112984 0.07005273 0.045130707 -0.052312218
000060 84 cb b5 bd fe 1e 07 bc e4 ad ce bc 67 fc 04 be
       -0.08876708 -0.008247135 -0.025229402 -0.12986909
000070 97 c0 df bd 14 0e 19 3d d3 cc d2 3d 04 c0 56 bc
       -0.109254055 0.03736694 0.10292973 -0.0131073035
000080 0f ef 48 bd 18 86 a3 bd 22 68 83 3d 04 58 e9 3d
       -0.04905611 -0.07984561 0.06416346 0.11393741
000090 17 92 cf bd fd 66 07 3d 84 aa 96 bd 2f cc 0b 3e
       -0.10135286 0.0330572 -0.07356742 0.13652109
0000a0 9c 40 56 bd b9 08 ea ba 92 26 33 3d 78 2b 13 3e
       -0.05230771 -0.0017855383 0.043737955 0.14372051
0000b0 55 1b e3 3c 06 df 30 bd 7d d0 7d bd 2b 57 d4 3d
       0.027722994 -0.04318144 -0.061966408 0.103681885
0000c0 54 7d 14 bd bd dd 79 3d 75 38 96 bd 4a 20 20 3e
       -0.036252335 0.06100248 -0.07334987 0.15637317
0000d0 06 57 b1 bd 7f 72 5c 3d 18 60 38 3e c4 79 5a bd
       -0.086591765 0.05382013 0.18005407 -0.05333878
0000e0 aa 51 4f bc f1 77 a2 bd 43 61 83 bd 22 fc ba 3d
       -0.012653748 -0.07933033 -0.064150356 0.09130122
0000f0 67 0b c0 bc 48 dc 70 bd 8b 92 bb 3d 9a 1c b9 3d
       -0.023442937 -0.058803827 0.0915881 0.090386584
000100 13 e3 09 3d 4b 6a 94 3d d6 23 11 bd 3b 69 cd 3d
       0.03366382 0.07246836 -0.035434566 0.10029837
000110 41 d7 9d bd 38 68 60 3d ba 28 98 3d 0d 00 44 3d
       -0.07707072 0.05478689 0.07429643 0.04785161
000120 65 37 f8 3d cc ca 06 3e 34 fd 06 3e e1 47 08 3e
       0.12119941 0.13163298 0.13182527 0.1330867
000130 37 8b 7f bc 4e 23 9d bd dc 24 f7 bd 1a c2 94 3d
       -0.015597156 -0.076727495 -0.12067577 0.072635844
000140 8a e4 19 bc a3 e7 79 3d 58 86 aa 3d 41 8f ff 3d
       -0.009392867 0.06101192 0.08326405 0.124784954
000150 4b 33 9c 3c 42 75 d9 3d d9 a1 c5 bd 1d bd bb bd
       0.019067427 0.10618068 -0.096500106 -0.0916693
000160 6a 1c ef 3d fe 74 dd bc de 5c 25 3d f2 d0 e6 3c
       0.116753414 -0.027033325 0.04037177 0.028175805
000170 18 41 05 3e 49 d2 96 bc 4c 4d 2f 3d bb 15 f3 bc
       0.13013113 -0.018410819 0.042798325 -0.029673448
000180 37 7d 07 be 17 92 e2 bc 6f 11 bf bd 0e 03 6c 3d
       -0.1323136 -0.027657552 -0.09329497 0.0576201
000190 09 af 84 bd 10 a8 eb bd 8d 8d c6 bd 04 b0 d6 3d
       -0.06478698 -0.11506665 -0.096949674 0.10482791
0001a0 34 35 8e bd 6e 9b a6 3d 22 ee ef 3a 3c 30 e7 bc
       -0.069437414 0.081351146 0.0018305222 -0.028221242
0001b0 01 6c 98 bd 5e 41 ed 3c e3 a2 4c bd 82 1e 56 bd
       -0.07442475 0.028961834 -0.04996003 -0.05227519
0001c0 fc 16 f9 3b 21 82 cf bc af 6b f3 bd d0 1c 82 bc
       0.007601617 -0.025330605 -0.118857734 -0.01588288
0001d0 10 e9 17 bd f2 96 f6 3d 30 fd c3 bd a1 2c 46 3d
       -0.0370875 0.12040509 -0.09569776 0.048382405
0001e0 ac 7b e8 3d a1 1a 09 3e dc db 8e 3d 7c d0 f0 bd
       0.113517135 0.13389064 0.069755286 -0.11758515
0001f0 73 6f 05 3e b3 82 90 bd 37 3f db 3d 2a 13 69 3d
       0.13030796 -0.07056179 0.10705417 0.056903042
000200 e9 2c cd 3b 69 06 bc 3d 1d ec f2 3d c9 80 05 be
       0.006261457 0.0918091 0.11861441 -0.13037409
000210 78 db d1 bd f1 67 0b 3c e5 a5 cd bd 39 f7 86 3d
       -0.102469385 0.008508668 -0.100414075 0.06590123
000220 91 5a ac 3c d5 21 08 bd d9 c8 b8 bd e8 f9 ed bd
       0.02103928 -0.03323539 -0.09022684 -0.116199315
000230 07 fc 51 bd c0 22 1e bd c0 7f fa bc 3a fa e6 3c
       -0.051265743 -0.03860736 -0.030578494 0.02819549
000240 55 ad 9c 3d 91 36 e5 bd 84 b9 7b 3d 72 0f a5 3c
       0.07650248 -0.11192048 0.06145622 0.020148966
000250 7e e4 73 3d 21 54 51 3d ec ca 0b bd dd ee 84 bd
       0.05954408 0.051105622 -0.03412907 -0.06490872
000260 0e 7f 05 3e 2d 08 eb bc e6 08 b1 3d 11 4f 9b 3c
       0.13036749 -0.028690422 0.08644275 0.0189586
000270 92 f1 51 bc 27 b5 cd 3d 10 63 6c 3d 47 55 81 bc
       -0.0128139425 0.10044318 0.05771166 -0.015787734
000280 45 a6 22 3e c6 55 63 3d f6 a9 10 3e 37 6e 89 bc
       0.1588374 0.05550172 0.14127335 -0.016776187
000290 a7 e3 cd 3d e3 3c c5 bd 4a 7a 9f bd 58 da c8 3c
       0.10053187 -0.09630754 -0.07786997 0.024518177
0002a0 54 f5 66 3d 98 8c ef 3c 00 a7 f8 bd 37 7f c0 3c
       0.056386307 0.029241845 -0.12141228 0.02349816
0002b0 4b 37 ce bb 6e f5 47 3d 1a f7 88 bd 25 ce fb 3c
       -0.0062932125 0.048818044 -0.06687756 0.030737946
0002c0 df 1b cb bb 27 cc 33 bc d1 48 a0 3d 73 02 95 3d
       -0.006198391 -0.010973967 0.078263886 0.07275858
0002d0 db 85 c5 3d 66 2c 6c 3d 8b 82 ac 3d 99 f6 bc 3d
       0.096446715 0.05765953 0.084233366 0.09226722
0002e0 bc 0a c6 3c 93 a2 84 3d 53 a6 04 bd 7a 6c d9 3c
       0.02417504 0.06476321 -0.03238518 0.026540983
0002f0 66 8d 84 bd e9 c9 aa bd 94 f1 11 3d 87 6e c2 bd
       -0.06472282 -0.083392926 0.035630777 -0.09493738
000300 9c d9 90 bc 90 82 cb 3d b6 b2 88 3d 12 26 3f 3e
       -0.01768189 0.09937012 0.066747114 0.18666866
000310 a8 98 f6 bb e5 7e 10 3e 4f 09 66 bc 73 fe 0c bd
       -0.0075255223 0.14110906 -0.014040305 -0.03442235
000320 dc 60 80 3d 05 f6 ef 3d 71 ac 31 3e c2 77 52 bd
       0.062684745 0.117168464 0.17350937 -0.05138374
000330 cc 34 df bd 95 5e 60 bd c8 8e 9a bc 8c ce ab 3d
       -0.10898742 -0.0547777 -0.018866912 0.08389005
000340 fa 06 ab 3d a9 e8 5e bd 22 25 8e 3d 4d dd 95 bd
       0.0835094 -0.0544211 0.06940676 -0.073176004
000350 5d d3 4a bc bf f8 4f 3d b7 5b 9f bd 91 0d d2 bc
       -0.0123794945 0.050774332 -0.07781165 -0.025641235
000360 c1 30 09 bd b0 ca a9 3d f4 60 79 bc a2 da 0c 3e
       -0.03349376 0.08290613 -0.015220869 0.13755277
000370 96 9f 47 3e c2 c5 d8 3d 7f 7a 91 3d 86 3f 44 bd
       0.19494471 0.10584594 0.071034424 -0.047912143
000380 bc 5d 55 3c 87 0d 16 be de d2 7f bd 51 66 66 3c
       0.013022836 -0.14653598 -0.062456958 0.01406248
000390 86 c1 12 3e c4 a2 91 bd 9a e9 4d 3d 33 02 cd bc
       0.14331636 -0.07111123 0.050271608 -0.025025463
0003a0 f5 ea 31 3d fa b3 df bc 7a 86 2e 3e f3 4c 82 3d
       0.043436963 -0.0273075 0.17043486 0.06362333
0003b0 ee 24 38 bd db 3e 8d bd 4a 14 18 3e ac b0 2e 3d
       -0.044957094 -0.06896754 0.1485149 0.042648956
0003c0 a1 9a 35 3e 95 2a 1a bd 60 ab 37 be 95 60 61 bd
       0.17734767 -0.037638266 -0.17936468 -0.05502375
0003d0 71 87 b2 3d 49 79 c5 bc f1 2e 90 bc e2 1d 10 3d
       0.0871724 -0.024105685 -0.017600508 0.03518475
0003e0 76 7b d2 3c 07 09 95 bd 23 71 23 3d 02 93 37 3d
       0.025693636 -0.072771125 0.039902817 0.044817932
0003f0 d2 06 58 3e 38 59 1f 3e 16 0e 3e 3e fd b0 f0 bc
       0.21096352 0.15561378 0.18560061 -0.02938127

joint_model.model.1.0.bias f4 [64]
000000 40 b4 19 3d c4 b0 83 3d 97 4b 92 bd 6f fd 77 bd
       0.037525415 0.064302 -0.07143324 -0.060544427
000010 c6 23 7a 3d 63 62 9f 3d ec a0 0b bd 52 48 00 3e
       0.061069272 0.07782438 -0.034089014 0.12527588
000020 77 2c 66 3c 5f 01 81 3d de 18 02 bd 04 2d cc 3d
       0.014048687 0.0629909 -0.031761996 0.099695235
000030 87 33 95 3d 3b 8b 3a 3b dc 1b 19 bc f8 04 88 3d
       0.07285219 0.0028464335 -0.009345021 0.06641573
000040 d3 83 75 bd 3b a3 fe 3c 63 2c 27 3c b2 ae 42 3d
       -0.05994017 0.031083694 0.010203454 0.047529884
000050 af 32 48 bc 60 10 42 3d 75 0a 3b bd b2 93 1c 3c
       -0.012219115 0.047378898 -0.04566427 0.009556698
000060 a8 6b d1 bd 7c 77 c9 3d e5 8f d8 bc a8 bb 8f bd
       -0.10225612 0.09837243 -0.026435802 -0.070182145
000070 04 5e da bc 1c 8f b9 bc 53 db 49 bd f6 ae 9e 3c
       -0.026656158 -0.022651248 -0.04928143 0.019370537
000080 b6 54 f4 3d a9 2d a2 bc d5 3b 76 bc fc c4 a7 3d
       0.1193022 -0.019797163 -0.0150289135 0.08191869
000090 10 78 df bc d5 a5 be 3d b7 89 46 bd ec 14 8b bb
       -0.02727893 0.09308974 -0.04847118 -0.0042444374
0000a0 28 2a 15 bd 7e 25 23 3d dc 12 cb 3c 12 68 39 bd
       -0.036417156 0.039830677 0.024789266 -0.045265265
0000b0 ff 50 73 3d ca a0 4b bd 50 0e 5d 3d f0 87 54 3d
       0.059403416 -0.049713887 0.053968728 0.051887453
0000c0 10 ef 8a bc 28 70 19 bd e3 31 b2 bd 81 bf e6 bd
       -0.016959697 -0.037460476 -0.087009214 -0.11266995
0000d0 43 b5 84 bd 46 10 7e 3d 39 96 0e bd ef 17 c1 bd
       -0.064798854 0.06202724 -0.034811232 -0.09428393
0000e0 f1 fc 9a 3d d4 e7 7d bd 4b 9c 01 3e 68 69 95 bd
       0.07567776 -0.061988667 0.12657277 -0.07295495
0000f0 96 40 10 bc 55 c2 1a 3d ab bc da bd 99 f1 23 3d
       -0.008804461 0.037782986 -0.10680517 0.040025327

joint_model.model.2.0.weight f4 [64, 64]
000000 f0 ef 9a 3d b9 9f 0e 3e 69 05 eb bd 14 00 63 3d
       0.07565296 0.13928117 -0.11475641 0.055419996
000010 6c 35 bf bd ee b1 8c bd 42 bf c0 bd b3 f4 ac 3d
       -0.09336361 -0.06869875 -0.094114795 0.0844511
000020 6b 44 1d bc 96 40 cc 3d 67 0e 7f bb 15 1f 84 3d
       -0.009598832 0.09973256 -0.0038918497 0.06451241
000030 df 96 28 bb 0f c1 d1 bd 1e 6d 8d 3d cd 74 05 3b
       -0.0025724692 -0.10241901 0.06905578 0.0020363808
000040 a9 4f f5 bd 34 49 03 3e bc 84 f7 3c ca 4a 99 bd
       -0.119780846 0.12820894 0.03021466 -0.07484968
000050 71 8e 6b 3d 4b c2 61 bd 65 56 dc 3d 2c 30 69 bc
       0.05750889 -0.055116933 0.10758666 -0.0142326765
000060 7b 2d 41 3d d9 e8 cc 3d a9 50 d0 bd 26 81 04 3e
       0.047162514 0.1000535 -0.10171635 0.12939891
000070 e6 28 b9 bd 0f b5 11 3e 5b 4d 94 3d 77 a2 a9 3d
       -0.09041004 0.14229225 0.07241317 0.08282941
000080 b9 fb 30 bd 7d 10 3a bd a4 d4 01 bc 1d 9e 25 bc
       -0.04320881 -0.04542588 -0.007924233 -0.010108498
000090 de f5 88 bd 73 b0 7b bd 32 0e 86 bc 43 bc d5 3d
       -0.066875204 -0.061447572 -0.01636419 0.10436299
0000a0 ac 40 2c bd 83 28 59 3c 28 7d ba bd 11 20 73 3d
       -0.042053863 0.013254288 -0.09105903 0.059356753
0000b0 5e e2 87 bd 4f 9d 3d bd 85 d9 99 3d 13 b1 62 bd
       -0.06634973 -0.0462926 0.07512192 -0.055344652
0000c0 28 07 f8 bd 13 a7 c9 3c 8a 0b 86 bc 47 10 cb 3d
       -0.1211074 0.0246158 -0.016362924 0.09915214
0000d0 70 b0 74 bb 8b 26 d5 3d 1f ea 82 bd 54 ee 8b bd
       -0.003733661 0.10407742 -0.06392311 -0.06832567
0000e0 43 3b 25 3b c4 b3 bd bc 37 14 b7 3d 0f 22 00 be
       0.0025212325 -0.023157008 0.089394026 -0.12512992
0000f0 7b 06 fa 3b ec af 14 bd 21 53 7e 3d 1e 7e fc 3d
       0.007630167 -0.036300585 0.062090997 0.123287424
000100 63 7e a2 bd e0 89 28 3d a7 15 c2 3c 35 4b 20 3e
       -0.079342626 0.041147113 0.023691965 0.15653689
000110 6d d9 15 be 6f d2 be 3d c7 b1 a3 bd 69 c5 db 3d
       -0.14633723 0.09317481 -0.07992893 0.107310124
000120 d2 36 e5 3d 04 40 8c bd 36 fd 7f bd 72 bd 5b bc
       0.11192097 -0.068481475 -0.06249734 -0.0134118665
000130 b6 55 b2 3d f4 71 4d bd 4b c9 b1 3d ba 47 d0 bb
       0.08707754 -0.050157502 0.08680972 -0.0063562067
000140 44 cf 74 3d a1 a0 8a bd 01 54 ff 3d 46 01 ba 3c
       0.059767976 -0.06768919 0.12467194 0.022705685
000150 94 1d b1 3d 6e 5f b3 3c 6e b4 8c 3d ca 5e d9 bd
       0.0864822 0.02189609 0.06870352 -0.10613783
000160 ea f8 16 be 8c 12 4b bc a6 67 18 3e 0b 7b 3e bb
       -0.1474339 -0.012394559 0.14883289 -0.0029065039
000170 e3 dd eb 3d a1 07 17 3b e1 e7 ed bd d6 e3 d0 3d
       0.11516931 0.0023045319 -0.11616493 0.10199706
000180 b7 5f 40 3d 61 3a a0 3d 6d a0 98 3d 05 9d 82 bd
       0.04696628 0.07823635 0.07452474 -0.06377605
000190 b1 0a 42 3d ee da d2 bd b6 29 f5 3d af fe 8a 3c
       0.047373477 -0.10295664 0.11970846 0.016967146
0001a0 af fa 01 bd a6 b6 24 bc de b8 3e 3e 67 04 56 be
       -0.03173321 -0.010053312 0.18625209 -0.20900117
0001b0 20 79 3a be 0f 94 b1 3d 0b 5b 04 be 7c c3 b7 bd
       -0.18210268 0.08670818 -0.12925355 -0.089728326
0001c0 18 9c cc 3d d3 f5 79 bd 93 54 69 3c f4 66 70 3d
       0.0999071 -0.061025452 0.0142413555 0.058691934
0001d0 95 92 9f 3d 65 43 a0 3d fa 12 0f 3b f7 5f d6 bc
       0.0779163 0.078253545 0.002183138 -0.026168806
0001e0 8f c7 d3 3d ac d6 e2 3c 94 99 97 bd e9 11 1c 3e
       0.10340797 0.027690254 -0.074023396 0.15241207
0001f0 c2 4a 36 bd 37 99 e2 3d bd 9d 2e 3d 40 79 9a bd
       -0.04450489 0.1106438 0.0426309 -0.07542658
000200 d3 cc 8e 3d 21 db 12 3b 99 40 ab 3d 57 1f 5a 3c
       0.06972661 0.0022408443 0.083619304 0.013313136
000210 a2 50 37 bd 66 73 93 bd f6 e7 33 3e 82 dc 52 3d
       -0.04475463 -0.07199745 0.17568955 0.051479824
000220 31 5b 04 be e7 15 db 3d 29 ad 1c 3e af 13 a7 3d
       -0.12925412 0.10697537 0.1530043 0.08158051
000230 a6 c3 79 3d ea ea 47 3d d8 0b e3 3c 4f 09 13 3e
       0.0609776 0.048808016 0.027715608 0.1435902
000240 4e e2 81 bd 08 49 02 be a0 18 8c bd f6 35 1e bd
       -0.06341992 -0.12723172 -0.06840634 -0.03862568
000250 f9 74 bc bd 8b 2e 46 3d 53 7d 99 bd 87 99 c2 3d
       -0.09201998 0.04838423 -0.07494607 0.09501939
000260 e0 b2 50 3e 2d 95 d6 3d 5f 49 e9 bd 54 cd 17 bd
       0.20380735 0.10477672 -0.113909476 -0.03706105
000270 81 8d 35 3d e8 ec 8b 3d 0a 58 0a 3e 52 c6 e6 bd
       0.0443244 0.06832296 0.13510147 -0.11268295
000280 36 10 07 3e 9c 92 d2 3d 1b 00 76 3d 5d 00 0d 3e
       0.13189778 0.1028187 0.060058694 0.1376967
000290 c2 b8 e3 bd 99 77 62 bd f0 d8 bf bd 9f d1 16 3e
       -0.11119224 -0.05528984 -0.093675494 0.14728402
0002a0 62 a0 c8 bd 12 6f b5 3c e0 76 2c be 2b d0 d9 3d
       -0.097962156 0.022147689 -0.16842222 0.10635408
0002b0 06 90 5f 3e 89 53 00 bd 17 7a 29 be bb 38 0f be
       0.21832284 -0.031329665 -0.1655048 -0.13986485
0002c0 6f b6 f1 bd da 6c b4 3d 3c 9c cc bd b3 03 a5 3d
       -0.118023746 0.08809824 -0.09990737 0.08057346
0002d0 fb 94 06 3e 93 a6 4c 3d 61 b6 51 bc d8 0b 14 3e
       0.13142769 0.049963545 -0.01279983 0.14457643
0002e0 1d 20 8d 3c bc 01 b3 3c 5c a4 17 3e 3e d7 ba bc
       0.017227227 0.021851413 0.14808792 -0.022807714
0002f0 ff da cf 3d fc 24 20 be 8a df 3b bd 74 4f 0d 3c
       0.10149192 -0.15639108 -0.04586748 0.0086249
000300 ae 3f 04 be bc a0 b1 3d 92 13 67 3d 0a b0 cf 3d
       -0.12914917 0.08673236 0.056415148 0.10140999
000310 c1 a9 b0 3d 00 ed 53 3d 45 37 26 3d 72 4c 0b bd
       0.08626128 0.051739693 0.040580053 -0.03400845
000320 4a e1 67 3c 56 6c 9e bd 9c 73 bf 3d 1b a0 14 3e
       0.014152834 -0.07735507 0.093482226 0.145142
000330 59 41 aa bd 04 c6 98 3d 10 4e d8 bd 4d 67 cb 3d
       -0.08313245 0.074596435 -0.10561764 0.099318124
000340 48 d1 f3 3d d6 7b d4 bd bd 52 0c 3e 60 61 bb 3d
       0.119051516 -0.10375182 0.13703437 0.09149432
000350 1d 6e 5a bc a9 d2 d6 bc bd b6 7d bd 8c b6 b1 bd
       -0.013331917 -0.026223497 -0.06194185 -0.08677396
000360 b8 1a 1a 3d 5e b1 d2 bd c2 1d d7 bd 24 f7 95 ba
       0.037623137 -0.10287736 -0.10503723 -0.0011441451
000370 c7 c8 d2 3d 65 e2 be 3d cc 70 dd 3d 7a 34 ae 3c
       0.102922015 0.09320525 0.1081253 0.021265257
000380 bf b6 3a bd d1 b4 45 3d ec 43 4a 3b f9 f7 3f bc
       -0.045584437 0.048268143 0.0030863238 -0.011716836
000390 e7 a9 df 3d a5 18 69 3d d7 e0 8e 3d fa f6 1a 3e
       0.10921078 0.05690827 0.069764785 0.15133277
0003a0 f9 8e fa bb a7 12 d9 3c 08 d4 dc 3a ec c8 0e be
       -0.007646438 0.026498152 0.0016847858 -0.13943833
0003b0 6b 83 43 bd 6d d0 a9 3c a4 92 e6 3c 11 40 10 3e
       -0.04773275 0.020729268 0.028146096 0.1408694
0003c0 01 a5 ff 3a 30 ff 26 3d cf e4 2a 3c 0a 22 d4 bd
       0.0019504131 0.04077071 0.010430529 -0.10358055
0003d0 63 13 02 3e c0 b8 f5 3d 13 2d 3c bb 5a 6e 7e 3d
       0.12702708 0.11998129 -0.002871339 0.06211696
0003e0 ee ff b5 bd c0 99 e6 bc ba f5 bf 3d 61 be 53 bd
       -0.08886705 -0.028149486 0.093730405 -0.05169523
0003f0 09 5c 95 bd de d7 a7 3d 4e e8 d7 3c 1c 65 82 bd
       -0.07292945 0.0819547 0.026355889 -0.06366941

joint_model.model.2.0.bias f4 [64]
000000 b2 8c da 3d b3 65 34 3d 0a f6 c0 bc e3 c9 9f 3d
       0.10671367 0.0440423 -0.02355482 0.07802179
000010 b1 87 9c 3d 25 57 f8 3c 04 17 be bd 2c 93 38 3d
       0.076430686 0.030314991 -0.09281734 0.04506223
000020 b5 7a d2 bd 51 14 ac 3d 4d 74 da bd 27 d6 b8 3d
       -0.10277311 0.084023125 -0.10666714 0.09025221
000030 f1 3b 2b bd 95 57 7d 3d 69 58 2a 3d b4 ee db bd
       -0.04180521 0.061851103 0.04158822 -0.107388884
000040 ce 8f 9f 3d a2 af a9 bc 24 c5 c6 bd b1 e3 8f 3d
       0.077911004 -0.020713631 -0.0970557 0.070258506
000050 54 25 eb bd 8d 1d e8 3d 9c 88 a8 bd c7 7c ba 3d
       -0.11481729 0.11333761 -0.08229181 0.09105831
000060 dc cc 9c 3d c2 00 9a 3d f0 ff 88 3d 9b 04 aa 3d
       0.07656261 0.07519676 0.06689441 0.0830166
000070 f5 9a b1 3c 80 44 ec bc 07 97 54 ba 40 d7 cd 3d
       0.021680335 -0.028841257 -0.0008109663 0.10050821
000080 87 33 99 3d d0 52 b3 3c 5a d1 d7 bd 85 37 0d 3d
       0.07480531 0.021890074 -0.105379775 0.034476776
000090 d1 0c c6 bd f9 d1 57 3d d1 f1 39 bd ed 3e 85 3c
       -0.09670413 0.05269048 -0.04539663 0.016265357
0000a0 f6 84 ba bd c4 fc 2b 3d af c9 b3 3d d6 0f c0 bd
       -0.091073915 0.041989103 0.087787025 -0.093780205
0000b0 14 22 ab 3d 19 f2 a6 bd d4 4b b3 bd 1a 15 c8 bc
       0.08356109 -0.08151645 -0.087546974 -0.024424125
0000c0 ae 99 f8 3c ce b1 a4 bd 10 1f 30 3d fc 0e 8f bd
       0.030346718 -0.08041726 0.042998374 -0.0698528
0000d0 9f 70 3b 3d 76 65 2d bd 99 0f ed bd 3d 4d 85 3c
       0.0457617 -0.04233309 -0.11575241 0.016272182
0000e0 c2 6b 49 bd 37 ae fb bd 45 11 90 bd 40 39 59 3d
       -0.04917503 -0.12289088 -0.07034544 0.053033113
0000f0 69 7e a9 bd 41 aa b8 3d 09 48 83 3d 29 f1 30 3d
       -0.08276064 0.09016848 0.06410224 0.04319874
