energy_sampling/results_pis_architectures/many_well/exploration_wd_0.2_langevin__clipping_lgv_100.0_gfn_10000.0_gfn/fwd/fwd_tb/T_100/tscale_1.0/lvr_4.0/seed_12345/model.pt (torch, 183012 bytes, 23 tensors)

t_model.timestep_phase f4 [1, 64]
000000 a6 78 61 bf 66 91 c3 3e a0 29 3a 3f ad 03 6c 3c
       -0.8807472 0.38196868 0.72719765 0.014405173
000010 ec 77 f5 be 7f 28 44 be d2 74 25 3f 8b fb 17 3f
       -0.47943056 -0.19156073 0.6463138 0.593682
000020 76 f0 49 bf 70 2f c0 3d 34 27 2d 3f 1a 0e 25 3f
       -0.7888254 0.09384048 0.67637944 0.6447464
000030 05 a9 d7 be f7 30 55 bf 1a c9 3d 3f 52 b0 35 bf
       -0.4212114 -0.8327784 0.7413498 -0.7097217
000040 18 f9 59 bf b2 1a 19 bf a2 77 3e bf 86 51 e9 bf
       -0.8514571 -0.5980636 -0.74401295 -1.8228004
000050 71 45 58 3f 1e c5 89 3f a4 2d 74 3f 2e c1 49 bd
       0.8448096 1.076328 0.9538214 -0.049256496
000060 16 47 af 3e 5e c1 8d bf 3c 2e 3a 3f 85 61 54 3e
       0.34233922 -1.1074636 0.727268 0.20740326
000070 e6 a5 0a 40 cd 5c 38 40 42 53 a4 3e 82 df 2b bf
       2.1663756 2.880664 0.3209477 -0.6713792
000080 63 ce 4f 3f bb 21 92 3f a7 a4 46 bf 44 8f 39 3f
       0.81174296 1.1416544 -0.7759499 0.7248423
000090 8c dd 71 3f 46 23 ec 3e 2b ed 02 40 31 ee ee bf
       0.9447868 0.46120661 2.0457256 -1.866644
0000a0 66 3f 99 3e 3f dc aa bf cf 56 34 bf d6 90 2b 3e
       0.29931182 -1.3348464 -0.7044496 0.1675447
0000b0 d8 21 e0 3f f3 1d 69 be e9 e1 28 3f 7c 15 9a 3e
       1.7510328 -0.22765331 0.6596971 0.30094516
0000c0 ba 2c 39 3b 55 b4 04 bf 8d 05 21 3f 76 fd bf 3f
       0.002825542 -0.51837665 0.62899095 1.4999225
0000d0 e8 47 37 3f b7 3f 61 be a3 2a 71 3e 25 82 9b 3c
       0.71594095 -0.21996962 0.23551421 0.018982956
0000e0 22 22 44 3f e8 c9 a4 bf 77 50 59 bf 64 73 7a bf
       0.7661458 -1.2874117 -0.84888405 -0.9783232
0000f0 be 95 e3 be 91 ae ca be 4c 95 45 be 50 d1 62 3f
       -0.44450182 -0.3958631 -0.19295233 0.88600636

t_model.pe f4 [1, 64]
000000 cd cc cc 3d 7d c5 d7 3f 16 5f 51 40 b7 6d 9b 40
       0.1 1.6857144 3.2714286 4.857143
000010 e3 2b ce 40 08 75 00 41 1e d4 19 41 34 33 33 41
       6.4428573 8.028572 9.614286 11.200001
000020 4a 92 4c 41 60 f1 65 41 76 50 7f 41 c6 57 8c 41
       12.785715 14.371429 15.957144 17.542858
000030 51 07 99 41 dc b6 a5 41 67 66 b2 41 f2 15 bf 41
       19.128572 20.714287 22.300001 23.885715
000040 7d c5 cb 41 08 75 d8 41 93 24 e5 41 1e d4 f1 41
       25.47143 27.057144 28.642859 30.228573
000050 a9 83 fe 41 9a 99 05 42 60 f1 0b 42 25 49 12 42
       31.814287 33.4 34.985718 36.57143
000060 ea a0 18 42 b0 f8 1e 42 75 50 25 42 3a a8 2b 42
       38.157143 39.74286 41.32857 42.914284
000070 00 00 32 42 c6 57 38 42 8b af 3e 42 50 07 45 42
       44.5 46.085716 47.67143 49.25714
000080 16 5f 4b 42 dc b6 51 42 a1 0e 58 42 66 66 5e 42
       50.842857 52.428574 54.014286 55.6
000090 2c be 64 42 f2 15 6b 42 b7 6d 71 42 7c c5 77 42
       57.185715 58.77143 60.357143 61.942856
0000a0 42 1d 7e 42 84 3a 82 42 66 66 85 42 49 92 88 42
       63.528572 65.11429 66.7 68.28571
0000b0 2c be 8b 42 0f ea 8e 42 f2 15 92 42 d4 41 95 42
       69.87143 71.457146 73.04286 74.62857
0000c0 b7 6d 98 42 9a 99 9b 42 7c c5 9e 42 5f f1 a1 42
       76.21429 77.8 79.38571 80.97143
0000d0 42 1d a5 42 25 49 a8 42 08 75 ab 42 ea a0 ae 42
       82.557144 84.14286 85.72858 87.314285
0000e0 cd cc b1 42 b0 f8 b4 42 92 24 b8 42 75 50 bb 42
       88.9 90.48572 92.07143 93.65714
0000f0 58 7c be 42 3b a8 c1 42 1e d4 c4 42 00 00 c8 42
       95.24286 96.828575 98.41429 100.0

t_model.t_model.0.weight f4 [64, 128]
000000 87 9d 26 3e f1 fe 87 be eb 37 0b bd 9a ec f6 3c
       0.1627103 -0.26561692 -0.033988874 0.030142117
000010 42 7e b6 bd e9 a6 ff 3b 21 bd 39 bd c9 e0 b8 3d
       -0.089108005 0.0078018797 -0.045346383 0.09027249
000020 5f c2 47 bc cb 2a 04 bc d3 8b dd 3c f9 87 99 3d
       -0.012192338 -0.008066843 0.027044212 0.07496638
000030 bd 75 99 3c 5e 18 20 3d a4 e4 d4 bc 8c 8a 80 3c
       0.0187329 0.03908574 -0.02598793 0.015691064
000040 0c 95 d2 3d d3 63 7d bd 04 84 0c 3d 55 09 64 bd
       0.10282335 -0.061862778 0.034305587 -0.055672962
000050 b7 fd 8b bd cb 57 17 3d b5 de 1d 3d 65 2b 07 bd
       -0.06835502 0.03694896 0.038542468 -0.03300037
000060 e4 37 ab 38 0d 43 25 3b 17 d6 8c bd 29 28 84 bd
       8.164326e-05 0.0025216967 -0.06876772 -0.064529724
000070 70 e4 6b 3c 75 77 9d 3d 15 9e 4f bb d6 d4 db bb
       0.014397725 0.076888 -0.0031679918 -0.0067087216
000080 4d e1 ff bc f8 64 36 3c e8 d0 9b 3d b8 c0 5e bc
       -0.031235361 0.011132471 0.07608205 -0.013595752
000090 01 43 80 3a 76 6e 09 3d 1d 6c ed 3d 0f f6 4d 3d
       0.0009785594 0.03355261 0.115928866 0.050283488
0000a0 56 15 0c 3b 2b 92 4f 3d 21 f3 82 3c 79 06 82 3d
       0.0021375022 0.050676506 0.015985074 0.06348891
0000b0 ad cd 80 3d e8 d3 c7 bd 1a 44 88 bd 14 11 d1 3c
       0.062892295 -0.09757215 -0.06653614 0.025520839
0000c0 ff b9 63 3d 63 40 b5 bc 84 78 5a 3d c3 6a 1e 3d
       0.0555973 -0.022125429 0.05333759 0.038676035
0000d0 34 78 8a bc 33 95 42 3d 86 e1 c5 bb 18 a9 ac 3c
       -0.01690302 0.04750557 -0.0060388474 0.021076724
0000e0 c1 06 01 3d d9 54 eb bc 20 cc 8e 3c 0a df 0c bd
       0.03150058 -0.028726982 0.017431319 -0.034392394
0000f0 82 6d 2e bd f1 59 8a 3c 1a 6a c0 bc 19 34 17 bc
       -0.042584904 0.01688859 -0.023488093 -0.00922873
000100 9d 16 5b be 58 d8 43 bc be 4c e6 3d ef 1b 8e 3c
       -0.21395345 -0.011953436 0.11245106 0.017347304
000110 a7 ce ae 3c 6d 85 96 bd 23 02 4f 3d f8 3e 2e 3d
       0.021338774 -0.07349668 0.050539147 0.04254052
000120 d9 26 70 bd fe b4 e6 3b 53 c2 8c bc 26 9d 8c 3d
       -0.058630798 0.007040619 -0.017182505 0.06865911
000130 cd 9e d7 3a aa 62 5f bd 32 ed 5c bd 67 e2 d2 bc
       0.0016450525 -0.054537453 -0.053937145 -0.025742723
000140 04 21 bf bc 43 21 d8 bc 93 4c 0d 3b 14 72 82 bc
       -0.023331173 -0.026383048 0.0021560534 -0.015923537
000150 95 7f ee bc 9f ea c9 3c 3c f4 88 bc 3e 85 15 bd
       -0.02911357 0.024648009 -0.016718023 -0.036504023
000160 82 2c b6 bd c0 0b fd 3c ec 07 34 bd 5e be 5d bd
       -0.08895208 0.030889392 -0.043952867 -0.054136626
000170 13 36 a3 bd a3 4b 84 3c 15 9f 67 3d f6 60 77 bd
       -0.07969298 0.016149348 0.056548197 -0.060395204
000180 93 02 00 bd f1 c9 34 3d c2 80 0f bd 99 c1 3c 3d
       -0.031252455 0.0441379 -0.035034902 0.046083067
000190 8f 77 9c bc 58 1f ab 3d 06 84 6a 3d f8 3c be 3d
       -0.019099979 0.08355588 0.057254814 0.092889726
0001a0 7f d3 a2 3c 5f 28 12 3d 13 33 92 bc 74 25 da bc
       0.01987624 0.035683032 -0.01784662 -0.026629187
0001b0 67 de db 3c 0b 5d 9c 3d 77 07 ae bb 66 08 9f bc
       0.026839448 0.07634934 -0.0053109485 -0.019413184
0001c0 ca c2 62 bc 0e b4 00 3c 4b 28 13 3d dd 29 c9 3d
       -0.013840387 0.007855428 0.0359271 0.09822438
0001d0 e2 85 9b 3d 14 a5 57 3d d5 f2 6f 3c 0a 1c 18 3d
       0.075938955 0.052647665 0.014645298 0.037136115
0001e0 55 f3 6f bd 5e b5 62 bd 56 90 bb bd 0d 18 62 bd
       -0.05858167 -0.055348746 -0.09158389 -0.055198718
0001f0 99 06 88 3c a6 0b 0a bd e9 61 72 3d 5f ed 3f 3b
       0.016604709 -0.033702515 0.059175406 0.0029285771
000200 a9 9f a0 3d 31 5b b2 bd 2b 51 0c 3d 62 4e 05 3c
       0.07842953 -0.087088 0.034257095 0.008136364
000210 7f ba f1 3d a0 2a e6 bb b2 63 98 3c 99 7e bf 3c
       0.118031494 -0.0070241243 0.018602226 0.023375796
000220 c4 1b 0f bd d4 75 34 3d e2 34 d4 3d 65 a0 da 3d
       -0.03493859 0.044057682 0.10361649 0.10675124
000230 49 c4 0b 3d 64 09 2a bc 06 93 6a 3d 05 2b 18 3d
       0.03412274 -0.010378215 0.05726912 0.0371504
000240 c2 53 67 3d 90 e9 bc bc a1 f3 8e 3d 68 04 72 bd
       0.056476362 -0.02306059 0.06980062 -0.059086233
000250 6d c0 ab 3c 75 5e 14 bd 0b b5 9e 3d 1a 3d db 3d
       0.02096578 -0.036222894 0.07749375 0.107050136
000260 e0 13 14 bd de d2 6e bc ac bc 47 bd e7 e2 77 3c
       -0.036151767 -0.014576642 -0.048763916 0.015129781
000270 7f ce 11 bd ef 4c 94 bd 6f c9 fc 3c e5 4d 2c bd
       -0.03559732 -0.072412364 0.03085777 -0.042066474
000280 7d 25 3d bc 5a 21 a0 bd 72 d8 50 3d f6 98 d7 3d
       -0.011544582 -0.07818861 0.05098767 0.10527222
000290 ea 1a a9 3d 23 c4 77 3c 16 7a 08 3d d2 67 0d 3d
       0.082570866 0.015122446 0.033319555 0.03452284
0002a0 eb 1a 06 bd d6 32 ce bc b4 dc 1b bd d2 28 dc bb
       -0.032740515 -0.025170725 -0.038052276 -0.0067187333
0002b0 46 ee 87 bc 2f ea 28 3d cc df 83 3d 00 49 16 3d
       -0.01659311 0.04123896 0.0643917 0.036690712
0002c0 e8 c9 58 3d 3c d6 c1 3d 9b 54 17 bd 14 83 92 bb
       0.052926928 0.0946469 -0.03694592 -0.004471192
0002d0 e6 30 8a bc 90 a3 8b 3c 4a cc 20 bb f1 6c d5 3c
       -0.01686902 0.017045766 -0.0024535828 0.026052924
0002e0 f3 aa 03 3d 50 19 3b 3b be b1 94 bd 31 fd 3e bd
       0.03214545 0.0028549023 -0.07260464 -0.04662818
0002f0 d2 8a 92 bd 6b 16 8a bd 97 53 8e bd 42 23 23 bd
       -0.07155384 -0.06742557 -0.06949537 -0.039828546
000300 64 37 b5 bd c9 ad 9e 3d bb 21 56 3e 0f d8 04 3e
       -0.088484555 0.07747991 0.20911305 0.12973045
000310 52 2f d4 3d 5b 17 c3 bc 24 e7 24 3e 11 51 97 3d
       0.10360588 -0.023814848 0.16103798 0.07388509
000320 89 71 cf 3d cc 34 72 3d 67 63 b0 3d 2f fc fa 3c
       0.10129077 0.059132382 0.086127095 0.030637829
000330 86 6b e0 3d 08 63 92 3d 74 83 b9 3d fd 74 8c 3d
       0.109580085 0.07147795 0.09058276 0.06858251
000340 c7 3a ef 3d 55 56 84 bc 77 d8 b0 bb 7c 1d b0 3d
       0.11681133 -0.016154448 -0.0053968984 0.08599374
000350 78 5a 48 3d e8 c2 23 bd 81 8f df 3c 25 43 8a 3d
       0.048914403 -0.0399808 0.027290108 0.06751088
000360 69 07 b1 3c 91 85 35 3d 36 6d 1b 3d b6 e3 fe bc
       0.021609979 0.044316832 0.03794595 -0.03111444
000370 35 c5 ae 3d b5 4b 8e bc fb 47 46 bd 9b 58 1c bd
       0.08533708 -0.017370084 -0.04840849 -0.03817044
000380 8d 7b 91 bd 0d ba 14 bc 04 80 c1 3b d6 33 9e bd
       -0.071036436 -0.009077561 0.005905153 -0.07724731
000390 8f fe 9b bd ba 99 c0 3d c4 83 3e bd b5 e6 da bc
       -0.076169126 0.09404321 -0.04651238 -0.026721338
0003a0 04 3e 45 3d 99 c0 7b bc 9b 46 89 bd 0d 01 b1 bc
       0.048154846 -0.015365743 -0.0670292 -0.021606946
0003b0 e7 b0 7a bb a5 45 b4 bc 1d bd c2 3c 7e 1f 94 bd
       -0.0038252415 -0.022005865 0.023771817 -0.07232569
0003c0 e1 92 a9 3c 5c be 53 3d ef 34 d2 3b 90 7b a5 3c
       0.02069992 0.051695213 0.0064150016 0.02020052
0003d0 a4 f5 ee bc c3 42 a2 bc 05 4f b0 ba 98 a6 1f 3c
       -0.029169865 -0.019807225 -0.0013451284 0.009744309
0003e0 50 0c 8c 3d e4 4c 88 bd fe d5 56 bd 3e de 87 3d
       0.06838286 -0.06655291 -0.052450173 0.06634186
0003f0 62 5c c0 bc 73 f3 2e 3d 79 78 a6 bd 8a af ac 37
       -0.023481552 0.04271264 -0.08128447 2.058574e-05

t_model.t_model.0.bias f4 [64]
000000 f6 e2 09 be df e9 f7 bd 97 d0 a1 be 3c a0 91 3d
       -0.13465485 -0.12105154 -0.31604454 0.071106404
000010 90 b9 63 bd 09 91 73 be 17 e2 76 be 31 19 4a be
       -0.055596888 -0.23785795 -0.24109684 -0.19736172
000020 1d 61 88 be e6 1c 44 bd aa 47 f2 bd 1a 6f 4f be
       -0.26636592 -0.047879122 -0.11830075 -0.20257226
000030 6a 76 38 be c1 26 1f ba 24 52 b2 bd 52 ac 33 bd
       -0.18013921 -0.00060711434 -0.08707073 -0.04386551
000040 75 f6 7b be ba 40 0f be 9f 72 2a bd 6f 5c 80 be
       -0.24605735 -0.13989535 -0.041613217 -0.2507052
000050 ac ff 0b be 50 ae ed 3b 92 a7 c8 bd 05 04 51 be
       -0.1367175 0.0072534457 -0.097975865 -0.2041169
000060 a5 a0 36 be 82 4b b7 3d 05 e6 b6 bd 56 7b 1e be
       -0.17834719 0.08949949 -0.089305915 -0.15476736
000070 71 3a 88 be b8 ad 1d be 6c c6 04 be c4 a7 64 be
       -0.26607087 -0.153983 -0.12966317 -0.22329623
000080 dd 5a bb bd 0c ad 1d be 2a 9f 3e 3e 92 01 55 3c
       -0.0914819 -0.15398043 0.18615404 0.013000863
000090 b3 f0 85 be 05 29 25 bd 46 86 8f bd 3d 2b c5 bd
       -0.261602 -0.040322322 -0.070080325 -0.09627388
0000a0 36 27 58 bd b2 76 3f be d8 84 3a be c0 31 29 be
       -0.05277177 -0.18697622 -0.18214738 -0.16522884
0000b0 47 48 22 be 0a 33 76 be 4b d3 ea bd 25 8f f4 bd
       -0.15847884 -0.24042907 -0.11466082 -0.11941365
0000c0 cc 13 d3 bd fb 65 77 be cc 6b 79 bd 58 3d df bd
       -0.1030651 -0.24159996 -0.06089382 -0.10900372
0000d0 bb 21 11 be 7c af 1a be 71 3a a1 3c 21 00 74 bd
       -0.14173023 -0.15106004 0.019681187 -0.059570435
0000e0 69 ce 85 be c7 32 60 be 35 e4 7d bd b6 89 4c be
       -0.2613404 -0.2189437 -0.061985213 -0.19974408
0000f0 de db a3 3d 24 05 a8 bd 47 70 15 be ca 21 3b be
       0.08000921 -0.082041055 -0.14593612 -0.18274608

t_model.t_model.2.weight f4 [64, 64]
000000 19 32 5a 3d 82 bb f0 bc 7c 35 51 bd e4 1b de 3d
       0.053270433 -0.029386286 -0.051076397 0.108451635
000010 2f b9 9a 3d a3 f4 eb bd 04 54 04 3e 9c 9e f5 bb
       0.07554852 -0.1152127 0.12922674 -0.0074957144
000020 c5 7e 22 3d c2 57 1c be 48 aa b4 3c 0d 88 8e 3c
       0.039671678 -0.15267852 0.022053853 0.017398858
000030 45 a5 8a 3d ce 8c 6c bd ba 34 ed bc b1 90 44 bd
       0.06769804 -0.05775147 -0.028955806 -0.04798955
000040 42 e3 28 bd 18 c3 eb bc c7 e5 85 3d 3a 07 cd bc
       -0.041232355 -0.028779551 0.06537967 -0.02502786
000050 7d 31 45 3d 6f f3 33 be ef 23 13 bc d5 18 02 bd
       0.0481429 -0.17573331 -0.008980735 -0.031761963
000060 98 e9 49 bc 4e 6c 22 3e 6d f2 8c bd 1b 79 45 3c
       -0.0123237595 0.15861627 -0.068821765 0.0120528
000070 1f 6c cc bd dc 09 c1 bd 37 43 40 3d b0 78 2d bc
       -0.0998156 -0.09425709 0.0469391 -0.010587856
000080 a7 21 cb bd 65 74 1a bd 23 60 d0 3d 33 89 02 be
       -0.09918528 -0.03770866 0.101745866 -0.1274765
000090 16 2c 90 3d 33 e5 4f 3d 69 d1 1d 3e 5c 23 d8 3d
       0.07039659 0.05075569 0.15411915 0.10553619
0000a0 6f 6a ec 3d 3d 28 b1 bd 3e 44 ad bd d3 8d 0c 3d
       0.11543738 -0.08650253 -0.08460282 0.03431494
0000b0 9e 3e 54 3d 23 77 36 3d a6 d2 4c 3d f2 fe 7b bd
       0.05181753 0.04454721 0.050005578 -0.06152243
0000c0 2e fd 8d 3d 08 3e 24 bd e8 3c 64 3d 7c ae 1c 3d
       0.06933056 -0.04009822 0.055722147 0.03825234
0000d0 67 1f ae bd a4 a7 db 3b 93 91 b3 bd 8a cb 5e be
       -0.08502083 0.006703334 -0.087680005 -0.21757331
0000e0 67 4a f1 3d 51 99 0d be 77 ad 2c bd 5c 49 ce 3d
       0.11781769 -0.13828017 -0.042157616 0.10072586
0000f0 93 b0 a1 bb 3d c0 47 be 3f a7 09 3d 20 f0 8d bd
       -0.0049343794 -0.19506927 0.033606764 -0.06930566
000100 7c 5c d0 bb 36 95 36 be 96 f2 76 bd 5f 6d ea bd
       -0.0063586812 -0.17830357 -0.06028994 -0.11446642
000110 d7 b8 f0 bd 34 1e b7 bc ab d5 6a 3c 1e ff 57 3d
       -0.117540054 -0.02235327 0.014333169 0.052733533
000120 dc da 94 bd f1 08 35 3d 25 6b d4 3c 9b 2d 6c bb
       -0.072683066 0.04419798 0.025929997 -0.0036037925
000130 2f 0a 92 3d 88 14 e6 3d 7d f7 34 bc d7 ff 1c be
       0.071308486 0.11234385 -0.011045334 -0.1533197
000140 8f 36 42 3d 17 bd cb bc 9c 3c d7 3a 6e 13 28 bd
       0.047415312 -0.024870439 0.0016421261 -0.041034155
000150 60 d7 23 3b 79 20 47 3d 45 2e 92 bc be c6 a1 bd
       0.00250002 0.048614953 -0.017844329 -0.07899235
000160 24 56 ff 3b ae 2d 29 be 5b 5c 7a bd f0 3b 86 bc
       0.007792251 -0.16521332 -0.061123233 -0.016386002
000170 c0 d9 fe bc 26 10 23 bd 3b f4 ce bd 00 2e 6b 3b
       -0.03110969 -0.039810322 -0.10105177 0.0035885572
000180 cd d5 fc bc 46 8e da 3d 7c 65 21 bd d6 a8 12 3e
       -0.030863667 0.10671668 -0.039403424 0.14322218
000190 cc 0a a3 3d 26 97 2e be 40 9e d3 bd 2c f4 0c bd
       0.07961044 -0.17049846 -0.10332918 -0.034412548
0001a0 56 42 4a 3b 92 18 3f bd 96 28 bc 3d 38 fe 2d 3d
       0.0030862293 -0.04665429 0.09187429 0.04247877
0001b0 5b 0a 8e bc f4 30 f7 bd 14 85 8a 3d e5 a4 87 3c
       -0.017338922 -0.12069884 0.06763664 0.01655812
0001c0 5d 7e fa bc 83 f4 55 bb 55 0e e8 bd c8 e6 7f bd
       -0.030577833 -0.003264696 -0.113308586 -0.06247595
0001d0 bd 31 b3 bd 6c d0 b4 3d 7b fb 80 3c 8e 44 28 3e
       -0.08749721 0.08828816 0.015744915 0.16432402
0001e0 a0 eb ae bd 38 f2 08 3d 98 87 c0 3d 87 ad 03 3e
       -0.08541036 0.033434123 0.094008625 0.12859164
0001f0 11 58 e5 bd 76 3a 45 3d cc fb 44 bd 48 9c 4e 38
       -0.11198438 0.048151456 -0.048091695 4.9259776e-05
000200 f6 a8 02 bd b7 8d 84 3d 1b 96 d8 3c 53 7d a4 3d
       -0.031899415 0.064723425 0.026438763 0.08031716
000210 08 05 b6 3d 45 7f 28 be 23 6b 6f 3d 28 2f 85 3b
       0.088876784 -0.164548 0.058451783 0.0040644594
000220 b8 93 ab bd 76 1c 18 bd d4 79 cf 3d 2a 2c 74 bc
       -0.083777845 -0.037136517 0.10130659 -0.014903108
000230 86 6a cc 3a 89 d6 34 bd f5 5c 20 bd ab 20 e7 3c
       0.0015595711 -0.04414991 -0.03915115 0.02821382
000240 46 0c 06 3d 98 48 e6 3d 17 4c b2 3d 81 99 10 3e
       0.03272655 0.11244315 0.08705919 0.14121057
000250 4c c2 dc 3c 19 2e 0d be 60 c8 63 bd 75 c1 da 3d
       0.026948117 -0.13787116 -0.055611014 0.1068143
000260 8d a2 fe 3d 9f 4c 8f 3d 79 f0 e2 3c db 46 f1 bb
       0.12433348 0.06997036 0.027702557 -0.007363183
000270 fd ec b3 bd e7 57 07 bd ce 7a a6 3d 88 15 73 3d
       -0.08785436 -0.033042815 0.08128892 0.059346706
000280 cf 03 01 be f3 2f 4c 3c a1 0e 66 3d 1b a2 ae bd
       -0.12599109 0.012462604 0.056166295 -0.08527013
000290 a4 0b 33 3d 57 ca 0b 3e d3 f6 90 3d f5 7e da 3c
       0.043712273 0.13651405 0.07078328 0.026671866
0002a0 1b d2 01 3d ae ba ed bd 9e fe c1 3d cf cc b3 3d
       0.031694513 -0.11607872 0.094723925 0.087792985
0002b0 48 5d e7 3d 4f bf 61 bd 6f 81 54 bd bf 45 62 3d
       0.11297089 -0.055114087 -0.05188125 0.055242296
0002c0 f7 3a 2f bd 9a 5c 9a 3c 5d d9 db 3c 53 73 0b bd
       -0.042780843 0.018842984 0.026837045 -0.03404553
0002d0 d5 08 fe 3c 35 e6 f6 bc 5c f1 09 bd b7 1b 68 be
       0.03101007 -0.030139068 -0.033677444 -0.22666822
0002e0 bf 52 c0 3d f8 54 33 bd 51 78 e6 bc cf 87 44 bd
       0.093907826 -0.043782204 -0.028133543 -0.04798108
0002f0 b4 c5 f6 3d 11 96 9b bc a6 be a8 3c a7 04 26 bc
       0.12049428 -0.018992456 0.02059872 -0.010132945
000300 33 49 43 bd 88 46 bd bd bc 0c ba bd c4 92 3b bd
       -0.04767723 -0.092419684 -0.0908446 -0.045794263
000310 3a c4 cd 3b 2e c4 f6 3d 02 6b 99 3c ee 0e 4f bc
       0.0062794955 0.12049137 0.018727783 -0.012637837
000320 f6 77 a9 bd d2 c0 4e 3e 28 9e 13 3c 73 ff 97 3d
       -0.08274834 0.20190743 0.009009875 0.0742177
000330 d3 2f 7e 3c d6 a1 b9 3d fb 82 97 3d e5 d8 56 be
       0.015514332 0.09064071 0.073980294 -0.20981176
000340 53 fe c8 3c 79 45 0d be 7f a4 a5 3d 11 be 4d 3b
       0.024535334 -0.13796033 0.08088016 0.0031393806
000350 2a 0c 12 bd c3 95 63 3c b8 13 1b 3c 49 91 59 bd
       -0.03565613 0.013890686 0.009465151 -0.05311707
000360 1b 14 e8 bd 4c 5e e4 bd ec 81 c2 bd 00 20 66 3d
       -0.1133196 -0.11150798 -0.09497437 0.05618286
000370 17 ef 2a 3e 49 a3 88 3d c0 1a 11 bd 07 de 09 be
       0.16692768 0.06671769 -0.0354259 -0.13463603
000380 36 0e fd bd bf 4d 40 bc 65 3e af 3d 26 c2 1a 3e
       -0.12356226 -0.011737286 0.08556823 0.15113124
000390 c0 5c c3 3d 1e f4 d3 bd d1 52 8e bd 1e 08 8f 3d
       0.09539175 -0.10349296 -0.0694939 0.0698397
0003a0 2f fa 48 3c b9 c2 40 bd 00 2a f4 bc 83 67 d4 bc
       0.01226668 -0.047060702 -0.029805183 -0.025928264
0003b0 68 59 1f bd f4 9b a3 bb 11 5f f6 bc 57 cc c2 bd
       -0.038903624 -0.0049929563 -0.030074628 -0.09511631
0003c0 c6 74 1b be 5a f6 17 3c 65 78 5d 3b 84 fc 61 3d
       -0.15181264 0.009275043 0.0033793685 0.05517246
0003d0 ba 71 a9 bd dc a1 58 3d 24 33 2d bd b9 cb 29 3e
       -0.08273645 0.052888736 -0.0422851 0.1658162
0003e0 6f 6f 6a bd 0b cc 2f 3d a0 90 6c 3d 3c ca a8 bd
       -0.057235178 0.0429192 0.057755113 -0.08241698
0003f0 67 b3 49 bd 30 71 8e bd fb cc 96 bc a0 77 3e bd
       -0.049243357 -0.069551826 -0.01840829 -0.046500802

t_model.t_model.2.bias f4 [64]
000000 b2 c9 5f bd 55 e8 c9 bd 0a 57 3b 3e 46 e5 93 3d
       -0.05463571 -0.09858767 0.18294922 0.07221465
000010 53 59 fd bd 94 3b e0 bc 73 14 0c be 70 37 3c 3e
       -0.12370553 -0.027372159 -0.13679676 0.18380523
000020 3c 76 20 be 26 1b f1 bc ba 84 83 3d de 34 46 3c
       -0.15670103 -0.02943189 0.064218 0.012097565
000030 b9 3c 15 bd 29 02 b2 bc 0d 2d 87 3c 23 c4 1a 3d
       -0.036434863 -0.021729546 0.016500974 0.037784707
000040 2c 76 2e 3d c1 c9 ad 3d b5 d1 65 3d 9b 16 ca bd
       0.042593166 0.08485747 0.056108195 -0.09867593
000050 8a c5 47 3b d4 e5 a5 3e fa a1 94 bc 9c fd 05 3e
       0.0030482733 0.32401907 -0.018143643 0.13085026
000060 4c 1e 19 3d 43 fc a6 bd 87 bc 38 be c6 e8 3c 3e
       0.03738241 -0.08153584 -0.18040667 0.18448171
000070 43 7d a1 bd 50 44 55 3d ed 0f e5 bc 15 2c ca 3d
       -0.0788522 0.0520671 -0.027961696 0.09871689
000080 6f 1d 19 bd 06 1a 55 bd 5b f8 52 3d 65 94 93 bd
       -0.037381586 -0.05202677 0.05150638 -0.072060384
000090 ce 24 26 be e4 4c 2d 3d de 2b c0 bd 6f 45 83 3d
       -0.16224977 0.042309657 -0.09383367 0.06409728
0000a0 1e 5b 2c be 98 66 7b be 59 f5 a7 3a 36 2d f2 3c
       -0.16831633 -0.24550855 0.0012814208 0.029562574
0000b0 bf 9c 65 3d 48 37 8b 3d cd 08 20 3e 13 61 4d bd
       0.056057688 0.067976534 0.15628357 -0.050141405
0000c0 8d 7d f2 3b aa b9 25 3e 7b be 92 bb ac a0 1c 3e
       0.0074002207 0.16184106 -0.0044782734 0.15295666
0000d0 50 22 e8 3c d9 d2 d5 3d 64 92 e2 bd 0f 69 7e 3d
       0.028336674 0.104406066 -0.11063078 0.06211191
0000e0 b9 c8 17 3e d6 e4 68 bd e1 ad 86 3d a2 00 a1 3e
       0.14822663 -0.05685886 0.065761335 0.31445795
0000f0 60 d4 3b 3e b5 aa 01 3e f5 02 16 3e d8 c7 c6 bc
       0.18342733 0.12662776 0.14649566 -0.024265215

s_model.x_model.weight f4 [64, 32]
000000 d8 43 19 3e 06 cf db bc 6b 9e 1e 3f ff bf f3 bc
       0.14967287 -0.026832115 0.61960477 -0.029754637
000010 de 94 76 3e e5 d5 23 3e b2 46 39 be 01 63 2d 3d
       0.24080226 0.15999563 -0.18093374 0.042330746
000020 89 c0 0b 3e eb d9 0b 3c 12 75 be 3e eb b4 e9 bd
       0.13647665 0.008535842 0.37198693 -0.114114605
000030 82 5d 89 bd 4b 30 1f bd a8 5e bc 3e 30 ea 56 3c
       -0.06707288 -0.038864415 0.36790967 0.013117358
000040 dd e2 18 bd 3c ef b0 bc 8f e1 21 3e 5c 80 30 bc
       -0.03732573 -0.02159845 0.158087 -0.010772791
000050 da f6 aa bd 34 d5 89 bd 09 03 42 be 80 1b e1 3c
       -0.083478644 -0.067301184 -0.1894647 0.027478933
000060 75 ac de 3c ca aa 8d 3d de 84 dc bd 1f 0c a8 bd
       0.027181843 0.06917341 -0.1076753 -0.08205437
000070 21 73 34 3e a5 69 1e be eb 10 f3 bc 84 3e 7c 3c
       0.17622043 -0.15469988 -0.029671153 0.015395764
000080 1c b7 28 bf 45 fb 1b bd ae cc 83 be 2e 61 2b bc
       -0.659044 -0.038081426 -0.25742096 -0.010460181
000090 54 97 41 bd da 82 56 be 90 67 03 3e 2d c0 a1 bc
       -0.04726346 -0.20948353 0.12832475 -0.019744957
0000a0 49 38 e1 3c 66 77 03 3e 20 9d 00 3e 3f f3 26 be
       0.02749266 0.12838516 0.12559938 -0.16303729
0000b0 b1 15 28 be f5 16 25 be ce 99 36 be c2 1a 0f bd
       -0.16414525 -0.16122039 -0.1783211 -0.034937628
0000c0 47 6f 3c bd f4 04 f1 3d 76 c8 62 3c 12 19 69 3d
       -0.04600456 0.11768523 0.013841739 0.056908675
0000d0 a7 f4 96 bc 8c ff 8e 3a aa 9b 26 be 78 c8 3b 3d
       -0.018427206 0.0010909899 -0.16270319 0.04584548
0000e0 81 df 95 bd a3 89 84 3d c9 b9 35 3e 0f a9 a0 bc
       -0.073180206 0.064715646 0.17746653 -0.019611863
0000f0 1f 16 e1 3d 25 75 93 bd 93 d5 0c bd 3b 8d be bd
       0.109905474 -0.07200078 -0.034383368 -0.09304281
000100 ce 93 f9 3e f2 aa 48 bd 69 94 2c bf ff ad 3c bd
       0.4874558 -0.04899115 -0.67413956 -0.046064373
000110 83 9c 4c 3d 43 4f be 3d f4 4e 12 3d 7f 52 68 3d
       0.04995395 0.09292462 0.035719827 0.0567193
000120 39 9d 59 3e cc cd 36 3c 36 7a 71 3e f2 c7 cb bc
       0.21251382 0.011157464 0.23581776 -0.024875615
000130 11 67 e0 3d 8d 00 d4 3c 35 cf 82 be 98 21 82 bc
       0.10957158 0.025879169 -0.2554871 -0.01588516
000140 db 40 ed 3c a5 13 4b 3d dc 63 83 be 85 58 06 bd
       0.02896159 0.04957928 -0.25662124 -0.032799263
000150 cd 78 ea 3e ab ef 00 3b f6 21 6c bd ac c5 f0 bc
       0.4579529 0.0019674103 -0.057649575 -0.029391132
000160 db b2 af 3d a3 ec 81 bd 8e 09 80 bc dd 6c 54 3d
       0.08579036 -0.06343963 -0.015629556 0.051861633
000170 f0 5c 88 bd 31 12 d7 bd f4 d4 e9 3d 99 c4 43 3c
       -0.066583514 -0.105015166 0.11417571 0.011948728
000180 00 1e 97 be 65 92 4c 3d 59 3c 93 3d cd 65 79 3d
       -0.29515076 0.0499443 0.07189245 0.0608881
000190 81 8c 9f be e7 21 74 3d 56 f4 7f 3b 63 98 53 bd
       -0.31161883 0.059602644 0.0039055548 -0.051659
0001a0 eb 3a 41 be 70 c7 1e be 19 3b 4d bd 3c 43 02 be
       -0.18870132 -0.15505767 -0.050105188 -0.1272096
0001b0 58 89 1c be 23 ce 08 bd 99 77 20 3e ff fd 0f be
       -0.15286767 -0.033399712 0.15670623 -0.14061736
0001c0 c4 66 cd 3d 46 97 09 3d eb ca 9e 3d e7 1c ac 3c
       0.100293666 0.03359153 0.07753547 0.021009875
0001d0 0f f8 95 bd 6c f7 c6 bd e9 97 0d be 38 be 73 bd
       -0.07322704 -0.09715161 -0.1382748 -0.05950758
0001e0 89 46 9e bd ca 18 e4 bd 95 c6 cd 3d 56 be e9 3d
       -0.07728297 -0.11137541 0.10047642 0.11413257
0001f0 94 54 ec be 38 ea 1f 3b ef 9f 85 bd 58 b1 0f bd
       -0.46158278 0.002440108 -0.065246455 -0.035081238
000200 aa b8 81 3e 60 c3 0b 3e 7f 30 cd 3d 6f 9a 04 be
       0.253362 0.13648748 0.100190155 -0.12949537
000210 2d 74 1c 3e c3 2d aa bc 01 c7 43 be ca 51 68 3d
       0.15278693 -0.020773774 -0.19118883 0.056718625
000220 41 ea 00 bf c8 f2 55 3d 5e 6d fc 3d 6b 9a 0b 3d
       -0.50357443 0.052233487 0.12325548 0.03408281
000230 d7 7d 0c 3d ab 8b a0 3d a5 13 8f bd 77 e9 a0 3b
       0.034299698 0.078391396 -0.06986169 0.0049106437
000240 8f 57 7f 3d b3 26 92 3d ef 58 14 be 30 5c ca bd
       0.06233936 0.071362875 -0.1448705 -0.098808646
000250 f7 90 23 3d f2 16 09 3e db a6 41 3e ba 3b 71 3d
       0.03993317 0.13387659 0.18911307 0.05889485
000260 bf 73 03 be 1f 1c fd 3d b2 0a 7f be 28 53 1f be
       -0.12837122 0.12358879 -0.24906424 -0.15559065
000270 b5 4f 25 3e 92 6e 4c 3d 1d ce 71 3d 24 7a a5 bd
       0.16143687 0.049910136 0.059034456 -0.08079937
000280 8d 8a 82 be ca 07 9c 3d cc 2c 37 bc 0e 8c 5d 3c
       -0.2549633 0.07618673 -0.011180114 0.013522161
000290 93 cf 7f be b9 bf 0d 3e 7d a4 5e 3e 48 2c 50 3d
       -0.24981527 0.13842668 0.21742435 0.05082348
0002a0 05 ae 9d bd dd 1f 29 3e 04 14 55 3e 50 95 c5 bd
       -0.07699207 0.16516061 0.20808417 -0.0964762
0002b0 0a cc 92 3d bc 59 ba 3d 36 07 87 3d 6b 80 6a 3d
       0.071678236 0.09099147 0.06593172 0.057251375
0002c0 14 6a 66 3e d9 33 9d 3d 68 2e 14 be c2 70 c8 3b
       0.22501403 0.07675905 -0.14470828 0.0061169574
0002d0 b3 43 c8 3c ed a6 2e bd cf 24 ed 3d b1 4c 53 3e
       0.024446344 -0.04263966 0.11579286 0.20634724
0002e0 96 ae 6d 3c 74 e1 18 be 25 a9 ec bd 7f e1 e2 bb
       0.014506957 -0.14929754 -0.11555699 -0.006923854
0002f0 05 de dc 3d db 11 8b 3d 88 ed 95 be 6a eb e6 3d
       0.10784534 0.06790515 -0.29282784 0.112753704
000300 e6 a0 96 be d1 83 11 bc 6b fe 0d be fd a1 42 3d
       -0.2941963 -0.008881525 -0.13866584 0.047517765
000310 26 98 1b 3e 16 36 c9 3d ac 6e 40 be 49 ad 68 bc
       0.15194759 0.09824769 -0.18792218 -0.014201471
000320 24 a8 49 3e 88 2d 28 be 51 d7 75 3d 0a da 05 bd
       0.19693047 -0.16423619 0.060019795 -0.03267864
000330 ab 51 24 3d 4b 61 33 bb 67 d3 b3 3c 3e 6d 9c bd
       0.040116947 -0.0027371224 0.02195139 -0.07638024
000340 4d 82 65 3e 2a 58 5b 3d 90 dd 8f be f6 06 43 bd
       0.22412987 0.053550877 -0.28098726 -0.04761406
000350 8e e0 3e 3e 4b b6 65 3d 33 2a 09 3d b5 c9 28 be
       0.18640348 0.05608205 0.03348751 -0.16483195
000360 a2 d6 3c 3e b8 f1 b9 bd 20 41 04 bc ec b0 9d bd
       0.18441251 -0.09079307 -0.008072168 -0.07699761
000370 8b ca 03 3e 4c 44 33 3e d4 24 74 3e 6d a2 3a be
       0.12870233 0.17506522 0.23842174 -0.18226023
000380 6e f9 82 3d 7c 54 b7 3d 0b d9 10 bc 9a 3c e1 bd
       0.06395231 0.08951661 -0.00884081 -0.10997887
000390 51 e4 18 3e e2 31 9d 3d 21 c7 e1 3c 8f 71 bc bd
       0.14930846 0.0767553 0.027560772 -0.09201347
0003a0 1d e9 97 3d 6d ea df bd 8a bd 0f bf 55 06 69 3d
       0.0741751 -0.10933385 -0.5614859 0.056890804
0003b0 e0 76 f0 3c 30 37 d9 bc ea df 42 be 9f b8 a3 3c
       0.029353559 -0.026515573 -0.19030729 0.019985495
0003c0 cc 62 06 3e 32 c6 07 3e 6a 8e 42 3e 04 cb 8f 3d
       0.13123626 0.132592 0.18999639 0.07021144
0003d0 ed 68 50 3e 9a 91 a2 3d db 61 b7 3d 21 3e 4c bc
       0.20352526 0.079379275 0.08954211 -0.012465985
0003e0 04 58 41 be 92 1d 5e 3d d0 55 5f 3e f3 07 90 3a
       -0.18881232 0.05422742 0.21810079 0.0010988697
0003f0 53 48 2c bc af 53 f9 bd c4 50 5e be 0f 97 bc bc
       -0.01051529 -0.121741645 -0.21710497 -0.02302125

s_model.x_model.bias f4 [64]
000000 96 29 47 3d 2a 92 97 3d 1d d5 46 3d b2 dc 34 3d
       0.048623644 0.074009255 0.048543084 0.044155784
000010 59 a0 08 3e 28 52 5b bb fa 74 06 be ee 02 72 3e
       0.13342418 -0.0033465717 -0.1313056 0.2363393
000020 88 37 31 bd c8 d2 ca 3d 6b d3 25 3e fc 6f d1 3d
       -0.04326585 0.099034846 0.16193931 0.102264374
000030 a2 16 7a bd a9 a0 dc bd 63 84 e9 3d e0 54 e0 bd
       -0.06105674 -0.10772831 0.11402204 -0.109536886
000040 c8 aa f0 bc 59 d2 2b 3e bc a4 76 3e ff 92 18 be
       -0.02937831 0.1677946 0.24086279 -0.14899825
000050 84 14 61 bd b1 b3 9b 3e 4c 41 85 3d c5 4a 8b 3e
       -0.054951206 0.3041053 0.06506595 0.27205482
000060 ec 3b 61 3e cf 80 f3 3c 3b 09 ff bd 4d 68 02 3d
       0.21995515 0.029724507 -0.124529324 0.03183775
000070 10 50 ac bd e9 44 27 3e 8b 15 54 3c 49 c8 fa 3d
       -0.08413708 0.16334881 0.012944589 0.122452326
000080 d2 e6 60 bd ec a2 20 3e e0 7e 9b bd cb 79 ed 3d
       -0.054907627 0.1568715 -0.07592559 0.11595496
000090 a6 b0 03 be 42 e5 f8 bd 57 64 85 bc 00 86 08 3e
       -0.12860355 -0.121531025 -0.016283197 0.13332367
0000a0 f2 20 66 3d 0d e8 41 be b7 d7 5e be bd 5d de bc
       0.056183763 -0.18936177 -0.21761976 -0.027144307
0000b0 86 09 ca 3d 3b 78 93 3d 5b df 24 3e b1 64 db bd
       0.09865098 0.072006665 0.16100828 -0.10712565
0000c0 47 ef d3 3c 84 67 78 3e 0c da fc bc 45 55 63 3e
       0.025870932 0.24258238 -0.030865692 0.22200496
0000d0 cc 35 1f be e5 9a 89 3c ec 06 84 be 0a 7e 41 3e
       -0.15547866 0.016797492 -0.2578653 0.18895736
0000e0 44 43 24 3e 78 fa ae bd 3a a7 df bd b6 2a 46 3e
       0.16041285 -0.08543867 -0.10920568 0.1935223
0000f0 fe 41 cd bc 59 91 d7 3d 59 17 78 3d aa 3a 23 bd
       -0.025055882 0.1052577 0.06056914 -0.03985087

joint_model.model.1.0.weight f4 [64, 64]
000000 34 e0 aa 3d f0 49 55 bc 3c 02 03 be 1d 3d 30 be
       0.083435446 -0.013018116 -0.12793821 -0.17210813
000010 f3 bd 71 3e a6 d7 c8 bc d4 82 bb 3d 23 e0 11 be
       0.23607616 -0.024516892 0.09155813 -0.14245658
000020 ee 95 0c be 41 ef b3 3e 3c 6c da bd ec 4b 55 be
       -0.13729069 0.35143474 -0.10665175 -0.20829743
000030 6c ef 14 be a5 04 86 3d 54 0b f3 3d 33 e9 3b 3d
       -0.14544457 0.065438546 0.11867395 0.045876693
000040 b9 3e cb 3d 87 15 02 3e 15 8c cc 3d 34 70 84 3e
       0.09924073 0.12703525 0.09987656 0.25866854
000050 ff d6 ed 3d d3 87 22 bd 60 9c 13 3e ca 2f b9 3d
       0.11613273 -0.039680313 0.14415121 0.09042318
000060 b5 3a 1f bd a3 70 27 bd 6d 60 38 be ac 79 46 bc
       -0.038874347 -0.040878903 -0.18005534 -0.01211397
000070 02 bc 14 be b8 68 4c 3e 3d e1 72 3e 4d 13 90 bd
       -0.14524844 0.19961822 0.23718734 -0.07034931
000080 f5 e8 d3 bc 42 61 d1 be 4a 51 cb 3d 38 80 ec 3c
       -0.025867919 -0.40894514 0.09927614 0.028869733
000090 eb 15 78 3c 57 34 06 3d de e3 bd 3c 0f bc 31 3e
       0.015141944 0.03276476 0.023179945 0.17356895
0000a0 29 4a a9 3d bc 91 96 3d 73 db 57 3e 9b f3 4f 3e
       0.08266098 0.073520154 0.21079807 0.20307772
0000b0 fe fa 13 3d 6a 72 c4 bd 33 96 9e bd 60 ad 09 3e
       0.036128037 -0.09592135 -0.07743492 0.13445044
0000c0 86 f1 12 3d c8 aa ca 3d 61 fe 91 bd dd 10 6e 3e
       0.035874866 0.09895855 -0.07128597 0.2324862
0000d0 05 5d 60 be a5 cc 03 3e 64 c5 ba 3e 61 4a eb bd
       -0.21910484 0.12871034 0.36478722 -0.11488796
0000e0 d0 08 62 bd 02 97 8d bc 98 38 2c be bf 73 8b bd
       -0.055184186 -0.01728392 -0.16818464 -0.06809186
0000f0 6e 81 a5 3d 34 c6 50 bd c1 70 a9 3d a2 95 84 3d
       0.080813274 -0.05097027 0.08273459 0.06473853
000100 c1 3e 34 3d bc 66 28 be 17 6b d0 bd 49 86 34 bd
       0.04400516 -0.1644544 -0.10176676 -0.044073377
000110 ec 77 9c be f7 97 9d bc e9 31 51 be ba d5 9e ba
       -0.30560243 -0.019237502 -0.20429195 -0.0012118139
000120 6f 08 ba 3d a7 dc 61 bd 21 5c f2 3d 4a e4 2c 3e
       0.0908364 -0.05514207 0.118339784 0.1688396
000130 fc 30 4f be ff 28 29 be ac 3c 2e be 52 9e 01 3e
       -0.2023353 -0.16519545 -0.17015332 0.1265805
000140 c1 e4 14 bd ea 79 a2 3d 98 3f ea 3d 7a 2f c4 3d
       -0.03635097 0.079334095 0.11437911 0.09579368
000150 84 6c 8c bd ff 63 01 3e a1 97 30 be 05 cd 5f bd
       -0.06856635 0.12635802 -0.17245342 -0.05463888
000160 8c fa 07 3c 6e 67 3d be 10 be f0 3d 04 f8 ee bc
       0.008299481 -0.18496487 0.117550015 -0.029170997
000170 15 16 81 3e df a6 49 be 72 b9 32 be df d2 a6 3d
       0.2521216 -0.19692563 -0.17453554 0.08145689
000180 54 45 a8 bd b7 6a 7c 3d 5b b8 4d be 33 83 03 3d
       -0.08216348 0.06162521 -0.20089857 0.032107543
000190 47 6e 5c be d3 a9 a4 be e3 6d 97 be ce f2 ff 3b
       -0.21526442 -0.32160816 -0.29576024 0.007810927
0001a0 26 59 49 bd 3c 49 04 bd 6e 26 c4 bd 88 52 9b be
       -0.049157284 -0.032296404 -0.095776424 -0.30336404
0001b0 c6 b6 21 be 87 6d 05 bd 31 39 00 bd 50 25 13 be
       -0.15792379 -0.032575157 -0.031304542 -0.14369702
0001c0 6b 8b 75 3c 90 5b 9b bd 4e 42 46 be 18 cb cc bd
       0.014986853 -0.075858235 -0.1936123 -0.099996746
0001d0 86 10 d3 bc ca c3 99 3c a5 85 c2 be 9d 5a fb bd
       -0.025764715 0.018770117 -0.37992588 -0.122731425
0001e0 51 d0 ba 3d 0a af 9d 3d 96 02 f7 3a 77 b8 94 bd
       0.091217645 0.07699402 0.0018845375 -0.072617464
0001f0 1a fc de 3d f2 81 40 be 06 85 28 3c de c7 63 be
       0.10887928 -0.1879957 0.0102856215 -0.22244212
000200 d6 9f 67 3d 95 b7 aa bc 1c 70 ad bc 30 8a d7 3b
       0.056548916 -0.020839492 -0.021171622 0.0065777525
000210 33 a5 a1 bd 80 36 e7 bc e0 9a 37 be 18 9d 08 3d
       -0.078928374 -0.02822423 -0.17930174 0.03335294
000220 ef b8 8d bd a0 29 1f bc 13 80 e0 bd 1b e5 3d be
       -0.06920039 -0.009714514 -0.10961928 -0.18544428
000230 52 5b 12 3e 8f 55 4d bd 9a 39 a6 3d ae 58 d3 bc
       0.14292648 -0.050130423 0.081164554 -0.025799122
000240 1c 61 a2 3e d1 14 34 be cc 5f 36 3d 18 ff 35 3e
       0.31714714 -0.17586066 0.044524953 0.17773092
000250 97 a2 4d bd ad c9 2b 3d 87 3a 23 bc bf ac 14 be
       -0.050203886 0.04194038 -0.0099626845 -0.14519022
000260 4e 21 74 bd 33 9d 0a be a4 da a3 3d 2b 5c 1d be
       -0.059602074 -0.13536529 0.08000687 -0.1536719
000270 c7 33 20 bd 96 c6 2c 3e b7 cc 73 3c 67 b9 34 3d
       -0.03911188 0.1687263 0.014880351 0.044122126
000280 89 75 3d 3e e9 f1 41 bb dd 97 dc 3d 01 63 9f 3d
       0.18501867 -0.0029593653 0.10771153 0.07782555
000290 ff 8f 4c 3e c3 cd 81 bd f5 e5 01 be 92 12 62 3d
       0.19976805 -0.06338074 -0.12685378 0.05519349
0002a0 87 51 92 3e 40 c6 73 3e e9 7b 04 be 75 1b 39 3e
       0.28577825 0.23806095 -0.12937893 0.1807688
0002b0 19 48 c4 3c 78 61 62 bb dc d7 3f bc a9 0e af bc
       0.02396016 -0.003454296 -0.01170918 -0.021369295
0002c0 1f eb 3d be 4d 6f ba 3d a3 99 2c 3d 1f 28 64 3e
       -0.18546723 0.0910326 0.042138707 0.2228093
0002d0 19 61 e4 bd 4e a0 97 3d ec 53 43 3e 20 a7 2d 3e
       -0.111513324 0.074036226 0.19074982 0.16958284
0002e0 3b 99 6a 3d 5f f1 cd 3d 3f 52 c1 3d 75 49 81 bc
       0.05727504 0.100558035 0.09439515 -0.015782097
0002f0 1b 8d 1e be 30 84 6f bd 0a b2 5a 3d 22 04 c1 3d
       -0.15483515 -0.058475673 0.053392448 0.094246164
000300 29 09 fa bd e6 f1 36 3e 30 d7 3b be b9 aa 96 3e
       -0.122087784 0.17865714 -0.18343806 0.29427126
000310 a4 fb d6 bd 63 ef a7 3d 16 77 bb 3d 83 9b 6a bd
       -0.104972154 0.08199956 0.09153573 -0.057277214
000320 b8 86 09 be 88 23 0c be dc ca 09 bc 32 0f 9a 3c
       -0.13430297 -0.13685429 -0.008410182 0.018806074
000330 08 14 c5 bd 40 fb 82 be 3d c0 e0 bc 09 a2 47 bd
       -0.09622961 -0.25582314 -0.027435416 -0.048738513
000340 9b 3f 2d 3e dc b4 ce bc 8b df e0 3c 31 10 d2 3c
       0.16918795 -0.025232725 0.027450344 0.025642486
000350 26 d7 12 be 43 81 be bd f9 97 d7 bd 8c 0a 9f 3d
       -0.14339885 -0.093019985 -0.10527033 0.077656835
000360 ff ce 18 be 4a ff 16 3d 45 51 8f 3c 6f 08 a7 3d
       -0.14922713 0.036864556 0.017494807 0.081559055
000370 19 83 7a 3e 86 59 c2 3d 72 d8 bd 3e 4f 00 1e be
       0.24464072 0.094897315 0.37079197 -0.15429805
000380 cc 4e d1 bd f2 ea 50 be f3 d0 db bd ef 64 49 bc
       -0.102201074 -0.20402125 -0.10733213 -0.012292131
000390 e9 26 83 3e c4 26 6e be 8b 71 b7 3e 8b 4f 00 be
       0.25615624 -0.23256975 0.35828814 -0.12530343
0003a0 63 59 11 be 1f 97 7c bd a2 25 39 be 8c e4 22 3e
       -0.14194255 -0.061667558 -0.18080762 0.15907496
0003b0 45 e4 10 be fb 1f 39 be 26 30 e2 3c ca 24 a2 3d
       -0.14149578 -0.18078606 0.02761085 0.07917173
0003c0 e7 9e 28 3e ed 1c 3d bd e5 6e 32 be 7b 6c 2e bd
       0.16466866 -0.046170164 -0.17425115 -0.042583924
0003d0 0d f6 f8 3d 0c 05 3b bd 82 41 1c 3e bd 8a de 3d
       0.121563055 -0.04565911 0.15259364 0.10866306
0003e0 ca 39 b5 bd e5 bd ec bd bd f7 2d be 65 45 a1 bd
       -0.08848913 -0.11559657 -0.16989036 -0.07874564
0003f0 fa 73 c4 3d 9c 93 1b 3e 76 52 69 3e 55 00 eb 3b
       0.09592433 0.15193027 0.22785363 0.0071716704

joint_model.model.1.0.bias f4 [64]
000000 0c 03 8c 3d 92 86 38 3e be 77 d7 bd 0c ae 4c be
       0.06836519 0.18020085 -0.10520886 -0.19988269
000010 99 a7 f7 3d 72 6d dd bd 0b 72 d0 3b 5f ed 2f 3e
       0.120925136 -0.10811891 0.006361251 0.17180394
000020 4c a0 d4 bc 3e 91 0e 3e 00 22 70 bd f3 b0 9e 3d
       -0.025955342 0.13922593 -0.058626175 0.07748594
000030 4e 62 55 3e 83 4b 3a be cc 9d 71 bd b3 5b 66 3b
       0.20838282 -0.18192868 -0.058988377 0.0035149872
000040 2f 1c 08 be 68 19 1d be 62 8e 50 bb 6e 6e 59 3c
       -0.13292001 -0.15341723 -0.0031823148 0.013270957
000050 28 7f ff bd 9e e3 8e bc 56 23 18 be c6 a3 0c bd
       -0.12475425 -0.01744252 -0.1485723 -0.034335874
000060 60 20 70 be 93 ff 84 3e aa 07 cc bd a7 70 82 bd
       -0.2344985 0.25976238 -0.09962399 -0.06369143
000070 4a 26 3f bd 1f 66 ae 3b 7e cc a3 bd 32 ad 81 3d
       -0.046667375 0.0053222324 -0.07997988 0.063318625
000080 6a dc 8f bd 5a 8c 80 bd 59 6c 7c be e5 2a a6 3d
       -0.070244625 -0.0627677 -0.24650706 0.0811365
000090 3d 50 6d 3c f1 ef 5a 3d a8 52 e7 bd 48 eb 48 be
       0.014484462 0.053451482 -0.11295062 -0.19621003
0000a0 c0 15 a5 bd a6 91 61 bb a9 f3 35 bc 70 2a ec bd
       -0.08060789 -0.0034419089 -0.011105456 -0.11531532
0000b0 56 74 54 3e 93 1a 4d be 56 bb e7 bc 8d e6 8d 3d
       0.20747504 -0.20029669 -0.02828757 0.0692874
0000c0 cc 23 cf bd fe 6a c2 3d 5e 64 39 be 91 4c 54 be
       -0.101142496 0.094930634 -0.18104693 -0.20732333
0000d0 34 6c bb bd 8a 46 68 bd bc 35 bc bd c5 e1 29 be
       -0.091514975 -0.056707896 -0.091899365 -0.1659003
0000e0 58 9c 4b be 19 44 88 3d aa a0 0c bd 7c 80 12 be
       -0.19883859 0.066536136 -0.03433291 -0.14306825
0000f0 19 92 21 3d 7f 11 40 bd da b0 ed bd f0 1b 09 3e
       0.03944597 -0.046891686 -0.116059974 0.13389564

joint_model.model.2.0.weight f4 [64, 64]
000000 9f c8 b2 3c 32 23 ed 3d 14 ca 17 bd a4 65 c4 3d
       0.02182418 0.115789786 -0.03705795 0.09589699
000010 30 5d a3 bc ac 04 9b be 8d 58 e1 bd b2 10 01 3e
       -0.019941896 -0.30277002 -0.11003218 0.12604025
000020 a4 4f 94 bd 5e 5b a7 3d 48 f1 98 bd d5 87 d6 3c
       -0.07241753 0.08171724 -0.07467896 0.026187817
000030 b0 4c b0 3d c2 64 aa be 58 d0 19 3e cb ba 12 3d
       0.08608377 -0.33279997 0.15020883 0.03582267
000040 b5 b1 00 be 21 4c 95 bd 56 90 cb 3d 40 69 8e be
       -0.1256779 -0.07289911 0.09939639 -0.27814674
000050 1f 0d 0b 3e c7 1f d5 bd ff 22 ed bd 06 9b 54 bd
       0.13579224 -0.10406452 -0.115789406 -0.051905654
000060 f9 ee 21 be 0f d8 04 3e 1f ef 2c be 09 39 79 3e
       -0.15813817 0.12973045 -0.16888092 0.24338163
000070 51 f5 df 3c 66 6d 01 3e 22 fe 50 3e c8 47 66 3e
       0.027338656 0.12639388 0.20409444 0.2248832
000080 51 07 af bd 55 3a 98 bd aa 95 78 be 5d f1 dd 3c
       -0.08546317 -0.07433001 -0.24275842 0.02709263
000090 c6 9a 4e bc c8 30 0e be ce de b9 3c 3e 6a ea bd
       -0.012610143 -0.13885796 0.02268925 -0.11446045
0000a0 5a d1 c5 bd 33 36 61 3d 5a cc 0e be d3 82 21 3d
       -0.09659071 0.05498333 -0.13945141 0.039431404
0000b0 63 a5 d2 bc 55 b7 2e be 9b bb 54 3d bb f6 a5 bd
       -0.025713628 -0.17062123 0.051936727 -0.08103701
0000c0 bc f2 e4 bd 25 ab 22 3e c8 9c 74 be c8 05 23 3e
       -0.111791104 0.15885599 -0.23887932 0.15920174
0000d0 3c cb ed 3c 24 a8 ec 3d e4 80 2f 3c c1 0a 6c be
       0.029027574 0.11555508 0.010711882 -0.23050977
0000e0 6b 80 f5 bd 5a 67 7c bd 18 1f c8 3b c7 74 4b be
       -0.119873844 -0.061622 0.0061072223 -0.19868766
0000f0 61 06 8a bd 35 12 a2 bd d9 39 47 bd 50 34 3e 3d
       -0.06739498 -0.07913629 -0.048639152 0.046436608
000100 f8 dd f7 bd a8 47 04 be 64 bc f0 bd 0c 45 47 bd
       -0.12102884 -0.1291796 -0.11754683 -0.048649833
000110 99 5b 9f be 3e bf 60 3d 38 72 68 be d2 e8 98 bd
       -0.3112457 0.054869883 -0.22699821 -0.07466282
000120 82 b9 13 3d 5a 57 d9 be f5 92 0a be 77 4f 26 be
       0.036065586 -0.42449456 -0.13532622 -0.16241251
000130 97 a0 2b bc 1d c1 38 3d 0e 0b df 3b 44 ab cc 3d
       -0.010475299 0.045106042 0.0068067377 0.09993604
000140 a1 af 45 bd 55 77 99 3c 66 07 7d bd 57 3c ba bd
       -0.048263196 0.01873366 -0.061774634 -0.0909354
000150 7a 32 5e 3e 07 e7 4f 3d 74 6a 04 3e c5 81 02 be
       0.21698943 0.050757434 0.12931234 -0.12744816
000160 5c 02 43 bd d8 47 2b be 39 f1 94 bd 44 8a 3b be
       -0.047609672 -0.16726625 -0.07272572 -0.18314463
000170 8f 2d 11 bd e1 74 8c be 04 ea 1b be 6c ba bc 3d
       -0.03544384 -0.27432922 -0.15225989 0.09215245
000180 e1 ae 0f 3e 87 9b c0 bd 42 39 b0 3d 7c 70 1e be
       0.14031555 -0.094046645 0.08604671 -0.15472597
000190 b6 8b 3a be a3 59 a6 be 27 c8 45 3d 77 68 9d 3d
       -0.18217358 -0.32490262 0.048286583 0.07685941
0001a0 5f 59 95 be fe d5 da 3c 51 3c 53 3e 99 2b fe bd
       -0.29169747 0.026713368 0.20628478 -0.12410659
0001b0 7f 7d 4b be 02 bb 00 3e 7c 34 0f be d9 ad 6d be
       -0.19872092 0.12571338 -0.13984865 -0.23210849
0001c0 ad 09 b3 3c 56 0c 47 3c e4 43 8c 3d 7e 75 de 3d
       0.0218552 0.012148937 0.068488866 0.108622536
0001d0 f3 f2 ab bc 1a 47 82 bd e4 c9 9b 3d 58 d2 e9 3c
       -0.02098987 -0.06361218 0.07606867 0.028542683
0001e0 2b d8 6c 3e df 7f 61 bd ca 45 93 bc 28 62 75 3e
       0.23129337 -0.055053588 -0.017977614 0.23963225
0001f0 9a 4e d1 bd e4 39 c9 3d 3a 00 be 3d 96 68 64 be
       -0.1022007 0.09825495 0.09277387 -0.22305521
000200 6c c0 aa 3d 53 a3 ba bb e4 64 75 3d a1 b7 30 3d
       0.08337483 -0.0056957393 0.05991067 0.043143872
000210 d7 88 92 bd cd e3 ad 3b 0e bf 0b 3e 1b fa 08 bc
       -0.071550064 0.005306697 0.136471 -0.008360411
000220 52 48 1d 3d 97 08 14 3e a0 48 18 3e b1 8d 91 3d
       0.03839905 0.14456402 0.14871454 0.071071036
000230 07 e1 71 bd d7 bd 20 3e 71 0f 31 be 02 78 13 bd
       -0.059052493 0.15697418 -0.17291047 -0.03600312
000240 4e f7 8a 3d 83 cd b4 bc 5a e6 1a be 75 91 2c 3e
       0.06785451 -0.022070652 -0.15126935 0.16852362
000250 2c 8d d1 bd 67 f0 69 3e 97 1a 8b 3c fe 77 a2 bd
       -0.102320045 0.22845612 0.016980452 -0.07933043
000260 7c 05 6a 3e 19 b5 7b 3d 84 82 8c be e0 48 b6 bd
       0.22853655 0.061452005 -0.27443326 -0.089006186
000270 fe 58 3d 3e 90 b5 40 3e 04 28 9b 3d 5b 69 b2 3e
       0.18490979 0.1881926 0.07575992 0.34846005
000280 eb 38 05 3e 0f 5e 73 bd 1e d6 86 3d 8a 1f 56 bc
       0.13009994 -0.059415873 0.06583808 -0.013069043
000290 76 25 33 be ef 9b 13 be e9 eb 56 be 01 1d 72 3d
       -0.17494759 -0.14414953 -0.2098843 0.05910969
0002a0 03 96 4d bd 1f 26 b1 3d 91 1a c2 bd 0f af 13 3e
       -0.05019189 0.08649849 -0.094777234 0.14422248
0002b0 aa 32 9d bd 01 cd 56 3d 6f 7d fa bd 88 12 ba bd
       -0.07675679 0.0524416 -0.12230956 -0.09085566
0002c0 ad 25 a2 bd 69 aa 87 3d 50 cc 08 be ef c6 2d 3e
       -0.07917342 0.066243 -0.13359189 0.16970418
0002d0 c0 37 36 3e 62 18 dc 3d e2 dc 64 3e 71 c0 1b 3d
       0.17794704 0.10746838 0.22349885 0.038025323
0002e0 36 98 51 3b 4b 72 6d 3e 5c ce 51 3e 14 d3 5f be
       0.0031981594 0.2318813 0.20488876 -0.21857864
0002f0 2e eb a3 bd 01 1c 23 be 08 38 a7 bd a2 d8 05 be
       -0.08003841 -0.15928651 -0.08164984 -0.1307092
000300 26 a9 a8 bd ae 47 69 3e fc 4c 10 3e 0c a1 9c bd
       -0.082353875 0.2278125 0.14091867 -0.07647905
000310 68 e3 c4 3d 6a d2 1a 3d 1f 7a b0 3d 21 c3 06 3d
       0.09613687 0.037798323 0.08617043 0.032900933
000320 8a d1 cc 3d 8b 46 e4 bd 5d 95 02 3e ef 92 99 3e
       0.10000904 -0.111462675 0.1275229 0.29994914
000330 d3 6a 85 bb 4d 29 80 3d 66 5d aa be 1c b2 fb 3d
       -0.0040715723 0.062578775 -0.33274382 0.12289831
000340 aa 28 12 bb 8f 5f 23 be b0 1e fe 3d bd dc 34 3e
       -0.002230207 -0.15954421 0.12408197 0.1766233
000350 ff eb 13 3e 45 2c 06 3e 93 d2 03 3e b0 2f 6d be
       0.14445494 0.13102825 0.12873296 -0.23162723
000360 86 ee 2b 3d 54 c9 47 bd d7 5d a6 be f8 7f 13 bc
       0.04197552 -0.048775986 -0.3249347 -0.009002678
000370 a2 ef e8 bd a9 46 4f 3d eb 6a f8 bd 3f 28 85 3e
       -0.11373831 0.050604496 -0.12129768 0.26007268
000380 fc 1d 20 3b ec e8 e4 bd aa d7 85 bd b2 69 50 be
       0.0024431935 -0.11177239 -0.06535275 -0.2035282
000390 e1 8c ba 3c 62 9d 0b 3e 30 85 8e bc d4 7c 20 3e
       0.022772254 0.13634256 -0.017397493 0.15672618
0003a0 4e f0 6c be ee 75 97 3e c5 db c0 3c db 4b aa bd
       -0.23138544 0.2958216 0.023542294 -0.083152495
0003b0 ad 31 c9 3d b2 fd f5 3c 70 60 85 3d ea 83 c4 3d
       0.09823928 0.030028198 0.065125346 0.09595473
0003c0 b1 4b 4e bd 68 19 1d 3e 19 bf 87 bd 82 83 b0 be
       -0.050365154 0.15341723 -0.06628246 -0.34475332
0003d0 8e f4 2f 3e 3e 7c be 3c 79 6f 5c bd d3 74 97 3e
       0.17183134 0.023252603 -0.053817246 0.29581317
0003e0 19 37 18 be 3f 89 a4 3d 56 63 5d 3e 2f 3f 16 be
       -0.14864768 0.0803399 0.21619925 -0.1467254
0003f0 42 76 87 3d 8e 87 8d 3e 80 34 e4 3d 3f 0d 8e 3d
       0.06614353 0.27642483 0.11142826 0.0693612

joint_model.model.2.0.bias f4 [64]
000000 d1 84 87 3e 57 6a 2c be be 43 b2 bd c9 45 fb 3d
       0.26468518 -0.1683744 -0.08704327 0.1226917
000010 c3 22 7a 3e 68 09 24 3e 29 82 8e be 1b ec 65 3d
       0.24427323 0.16019213 -0.2783368 0.05613337
000020 26 2b 1a be 84 34 6c 3e 75 21 74 bd 43 55 7f 3e
       -0.15055522 0.23066908 -0.05960222 0.24934869
000030 3a 74 97 3d 8d 85 1e 3e ca e6 ee 3d d6 ff 94 be
       0.07395215 0.15480633 0.11665113 -0.29101437
000040 2b fe 56 3e d3 5e 0e be 68 97 3d be 43 18 91 3d
       0.20995395 -0.1390336 -0.18514788 0.07084706
000050 8c 37 93 be 2d 34 a4 3e 98 51 8a be 9b 50 ec 3d
       -0.28753316 0.32071057 -0.27015376 0.11538812
000060 d4 57 5d 3e 95 37 0f 3e 41 a7 88 3e b0 87 86 3e
       0.21615535 0.13986047 0.26690105 0.26275396
000070 73 d7 20 3d c8 77 84 be 12 ab e5 3d eb 6f 6f 3e
       0.03926797 -0.25872636 0.1121427 0.23382537
000080 dc 6e 7a 3e 81 8b 44 3d 27 2d 91 be 81 c7 4a 3d
       0.24456352 0.047984604 -0.2835476 0.049506668
000090 36 b3 39 be bf 10 0d be 8f 6b 70 3d b1 af 04 3e
       -0.1813477 -0.1377592 0.058696326 0.12957646
0000a0 b0 b2 38 be d9 48 94 3e 87 30 2e 3e 40 a6 96 be
       -0.18036914 0.28961828 0.17010699 -0.29423714
0000b0 9c 82 71 3e 15 27 3f bb 09 ba 8d be 99 32 20 be
       0.2358498 -0.0029167582 -0.27680996 -0.15644301
0000c0 11 7c 15 be 7b 5f 48 be f4 9f 17 3e 41 09 6d bd
       -0.14598109 -0.19567673 0.14807111 -0.057870153
0000d0 76 6c 92 3c c5 4c 0b 3d 2c 39 96 be 48 6a 1d 3e
       0.017873984 0.03400876 -0.29340494 0.15372574
0000e0 44 b6 0d be 15 be 77 be 59 88 3d be dd 2c 31 3d
       -0.1383906 -0.24193604 -0.18509044 0.043255676
0000f0 74 3b 74 be 79 b8 1e 3e 15 39 ea bd d3 9a 2b 3e
       -0.23850805 0.15500058 -0.11436669 0.1675828
