results_pis_architectures/many_well/langevin_clipping_lgv_100.0_gfn_10000.0_gfn/fwd_bwd/fwd_tb-avg_bwd_tb/T_100/tscale_1.0/lvr_4.0/seed_12345/model_final.pt (torch, 184646 bytes, 23 tensors)

t_model.timestep_phase f4 [1, 64]
00000000: 172c 59bf 135e b73e 1c5c 203f a368 82bd
00000010: f4af f4be 4ae7 29be 9180 253f 038a 1d3f
00000020: 04cb 45bf 7cad 183d a557 253f 1f0b 1e3f
00000030: 5a1a d1be 5ae2 63bf 6592 3e3f a8f4 38bf
00000040: 3800 5abf 300d 1bbf 1bec 41bf 5b74 e9bf
00000050: a121 543f 7022 8a3f 131e 7a3f 55f8 60ba
00000060: 2393 b13e d9c0 8bbf e8c2 413f 1cbf 7c3e
00000070: 63fe 0b40 48b7 3a40 57b2 7f3e 2b82 25bf
00000080: 594e 523f 757a 893f d3a5 5bbf 749b 343f
00000090: a9b0 6a3f 9979 ea3e 44ce 0340 b49b eabf
000000a0: 5d5f b03e a4bd a3bf cb2b 46bf 7040 173e
000000b0: 7156 db3f e345 9cbe fb78 1b3f cc39 663e
000000c0: 1245 1cbb b952 08bf 1961 333f a013 c53f
000000d0: 55af 453f 3519 53be 72fa 763e fbaf 44bd
000000e0: 3ace 353f d460 a0bf c218 50bf ecab 5bbf
000000f0: 8d85 f0be a314 dbbe 8162 4ebe 1649 613f
-0.848329 0.3581396 0.6264055 -0.06367614 -0.47790492 -0.16592136 0.646493 0.61538714
-0.772629 0.037274823 0.6458686 0.6173572 -0.40840417 -0.8901726 0.7444213 -0.72248316
-0.85156584 -0.60567 -0.75750893 -1.8238634 0.82863814 1.079176 0.9770214 -0.0008581926
0.3468257 -1.0918227 0.7568803 0.24682277 2.1874015 2.9174366 0.24970375 -0.64651746
0.821508 1.0740496 -0.857999 0.705497 0.9167581 0.45795897 2.0594645 -1.8328767
0.34447756 -1.2792249 -0.7741057 0.14770675 1.7135755 -0.3052207 0.60731477 0.22482985
-0.002384488 -0.53251225 0.70070034 1.5396614 0.7722066 -0.20615084 0.24118975 -0.04801939
0.710178 -1.252955 -0.8128778 -0.85809207 -0.4697689 -0.42789182 -0.20154764 0.88002145

t_model.pe f4 [1, 64]
00000000: cdcc cc3d 7dc5 d73f 165f 5140 b76d 9b40
00000010: e32b ce40 0875 0041 1ed4 1941 3433 3341
00000020: 4a92 4c41 60f1 6541 7650 7f41 c657 8c41
00000030: 5107 9941 dcb6 a541 6766 b241 f215 bf41
00000040: 7dc5 cb41 0875 d841 9324 e541 1ed4 f141
00000050: a983 fe41 9a99 0542 5ff1 0b42 2549 1242
00000060: eaa0 1842 b0f8 1e42 7550 2542 3ba8 2b42
00000070: 0000 3242 c657 3842 8baf 3e42 5107 4542
00000080: 165f 4b42 dbb6 5142 a00e 5842 6666 5e42
00000090: 2cbe 6442 f115 6b42 b66d 7142 7cc5 7742
000000a0: 421d 7e42 843a 8242 6666 8542 4992 8842
000000b0: 2cbe 8b42 0eea 8e42 f115 9242 d441 9542
000000c0: b76d 9842 9a99 9b42 7cc5 9e42 5ff1 a142
000000d0: 421d a542 2449 a842 0775 ab42 eaa0 ae42
000000e0: cdcc b142 b0f8 b442 9224 b842 7550 bb42
000000f0: 587c be42 3aa8 c142 1dd4 c442 0000 c842
0.1 1.6857144 3.2714286 4.857143 6.4428573 8.028572 9.614286 11.200001
12.785715 14.371429 15.957144 17.542858 19.128572 20.714287 22.300001 23.885715
25.47143 27.057144 28.642859 30.228573 31.814287 33.4 34.985714 36.57143
38.157143 39.74286 41.32857 42.914288 44.5 46.085716 47.67143 49.257145
50.842857 52.42857 54.014282 55.6 57.185715 58.771427 60.35714 61.942856
63.528572 65.11429 66.7 68.28571 69.87143 71.45714 73.042854 74.62857
76.21429 77.8 79.38571 80.97143 82.557144 84.14285 85.72857 87.314285
88.9 90.48572 92.07143 93.65714 95.24286 96.82857 98.41428 100.0

t_model.t_model.0.weight f4 [64, 128]
00000000: ee97 21bd 2170 a6bd 1b94 913d f9cd 9b3d
00000010: 0935 94bd dbd9 9a3d 8d5a 1dbd c90a 503d
00000020: 6f0b 92bd f3c3 3f3d 2133 a93d aaa6 b13d
00000030: 5577 213d 77a4 943d 8fed 62bd 3ee2 dcbc
00000040: e7a2 bc3c c5bf 87bd 5c75 a93d 7d2e 36bd
00000050: 87ed 9dbd ec48 513c 2a9b 12bc 206e a1bd
00000060: 5c27 53bd 53c6 60bd 8acd cbbc e9bc 1cbd
00000070: 1e43 1f3b ec7c a03d b7f7 bbbc a7de 1abd
00000080: 1fe3 f1bc 31ed 4b3d 21c4 063d d9ee 0f3d
00000090: d18f 813d 6304 a73d c1b0 c23d bebe 363d
000000a0: a688 fc3c 1dc1 f33c f548 413d d332 8f3d
000000b0: a8f0 9f3d 8996 82bd 5847 8ebd bfaa 8bbb
000000c0: b88a 3e3c 910e 88bd c7c4 bc3d 2584 8c3d
000000d0: 880a 933c baaf 9e3d 950c e4bc e213 acbc
000000e0: b53f 813d db09 89bd a350 553d 5a54 fd3b
000000f0: 4b80 28bd f615 933c b584 ecbc 0c50 90bd
00000100: c177 46bc 51c3 d63d b666 94ba 0b23 abbc
00000110: 0e30 663d 22a2 3cbd c8ce 5bbc 8e61 533d
00000120: 327a 06bd c963 8d3d c4eb 53bd bcb6 0a3d
00000130: ffbe 053c 7754 2bbd 679e a3bd 4a70 79bd
00000140: 9416 6ebb 2c18 973d 9bc2 ad3d 047a 713d
00000150: ce5d 9bbd 0f14 acbc 5482 51bd d1fc 9fbd
00000160: 62e7 5abd d266 033d 86af dfbc 2c3b 56bd
00000170: f7fa a7bd 6451 e63c b518 3f3d aa36 b3bd
00000180: ede5 8b3c c2e1 b23d db47 d83a 490f a53d
00000190: e8c1 aebc e627 953d 9504 333d 47be a83d
000001a0: f995 653d f55d ad3d 3ba8 ca3b 004c 1cbd
000001b0: 5fdf 443c 075f b53d 6594 39bd ca47 41bd
000001c0: aff7 35ba 4946 113d a9ad 853d ced0 893d
000001d0: de00 553d 9241 073d e91d 29bc 85ec 5a3d
000001e0: 078c c6bb 4540 23bb c306 50bd 94ef 63bd
000001f0: 956e 5cbb 7326 5abd 4aed e33c 2d4f 903c
00000200: bb71 033b 4f9a 2d3d 0356 70bd bc5c cebd
00000210: f029 723c 0c0f 81bb a588 253d c1c7 febc
00000220: 8051 223c 0213 e4bc 482b e63c 2adc 643d
00000230: cb92 e03c 8334 c03c 46b9 8cbc dc2b 173c
00000240: 4803 fb3c 09cc 59bd 6dd4 023d 4ea9 80bd
00000250: 8703 323d 1597 23bd 93a1 9ebb 772a 9e3c
00000260: 74a7 b1bd 72f2 37bd 87cc 6cbd 44e7 edbc
00000270: e458 4dbb d008 92bd becf 3d3d 6da9 babc
00000280: 172d 0cbd 4ea0 d8bd df79 583d 22ed 943d
00000290: a2de b13d ef3c 0a3d 42a0 a8bc fdb2 c63d
000002a0: 341c babd 9751 77bd 0de5 88bb 8fe6 c6bc
000002b0: 4da8 2ebd 766f 9ebc 74dd a53d 37eb 493d
000002c0: 9ca6 873c ed20 c43c e1f5 35bd 5e05 a83d
000002d0: 1821 eb3c ead9 ab3c 49a7 8ebd 4496 b1bc
000002e0: 8a6f df3d 3eb6 c03c cb9b 26bd 3655 79bd
000002f0: 828e bfbd fff1 78bd 761a 38bd b3a9 84bb
00000300: 4f58 a7bb 7b4a 46bd 03bd 95bc f988 57bd
00000310: 73bb 0d3d 5b5c 4c3c 813b 9b3d 00cf 32bd
00000320: 2f7e 9fbb f28d c3bb 6d91 b33d 9544 e33c
00000330: 2195 a13d 5874 1f3d 0830 4f3d 5ab6 59bc
00000340: 5e61 673d 3605 7ebd 5cb8 83bd c1c9 df3c
00000350: 544e 933d 0454 c7bd 5a1f 753b 167a fb3c
00000360: 65e9 9e3d f3aa 823d e0e7 723c ea38 24bd
00000370: ba99 e13d 01bd 37bd 693f 80bd 6a7c 7abd
00000380: 5fbb 9bbd 84ee fbbb ad78 14bd 210e 62bd
00000390: a927 69bd 90fc 883d 14d0 96bc e891 95bd
000003a0: 40ad b13d 751d a7bc 94c9 4fbd d756 9fbd
000003b0: 1cd8 803d c86b 28bc dd96 693d 5c76 c2bd
000003c0: d4f9 ecbc 6151 95bb 327d d43d a65d 6e3b
000003d0: c098 8dbd e20d 95bd 7dfe dd3b cd8d 9a3d
000003e0: 38d6 c73d d82a ffbb 9d5d 94bd bd7a 253d
000003f0: 226b ff3a 065b 993d a853 58bd 61a4 08bd
-0.039451532 -0.08126856 0.07108327 0.076076455 -0.07236678 0.07561084 -0.038416434 0.050791536
-0.07131087 0.04681773 0.08261705 0.08674367 0.039420445 0.07257932 -0.055402335 -0.02696335
0.023026897 -0.06628374 0.08274338 -0.04447793 -0.0771132 0.012773734 -0.008948127 -0.07882333
-0.051551208 -0.054876637 -0.024878282 -0.038266096 0.002430148 0.07836327 -0.022945268 -0.037809994
-0.029527245 0.04978675 0.032901887 0.035139892 0.06326259 0.081551336 0.095063694 0.0446155
0.030826878 0.02975517 0.047188718 0.06992116 0.078095734 -0.063763686 -0.069472015 -0.004262298
0.011629753 -0.06643403 0.0921722 0.06861142 0.017949358 0.07748361 -0.02783803 -0.021005575
0.06310979 -0.06691333 0.052078854 0.0077310028 -0.041137975 0.017954808 -0.028871873 -0.07046518
-0.0121135125 0.104864724 -0.0011322114 -0.020890733 0.056198172 -0.04605306 -0.013416 0.051606707
-0.03283138 0.06903798 -0.051738515 0.033865675 0.008163213 -0.0418286 -0.07989197 -0.060898103
-0.0036329376 0.07377657 0.08484384 0.058954254 -0.07586251 -0.021005658 -0.05114968 -0.07811893
-0.05344332 0.03208048 -0.027305376 -0.052302524 -0.082021646 0.028114982 0.04665442 -0.08750661
0.01707741 0.08734466 0.0016500907 0.08059556 -0.021332696 0.07283001 0.04370554 0.082394175
0.05605123 0.084651865 0.0061846054 -0.038158417 0.012016146 0.08856016 -0.045307536 -0.047187604
-0.000694151 0.03546742 0.06527264 0.067292795 0.05200278 0.033021517 -0.010322073 0.05344822
-0.006059173 -0.0024910134 -0.0507877 -0.0556484 -0.0033635248 -0.053259324 0.02782311 0.017615879
0.0020056802 0.04238349 -0.058675777 -0.100762814 0.0147805065 -0.0039385613 0.040413518 -0.03110111
0.009907126 -0.027841095 0.02809681 0.055874027 0.027413746 0.02346254 -0.017178189 0.0092267655
0.030641213 -0.0531731 0.031940866 -0.06282292 0.043460395 -0.039939005 -0.0048410385 0.019307358
-0.08674517 -0.04490895 -0.05781224 -0.02904094 -0.00313335 -0.07130587 0.046340697 -0.022785867
-0.03422269 -0.10577451 0.0528506 0.07271792 0.08685042 0.033749517 -0.02058423 0.09702108
-0.090874106 -0.060380545 -0.0041776956 -0.02427986 -0.042640973 -0.019340258 0.080988795 0.049296584
0.016558938 0.023941481 -0.04442394 0.08204149 0.028702304 0.020977933 -0.06965501 -0.021678098
0.10909946 0.0235244 -0.04067592 -0.06087228 -0.09353353 -0.06077766 -0.04494711 -0.00404855
-0.0051069628 -0.048410874 -0.018278604 -0.05262086 0.034602594 0.012473191 0.07579709 -0.04365444
-0.004867337 -0.005967849 0.08767972 0.027742663 0.07889772 0.038929313 0.050582916 -0.013288105
0.05648934 -0.06201669 -0.06431648 0.027317883 0.07192674 -0.097328216 0.003740272 0.030697864
0.0775936 0.06380262 0.014825791 -0.04009334 0.11015649 -0.044857983 -0.062620945 -0.061153807
-0.076040976 -0.0076883454 -0.036247898 -0.055189256 -0.05692259 0.066887975 -0.018409766 -0.0730322
0.08675623 -0.020399788 -0.05072935 -0.07780235 0.062912196 -0.010279603 0.05702864 -0.094952315
-0.028927721 -0.0045568203 0.103754416 0.0036371737 -0.069139004 -0.072780386 0.006774722 0.075465776
0.09757656 -0.00778709 -0.07244418 0.040400255 0.0019486884 0.074880645 -0.052814156 -0.03335989

t_model.t_model.0.bias f4 [64]
00000000: 9696 8a3d af9d 28bd 59ae 58bd 3dac ba3d
00000010: bfe8 1b3d cc02 5bbd b8ac 1fbd ea74 bbbc
00000020: 6762 73bd 557f ef3c 7ee8 0d3d 4d14 0f3d
00000030: cd69 9b3c 68a2 b53d 8dfb 8abd 8863 cc3d
00000040: 94d2 adbd 6559 513b d7c1 333d 11de 80bd
00000050: b4e6 a4bc 44ab 8b3d b1c9 073c 8446 89bc
00000060: c4d5 bc3c 7a94 293c e7a4 173d ea7b 523d
00000070: 8b86 92bd 8e1d 163d d58a a93c 4dd9 d5bc
00000080: aa90 fe3d 0115 fd3c 17db 843d e93f 763d
00000090: 1abf ccbd b1c3 64bd 1f79 2bbd d13c 963d
000000a0: c8fc b83d 5e3a efbc 3724 d4bd fc8b ca3c
000000b0: 1f4d 1dbd a7f2 69bc 9c12 913d 726c 033d
000000c0: 6fb0 3a3d 376b 17bd 2959 4cbd b007 9f3b
000000d0: f956 293d cbfc bd3a 770a c83d 7f93 8fbd
000000e0: 13dc 06bd c2ee bdbc ad00 c23d de30 a3bd
000000f0: fe75 c43d 3830 a73d f7e2 e7bd c6da 73bc
0.06767003 -0.041166004 -0.052900646 0.09114883 0.03806376 -0.053469464 -0.038983077 -0.022882897
-0.059420016 0.029235521 0.03464555 0.03493147 0.018971348 0.08868867 -0.06786261 0.099799216
-0.0848743 0.0031944152 0.043886032 -0.06292356 -0.02012954 0.06819776 0.008287833 -0.016757257
0.02305115 0.010350341 0.037022498 0.051387705 -0.07154568 0.03664928 0.020696083 -0.026104594
0.12429936 0.030893805 0.064871006 0.060119543 -0.09997387 -0.05585069 -0.041863557 0.073358186
0.09032589 -0.029202636 -0.1035847 0.024724953 -0.038403627 -0.014279044 0.070836276 0.032085843
0.045578416 -0.036967482 -0.049889717 0.0048532113 0.04134271 0.0014494894 0.09767621 -0.070105545
-0.032924723 -0.023185138 0.09472785 -0.07968305 0.09592818 0.08163494 -0.11322587 -0.014883703

t_model.t_model.2.weight f4 [64, 64]
00000000: 1b64 c93d fb12 8cbc 6185 75bd 380b 7c3d
00000010: fb1e b13d 3b16 8cbd 9576 043e d929 d93d
00000020: 1ec4 453c 911e dabd 8fa7 c83c 9a61 973a
00000030: 7662 af3d 558a 5bbc 1b85 823d 7cd4 2abd
00000040: bc4d 0f3d 244d 983d 41ff 9c3d b186 0b3c
00000050: c477 ae3d 90d3 d9bd 6589 763d 07a3 c9bc
00000060: 3cda bebd 4ab3 ef3d 37da aebd 1ead 3dbd
00000070: 2ba1 9abd 37ff 123d 9ec6 d63d d384 00bd
00000080: 88a8 c3bd 0dec 5dbd 2b8b a7bd d2bb b33d
00000090: 136f ad3d de83 b43d 554b eb3d 7976 ac3d
000000a0: 8124 4f3d 1b54 8dbd 7a62 9ebc 0eef f13d
000000b0: c7f9 c43d f0c8 ca3d 3784 793d e848 babd
000000c0: b00f 9b3d 63e0 14bd e7b7 c53d bcb7 413d
000000d0: 8011 ee3c 32be 233d 36a4 26bd 77a2 a5bd
000000e0: bbf0 ef3d e82c 71bd 021e c03c 00f5 dd3d
000000f0: bb5b 17bd d366 edbc 7f30 faba cd7d b43d
00000100: 608c 123d cbd8 d7bd 6be3 e0bd 7551 97bc
00000110: 1ce5 21bd 1302 6cbd 4729 29bc 6a53 063e
00000120: 23d5 c5bd 4768 af3b 7bf8 4abd 3f4a 41bc
00000130: 1bb5 c93d 4cac 043d 785a aebd ac27 acbd
00000140: 5d75 47bb fa98 343d 8e95 5ebd f523 ff3a
00000150: cb4e 8b3d a775 8ebc 4754 68bd 0c00 8ebd
00000160: efcc 303d 0371 ec3b 1f1b 4abd 6943 18bd
00000170: 4009 00be 2449 d3bd 716b d5bd c4b0 fb3a
00000180: 57ba a5bd cf3f de3d dee1 513d 3f03 ac3d
00000190: 0448 93bc cb57 b1bd 123c a4bd 8fa3 853d
000001a0: a9f0 c03c ba9d 59bd 492e ac3d 0d1d 683d
000001b0: 72af 05bd 806a e2bd 85af 953b a2c5 51bd
000001c0: 5957 dfbb 40d2 a3bd 8fbc 183c 3204 e6bc
000001d0: 2829 d3bd f1a7 fd3d 7365 cd3d eeaf 163d
000001e0: 4f5a f4bd 2477 00be a038 a53d 404d c63d
000001f0: a307 a23a e359 ba3d 66fd 1b3d d5dd 9bbd
00000200: 48ae d3bd a0b9 77bb 5d36 0cbd fa87 afbd
00000210: 21d0 61bb 9b22 edbc 27da db3d a703 96bd
00000220: 9c02 cc3d 0570 ef3c ec3b 8c3d 8d8d 723d
00000230: 0545 00bd e02a e8bd 1534 a13d 55fa 843d
00000240: 4d86 9e3c e9d6 3e3d 10be 5d3d 3535 ea3d
00000250: 8c3f 2cbd a464 e2bd d791 0ebd bfbc 8f3d
00000260: 4893 c03d 7773 c5bd 78f0 093d d578 af3d
00000270: 5cce 7dbc e505 c7bd 7f5b b43c c3ef 803d
00000280: 4511 8cbd 69a4 773c b478 91bd 57db 103d
00000290: f2ed 963d a444 773d b9fe a7bd b581 c8bd
000002a0: 52c6 cbbd 4a21 86bd e3f8 e43d a2d5 f73d
000002b0: ade8 1e3e 05fa c4bd 8587 dfbd f3c5 bd3d
000002c0: ffba 0fbc 4ee7 0c3e a4d3 70bd b752 5dbd
000002d0: 8aa7 59bd b91a 80bc 8cc4 b7bd 4d69 d3bd
000002e0: 7416 dc3d d8b7 f73d 2e42 323d 44ba 303d
000002f0: 4d84 843c da12 e33c 7141 10bd 39a3 6cbd
00000300: 1459 61bd aad3 48bc 92c4 e53c d831 b4bd
00000310: e626 693d 8cbf ee3d 7f98 6c3d 2ceb e1bd
00000320: 47e1 c039 1bee bd3d f664 d83d c6cb f23d
00000330: 38b7 923d 0031 e53d 23bc e03c 8bb8 debd
00000340: ebe4 97bb 2e88 98bd 88e5 5f3d 37e9 683c
00000350: ad37 873d b55f c9bd e476 1d3e fb1a ec3c
00000360: fae1 40bd 46b1 9abd e4c1 97bd 9464 dd3d
00000370: 66c5 c73d f27a bf3d 10dd 983c 2ab5 5cbd
00000380: 789f e1bd 4c2b f83d 1e46 553d fba1 bc3d
00000390: f3d6 cb3d dc8c 82bd 3e1e b8bc 090a dd3d
000003a0: 34d8 b53c cb27 0bbc 2af8 4ebd cb49 21bd
000003b0: 4262 05be 044e 0e3d 6754 80bd b081 b8bd
000003c0: 3c9a bbbd 974d 7c3d 0179 cb3d 195b 503d
000003d0: b3bd c1bd 226f db3d 0ebd 003b 6e93 51bc
000003e0: 20e2 9bbd 584d 13bd 8905 6b3d e9a9 a9bd
000003f0: 6bee bfbb c801 9dbb b52c 723d 4393 1cbd
0.09833547 -0.017098894 -0.059941653 0.061534137 0.08648487 -0.068401776 0.1293586 0.10603685
0.012070684 -0.10650361 0.02449396 0.0011549473 0.08563702 -0.01339968 0.06373044 -0.041706547
0.034986243 0.074365884 0.07665873 0.008516 0.08518937 -0.106360555 0.060189623 -0.02461387
-0.09318969 0.117041185 -0.08537715 -0.046307676 -0.075502716 0.035887923 0.10487102 -0.03137667
-0.09553629 -0.054180194 -0.08180841 0.08776058 0.08468451 0.08814214 0.11488978 0.08421034
0.050571922 -0.069008075 -0.019334067 0.11813174 0.09617954 0.09901607 0.060917106 -0.09095937
0.075713515 -0.036346804 0.09654217 0.047294363 0.029061079 0.039976306 -0.040683948 -0.08087628
0.117158376 -0.058880717 0.023451809 0.10837746 -0.036952715 -0.028979694 -0.0019087939 0.08813057
0.035778403 -0.10539397 -0.109808765 -0.018471459 -0.039525136 -0.057619166 -0.010324783 0.13117757
-0.09659793 0.005353007 -0.049553376 -0.011797487 0.09848996 0.032390878 -0.08513349 -0.08406004
-0.0030434944 0.044091202 -0.054341845 0.0019465672 0.06802138 -0.017390085 -0.056721 -0.06933603
0.04316419 0.0072156205 -0.04934227 -0.037173662 -0.12503529 -0.10316685 -0.104208834 0.001920246
-0.08092182 0.10852014 0.051240794 0.08399057 -0.017978676 -0.08659323 -0.0801927 0.06525337
0.023552256 -0.053128935 0.08407266 0.05666833 -0.03263802 -0.110554695 0.0045680427 -0.051213868
-0.0068158326 -0.079990864 0.0093223 -0.028078172 -0.10310584 0.12385548 0.100291155 0.036788873
-0.119312875 -0.12545449 0.08067441 0.09682703 0.0012361895 0.09099176 0.038083456 -0.076106705
-0.10335976 -0.003779985 -0.034231532 -0.08570857 -0.003445633 -0.028947165 0.10734969 -0.073249154
0.09961435 0.02922822 0.06847367 0.059217025 -0.031315822 -0.11336303 0.07871262 0.064930595
0.019351149 0.046591673 0.054136336 0.1143593 -0.04205279 -0.11054352 -0.034807052 0.07018422
0.09403092 -0.09641164 0.033676594 0.08567969 -0.015491094 -0.09717921 0.022016285 0.06295731
-0.068392314 0.015114882 -0.071031004 0.03536543 0.07369603 0.060368195 -0.08202881 -0.09790365
-0.09949936 -0.06549318 0.11180284 0.12101294 0.15518446 -0.09618 -0.1091452 0.092662714
-0.008772611 0.1376011 -0.058795586 -0.05403396 -0.053138293 -0.015637742 -0.08973035 -0.10322819
0.1074647 0.12095612 0.043520145 0.043146387 0.016176367 0.02771895 -0.03521866 -0.05777285
-0.055016592 -0.012257496 0.028047834 -0.087985694 0.056921862 0.116576284 0.05776262 -0.110311836
0.00036788938 0.09273931 0.10566132 0.11855273 0.071638525 0.11190987 0.02743346 -0.108750425
-0.0046354434 -0.07447849 0.054662257 0.014215759 0.06602416 -0.09832708 0.15377384 0.028821459
-0.047090508 -0.075533435 -0.074100286 0.108101994 0.09754448 0.09349622 0.018660098 -0.05388371
-0.110167444 0.12117633 0.052068822 0.09210583 0.09953108 -0.06374523 -0.022475358 0.1079293
0.02219782 -0.008493374 -0.050529636 -0.039377015 -0.13025764 0.03474237 -0.062660985 -0.09009111
-0.09160277 0.061597433 0.09935189 0.050868127 -0.094600104 0.10714556 0.0019643935 -0.012791498
-0.07611489 -0.035962433 0.057378326 -0.08284361 -0.005857279 -0.004791472 0.059124667 -0.038226377

t_model.t_model.2.bias f4 [64]
00000000: 06cc d4bc 8ab9 cbbd 9643 e43c 9507 54bc
00000010: 9fd6 b7bd 4050 a13d 413a 5f3d 0664 fd3d
00000020: aee0 04be 24e5 50bd 09c6 743d 394b 4d3d
00000030: 954e 8fbd cc26 713c dee9 603b 2ec8 043e
00000040: 3cd4 81bc 6ed2 c1bc bf64 2dbd 83f7 11bd
00000050: e277 f43a 7530 a63d 8753 f23c c87c cbbc
00000060: a36b 97bb 429a b03c fc6a 15be 7e73 683d
00000070: e388 91bc 6ed7 2fbd 4dc3 a3bd 0c1c d43c
00000080: 045b a6bd 0af3 c8bd 733c c23d 5147 6fbd
00000090: 0e37 803c d235 0f3d b057 91bd dd17 9d3d
000000a0: b758 03be 4464 e8bc dd1b b33d bdd1 5f3d
000000b0: d10f bd3d 7b75 483d 03ac 2e3e 50b0 613c
000000c0: 46eb 083d 1af1 e73d 36ec dabc 033a 983d
000000d0: df74 563d abbf 1ebd d2d1 f6bc 511d 26bd
000000e0: 136e e03d e509 c43b 4989 143e e4e5 0c3e
000000f0: d549 ca3d 6b91 043e 28a2 bf3d 2040 b63d
-0.025976192 -0.09947498 0.027864259 -0.012941261 -0.089764826 0.078766346 0.054498915 0.123725936
-0.12976333 -0.050999776 0.059759174 0.050120566 -0.0699741 0.014718723 0.0034319083 0.12966987
-0.015848272 -0.023659911 -0.042332407 -0.035636436 0.001865145 0.08114711 0.029580845 -0.024839774
-0.0046209856 0.02155793 -0.14591593 0.056750767 -0.017765468 -0.04293006 -0.07996235 0.02589228
-0.081228286 -0.09811981 0.09484186 -0.058417622 0.015651252 0.034963436 -0.07096803 0.07670567
-0.12826811 -0.028368123 0.08745549 0.05464338 0.09231532 0.048940163 0.17057805 0.013774946
0.0334275 0.11325283 -0.026723962 0.0743294 0.05235755 -0.038757008 -0.030129347 -0.040555302
0.10958495 0.005982625 0.14505495 0.13759571 0.098773636 0.12946098 0.09357101 0.088989496

s_model.x_model.weight f4 [64, 32]
00000000: f178 673d cd3a c4bd 9fa5 473e 9b4c c0bd
00000010: eebe f33d b05c 283e 00c5 b8bd b9e9 563b
00000020: e362 673d 534a 92bd 834f 643d 1c2f b9bc
00000030: 9ecd 9dbc 1c66 d7bd 72e1 123e 4877 b5bd
00000040: 8b28 c4bd caa4 9cbc 5f6f 2b3d 4c7f 7e3d
00000050: d787 1cbe 18e8 8dbd 6953 d4bd 2f19 05bc
00000060: 061d fb3b f553 aa3d e0ba 1dbe 099d 0bbe
00000070: f2e8 203e e05c b5bd ab35 8e3c 41b5 303d
00000080: aff8 eabd e9ed e8bd 31c0 bcbd 6948 4f3b
00000090: 2420 633c 17ac 16be e3b1 e13d ceeb ca3d
000000a0: 8e20 ccba bca8 c13d 6c32 d93c 6718 38be
000000b0: 7736 dabd 00f0 1abe 456c cbbd e25a a1bc
000000c0: ff0d 02bd b18b de3d efc6 4239 8892 d83d
000000d0: 6b27 ff3c 1217 5ebc dcf5 51bd 4e03 183e
000000e0: bbde 033c 6ace da3c 0fc9 d2bc 2742 0abe
000000f0: 1616 453b f8cd 473c c825 c0bd 47c0 5ebd
00000100: c7c9 3c3e f00e 29be 9a82 f2bd a3ad 80bd
00000110: 61e1 20be 01f7 253e 7cc6 06be 9f05 ce3d
00000120: d2d8 a93c 1c68 e1bd 4bd8 ef3c 234b 22be
00000130: 2b77 e53d 8c38 acbc ffbc 39be 9586 413d
00000140: 708e 2e3d 5363 d53d 45fa 4abe 5a04 42be
00000150: b035 c23d 340a 123e dd61 d4bd fda7 1fbe
00000160: 589c 3dbe 4fdc 13be e719 54bd 3fd1 053e
00000170: 3c4e cfbd 9f50 36be 4e34 a5bb 99b6 29be
00000180: aae1 c9bd 4a32 963d 35e9 3e3e fdd0 6e3d
00000190: 4ea4 58bc d8ca 36bd f1ff 8d3d 6c28 35bd
000001a0: 7aff 70bd 4190 fdbc 1516 9a3d 85f2 2dbe
000001b0: 897a 30bd 6de6 1dbd 8726 353e 2dc2 e2bd
000001c0: ad11 3e3e d366 143d 9ca8 0f3d 2e0d 2c3e
000001d0: e03d 49bd d9c1 99bc 9a06 503d 5ec4 9c3d
000001e0: 458f f3bd 754d 0bbe c585 9ebd 9ee9 423e
000001f0: b065 e5bd 1498 08bc 37f0 36bd c7df abbd
00000200: 1b99 253e 0ba0 e03d 414e 1d3d e5b4 0ebe
00000210: d69f 4f3d a7d6 bfbd 81e4 4abd f0ce 303d
00000220: ca7d 15be 8d0d ef3d 7a16 223e fb81 fe3d
00000230: 9032 60bc 41fe 9f3d 0e23 a8ba 1760 a6bd
00000240: 3e10 b93d 23c9 3ebd 4f47 ffbd 6a46 1abe
00000250: d20b 783d 7cdb e83d 91bc c73d 3a59 81bd
00000260: baee f33c 9011 9b3d 0f23 34be 101d 1dbe
00000270: 3322 283e 4db1 113c 2a69 8cbc eb05 05bd
00000280: 3880 efbd 72ef 5d3d b1b9 d43d 761a 153d
00000290: 0fd8 43bd 6afa 293e 3294 263e df95 fd3d
000002a0: 6ebb a73c 69c4 293e cf0a 323e f341 0ebe
000002b0: 5711 a93d 20e4 da3c d3af 253e 2317 9b3d
000002c0: daa0 5b3e a880 0f3e 3ea3 0fbc ee36 303d
000002d0: 1cb1 b63d b167 68bd d5f8 4f3d 7eff 433e
000002e0: 0b22 67bd 2f0d 13be e940 94bc 79cc 86bc
000002f0: c8d7 b63d 79b9 e03c d870 0ebe cd74 a23d
00000300: 2b86 1fbe 880d 053d e3a6 26bd 4fb5 9e3c
00000310: 48cb 163e 5dcf 8f3a 1363 333d f19c edbc
00000320: 16dd 133e be6f fdbd 1153 ed3d 131b 2ebe
00000330: 61ec 4bba b8c1 33be c75e 0c3d f104 14be
00000340: fba6 583e cf00 3d3d 1b6c c2bd e285 e7bd
00000350: b280 413e 7fb9 bf3d 8df9 f43d 346f e6bd
00000360: 7c24 063e 9cfc dbbd 835e cf3d 4ff2 4bbd
00000370: 2ee2 8b3d 8427 193e 7739 2b3e 2897 2cbe
00000380: f978 5cbd 1b9c 493d dac4 a73d c957 22be
00000390: c406 c73d eaa5 073e a525 a7bc 8081 89bd
000003a0: 4abc 583d 5da0 8dbd f3d3 dcbd 8929 363d
000003b0: 7059 b6bd aa5f 123d 69b6 373c 0b04 89bb
000003c0: b998 683d c491 963d 572f ed3d 9076 343e
000003d0: 8c5e 203e 5821 cc3d b115 db3d 60bb e0bd
000003e0: 0d80 81ba fc15 a43c 5ff5 b93d 2fac 6bbb
000003f0: 8679 153d b807 0bbe b48d 07be 88fe c63d
0.056511823 -0.09581528 0.19496773 -0.09389611 0.11901651 0.16441607 -0.0902195 0.0032793118
0.05649079 -0.071430825 0.05573989 -0.022605471 -0.019263085 -0.10517523 0.14343813 -0.08860642
-0.095780455 -0.019121546 0.04185426 0.06213312 -0.15286194 -0.06929034 -0.10367472 -0.00812368
0.007663372 0.08316795 -0.15403318 -0.13634123 0.15713862 -0.08855605 0.017359575 0.043141607
-0.11473214 -0.11373503 -0.09216345 0.0031628853 0.013862643 -0.14714085 0.11020257 0.099082574
-0.0015573667 0.09456012 0.0265133 -0.17978059 -0.106549196 -0.15130615 -0.0993276 -0.019696657
-0.03175163 0.10866488 0.0001857539 0.105748236 0.031146726 -0.013555305 -0.05125986 0.1484501
0.008048709 0.026709754 -0.025730638 -0.13501798 0.0030072979 0.012195103 -0.09382206 -0.05438259
0.18436347 -0.16509604 -0.118413165 -0.062831186 -0.15710975 0.16207506 -0.13161653 0.10059666
0.02073327 -0.110061854 0.029277941 -0.15848975 0.1120437 -0.021023057 -0.18138503 0.047247488
0.042616308 0.10419335 -0.19822033 -0.18946972 0.09482896 0.14261705 -0.103702284 -0.15591426
-0.18516672 -0.1443951 -0.051782515 0.13068102 -0.10122344 -0.17804192 -0.0050416356 -0.16573562
-0.09857495 0.073338106 0.18643649 0.058304776 -0.013222767 -0.04462704 0.069335826 -0.044228002
-0.05883739 -0.030952575 0.07523743 -0.16987045 -0.04308561 -0.03854983 0.17690478 -0.11072192
0.1856143 0.036230873 0.035072908 0.16801903 -0.049131274 -0.018769192 0.050787546 0.076546416
-0.11892561 -0.13603766 -0.07740358 0.1903443 -0.11201036 -0.0083370395 -0.04466268 -0.083922915
0.16171686 0.10968026 0.038404707 -0.13936193 0.05068954 -0.093671136 -0.049534325 0.0431661
-0.14598766 0.116725065 0.15828887 0.124271356 -0.01368393 0.07812167 -0.001282783 -0.081237964
0.09036301 -0.046578538 -0.12464773 -0.15065923 0.060558148 0.11369988 0.09752763 -0.06315847
0.02977692 0.07571709 -0.17591499 -0.15343118 0.16419296 0.008892369 -0.01713999 -0.032476347
-0.11694378 0.05418343 0.1038698 0.03640219 -0.04781347 0.16599432 0.1626747 0.12382101
0.020475116 0.16578831 0.17386936 -0.13892345 0.082552604 0.026720107 0.16180353 0.07572772
0.21448079 0.14013922 -0.008766947 0.043021135 0.089205 -0.056739513 0.050774414 0.19140431
-0.05642895 -0.14360498 -0.018097358 -0.016454922 0.08927876 0.02743219 -0.13910234 0.07932434
-0.15578525 0.032483608 -0.0406865 0.019373564 0.14725983 0.0010971833 0.043795656 -0.0290055
0.14439806 -0.12374829 0.11588109 -0.17002515 -0.00077790587 -0.17554367 0.034270074 -0.1445501
0.21157448 0.04614335 -0.09493276 -0.11304833 0.1889675 0.093615524 0.119616605 -0.11251679
0.13099855 -0.10741541 0.101254486 -0.04979163 0.0683025 0.1495648 0.1672114 -0.16854537
-0.053826306 0.04922114 0.08191843 -0.158538 0.09718087 0.13246885 -0.020403692 -0.06714153
0.05291394 -0.069153525 -0.107826136 0.044473205 -0.089037776 0.035735764 0.011212924 -0.00418139
0.056786273 0.07352021 0.11581295 0.17623353 0.15661067 0.09967297 0.10697497 -0.10973239
-0.0009880081 0.020030014 0.09080004 -0.0035960784 0.036492847 -0.13577163 -0.13237649 0.09716517

s_model.x_model.bias f4 [64]
00000000: a846 9e3d 15c1 953d c032 dabd f6ef 27bd
00000010: b061 2b3e ca84 d23d 35b8 753d 777d 343e
00000020: fec2 85bc 32a7 9e3d 8442 213e 64a7 0f3e
00000030: 94bb c1bd 40fb 91bd 77c0 ce3d 8c9b 90bc
00000040: c6da b3bd 99cc 723d 13d7 113e 6b0b b0bd
00000050: 4ced 65bd 17d0 7a3d a0fe e63d b950 ee3d
00000060: f838 363e 8701 083e 2f66 b8bd 5763 c4bd
00000070: 1dd4 bcbc ddfb 8b3d 01f9 1fbd 2346 4b3d
00000080: c93f cabd a1df e23d 787c 05bd 4db5 043e
00000090: aaeb 493d 78f8 03be 3ab4 d73b 1c6f 153e
000000a0: 7c15 c53d fe8e e33c b099 06be a73c 07bb
000000b0: a325 0a3e 3bf7 583d 8d82 333e 33fc 30bd
000000c0: 6793 543d 71a6 463e 688b 59bd 71d1 123e
000000d0: 039d 06be e665 01be cf9e 35be d9b8 b03d
000000e0: 2a63 f93d b21d b9bc 560a f5bc 657b 883c
000000f0: d1af e0bd ef5e dd3d 6780 fa3b a954 963d
0.0772832 0.07312218 -0.10654211 -0.04100033 0.16736484 0.10279234 0.059990127 0.17625986
-0.016328331 0.07746734 0.1574803 0.14028698 -0.09459606 -0.07128 0.100953035 -0.017652296
-0.08781962 0.05927715 0.142422 -0.08595928 -0.056134507 0.061233606 0.112790346 0.116364904
0.1779517 0.13281833 -0.09003865 -0.0958926 -0.023050362 0.068351485 -0.039055828 0.049627434
-0.09875447 0.1107781 -0.032589406 0.12959786 0.049297012 -0.12887752 0.006582764 0.14593166
0.096232384 0.027778145 -0.13144565 -0.0020635517 0.1349092 0.052970152 0.1753027 -0.043209266
0.051898386 0.1939943 -0.053111464 0.14337708 -0.13145833 -0.12636527 -0.17736362 0.08629007
0.12177117 -0.022597168 -0.029912155 0.016660402 -0.10971034 0.10809123 0.0076447013 0.073403664

joint_model.model.1.0.weight f4 [64, 64]
00000000: 89a7 9c3c f03b 66bd 20e3 c2bd 6be3 56bd
00000010: be18 de3d 20de 5d3c f6fb b73d 01a3 82bd
00000020: ae55 19be 46a3 b63d 4543 b5bd d78c 0bbe
00000030: cafa e1bd a601 183d efbd fd3d 7023 e93c
00000040: 28fa 42bd a989 1d3e 0090 ac3d 548d c83d
00000050: 5c9e da3c d8c9 813d 511d 193d 7638 77bd
00000060: 58f3 dbbd f376 d8bc ccda 97bc 75f8 17be
00000070: 3a09 c1bd cb23 833d 6ce1 eb3d 5c69 133c
00000080: 5d5f a0bd d19f e1bd 3dbe 823d 7567 b43d
00000090: 8dd3 eebd fe69 833c 5c06 99bd cff5 e03d
000000a0: 2ea3 b6bd 67ba 84bc 2e8d 423c 215a 903d
000000b0: 4d38 133d 7c81 9bbd 92ac 92bd b954 ed3d
000000c0: 9b57 c1bc 2c09 243d d093 ccbd 9e08 013e
000000d0: 5896 f6bd 234b 613d 26d4 093e b9b1 b7bd
000000e0: 5602 0fbd dec9 41bd bbef abbd e3fb b73d
000000f0: fbfe 97bc 8086 87bd db5d c13d 881a 893d
00000100: 6b88 8c3c b084 bf3d 14a6 a4bc b4ea b23d
00000110: e2b3 e5bd 732a 573d 4cbf 983d 3311 863d
00000120: 3a01 c63d 5859 ee3d 6e47 aa3d b9dc 0f3e
00000130: 2642 c9bc 7582 0cbe 332b d3bd abaf 833d
00000140: 5651 af3c d145 773d 3794 953d 2a5b 4c3d
00000150: e966 293c dc04 b13d be1c efbd aa75 b1bd
00000160: 96eb 013e 6e60 3dbd e6d7 11bd 1072 643d
00000170: ce8d 013e 5c9c 173c c8c0 943d 5c16 2bbd
00000180: a190 0ebe ddc8 99bd 35c5 b3bd 4e11 3c3d
00000190: 2483 b2bd edca b1bd 23d0 90bd 6f38 b13d
000001a0: 22cc 97bd 075e 0f3d 72c6 c0ba 1cef c2bd
000001b0: 845e 9fbd 65da a4bb 1bcd 87bd 83f0 1abd
000001c0: be6f 02bb 6d90 9c3b 4f23 16be f0c1 2abc
000001d0: 1072 a1bd 9813 853d 79f7 b1bd ec0d 123d
000001e0: 2a04 dd3d a090 c83d 44f5 3b3d aea4 e2bd
000001f0: 008a df3d 2b21 acbd 3bd3 de3d e5e8 183d
00000200: b7bb a13c 6211 353d 531d 053e 4f60 f3bd
00000210: 1bca b5bd 2277 173b 5b7d f1bd 145e 0d3d
00000220: e47d 1d3c 35fc 2ebd ff67 abbd bb42 07be
00000230: 8e7b 12bd 02a7 e63b 4050 c43c ed16 50bc
00000240: f752 023e 85eb 20be 729d d63c 185a 8d3d
00000250: 8c99 763d 1d9d 4d3d 1f72 3dbd 9aeb 8cbd
00000260: 7c3e e83d c931 31bd c247 bb3d 686e b13c
00000270: 7f6e 753c 9f63 ea3d aedd 843d ae47 18bd
00000280: d254 f33d 1542 273d bdf4 053e 8bc6 03bc
00000290: fab8 bf3d 9354 89bd cece 97bd d7b0 37ba
000002a0: d721 063d ceb5 0f3d 4ce4 e2bd 2272 0a3d
000002b0: 939e eebb 1515 623d 735b 85bd 760d c83c
000002c0: f72d 313c c5f0 e5bc 1864 513d e278 9e3d
000002d0: c8ec df3d c982 483d 7aa6 a23d d8fe 8f3d
000002e0: 54dd 80ba a52a a53d b72f 3fbd 6b51 df3c
000002f0: 52cb 8ebd bfb8 abbd 2909 c63c ab93 a0bd
00000300: cb55 78bc 4250 2a3d bad8 8dbc 5da7 b83d
00000310: e222 f7bc f056 983d 1916 6abd c66f 3abd
00000320: 582f 1a3d 292b a33d c98b d83d 74df 86bd
00000330: 95f8 e6bd fa61 babd d26f 05be 79da b83d
00000340: f587 903d 9112 59bc 6fd6 dc3d c69b 8ebd
00000350: 6da0 12bd 4615 1f3c 288f afbd 96e4 8ebd
00000360: f754 b6bd 0280 a93d 9952 0439 052e b93d
00000370: 2ec3 123e 75bc 19bc e5c6 2f3d 07bc 81bd
00000380: 05c1 4cbd 1cf1 fdbd 58eb b2bd 20e3 cbbb
00000390: abbd d03d a8c5 1abe 0649 e4bc 0bc8 fbbc
000003a0: 5941 e73b a8ac 23bd 2b75 ec3d e06c 863d
000003b0: 706c 05be 6938 7dbd a471 da3d 58bb 46bd
000003c0: 29af c23d 78fc 86bd 2b98 a2bd 5161 84bd
000003d0: edb4 a53d a30c 11bd 23c5 88bc b1b1 f63c
000003e0: 6b7b 96b7 4cf9 c3bd 792d cf3c fc0f 5339
000003f0: 4636 1e3e 588c a13d daef e33d a1ac 71bd
0.019122856 -0.056209505 -0.09515977 -0.052462976 0.10844563 0.013541728 0.089836046 -0.06378747
-0.1497409 0.08917861 -0.08850721 -0.13627945 -0.11034162 0.037110947 0.123897426 0.02845928
-0.04760185 0.15384544 0.08425903 0.09792581 0.02668684 0.06337327 0.037381474 -0.06035658
-0.107397735 -0.026423907 -0.018536948 -0.14840873 -0.09425588 0.06403311 0.11517605 0.008997288
-0.07830689 -0.11016811 0.06383941 0.08808795 -0.11661444 0.016041752 -0.07471916 0.10984384
-0.08917843 -0.016202165 0.01187448 0.07048441 0.035942364 -0.075930566 -0.071618214 0.11588425
-0.023601344 0.04004781 -0.099891305 0.12600943 -0.120403945 0.055003297 0.13459834 -0.08969445
-0.034914337 -0.047311656 -0.08395334 0.089835905 -0.018554201 -0.06617451 0.0944173 0.066945136
0.017154893 0.0935148 -0.020098723 0.08736172 -0.112159505 0.052530717 0.07458362 0.06546249
0.09668203 0.11638135 0.083144054 0.14049043 -0.024567675 -0.1372164 -0.10310974 0.064299904
0.021401089 0.060369316 0.0730366 0.04989163 0.010339477 0.08643505 -0.11675404 -0.08665021
0.12687525 -0.04623454 -0.035606287 0.05577284 0.1265175 0.009253588 0.072633326 -0.04176937
-0.13922359 -0.07509015 -0.08777849 0.04591494 -0.08716419 -0.08681283 -0.07070949 0.08653342
-0.07411982 0.03500178 -0.0014707579 -0.09518263 -0.07781699 -0.0050309175 -0.06630918 -0.037827026
-0.001990303 0.004777959 -0.14661907 -0.010422215 -0.07883084 0.06497878 -0.0868978 0.03565781
0.1079181 0.0979321 0.0458882 -0.110665664 0.10914993 -0.08404764 0.10880133 0.03733148
0.01974283 0.04420603 0.12999468 -0.11883604 -0.08876439 0.002311178 -0.11791488 0.034513548
0.009612534 -0.042720992 -0.08369445 -0.1320905 -0.035762362 0.007038952 0.023964047 -0.012700778
0.12726961 -0.15714844 0.026198123 0.0690195 0.060205027 0.050198663 -0.046251412 -0.06880875
0.11340043 -0.04326037 0.09144546 0.021659091 0.014979958 0.114447825 0.064875945 -0.037177734
0.118814126 0.040834505 0.13081641 -0.008042942 0.09361453 -0.067055844 -0.07412492 -0.0007007247
0.032747116 0.03508549 -0.110787004 0.03380025 -0.007282087 0.055195887 -0.06511583 0.024420481
0.0108141815 -0.02806891 0.051120847 0.077379 0.10933834 0.04895285 0.07941909 0.070310295
-0.0009831586 0.080647744 -0.046676364 0.027260503 -0.06972374 -0.08384847 0.02417429 -0.078406654
-0.015157173 0.041580446 -0.017315257 0.09016297 -0.030168 0.07438457 -0.05714998 -0.04551675
0.037642807 0.079672165 0.10573537 -0.06585589 -0.11277882 -0.09100719 -0.13030937 0.09026045
0.07057182 -0.0132490555 0.107830875 -0.06963305 -0.035797525 0.009709662 -0.08572227 -0.06977193
-0.089029245 0.08276369 0.00012619271 0.09041981 0.14332268 -0.009383311 0.04291429 -0.063346915
-0.049988765 -0.123995036 -0.087362945 -0.006222144 0.10192426 -0.15114462 -0.027866852 -0.030735036
0.0070573506 -0.03995958 0.115457855 0.06563735 -0.13029647 -0.061821375 0.106662065 -0.04851851
0.095060654 -0.06591123 -0.0793918 -0.06463874 0.080911495 -0.035412442 -0.016695565 0.030114027
-1.7938864e-05 -0.09569034 0.025290238 0.00020128483 0.15450391 0.078880966 0.111297324 -0.059002522

joint_model.model.1.0.bias f4 [64]
00000000: 7039 1a3d 5993 9e3d 471e c0bd 4365 b6bd
00000010: 866f 923d c9db f13c 9c76 a6bd 706b c33d
00000020: bb49 ebbc 9fcf ac3d bacb 67bd 7ece f33d
00000030: d62d b83d 477c f0bc 2dd9 22bd e64b 543d
00000040: 2341 4bbd 86b8 76bc 1c12 023d 3fa8 1a3d
00000050: a109 bebc 29bc 043b 3d50 0abd 0bdf d33c
00000060: 89b0 b8bd 3c3e e23d 4053 63bd 15c7 d4bd
00000070: bba3 d9bb 6fdf 88bb e775 66bd 08e6 863c
00000080: 84d7 8e3d 6f16 5abd b5f0 ec3b 106c ce3d
00000090: 612b 91bc b42d 8c3d d475 aebc b345 fb3b
000000a0: e5d1 f5bc c38f 843c 1901 0abc 3269 8abd
000000b0: 341c 1b3d 1552 abbd b8d3 373d 7785 993d
000000c0: 35b2 40bd 7b7d 86bd 75bf eebd 50d2 0fbe
000000d0: 9469 c6bd 1d5c 9c3d 84bb 83bd 5a46 f6bd
000000e0: 489a 2c3d 3147 64bd 9bcf b63d 0f6f bebd
000000f0: 127e 10bd 803b 3d3d 9f3b 09be 3eb5 5a3d
0.037652433 0.07742948 -0.09380775 -0.08906033 0.07150178 0.029523747 -0.08128092 0.095419765
-0.02872168 0.08438038 -0.056590773 0.1190462 0.089931175 -0.029356135 -0.039757896 0.051830195
-0.049622666 -0.015058642 0.03175555 0.03775811 -0.02319795 0.0020253754 -0.033767927 0.025863191
-0.090180464 0.110470265 -0.055499315 -0.103895344 -0.0066418326 -0.004177026 -0.056264784 0.01646711
0.069747 -0.05324405 0.007230843 0.10079205 -0.01772088 0.06844655 -0.02129642 0.007668221
-0.030007312 0.016181832 -0.008423113 -0.06758346 0.037868693 -0.08365265 0.044879645 0.074961595
-0.04704495 -0.06566902 -0.11657611 -0.14045072 -0.09688106 0.07634757 -0.0643225 -0.12025137
0.04213932 -0.055731956 0.08926316 -0.092985265 -0.03527648 0.04619932 -0.1340165 0.053395502

joint_model.model.2.0.weight f4 [64, 64]
00000000: 2017 663d 2753 103e 2c86 05be 70cc 1b3d
00000010: 5776 a1bd ab04 7abd f939 efbd 21e2 e83d
00000020: ffe0 bcbb b068 b53d 816d 6bb9 735c 873d
00000030: f55c be3b 03f8 d7bd 7718 583d b438 21bc
00000040: 4a21 a9bd 03c6 cd3d 623b f73c 7f69 9fbd
00000050: 9404 713d 799f 3b3c 8cea 733d 1df2 efbc
00000060: 0e9a cd3a e4f6 a83d 056a 10be 0cc0 c93d
00000070: 398f b9bd 23e3 fa3d 23ea af3d bd07 aa3d
00000080: e081 38bd 5324 18bd 6693 42bd 4834 b8bb
00000090: 31f7 c1bc e4fa 8bbd 07d0 a3bc 0fb2 a93d
000000a0: bc38 45bc a3e6 903c 38a8 00be 495d 273d
000000b0: 64b4 9dbd 3ca2 78bd 636d 873d 167b 64bd
000000c0: da12 f6bd bea0 193c 628b debc be36 ab3d
000000d0: ed79 b73c c53d ac3d cb06 82bd 4e89 b8bd
000000e0: e1f9 89bb 9691 7abd c330 a83d 6942 22be
000000f0: 75c8 96b7 ad6f 49bd 416b 2a3d 2c26 e33d
00000100: a5ae 8ebc 66b2 02bc 8039 ae3d 9d10 b03d
00000110: d6d6 12be 1a93 563d c0c3 9cbd 8fe9 f33d
00000120: 29f9 973d 9ebd f2bd 3bb0 613c 406b 54bd
00000130: ad0d 4c3d 2315 733b ba86 8c3d b6a5 723c
00000140: 0d35 9d3d 3025 8abc 4b89 2d3d d274 48bd
00000150: b455 0e3e 10cc 1f3c cb38 603d 6e49 e3bd
00000160: 0575 0ebe ae58 82bd 2b36 193e ebd2 65bd
00000170: 4144 7d3d 64d9 6fbd 9c1c 53bd c42d 0b3e
00000180: 4052 5c3c c4a9 a43d a132 ff3c 34f1 c7bd
00000190: fc69 79bd 720a 6cbd 3b3d 683d 606b 37bd
000001a0: 4aac f8bd 881c 08bc 289e 0f3e ea2a 13be
000001b0: c4d4 00be 0d04 d93d 5118 d0bd 54dc aabd
000001c0: 2882 c23d 793e 0cbd 27a5 943c 4bb8 3b3d
000001d0: 2411 4b3d a78f 113d 744e 313d ceea 08bd
000001e0: ba2a 813d 661e d3bc 9ec8 92bd 10cd 0e3e
000001f0: ddc5 7abd cbe6 b33d ba92 833d 98b4 d3bd
00000200: 2ea6 c93c 2c64 663b 1270 4c3d 2ce7 babc
00000210: 7cc2 0d3b ac91 84bd e859 d13d 2d03 72bd
00000220: 9e3a 12be ac93 d73d 498e 053e ed3c c93d
00000230: 95ab 503d 21a4 8c3d f8cb 423c 7c17 933d
00000240: e04b fdbd 09d2 cebd c855 bbbd 1aa4 83bd
00000250: 1b92 a6bd 4709 11bd bbd9 9fbd 70d2 583d
00000260: 2648 2b3e 4f20 bd3d 4aa4 03be e462 cbbb
00000270: fe37 373d 8aa0 2b3d 36fb ae3d e8bc febd
00000280: 3cc4 8d3d a099 983d 68bd 603d 73a8 df3d
00000290: 34fc 6bbd 2494 89bd e2d8 8abd 1213 113e
000002a0: 21bd 03be d2a1 e13c 17bc c4bd 0f39 1a3e
000002b0: 1b12 443e a582 31bd 7b90 20be df24 07be
000002c0: 2262 bdbd d736 e63d b814 bcbd 1eba fd3d
000002d0: 1325 bb3d af49 033d f35f 04bc 53bc c93d
000002e0: bbc9 0c3d 148e 3c3d 5ea1 053e 988d d9bb
000002f0: 6766 a03d 4b1d 24be cf6a 87bd 30af 3a3b
00000300: bf69 c3bd b941 de3d f39f fa3c fd60 9b3d
00000310: 9a19 b73d 7199 743d b909 e73c be08 4e3d
00000320: da80 023d 9782 92bd 90a5 9d3d 8f7b 0e3e
00000330: ac73 96bd 37ff 9a3d d1e8 dbbd 61b7 f73d
00000340: 6d0e 083e 1055 e8bd 5fc9 f03d 8229 693d
00000350: 4849 27bc 51da 45bb c6a7 8dbd 6b98 c3bd
00000360: cb69 a3bc 8b39 cbbd fd7e 05be 4df4 d23a
00000370: 07b1 c33d ebb2 a33d 0034 f23d dded 1c3d
00000380: 38f3 6fbd c1a8 f93c be9c 47bd 59e3 f5bc
00000390: 45ff b83d 7fd1 703d cfe5 fb3c dbd2 1c3e
000003a0: 6307 53bc 905e 313d 6743 bcbc e212 19be
000003b0: a662 00bc a511 ca3c 4de6 303d 90fc ed3d
000003c0: ba14 e3bb cb7a cd3c d1c5 9abc 2f00 f6bd
000003d0: cba3 003e bda7 ce3d 2b03 27bb 679b 5e3d
000003e0: bd4d 74bd 2972 97bd 752d ec3d a5d7 bdbd
000003f0: cb22 8cbd 071f 5a3d 5ac6 03bc d71f 85bd
0.056174397 0.1409422 -0.13039464 0.038036764 -0.078839 -0.061039608 -0.11680979 0.11371256
-0.0057641263 0.08857858 -0.0002245214 0.0660943 0.005809421 -0.10545351 0.052757706 -0.009840179
-0.082583025 0.10047533 0.030179683 -0.07783794 0.058842257 0.011451595 0.059549853 -0.029290253
0.0015686171 0.08250216 -0.14102943 0.09851083 -0.09060521 0.12250354 0.0858958 0.08302257
-0.045045733 -0.037144016 -0.04750385 -0.005621467 -0.02367744 -0.06834963 -0.019996656 0.08285915
-0.012037452 0.017688101 -0.1256417 0.040860448 -0.077004224 -0.060701594 0.06612661 -0.055781446
-0.120153144 0.009376703 -0.027166072 0.083600506 0.022397006 0.08410219 -0.06348952 -0.09010564
-0.004210696 -0.061173998 0.082124256 -0.15845646 -1.7974739e-05 -0.049178768 0.04160619 0.11091265
-0.017417261 -0.007977104 0.08507061 0.08596919 -0.14339766 0.05238638 -0.07654524 0.11909782
0.074205704 -0.11852573 0.013774927 -0.051860094 0.04981773 0.0037091456 0.068616346 0.014810016
0.07676134 -0.016863436 0.04236726 -0.048939534 0.1389988 0.009753242 0.054741662 -0.1109799
-0.13911827 -0.063645706 0.1496207 -0.05610935 0.06183267 -0.05855693 -0.051540956 0.13591677
0.013447344 0.08040193 0.031152071 -0.09762803 -0.06089209 -0.05762715 0.05669902 -0.044780135
-0.121422365 -0.008307584 0.14025176 -0.14371839 -0.12581164 0.10596476 -0.10160888 -0.083428055
0.094974816 -0.034239266 0.018145157 0.045830052 0.049576893 0.03553739 0.04328771 -0.033427052
0.063069776 -0.025771331 -0.07167171 0.13945413 -0.061223853 0.08784255 0.0642447 -0.1033718
0.024615373 0.0035154922 0.049911566 -0.02281531 0.0021630814 -0.06473097 0.102222264 -0.05908506
-0.14280173 0.10526213 0.13042559 0.09826074 0.050944883 0.068672426 0.01188945 0.07182214
-0.12367988 -0.10098655 -0.09147221 -0.06427784 -0.08133336 -0.03540924 -0.07805201 0.052935064
0.16726741 0.09234678 -0.1285564 -0.006206857 0.044731133 0.04190115 0.085440084 -0.12438375
0.06922194 0.07451177 0.054868132 0.10920801 -0.057613567 -0.06717709 -0.06779648 0.14167431
-0.12865116 0.027542982 -0.09606188 0.15060829 0.19147532 -0.043337483 -0.15680115 -0.13197659
-0.09247233 0.112409286 -0.09183639 0.12389015 0.09137931 0.032052692 -0.008079517 0.09850373
0.034372073 0.046033934 0.13049838 -0.0066391937 0.07832032 -0.160268 -0.06612169 0.0028485768
-0.09541654 0.10852379 0.030593848 0.075868584 0.0894043 0.059716646 0.028202878 0.050301306
0.031861164 -0.07153814 0.07697594 0.13914321 -0.073462814 0.075682096 -0.107377656 0.120955236
0.13286753 -0.113443494 0.117571585 0.05692435 -0.010210343 -0.0030189941 -0.06916766 -0.09550556
-0.019947907 -0.09923085 -0.13036723 0.0016094536 0.0955525 0.0799311 0.118263245 0.03831278
-0.05858156 0.030475976 -0.048733465 -0.030015634 0.09033064 0.05879354 0.03074923 0.1531481
-0.012880179 0.043303072 -0.022981359 -0.1494861 -0.00783602 0.024666617 0.043188382 0.11620438
-0.006929961 0.025082966 -0.018893154 -0.12011754 0.12562482 0.10090587 -0.0025484066 0.054347422
-0.05964445 -0.07394821 0.11532108 -0.092696466 -0.06842574 0.053252246 -0.008042896 -0.065002136

joint_model.model.2.0.bias f4 [64]
00000000: c4d4 fa3d a0b7 96b7 6450 2fbd caa6 c43d
00000010: 6a8e bc3d 0894 773d ada5 e1bd 1593 723d
00000020: 2010 f9bd 95c8 bc3d a526 f7bd 431a e33d
00000030: 28a0 57bd 408a 903d bfbb 843d 6fe8 06be
00000040: c525 ad3d 72e2 29bd 2a97 e3bd 5232 103d
00000050: 5235 10be 4b07 073e cba8 e6bd fdfd d23d
00000060: 6b13 ca3d e0d1 c63d 2f66 9f3d b817 d43d
00000070: 5fa5 0c3d 8715 81bd 65ae 85bc a2ab eb3d
00000080: ae84 bf3d f3ed 523d 1faa 04be 1476 763d
00000090: d8a9 dabd bcae b03c e26a 81bd 08e8 2b3d
000000a0: 1bb7 e9bd 974e 603d b86f d23d 2ee9 f3bd
000000b0: d1f8 c33d f0e9 ccbd d02e e7bd 13ff 54bd
000000c0: 57a4 213c b78a cfbd cd4b 8e3d 773b c6bd
000000d0: 4449 883d f671 55bd b1fa 18be 8ec5 253d
000000e0: e5ba 9bbd b085 11be bf5a cabd 8f65 953d
000000f0: 31ae d4bd 6f0b db3d 1e89 013b cb12 753d
0.12247613 -1.79669e-05 -0.042801276 0.09602125 0.09206851 0.060443908 -0.11017928 0.0592223
-0.12161279 0.092179455 -0.12067918 0.110889934 -0.05264297 0.07057619 0.06481122 -0.13174604
0.084544696 -0.04147572 -0.11112817 0.03520424 -0.1408284 0.13186376 -0.112626635 0.10302351
0.09866985 0.09707999 0.07783162 0.103560865 0.034337398 -0.06302934 -0.01631851 0.11507346
0.093514785 0.051496457 -0.12955521 0.0601712 -0.106769264 0.021567695 -0.063192144 0.04196933
-0.11411878 0.05476245 0.10275215 -0.1190971 0.09568942 -0.100055575 -0.11288226 -0.05200107
0.009865842 -0.1013388 0.069480516 -0.09679311 0.06654599 -0.052110635 -0.14939381 0.040471606
-0.07604007 -0.14211154 -0.0988059 0.072947614 -0.10384787 0.1069554 0.0019765566 0.059832375

joint_model.model.3.weight f4 [64, 64]
00000000: 3727 ac3c 5540 373a cec9 833c 131d cd3c
00000010: d216 283c 3e37 00bc a49d a9bc a53e f53c
00000020: 457d 97bc 3226 f43c 438d 5dbc 45d9 e83c
00000030: 4e8f 13bc 3ca1 6b3c 1d3e 843c aae8 d2bb
00000040: 7526 823c 1bbc 48bc 6762 c4bc 1863 f83c
00000050: 5ae2 d4bc 672a f53c 5db2 31bc 00c6 f33c
00000060: 1985 d33c 8abb 1fba a5ba be3c acc2 0b3d
00000070: bee8 b63c bc16 e5bb e12b 51bc e3d6 813c
00000080: 6760 303d a34c 9e3c a43d b3bc e72d 5abc
00000090: d567 48bd 02fe 5fbc 9113 81bc e4ae 523c
000000a0: b0e2 f3bc 6321 0d3d e1a2 843b 240c b6bc
000000b0: 8acd a73c b455 c7bc 27c8 c2bc 7285 a6bc
000000c0: 7a0f cc3c 3720 b8bc 8597 993c 8e42 e1bc
000000d0: ec02 99bc 3790 babb 8f1f b8bc f813 ab3c
000000e0: 8ad6 38bc a970 64bc 322a 9ebc 73d2 98bb
000000f0: c26b abbc ffea 6b3c ed69 33bc c06a d93c
00000100: 8284 853b 9e07 233b a2b0 4ebc 983a c53b
00000110: a2e0 ef3b 5033 1f3c 0460 0bbc d76c 0c3c
00000120: d86e e0bb 9884 f43b b6e9 bdbb 6b59 0c3c
00000130: dc47 6d3b f2c9 7a3b d459 0a3b 4ce6 06bc
00000140: 74c6 363c e645 e1bb 2d4c 70bc 737e ce3c
00000150: 90c5 5ebc eca8 8a3c 996a ecbb 7989 ad3a
00000160: dd2f 163c 775e ce3b f641 f63b 99b1 da3c
00000170: 9065 ad3c 97cd 09bc 36f0 953b 0b6a 0f3c
00000180: 4b37 ab3c 5b7f 103c e431 1bbc e134 ebbb
00000190: 0656 01bd 6248 24bd 2643 163c 6695 a23b
000001a0: 07a0 c5bb accd 583c fc09 9f3a 57c6 54bc
000001b0: 9e5e 0a3c 6aeb 26bc 1ed5 80bc 443e f2bb
000001c0: 4173 003c 6561 07bc 59c8 b03b 5644 7cbc
000001d0: 66ba b3b9 cdd1 cd3a c86a 28bc 8ace 453c
000001e0: a434 d3bb 670f a2bb 0627 81bc 0b50 72b9
000001f0: 8a3e 36bc e176 de3b 7649 f23b 8348 183c
00000200: d73d 6b3c 0ff4 abbc 1bf1 0bba 42ba 533c
00000210: 3ad7 813b 0fce 4b3c 0466 98bc 3a83 163d
00000220: 457c 9dbc 2b83 d63b ea74 43bc 62b5 ac3c
00000230: 9e8b bebb ed40 4a3c 83cd b43c 69f4 30bc
00000240: d4ad 733c 3676 80bc f872 b0bc 6df6 dfbc
00000250: fdc5 58bc 3ec4 1c3c d978 8dbc 687d c53c
00000260: 3739 973c ff70 793c d02c 573c 8683 c13c
00000270: abb7 9f3c 21aa 7ebc 8a76 c4bc 77a7 9b3c
00000280: bc3c d43c bf6b e03c 1ea8 98bc 5176 b33c
00000290: 516f 2ebb 2728 d53b 015c bebc 23e3 703c
000002a0: 514b 95bc c0a0 a83c f8c6 543c 2fc1 9abc
000002b0: fbd5 ad3b 4b09 8cbc 2a7f 2ebc 9f6f a0bc
000002c0: aba7 a2bb 35e2 99bc cc00 233c 4225 55bc
000002d0: edbe a13c 4349 99bc 56e4 5abc a5e2 bc3c
000002e0: 2652 75bc 7d60 60bc d473 93bc c5cb db3c
000002f0: 8e8c 2bbc 2315 5a3c 0d13 1ebd be9b f43c
00000300: 5cf4 31bc a261 41bc dfd4 c9bb e188 b1bb
00000310: 1475 9cbb 9360 2b3c bf2d 9a3a 8467 b23b
00000320: 3770 4ebc 5e6b ff3a e3b3 e63b 3e86 b8bb
00000330: 620e 9dbb a5a2 13bc 4ce8 653b 414b 9eba
00000340: 49eb 113c 82a0 0a3c 0c75 133a 19d7 1b3c
00000350: 920f 34bc c053 4c3c 878d 2dbc fc96 193c
00000360: fd11 1c3c f067 273c 8ea6 5bbc 9b23 1d3d
00000370: a07d aa3c 0651 4cbc ceff 70bc 21a9 5d3c
00000380: f054 fdbb fcdd 443c b7bc 55bc 1a77 69bb
00000390: c998 2cbb 1d46 16bd e9f3 41bc 3168 e63b
000003a0: 6776 153c 7080 963b 19e5 25bb 670c c7bb
000003b0: b874 0eb9 1ffe 7bbc 96d3 4abb b669 f4bb
000003c0: 0ecf 7f3b 59d0 afbb 52a7 363b 5d1d fdb8
000003d0: 9a67 4a3c 49c9 ab36 f700 4aba c335 eaba
000003e0: f710 c5bb f213 c9bb 1330 04bc 55d8 fc3b
000003f0: 1df7 573a e076 86bb beaf 143b 62b8 4d3c
0.021014793 0.0006990482 0.016087439 0.025038278 0.010259347 -0.007825671 -0.020705052 0.029937098
-0.01849235 0.02980337 -0.013522449 0.028423915 -0.0090063345 0.014381703 0.0161429 -0.006436427
0.015887478 -0.012251879 -0.023972703 0.03032069 -0.02598684 0.029927446 -0.010845748 0.0297575
0.025820302 -0.0006093314 0.023282358 0.0341212 0.022327777 -0.0069912355 -0.012766809 0.015849536
0.043060686 0.019323653 -0.021879978 -0.013316608 -0.048927147 -0.0136714 -0.0157564 0.01285908
-0.029771179 0.03445567 0.004047737 -0.022222586 0.02048375 -0.024332859 -0.02377708 -0.020327304
0.024909724 -0.022476299 0.018749008 -0.027497556 -0.018678151 -0.0056934613 -0.022475986 0.020883545
-0.011281619 -0.013942876 -0.01930723 -0.0046637594 -0.020925406 0.014399289 -0.010950548 0.02654016
0.004074634 0.0024876366 -0.012615355 0.006018948 0.0073204795 0.009716824 -0.008506779 0.008570871
-0.006849151 0.0074620955 -0.005795683 0.008566241 0.0036206162 0.0038267341 0.002111067 -0.008233618
0.011155713 -0.0068747876 -0.014666599 0.02520678 -0.013596907 0.016926251 -0.007214856 0.0013239823
0.009166685 0.006297882 0.0075151874 0.026696013 0.021166593 -0.008410833 0.0045757545 0.00875331
0.02090039 0.008819426 -0.009472344 -0.0071779345 -0.03157618 -0.040108092 0.009171283 0.0049616573
-0.0060310396 0.01323263 0.0012133713 -0.012986741 0.00844541 -0.010187963 -0.015726622 -0.0073926765
0.007839979 -0.008262967 0.005394977 -0.015397152 -0.00034280418 0.0015702784 -0.010279365 0.0120731685
-0.0064454842 -0.0049456838 -0.015765678 -0.00023108737 -0.011123309 0.006789074 0.007394011 0.009294632
0.0143580055 -0.0209904 -0.0005338357 0.012922825 0.0039624246 0.012439265 -0.018603332 0.03674624
-0.019224295 0.006546398 -0.01192973 0.021082584 -0.0058149835 0.012344581 0.022070652 -0.010800459
0.014872987 -0.015681367 -0.021539196 -0.027339185 -0.013230798 0.009568272 -0.017269539 0.02410765
0.0184599 0.015224694 0.013133243 0.023622286 0.01949676 -0.015543492 -0.023982305 0.019000752
0.025907867 0.027395127 -0.018634852 0.021907004 -0.0026616643 0.0065050307 -0.02323723 0.014702591
-0.01822439 0.020584464 0.012986891 -0.018890945 0.0053050495 -0.017094275 -0.010650435 -0.019584475
-0.0049638352 -0.018784622 0.00994892 -0.013009371 0.01974436 -0.018711692 -0.013360104 0.023057291
-0.014973199 -0.01369488 -0.017999567 0.026830563 -0.010470523 0.013310703 -0.038592387 0.02985942
-0.0108614825 -0.011803063 -0.0061594094 -0.0054179286 -0.004774699 0.010460037 0.0011762901 0.005444469
-0.012599996 0.0019486954 0.007040487 -0.0056312373 -0.0047929743 -0.009010945 0.0035081087 -0.0012076871
0.008906194 0.00846112 0.00056250463 0.0095117325 -0.01099004 0.012471139 -0.010592825 0.009374376
0.009525773 0.010217652 -0.013406409 0.038364034 0.020811856 -0.012470489 -0.014709426 0.013529093
-0.0077310726 0.012015816 -0.013045481 -0.0035623969 -0.0026336184 -0.03668796 -0.011837938 0.0070314636
0.009122468 0.0045929477 -0.0025313555 -0.0060744765 -0.00013585656 -0.015380411 -0.003094887 -0.007458891
0.0039033326 -0.005365413 0.0027870727 -0.000120694494 0.012353802 5.11963e-06 -0.0007705832 -0.0017868805
-0.0060139853 -0.006136411 -0.008068102 0.0077162185 0.0008238422 -0.0041035265 0.0022687758 0.012556167

joint_model.model.3.bias f4 [64]
00000000: d889 c63c 92cb 5b3c 8b0a 353c 47e6 233c
00000010: 6ead 283c 99b6 cb3a 5400 a13c 0d5b 203c
00000020: fad7 b43c 0024 723b 3358 c23c f96c e1bb
00000030: 0ed1 973c 65de 2cbc 22c5 b73c b909 8c3b
00000040: 2b8d ef3c e336 f4bb d944 ba3c 0637 ccbb
00000050: 8d05 9b3c bf6b 0abc e8ac 583c 6771 413c
00000060: c4f1 b13c 23d0 813a a6d3 333c 42ab 133c
00000070: 702c d93c f430 233a 3c77 9c3c d3aa 5b3c
00000080: 0000 0000 0000 0000 0000 0000 0000 0000
00000090: 0000 0000 0000 0000 0000 0000 0000 0000
000000a0: 0000 0000 0000 0000 0000 0000 0000 0000
000000b0: 0000 0000 0000 0000 0000 0000 0000 0000
000000c0: 0000 0000 0000 0000 0000 0000 0000 0000
000000d0: 0000 0000 0000 0000 0000 0000 0000 0000
000000e0: 0000 0000 0000 0000 0000 0000 0000 0000
000000f0: 0000 0000 0000 0000 0000 0000 0000 0000
0.02423565 0.013415234 0.011049877 0.010003633 0.010295255 0.0015542089 0.019653477 0.009787333
0.022075642 0.0036947727 0.023723697 -0.0068794456 0.018532302 -0.01055107 0.022432867 0.00427362
0.029242119 -0.007452832 0.022737907 -0.0062321452 0.018923545 -0.00844854 0.013224818 0.011806822
0.021721728 0.0009903949 0.010975754 0.009012999 0.026510447 0.0006225251 0.019099824 0.013407427
0.0 0.0 0.0 0.0 0.0 0.0 0.0 0.0
0.0 0.0 0.0 0.0 0.0 0.0 0.0 0.0
0.0 0.0 0.0 0.0 0.0 0.0 0.0 0.0
0.0 0.0 0.0 0.0 0.0 0.0 0.0 0.0
