energy_sampling/results/9gmm/gfn/fwd/fwd_tb/T_100/tscale_5.0/lvr_4.0/seed_12345/model.pt (torch, 174387 bytes, 20 tensors)

t_model.pe f4 [1, 64]
6.2831855 12.566371 18.849556 25.132742 31.415928 37.699112 43.9823 50.265484
56.548668 62.831856 69.11504 75.398224 81.68141 87.9646 94.24778 100.53097
106.814156 113.097336 119.38052 125.66371 131.9469 138.23009 144.51326 150.79645
157.07964 163.36282 169.64601 175.9292 182.21237 188.49556 194.77875 201.06194
207.34512 213.62831 219.9115 226.19467 232.47786 238.76105 245.04424 251.32742
257.6106 263.8938 270.17697 276.46017 282.74335 289.02652 295.30972 301.5929
307.8761 314.15927 320.44247 326.72565 333.00882 339.29202 345.5752 351.8584
358.14157 364.42474 370.70795 376.99112 383.27432 389.5575 395.8407 402.12387
00000000: db0f c940 db0f 4941 e4cb 9641 db0f c941
00000010: d253 fb41 e4cb 1642 e0ed 2f42 db0f 4942
00000020: d631 6242 d253 7b42 e73a 8a42 e4cb 9642
00000030: e25c a342 e0ed af42 dd7e bc42 db0f c942
00000040: d9a0 d542 d631 e242 d4c2 ee42 d253 fb42
00000050: 68f2 0343 e73a 0a43 6583 1043 e4cb 1643
00000060: 6314 1d43 e25c 2343 61a5 2943 e0ed 2f43
00000070: 5e36 3643 dd7e 3c43 5cc7 4243 db0f 4943
00000080: 5a58 4f43 d9a0 5543 58e9 5b43 d631 6243
00000090: 557a 6843 d4c2 6e43 530b 7543 d253 7b43
000000a0: 28ce 8043 68f2 8343 a716 8743 e73a 8a43
000000b0: 265f 8d43 6583 9043 a5a7 9343 e4cb 9643
000000c0: 24f0 9943 6314 9d43 a338 a043 e25c a343
000000d0: 2181 a643 61a5 a943 a0c9 ac43 e0ed af43
000000e0: 1f12 b343 5e36 b643 9e5a b943 dd7e bc43
000000f0: 1da3 bf43 5cc7 c243 9ceb c543 db0f c943

t_model.t_model.0.weight f4 [64, 128]
0.08615644 0.06610586 0.08599968 -0.0058824467 -0.07467764 -0.05586809 -0.022435045 0.010958963
-0.0297073 -0.051921096 -0.008169288 0.056747098 0.072489314 -0.044639964 -0.049675442 -0.005071519
0.037908535 0.040566333 -0.031900354 0.029614184 -0.016027475 -0.009607726 -0.07267847 0.064315945
-0.06333054 0.02302836 -0.043236528 -0.07351618 -0.0066295476 0.030328825 -0.08209408 0.007389623
-0.032231763 -0.011591346 -0.04041509 -0.010011589 0.07851157 -0.083971515 -0.042816628 0.07611538
-0.0056519494 -0.019363288 0.028720636 -0.03633269 0.037300237 -0.053522725 -0.025574632 0.06864666
0.007665678 -0.06979999 0.054104343 -0.05973965 -0.006702614 -0.0012552253 -0.03994927 0.038559265
-0.007739241 0.049264885 0.04591005 -0.070128135 0.06701066 0.0012035236 0.07078819 0.054008134
-0.024991661 -0.01849966 -0.0333308 -0.040849395 0.06946794 0.08341703 0.038124748 0.07840376
0.030998576 0.014766978 -0.03415548 0.08148709 -0.06412366 0.064288765 -0.0122883 -0.035920266
0.0005762949 0.05532082 -0.079307616 -0.06952304 -0.015177292 -0.08660548 0.013010697 -0.06358174
-0.078335315 -0.03490509 -0.048361953 -0.0014554284 0.060232826 -0.022524375 0.018596191 0.040926833
0.024777127 0.003344669 0.015419234 0.051031794 -0.07834239 -0.034199834 0.079137154 -0.02418438
0.05492599 -0.07161508 0.020738814 -0.0015843979 -0.082018636 0.018809328 -0.010373464 -0.08678939
-0.02850007 0.07382198 0.016732221 -0.054974437 -0.046615 -0.041328777 -0.044804458 0.017643278
-0.040494487 0.061900765 0.046191424 0.0638102 0.002573739 0.08086526 -0.07299577 -0.048687585
-0.049304456 0.042303756 -0.08505284 -0.0408821 0.036232017 0.081714444 0.058516 0.03554926
-0.06342415 0.02582713 -0.033187047 0.00412147 -0.010321094 0.081717566 0.058660656 0.008248055
-0.08494359 0.07025082 0.059630036 0.031042024 -0.08835099 -0.057728086 0.045532245 -0.08192548
0.03673408 0.0112002 0.08178276 0.03126053 0.045693714 0.027547695 -0.04272255 -0.047019377
-0.08470356 -0.012793602 0.00031729884 -0.027549185 0.023413867 0.06299234 0.008192162 -0.03333579
-0.07601902 -0.0464263 0.02622394 -0.08131133 -0.08682058 0.0038024844 0.0032633184 -0.070492916
0.021869749 0.038821567 -0.06979764 -0.0121241985 0.051374633 0.0798421 -0.06281907 -0.04850518
-0.049058333 -0.043994967 -0.058296926 0.06682614 -0.0054784636 -0.068225436 -0.061633725 -0.076145634
-0.08206369 0.004110543 0.008438075 0.049798302 0.074143484 0.06132935 0.075919054 -0.035311494
-0.06755291 -0.0071595185 -0.018031972 -0.003199851 0.0011162993 -0.050722316 -0.076461956 -0.035358615
0.015603689 0.046272658 -0.0802678 -0.080384046 -0.0040594637 -0.03287699 -0.035025608 -0.086479805
0.04070226 -0.013883129 0.0687177 -0.057760783 -0.08131251 -0.0021468205 0.021985931 0.052521802
-0.011451064 0.06689779 -0.04722776 -0.07587242 -0.042605218 -0.034314588 0.03162078 0.06974234
0.08203342 -0.043050267 -0.020071948 -0.01532503 0.033391487 -0.028174728 -0.032406136 0.016350726
-0.057306126 0.07681698 -0.077858575 -0.077086575 -0.005785187 -0.063440755 -0.03751558 0.050044984
0.0013983927 -0.011038733 -0.0830504 -0.029864058 -0.028518634 0.06613189 0.035760164 -0.009098896
00000000: ca72 b03d 8262 873d 9a20 b03d 8ac1 c0bb
00000010: 97f0 98bd f0d5 64bd b3c9 b7bc 398d 333c
00000020: b95c f3bc 37ab 54bd 7ad8 05bc a56f 683d
00000030: 4775 943d 65d8 36bd 7a78 4bbd fc2e a6bb
00000040: fb45 1b3d e228 263d f2a9 02bd 7299 f23c
00000050: 0d4c 83bc b969 1dbc 73d8 94bd 14b8 833d
00000060: 71b3 81bd f9a5 bc3c c918 31bd a78f 96bd
00000070: ad3c d9bb 2874 f83c f120 a8bd a724 f23b
00000080: 7405 04bd a1e9 3dbc 4b8a 25bd a607 24bc
00000090: adca a03d 42f9 abbd 7d60 2fbd 61e2 9b3d
000000a0: fd33 b9bb c29f 9ebc 8a47 eb3c 96d1 14bd
000000b0: 22c8 183d a53a 5bbd e481 d1bc 9f96 8c3d
000000c0: 5e30 fb3b 4cf3 8ebd 849c 5d3d 90b1 74bd
000000d0: 9aa1 dbbb 5f86 a4ba d9a1 23bd 52f0 1d3d
000000e0: 7599 fdbb fac9 493d 2d0c 3c3d 579f 8fbd
000000f0: e33c 893d 8dbf 9d3a 66f9 903d a237 5d3d
00000100: 50bb ccbc 998c 97bc e085 08bd b251 27bd
00000110: 3545 8e3d 8cd6 aa3d b228 1c3d 2792 a03d
00000120: baf0 fd3c 32f1 713c 9ee6 0bbd b4e2 a63d
00000130: 4453 83bd d4a9 833d de54 49bc 2121 13bd
00000140: 7f12 173a 1698 623d 086c a2bd 1862 8ebd
00000150: 2daa 78bc 375e b1bd d22a 553c 2537 82bd
00000160: 446e a0bd a4f8 0ebd 2f17 46bd 13c4 beba
00000170: b2b6 763d 0a85 b8bc 0a57 983c e5a2 273d
00000180: 67f9 ca3c 3c32 5b3b f4a0 7c3c b706 513d
00000190: fa71 a0bd 2015 0cbd a912 a23d 521e c6bc
000001a0: 13fa 603d edaa 92bd 72e4 a93c 92ab cfba
000001b0: 63f9 a7bd 0516 9a3c 76f5 29bc a3be b1bd
000001c0: fb78 e9bc fa2f 973d 0312 893c e02c 61bd
000001d0: 5fef 3ebd 5d48 29bd e184 37bd a388 903c
000001e0: 8cdd 25bd a88b 7d3d 3833 3d3d ecae 823d
000001f0: 2dac 283b af9c a53d ce7e 95bd a26c 47bd
00000200: 78f3 49bd b446 2d3d 2f30 aebd fd73 27bd
00000210: 0668 143d e759 a73d 79ae 6f3d 1a9c 113d
00000220: 85e4 81bd 6b93 d33c 24ef 07bd 650d 873b
00000230: ce19 29bc 8a5b a73d 2846 703d da22 073c
00000240: e8f6 adbd a9df 8f3d a03e 743d d84b fe3c
00000250: 5df1 b4bd 4974 6cbd 0580 3a3d 8cc8 a7bd
00000260: 7a76 163d 0b81 373c b87d a73d 0b0b 003d
00000270: 5529 3b3d b4ab e13c d7fd 2ebd 6497 40bd
00000280: 0f79 adbd 429c 51bc 215b a639 d4ae e1bc
00000290: 70ce bf3c 2102 813d 6b38 063c 1c8b 08bd
000002a0: dcaf 9bbd 8129 3ebd 97d3 d63c 8e86 a6bd
000002b0: fdce b1bd 1a33 793b 66dd 553b 975e 90bd
000002c0: 3028 b33c 5d03 1f3d 11f2 8ebd 93a4 46bc
000002d0: 356e 523d 4184 a33d 49a7 80bd 5ead 46bd
000002e0: 64f1 48bd 1134 34bd c2c8 6ebd 25dc 883d
000002f0: af84 b3bb c7b9 8bbd a573 7cbd 3ef2 9bbd
00000300: 0211 a8bd bcb1 863b da3f 0a3c 4ef9 4b3d
00000310: 8ad8 973d 7c34 7b3d 737b 9b3d c9a2 10bd
00000320: 2e59 8abd 659a eabb c9b7 93bc 97b4 51bb
00000330: ca50 923a 34c2 4fbd 1698 9cbd 32d4 10bd
00000340: 9da6 7f3c 6688 3d3d 7263 a4bd 64a0 a4bd
00000350: 4005 85bb 06aa 06bd 0377 0fbd 531c b1bd
00000360: 6ab7 263d 1076 63bc debb 8c3d 9296 6cbd
00000370: 2c87 a6bd acb1 0cbb d71b b43c 1a21 573d
00000380: 3e9d 3bbc b501 893d e571 41bd 0063 9bbd
00000390: cf82 2ebd 748d 0cbd ca84 013d 12d5 8e3d
000003a0: 2301 a83d 7a55 30bd ed6d a4bc d615 7bbc
000003b0: 83c5 083d b0ce e6bc 4cbc 04bd f5f1 853c
000003c0: d4b9 6abd 3952 9d3d 5174 9fbd 91df 9dbd
000003d0: aa91 bdbb 3aed 81bd f0a9 19bd f8fb 4c3d
000003e0: 464a b73a cddb 34bc 5416 aabd 78a5 f4bc
000003f0: e99f e9bc 2870 873d 4079 123d 8913 15bc

t_model.t_model.0.bias f4 [64]
0.07736796 -0.06556076 0.06509387 0.07167293 0.050077137 -0.07703926 0.06169099 0.007198003
-0.0013519012 -0.0579953 0.019484742 0.008892853 -0.027063547 0.0045404546 0.07408966 -0.0014095972
0.010271486 -0.086728685 -0.06302332 -0.010347759 0.003874256 0.07338391 -0.02782224 -0.041454203
0.0068099536 -0.06765498 -0.04468627 0.055501513 0.0013728534 -0.062432043 0.07358547 0.05681734
-0.07527893 0.015897112 -0.0026271052 -0.045630597 0.041623227 0.075309545 -0.06325991 0.03153707
0.07744132 0.06466179 -0.07514197 -0.013548597 -0.0787959 -0.013882799 -0.08158943 0.069574
0.06450477 -0.08886612 0.028941156 -0.011960129 0.04798987 -0.031145377 0.077088386 -0.048308656
-0.045179848 -0.06648151 -0.05693392 -0.045471784 0.07279656 -0.07850645 0.0019359135 0.018946202
00000000: 1873 9e3d b844 86bd ef4f 853d 42c9 923d
00000010: af1d 4d3d c2c6 9dbd b1af 7c3d 3add eb3b
00000020: 4732 b1ba 7b8c 6dbd 779e 9f3c 54b3 113c
00000030: 5fb4 ddbc 18c8 943b 52bc 973d 3cc2 b8ba
00000040: bc49 283c cf9e b1bd 5f12 81bd a689 29bc
00000050: 3be7 7d3b 4e4a 963d 77eb e3bc e2cb 29bd
00000060: 0826 df3b b28e 8abd f308 37bd 8e55 633d
00000070: 51f1 b33a beb8 7fbd fbb3 963d 4db9 683d
00000080: d72b 9abd a93a 823c 832b 2cbb 26e7 3abd
00000090: 1e7d 2a3d e43b 9a3d 698e 81bd 042d 013d
000000a0: 8e99 9e3d 676d 843d 08e4 99bd effa 5dbc
000000b0: bf5f a1bd ae74 63bc 5c18 a7bd d07c 8e3d
000000c0: 141b 843d 71ff b5bd 0116 ed3c 6bf4 43bc
000000d0: 0791 443d 9724 ffbc 84e0 9d3d 4cdf 45bd
000000e0: 810e 39bd 7527 88bd 8b33 69bd 9f40 3abd
000000f0: 5d16 953d fdc7 a0bd 7abe fd3a 1135 9b3c

t_model.t_model.2.weight f4 [64, 64]
-0.07069311 0.052540805 -0.0023755394 0.094824746 0.080315016 0.027339851 -0.09765004 -0.10270884
0.0045748325 0.0420137 -0.1149499 -0.04659469 0.056528945 0.07513604 0.041688316 0.04925563
-0.1251687 -0.074991606 -0.10003984 -0.032794442 0.122833505 -0.10700424 0.06478963 -0.1251961
0.055834625 -0.0070926184 -0.0009632212 0.010918737 -0.11547372 -0.113803215 0.029206572 0.030907394
0.08401519 -0.08573762 0.025786594 -0.011035411 -0.10765966 0.059943438 -0.022678962 -0.030174345
-0.009150814 -0.040082853 -0.11253617 -0.11796146 0.1136091 -0.11135123 -0.10482797 0.10290315
-0.077046365 0.054202184 0.11766379 0.039538357 0.07036754 0.071809344 0.12210328 -0.08333723
0.123137094 -0.08345921 -0.069107346 0.03112654 0.007985079 0.05380636 -0.0777996 0.030879943
0.08857829 0.07937144 -0.103909686 -0.10915329 0.006980889 -0.042496894 -0.10364556 0.009298834
-0.031811252 0.10189697 0.008230074 0.05455344 -0.025582124 -0.04584495 -0.07718459 -0.107205816
-0.082454555 0.09565243 0.036822714 -0.057944264 -0.10228089 -0.062335256 0.00040585292 -0.028775148
-0.03421112 0.11870657 0.10246445 -0.08730746 -0.026263488 0.102529965 0.029730583 -0.027671171
-0.07877469 0.02447693 -0.016886208 0.07531437 0.123023756 0.045117885 -0.043288425 -0.042628005
0.03402301 -0.009858401 -0.04305859 0.121629104 -0.047847793 -0.034838494 -0.10360074 0.055395316
0.026798274 -0.073184036 0.11689447 0.056117624 0.025677174 0.009804729 0.021169968 -0.09706448
-0.02759972 -0.056916352 -0.12172789 -0.12017026 0.016947377 -0.083553866 0.09588313 -0.05117536
-0.091277175 -0.121975146 0.10231015 -0.0021226048 0.08238954 -0.023910167 -0.12206728 -0.039954662
0.0940083 0.110092334 -0.12092052 0.0029952251 -0.014609826 -0.027188644 -0.1189463 -0.12341095
-0.07145498 -0.09463767 -0.01795812 -0.021280237 -0.11576086 0.028965881 0.115096666 -0.050269827
0.07262036 0.121598154 0.10899411 -0.08917064 0.058014184 0.084474094 -0.11919513 -0.060979333
0.07127332 -0.03306703 0.006650153 -0.10428752 0.10130635 -0.041212507 -0.10022145 -0.02107047
0.09953451 0.05002017 0.119393915 -0.029290961 -0.124166034 -0.1031957 -0.116148636 0.017509025
-0.08501734 -0.07472732 -0.07648755 -0.060475193 0.11040088 -0.05162473 0.026206376 -0.01626141
-0.10381164 0.09651823 0.10706646 -0.00022586694 0.020708619 -0.06195678 -0.034009475 -0.11305034
-0.10342323 -0.005489152 0.0006992612 -0.032374956 0.027170122 -0.01051063 -0.04782251 0.11388067
0.05095939 0.102291115 -0.003624597 -0.08937593 0.026327386 -0.120379716 0.013592655 -0.09270321
-0.08805164 0.06131017 -0.006838836 0.07415411 -0.09077201 -0.067573704 -0.10932995 -0.045091264
-0.103307284 -0.04248825 -0.023404758 -0.025210226 -0.019432422 0.10810544 -0.027673667 0.07756935
-0.07906448 -0.078118905 -0.107979834 0.062816866 -0.049509868 0.06749029 -0.041074168 0.05838313
0.12532884 -0.10646623 0.081875615 -0.050876144 0.048482854 0.095428556 -0.0009362216 0.097852975
0.01021129 -0.08275675 0.07301904 0.12468196 0.07158598 -0.06786075 0.020467235 0.0309778
-0.013771562 0.051549643 0.059556518 0.090568475 -0.11178507 0.002815557 -0.045192014 0.100041755
00000000: 8dc7 90bd 0735 573d f0ae 1bbb 7a33 c23d
00000010: 337c a43d d3f7 df3c bffc c7bd 0359 d2bd
00000020: 7ae8 953b 8f16 2c3d da6a ebbd 13da 3ebd
00000030: e58a 673d ede0 993d 5ec1 2a3d 45c0 493d
00000040: 392c 00be 3395 99bd b0e1 ccbd 7753 06bd
00000050: 2290 fb3d 0a25 dbbd 6db0 843d 6833 00be
00000060: d9b2 643d 3269 e8bb ae80 7cba 81e4 323c
00000070: 7c7d ecbd a911 e9bd 9f42 ef3c 8131 fd3c
00000080: 2810 ac3d 3597 afbd 683e d33c decd 34bc
00000090: ab7c dcbd 4087 753d 3bc9 b9bc 3030 f7bc
000000a0: 4ced 15bc eb2d 24bd 5d79 e6bd c795 f1bd
000000b0: e3ab e83d 1d0c e4bd 0cb0 d6bd e3be d23d
000000c0: 7cca 9dbd 1c03 5e3d b7f9 f03d f9f2 213d
000000d0: db1c 903d c710 933d 4911 fa3d b6ac aabd
000000e0: 4d2f fc3d aaec aabd 2788 8dbd 16fd fe3c
000000f0: d9d3 023c 0f64 5c3d 6655 9fbd eff7 fc3c
00000100: 8968 b53d 7e8d a23d 9ace d4bd c38b dfbd
00000110: f1bf e43b 3911 2ebd 2044 d4bd 235a 183c
00000120: 844c 02bd 5caf d03d 6fd7 063c 6e73 5f3d
00000130: 9a91 d1bc eac7 3bbd f412 9ebd b98e dbbd
00000140: efdd a8bd 6ce5 c33d 6ad3 163d f756 6dbd
00000150: a578 d1bd 4153 7fbd a8c8 d439 dcb9 ebbc
00000160: f620 0cbd 6e1c f33d e2d8 d13d 41ce b2bd
00000170: 8726 d7bc 3bfb d13d 8d8d f33c a7ae e2bc
00000180: a054 a1bd d883 c83c f254 8abc 6c3e 9a3d
00000190: e1f3 fb3d 88cd 383d 344f 31bd b49a 2ebd
000001a0: b65b 0b3d 2185 21bc 345e 30bd ae18 f93d
000001b0: 0cfc 43bd cfb2 0ebd a02c d4bd 33e6 623d
000001c0: 0e88 db3c 83e1 95bd 5e66 ef3d 98db 653d
000001d0: f058 d23c 04a4 203c a46c ad3c bec9 c6bd
000001e0: cf18 e2bc 1f21 69bd 794c f9bd d31b f6bd
000001f0: 3ad5 8a3c 4a1e abbd 605e c43d 419d 51bd
00000200: 87ef babd 1bce f9bd fc87 d13d 661b 0bbb
00000210: d9bb a83d 41df c3bc 69fe f9bd 80a7 23bd
00000220: 6c87 c03d 1778 e13d 2da5 f7bd 8a4b 443b
00000230: 0d5e 6fbc b8ba debc 1e9a f3bd e1be fcbd
00000240: fd56 92bd 65d1 c1bd e81c 93bc e453 aebc
00000250: 0814 edbd db49 ed3c cdb7 eb3d bce7 4dbd
00000260: fcb9 943d 7408 f93d 4e38 df3d 199f b6bd
00000270: 48a0 6d3d c100 ad3d 941c f4bd 77c5 79bd
00000280: bff7 913d 4b71 07bd 87e9 d93b b294 d5bd
00000290: b479 cf3d 72ce 28bd e740 cdbd fa9b acbc
000002a0: c0d8 cb3d f3e1 4c3d cc84 f43d 99f3 efbc
000002b0: c34a febd 4458 d3bd 56df edbd 166f 8f3c
000002c0: 921d aebd a30a 99bd 81a5 9cbd d6b4 77bd
000002d0: db19 e23d 7474 53bd c1ae d63c a636 85bc
000002e0: 329b d4bd 5aab c53d a945 db3d b2d6 6cb9
000002f0: 1fa5 a93c 64c6 7dbd 854d 0bbd f086 e7bd
00000300: 8fcf d3bd 58de b3bb a04e 373a 9a9b 04bd
00000310: e093 de3c c734 2cbc 89e1 43bd 453a e93d
00000320: cbba 503d 017e d13d a68a 6dbb ba0a b7bd
00000330: 88ac d73c a489 f6bd bab3 5e3c 2edb bdbd
00000340: 6b54 b4bd 5f20 7b3d 5018 e0bb 1cde 973d
00000350: ade6 b9bd 1564 8abd 61e8 dfbd 9eb1 38bd
00000360: c592 d3bd 2908 2ebd 56bb bfbc ad85 cebc
00000370: be30 9fbc 6366 dd3d e3b3 e2bc aedc 9e3d
00000380: 8fec a1bd cefc 9fbd 8824 ddbd 21a6 803d
00000390: dcca 4abd 5938 8a3d 633d 28bd 2623 6f3d
000003a0: 3456 003e f70a dabd 67ae a73d 8163 50bd
000003b0: f595 463d 0c70 c33d c56c 75ba 2467 c83d
000003c0: 414d 273c 5f7c a9bd 028b 953d 4159 ff3d
000003d0: ac9b 923d 94fa 8abd e7aa a73c 28c5 fd3c
000003e0: 1ea2 61bc b825 533d 89f1 733d f77b b93d
000003f0: 92ef e4bd 3585 383b 431b 39bd b1e2 cc3d

t_model.t_model.2.bias f4 [64]
0.12109458 0.06039936 0.07494368 0.11914527 -0.044292465 0.036190484 0.028658234 0.02910778
-0.0069120955 -0.11485003 0.015575982 -0.1174497 0.0666076 -0.1000259 -0.0967265 0.05395663
-0.11973334 0.09855554 -0.07200908 -0.11606851 0.116693616 -0.090773195 0.054305732 -0.041748617
-0.11248944 0.094034545 0.12129942 0.07242911 0.0652034 0.08133374 0.07083573 -0.024999635
0.03454117 0.06691546 0.02044715 -0.00013487716 0.026841603 -0.06341612 -0.09938333 0.040771484
0.0031893293 -0.10949231 0.035487086 0.0165356 0.09518365 0.06270178 -0.083676256 0.08552211
0.01393048 0.09805305 -0.03394263 0.08236702 0.116512805 -0.096346006 -0.09099757 0.023318293
-0.08913852 0.045309655 0.05145599 0.018194437 -0.00537901 -0.052645437 0.020495754 0.12530224
00000000: 6f00 f83d 5265 773d 127c 993d 6f02 f43d
00000010: 046c 35bd 793c 143d acc4 ea3c 7073 ee3c
00000020: dc7e e2bb 7e36 ebbd 6732 7f3c 7889 f0bd
00000030: 9169 883d 61da ccbd 8b18 c6bd a101 5d3d
00000040: c136 f5bd 7dd7 c93d 7f79 93bd 54b5 edbd
00000050: 10fd ee3d 4ce7 b9bd b06f 5e3d 9900 2bbd
00000060: dd60 e6bd 2f95 c03d d56b f83d b755 943d
00000070: 5c89 853d 4e92 a63d 5312 913d 09cc ccbc
00000080: 0b7b 0d3d f90a 893d c880 a73c d06d 0db9
00000090: ece2 db3c 50e0 81bd 7d89 cbbd 0000 273d
000000a0: 1104 513b 813d e0bd e85a 113d ab75 873c
000000b0: a5ef c23d ca69 803d 755e abbd 3726 af3d
000000c0: ab3c 643c 0ad0 c83d 6d07 0bbd 0ab0 a83d
000000d0: 449e ee3d 0e51 c5bd ef5c babd 0106 bf3c
000000e0: 428e b6bd 9e96 393d 84c3 523d 800c 953c
000000f0: 6842 b0bb bea2 57bd b6e6 a73c 3b4f 003e

s_model.x_model.0.weight f4 [64, 2]
-0.6652895 0.27064025 0.68801737 0.2403191 -0.5031016 0.20255904 0.4748526 -0.23764558
0.048027866 0.6655786 0.020281585 0.5716512 -0.50889015 -0.043784175 0.00089413114 -0.4798999
-0.57881206 0.13377815 -0.63094395 -0.51444685 0.42253074 -0.2957303 0.23254895 -0.6668947
-0.42676362 0.56821346 -0.6954197 -0.50153846 0.13174228 0.43592313 0.5149623 0.12670533
-0.6591294 -0.33440444 0.28903455 0.14117654 -0.14066747 -0.23350412 0.42951113 0.61680746
0.32242024 0.17359257 -0.29934824 -0.50316536 -0.376765 0.65516216 0.18081605 -0.28217795
-0.34143654 0.5793072 -0.5088617 -0.6116418 0.4805042 -0.5523623 -0.079024255 0.14369087
0.5464415 -0.44922164 0.41862744 -0.35603467 0.15483297 0.4906935 0.3866549 0.36141875
-0.6467316 -0.48069245 -0.6131469 0.070774265 -0.4232901 -0.11352644 -0.56337327 -0.44089457
0.448484 -0.37965238 -0.095496155 -0.26506597 -0.4318849 0.09255331 0.64810795 0.517336
0.1575038 -0.3749363 0.1879133 -0.108370006 0.13021286 -0.35599753 0.19349952 -0.48457304
-0.64725554 -0.3474655 -0.18774323 0.51511 0.38349554 -0.33366975 -0.62178105 0.49997902
0.64279985 -0.23233818 -0.025284654 0.3799975 -0.12662448 0.3560889 -0.32044974 0.41518423
0.31177363 -0.67217946 0.6814042 0.48035997 -0.14322618 -0.2811484 -0.47707334 0.07039568
-0.034262184 -0.13342823 0.6842248 0.21809036 -0.6779072 0.18613897 0.095826 0.45345902
-0.23941538 0.39337453 -0.22746705 -0.16435786 -0.3930464 -0.45625538 0.078353666 0.08403801
00000000: 6a50 2abf 5c91 8a3e e821 303f 3616 763e
00000010: 44cb 00bf a36b 4f3e e11f f33e 5d59 73be
00000020: deb8 443d 5c63 2a3f 9125 a63c bc57 123f
00000030: a046 02bf 0957 33bd 2064 6a3a 71b5 f5be
00000040: 072d 14bf 24fd 083e 8b85 21bf cab2 03bf
00000050: f355 d83e f669 97be 5021 6e3e 9cb9 2abf
00000060: c380 dabe 7076 113f 0707 32bf d364 00bf
00000070: 73e7 063e 5131 df3e 92d4 033f 0bbf 013e
00000080: b4bc 28bf 0f37 abbe 56fc 933e 9590 103e
00000090: 220b 10be b41b 6fbe e2e8 db3e 18e7 1d3f
000000a0: 4414 a53e 40c2 313e 2c44 99be 72cf 00bf
000000b0: 58e7 c0be b5b8 273f d827 393e a179 90be
000000c0: c5d0 aebe 7a4d 143f c344 02bf 8f94 1cbf
000000d0: a604 f63e 9e67 0dbf 78d7 a1bd b323 133e
000000e0: 97e3 0b3f 6100 e6be 5656 d63e 2d4a b6be
000000f0: 898c 1e3e 2e3c fb3e a2f7 c53e e10b b93e
00000100: 3490 25bf 521d f6be 32f7 1cbf 19f2 903d
00000110: 7bb9 d8be 8d80 e8bd 3b39 10bf efbc e1be
00000120: b29f e53e cc61 c2be 7d93 c3bd bab6 87be
00000130: 0520 ddbe 978c bd3d 67ea 253f 2270 043f
00000140: ad48 213e a7f7 bfbe 586c 403e 18f1 ddbd
00000150: 8556 053e 4f45 b6be bd24 463e f519 f8be
00000160: 8ab2 25bf ffe6 b1be c33f 40be 40de 033f
00000170: 8759 c43e c3d6 aabe 0b2d 1fbf 40fd ff3e
00000180: 888e 243f 0fea 6dbe c321 cfbc 088f c23e
00000190: d9a9 01be 4951 b63e fd11 a4be 0793 d43e
000001a0: cba0 9f3e f413 2cbf 8170 2e3f bef1 f53e
000001b0: e2a9 12be aff2 8fbe f542 f4be 9c2b 903d
000001c0: 8156 0cbd 69a1 08be 5b29 2f3f 1453 5f3e
000001d0: 548b 2dbf 379b 3e3e 6c40 c43d c82b e83e
000001e0: 4e29 75be 6368 c93e 1fed 68be 6d4d 28be
000001f0: 613d c9be 4e9a e9be e377 a03d 1f1c ac3d

s_model.x_model.0.bias f4 [64]
-0.41065076 0.5490622 -0.6900535 -0.24238801 0.60629004 -0.20195238 -0.4994216 0.023051077
0.14179206 0.27911288 0.2860585 -0.24520822 -0.034138292 -0.058771607 0.5429699 0.50464875
-0.2871241 0.6063751 0.5099566 -0.49347064 -0.49649695 0.31024355 -0.15129025 -0.20902272
-0.030809846 0.27429214 0.49800682 0.6000771 -0.075431876 -0.09625417 -0.64861065 0.45964602
-0.3305732 -0.075158045 0.1884648 0.2258227 -0.6491411 0.32366803 0.32148722 0.4508387
-0.54451567 -0.6621803 0.6962996 -0.33226386 -0.31728423 0.22029945 -0.23620182 0.31074396
0.01408891 0.45173156 0.02276239 -0.70047647 0.40850848 -0.6783598 -0.31497073 0.3550193
-0.67794704 0.035721984 -0.40208697 0.14725558 0.15426336 0.6703833 0.39655524 -0.40971607
00000000: d140 d2be 578f 0c3f 59a7 30bf 9034 78be
00000010: d335 1b3f 9bcc 4ebe 30b4 ffbe 9dd5 bc3c
00000020: f031 113e e2e7 8e3e 4276 923e dd17 7bbe
00000030: 98d4 0bbd 7fba 70bd 1300 0b3f a930 013f
00000040: ee01 93be 663b 1b3f 848c 023f 2fa8 fcbe
00000050: d934 febe 3ed8 9e3e d5eb 1abe 0d0a 56be
00000060: ee64 fcbc 0570 8c3e c0fa fe3e a79e 193f
00000070: 077c 9abd e820 c5bd 590b 26bf b956 eb3e
00000080: e440 a9be 76ec 99bd ebfc 403e 113e 673e
00000090: 1c2e 26bf d1b7 a53e f999 a43e 55d4 e63e
000000a0: 6165 0bbf a684 29bf b140 323f 7d1e aabe
000000b0: 1473 a2be 2e96 613e e4de 71be d519 9f3e
000000c0: 2cd5 663c 5c49 e73e 3178 ba3c 6d52 33bf
000000d0: 0628 d13e fda8 2dbf d843 a1be 17c5 b53e
000000e0: f08d 2dbf 3751 123d 58de cdbe 2bca 163e
000000f0: 37f7 1d3e 3d9e 2b3f 4a09 cb3e 4ec6 d1be

s_model.x_model.2.weight f4 [64, 64]
0.087667 0.116714254 -0.088353984 0.117963575 -0.039393846 0.075922295 -0.0005790659 0.09533458
-0.026695738 -0.093777955 -0.104302704 -0.09927992 0.05449406 -0.037824962 -0.09036713 0.02350231
0.01662662 -0.008143126 -0.022641733 0.07623524 0.11721198 0.11676129 0.04106108 -0.07735977
-0.07753538 -0.002904655 0.04174241 -0.009306105 0.1201812 0.11680184 0.09268546 -0.073338725
0.052929275 0.019959299 0.0011372458 -0.044915497 0.0015295666 -0.11825364 -0.05638364 -0.10404377
-0.030238809 -0.07874173 -0.11502952 -0.026840296 -0.051000293 0.034687303 0.114969745 -0.0012928889
-0.0021880693 0.043985218 0.04890736 0.102283336 0.09826716 0.08740392 0.012529427 0.02761327
0.11883982 0.10558037 -0.026822364 0.105007574 -0.0025770667 -0.05171537 -0.081079856 -0.036524374
0.0742026 0.013317153 -0.05545631 -0.04292153 0.051305145 -0.017634219 -0.06737601 -0.11741488
0.011059759 -0.03247115 0.07748113 -0.06583433 -0.09599974 -0.1173854 0.11506159 -0.10507606
-0.112330936 -0.032519218 -0.07485355 0.07742725 -0.109817326 -0.10624122 -0.06074589 -0.039959062
0.0626914 -0.010667327 -0.0011500873 -0.086242676 0.059428368 -0.10591358 0.051243287 -0.10446116
0.11567191 0.1102205 0.07689597 0.05132059 0.11596373 0.028048433 0.07393253 0.072370306
-0.0944705 0.070943475 0.035986487 -0.052039813 -0.024715092 0.122809194 0.11286971 -0.11096534
0.058395866 0.014620134 -0.04234659 0.0017740217 0.029697552 -0.056760952 -0.008949594 -0.09396001
-0.050838284 0.017955951 0.06740624 0.092344865 -0.01421893 0.113606334 -0.11659425 -0.05995235
0.013679286 -0.111450545 -0.033464838 0.044979926 -0.009049761 0.030467073 -0.07997366 0.09582619
-0.056959722 0.036002107 0.11129623 0.03784533 0.058157004 0.000120750046 -0.019177524 -0.1015134
-0.0907207 -0.017891819 -0.06611009 0.11491523 -0.07717009 0.0026892163 -0.036604352 -0.01732585
0.07713075 0.040540207 -0.005280089 -0.10827728 -0.01107957 0.12585801 -0.0020442654 -0.10478854
0.007320351 -0.035837702 0.082552716 -0.0065643494 -0.046748694 -0.06991018 -0.037490178 0.09354111
-0.050059497 -0.054174125 -0.08094993 0.043572202 -0.08574465 -0.018515853 0.017319832 -0.08685806
-0.03986833 -0.054380126 -0.013283511 0.09131831 -0.11040827 -0.055522848 -0.0012620552 -0.09058989
0.10577999 0.08207697 -0.03492811 -0.057339955 0.0130412225 -0.074909784 0.048962075 -0.012887687
-0.039795145 0.10628949 -0.113621004 0.058518052 0.03297219 0.024349293 0.118619144 0.006465595
0.10524 0.10915275 0.06528034 0.11028437 -0.014433279 0.033779003 -0.06052774 -0.10217275
0.1054968 0.11865406 0.11890952 -0.09177287 0.050218284 0.11604128 0.0370706 0.029188264
-0.044109005 0.030337885 -0.12258538 -0.11314222 0.11998283 0.08887347 0.08535898 -0.0038663982
-0.0866347 -0.05655417 -0.1039497 -0.0065185395 0.06403337 -0.049872562 -0.009662481 -0.03225076
0.06602101 -0.053622704 0.12114581 0.11580162 0.058767855 0.063097276 -0.024691401 0.104107074
-0.002629424 0.06951305 0.102548115 0.041093998 0.002681851 0.010912463 0.10907702 -0.010987118
0.07834395 -0.12287861 0.08072361 0.015137661 -0.03269183 0.124147475 -0.007111208 0.07183459
00000000: c28a b33d e207 ef3d eff2 b4bd e396 f13d
00000010: 715b 21bd 267d 9b3d 74cc 17ba c73e c33d
00000020: 05b1 dabc a80e c0bd a89c d5bd 4553 cbbd
00000030: 2a35 5f3d 59ee 1abd 6712 b9bd eb87 c03c
00000040: 8d34 883c bf6a 05bc 287b b9bc 3921 9c3d
00000050: d60c f03d 8b20 ef3d aa2f 283d cd6e 9ebd
00000060: dfca 9ebd 065c 3ebb 17fa 2a3d a278 18bc
00000070: 9021 f63d ce35 ef3d e0d1 bd3d 9d32 96bd
00000080: 5ecc 583d af81 a33c a30f 953a 50f9 37bd
00000090: bd7b c83a f72e f2bd 88f2 66bd e614 d5bd
000000a0: 61b7 f7bc 5843 a1bd 9994 ebbd 2ee0 dbbc
000000b0: afe5 50bd 4614 0e3d 4275 eb3d 2776 a9ba
000000c0: b665 0fbb d829 343d 1553 483d ed79 d13d
000000d0: 4b40 c93d d400 b33d 3a48 4d3c 3935 e23c
000000e0: 4b62 f33d 853a d83d 93ba dbbc 360e d73d
000000f0: 01e4 28bb 7fd3 53bd 320d a6bd 959a 15bd
00000100: 88f7 973d 3030 5a3c 2826 63bd 7cce 2fbd
00000110: 5825 523d a375 90bc 6ffc 89bd 3677 f0bd
00000120: fe33 353c 7800 05bd 6dae 9e3d 26d4 86bd
00000130: 839b c4bd c267 f0bd 69a5 eb3d 1e32 d7bd
00000140: c30d e6bd df32 05bd d14c 99bd 2e92 9e3d
00000150: e8e7 e0bd ff94 d9bd afd0 78bd 1dac 23bd
00000160: 5964 803d 03c6 2ebc 87be 96ba 00a0 b0bd
00000170: 296b 733d 38e9 d8bd 7be4 513d bcef d5bd
00000180: 65e5 ec3d 49bb e13d a27b 9d3d 8a35 523d
00000190: 647e ed3d d4c5 e53c f069 973d e236 943d
000001a0: c079 c1bd d04a 913d 9166 133d b327 55bd
000001b0: 4e77 cabc 6383 fb3d 3c28 e73d cc41 e3bd
000001c0: 8130 6f3d 4989 6f3c 9e73 2dbd 4a86 e83a
000001d0: 4848 f33c 2c7e 68bd 51a1 12bc 1b6e c0bd
000001e0: ce3b 50bd 5c18 933c 480c 8a3d 4e1f bd3d
000001f0: 84f6 68bc 70aa e83d f7c8 eebd 9890 75bd
00000200: 161f 603c 2f40 e4bd 6d12 09bd df3c 383d
00000210: 7345 14bc 1596 f93c 3bc9 a3bd 8640 c43d
00000220: 994e 69bd f276 133d 47ef e33d b403 1b3d
00000230: 0a36 6e3d 303b fd38 2f1a 9dbc 42e6 cfbd
00000240: c6cb b9bd dd91 92bc ba64 87bd ad58 eb3d
00000250: 5a0b 9ebd 903d 303b 72ee 15bd f1ee 8dbc
00000260: baf6 9d3d 7d0d 263d 9904 adbb 7bc0 ddbd
00000270: 1687 35bc ece0 003e 15f9 05bb 609b d6bd
00000280: 8edf ef3b 8eca 12bd 6611 a93d c119 d7bb
00000290: 8f7b 3fbd 122d 8fbd 4d8f 19bd 7b92 bf3d
000002a0: 300b 4dbd b0e5 5dbd 14c9 a5bd c478 323d
000002b0: e49a afbd 8fae 97bc 52e2 8d3c a3e2 b1bd
000002c0: f94c 23bd b2bd 5ebd 15a3 59bc 1805 bb3d
000002d0: bb1d e2bd ed6b 63bd 8c6b a5ba 3187 b9bd
000002e0: 2ea3 d83d f817 a83d c710 0fbd 4ddd 6abd
000002f0: daaa 553c 4d6a 99bd 758c 483d e126 53bc
00000300: 3c00 23bd 4eae d93d 21b2 e8bd a0b0 6f3d
00000310: d90d 073d 2b78 c73c 98ee f23d 58dd d33b
00000320: 1288 d73d 7a8b df3d b3b1 853d c6dc e13d
00000330: 8f79 6cbc da5b 0a3d efeb 77bd f23f d1bd
00000340: b50e d83d e600 f33d d686 f33d 6af3 bbbd
00000350: b0b1 4d3d 0da7 ed3d 57d7 173d 3a1c ef3c
00000360: a5ab 34bd 2887 f83c 0b0e fbbd 1cb7 e7bd
00000370: 8fb9 f53d 4b03 b63d b0d0 ae3d 6663 7dbb
00000380: 896d b1bd 58a5 67bd 95e3 d4bd 7999 d5bb
00000390: ed23 833d 2c47 4cbd 624f 1ebc 5f19 04bd
000003a0: 0636 873d 7ba3 5bbd 4b1b f83d 6629 ed3d
000003b0: 90b6 703d 2539 813d 9f45 cabc 1736 d53d
000003c0: 6a52 2cbb dc5c 8e3d bf04 d23d 2e52 283d
000003d0: fec1 2f3b 30ca 323c c663 df3d 5003 34bc
000003e0: cb72 a03d c8a7 fbbd 6c52 a53d f403 783c
000003f0: dee7 05bd 0841 fe3d 2305 e9bb 031e 933d

s_model.x_model.2.bias f4 [64]
-0.020695036 -0.07572025 0.040121514 -0.05490766 0.10808717 -0.11657716 0.06885744 -0.016621547
0.036161758 0.01646698 -0.038865607 -0.113299906 -0.08265008 0.06858589 -0.023701884 -0.053810246
0.09646011 0.07019653 0.10274533 0.104028545 0.12242127 -0.01742084 -0.06499397 0.006175634
0.0074332724 0.08174209 -0.053573456 0.036133595 -0.099457234 -0.083976075 -0.008297834 0.029245866
-0.023773534 0.009456523 0.040548097 0.004954143 -0.09739695 0.09158401 -0.0023838184 0.023407338
-0.07990895 0.12371099 0.026360484 -0.04027024 0.09972581 0.041644678 -0.025917817 0.08929721
0.044168 0.10964245 -0.0028876967 0.08366932 -0.00046721703 -0.123330556 -0.110293664 0.03611377
-0.021388834 -0.07811987 -0.04575273 0.087183066 -0.07602727 -0.046489976 0.06296341 0.008278568
00000000: a388 a9bc 3813 9bbd 7556 243d dbe6 60bd
00000010: ce5c dd3d 02c0 eebd 2105 8d3d e929 88bc
00000020: 5a1e 143d c3e5 863c 8b31 1fbd c809 e8bd
00000030: 7244 a9bd c276 8c3d 742a c2bc 2268 5cbd
00000040: e18c c53d 33c3 8f3d 256c d23d eb0c d53d
00000050: 01b8 fa3d 26b6 8ebc 8f1b 85bd f95c ca3b
00000060: cf92 f33b 6668 a73d d76f 5bbd d200 143d
00000070: 3cb0 cbbd a6fb abbd a3f3 07bc 0795 ef3c
00000080: b7c0 c2bc 88ef 1a3c c315 263d 5d56 a23b
00000090: 0d78 c7bd 6690 bb3d d639 1cbb bfc0 bf3c
000000a0: 4ea7 a3bd 305c fd3d f1f1 d73c 68f2 24bd
000000b0: 0c3d cc3d 9c93 2a3d 9a51 d4bc 75e1 b63d
000000c0: 81e9 343d 398c e03d 833f 3dbb d25a ab3d
000000d0: cff4 f4b9 bb94 fcbd a5e1 e1bd 08ec 133d
000000e0: a337 afbc 4ffd 9fbd 3767 3bbd 098d b23d
000000f0: 2fb4 9bbd 466c 3ebd f6f2 803d d5a2 073c

joint_model.model.0.weight f4 [64, 128]
-0.041452568 -0.025969706 -0.041774992 0.0029216695 -0.025099244 -0.06323961 0.03345008 -0.016998699
0.086092 0.004024661 -0.034023378 -0.07229493 0.023298884 -0.04106515 -0.07079047 -0.02836589
0.03643975 0.06289792 0.028996093 -0.056789473 -0.008707315 0.08569735 -0.014012238 0.061637502
-0.040444 -0.05495907 0.07919725 0.08058422 0.06297303 -0.021039978 0.04412403 0.07041661
-0.05309504 -0.023178892 0.01339544 0.011826971 -0.0828106 0.06207576 0.06284744 0.0004346668
0.020931458 -0.06066106 0.049690578 0.029214898 0.03186654 -0.046702057 0.02773219 0.086365096
-0.015025596 0.079603255 -0.062081076 0.01783602 -0.04609794 -0.074918054 -0.06565735 -0.0014333188
0.03623362 -0.04601237 0.07532682 0.0712751 -0.08659902 -0.029895978 0.014649259 0.016983345
-0.030858006 -0.022119943 0.070263125 0.0178288 -0.060921367 0.055343293 -0.059588477 -0.06315735
0.07245173 -0.059533577 0.08292461 -0.045366243 0.052533004 -0.044190113 0.00019226393 0.0011991287
0.083055444 0.015963672 0.03341201 -0.07703441 -0.07111969 -0.038439114 0.0061167 -0.025012529
-0.03644917 0.06312283 -0.0055753863 0.064375505 -0.0574854 -0.03777102 0.013771128 -0.06263616
0.06475049 0.0854651 0.039432768 -0.047941 -0.024084123 -0.023498353 -0.014795457 -0.0090964
0.011973029 0.0765985 0.022097103 0.05963999 -0.0044894 0.07166446 -0.04400864 -0.083556116
-0.018815964 0.073721536 0.014369469 -0.029856047 -0.056060582 0.014134346 0.07772251 -0.01955561
0.0056721736 0.067692935 -0.062291283 -0.017001474 -0.010156829 -0.022380097 0.06869826 0.05368928
-0.086744614 0.0221633 -0.06122242 -0.037018407 -0.050457682 -0.04064498 -0.04194504 -0.038291775
0.08721921 -0.012790764 0.037351273 0.013661241 -0.06668437 -0.024390085 0.058770828 0.067916065
0.052784752 -0.047730796 0.031151054 0.009885761 -0.01880847 -0.014946028 -0.005764547 -0.08056945
-0.052491292 0.086779095 -0.008500723 0.037780568 0.05270584 -0.028459111 0.03242034 0.007173497
-0.0471174 -0.015663195 -0.049368672 -0.008417242 -0.009487816 -0.06351931 -0.013293851 -0.011434652
-0.026822966 0.014316914 0.071369134 -0.025937008 0.07969457 -0.059719805 -0.04446485 0.08428466
0.06640681 -0.01605951 0.008070293 0.068690956 -0.034666177 -0.06205633 0.023879033 0.06431016
0.042619288 -0.02185741 -0.0029695018 0.012223377 -0.0003153373 0.026812226 -0.043443352 0.07250038
0.05256314 0.08637669 -0.044914335 0.06613993 0.00077880925 0.06646223 -0.080306776 0.03236217
0.0061096246 0.013468246 0.08053414 -0.052097574 -0.013918896 0.015381113 0.020963103 -0.0051647113
-0.079759866 0.08718501 -0.06061162 0.08450486 0.07672577 -0.042248514 -0.05816849 -0.068357766
0.076319166 0.044148505 -0.07016127 -0.074150965 0.019706568 -0.04439353 -0.070012316 -0.06359745
-0.07608114 0.06896703 0.01225499 0.039477877 -0.06296351 0.004360126 -0.07969645 -0.009469005
0.0006591683 0.05891236 -0.034671314 0.03789817 0.021470856 -0.028731005 -0.010255238 0.002916779
0.03312015 -0.054016452 -0.009589341 0.03728053 -0.08777458 -0.06930181 -0.04226603 -0.080499694
0.070718564 -0.07091431 -0.013631219 0.043559894 -0.05526934 0.014179215 -0.035294488 -0.054238774
00000000: 2bca 29bd 6cbe d4bc 411c 2bbd 7b79 3f3b
00000010: ee9c cdbc c583 81bd f302 093d db40 8bbc
00000020: 0151 b03d 4ee1 833b 195c 0bbd 5d0f 94bd
00000030: 4ddd be3c ee33 28bd 98fa 90bd 955f e8bc
00000040: d941 153d a0d0 803d 3789 ed3c 149c 68bd
00000050: 20a9 0ebc 1882 af3d 9693 65bc 9b77 7c3d
00000060: 9ca8 25bd c31c 61bd 2b32 a23d 5709 a53d
00000070: 01f8 803d 085c acbc 66bb 343d 9536 903d
00000080: 2f7a 59bd a9e1 bdbc 8c78 5b3c e9c5 413c
00000090: 9b98 a9bd 2743 7e3d 29b6 803d fee3 e339
000000a0: 7378 ab3c bb77 78bd 5988 4b3d 1554 ef3c
000000b0: 7d86 023d a84a 3fbd 9e2e e33c 2fe0 b03d
000000c0: eb2d 76bc 0807 a33d ba48 7ebd d81c 923c
000000d0: 32d1 3cbd a36e 99bd 5c77 86bd 33de bbba
000000e0: b469 143d 7877 3cbd f344 9a3d aef8 913d
000000f0: d45a b1bd 69e8 f4bc 7203 703c a820 8b3c
00000100: eec9 fcbc e234 b5bc 1de6 8f3d b40d 923c
00000110: af88 79bd a6af 623d 0c13 74bd a458 81bd
00000120: 9361 943d 7bd9 73bd 61d4 a93d f4d1 39bd
00000130: d92c 573d b100 35bd 759a 4939 152c 9d3a
00000140: f918 aa3d 3fc6 823c 08db 083d 37c4 9dbd
00000150: 33a7 91bd 5572 1dbd 996e c83b 13e7 ccbc
00000160: ba4b 15bd 8b46 813d bbb1 b6bb 4ed7 833d
00000170: d075 6bbd c9b5 1abd 4ca0 613c 6347 80bd
00000180: e89b 843d 5408 af3d 4184 213d c85d 44bd
00000190: 114c c5bc 9e7f c0bc a568 72bc 1109 15bc
000001a0: 862a 443c addf 9c3d fc04 b53c 1049 743d
000001b0: d11b 93bb d1c4 923d 6742 34bd 781f abbd
000001c0: f023 9abc 51fb 963d ec6d 6b3c ab94 f4bc
000001d0: c89f 65bd be93 673c fb2c 9f3d 1633 a0bc
000001e0: a4dd b93b 98a2 8a3d 2525 7fbd ad46 8bbc
000001f0: d468 26bc 7756 b7bc acb1 8c3d 4ae9 5b3d
00000200: 29a7 b1bd cf8f b53c 5cc4 7abd 9da0 17bd
00000210: b7ac 4ebd 5a7b 26bd 90ce 2bbd d6d7 1cbd
00000220: fc9f b23d 5a90 51bc a6fd 183d 66d3 5f3c
00000230: d191 88bd b7cd c7bc aeb9 703d 9417 8b3d
00000240: d334 583d 5e81 43bd 7f30 ff3c e3f7 213c
00000250: 3814 9abc 2fe0 74bc 86e4 bcbb 9901 a5bd
00000260: 1c01 57bd 3db9 b13d 9e46 0bbc ccbf 1a3d
00000270: 14e2 573d 1523 e9bc 31cb 043d a80f eb3b
00000280: 2dfe 40bd 1a50 80bc ce36 4abd 79e8 09bc
00000290: c972 1bbc 6916 82bd 74ce 59bc 6858 3bbc
000002a0: d6bb dbbc 7d91 6a3c fb29 923d d979 d4bc
000002b0: e836 a33d c19c 74bd c620 36bd 709d ac3d
000002c0: 4b00 883d 3c8f 83bc 4339 043c d8ad 8c3d
000002d0: 1ffe 0dbd c72e 7ebd f69d c33c 0cb5 833d
000002e0: 9091 2e3d 500e b3bc f99b 42bb 8f44 483c
000002f0: db53 a5b9 50a5 db3c a8f1 31bd 147b 943d
00000300: 724c 573d 43e6 b03d 18f8 37bd 5f74 873d
00000310: 0129 4c3a 5a1d 883d e177 a4bd 328e 043d
00000320: 3f33 c83b eba9 5c3c 15ef a43d 4464 55bd
00000330: 150c 64bc 1001 7c3c d0ba ab3c bd3c a9bb
00000340: 2459 a3bd 0e8e b23d e443 78bd e210 ad3d
00000350: 6722 9d3d c70c 2dbd 1542 6ebd 28ff 8bbd
00000360: 394d 9c3d 10d5 343d b6b0 8fbd 76dc 97bd
00000370: ab6f a13c fdd5 35bd 9e62 8fbd 613f 82bd
00000380: 6ed0 9bbd 963e 8d3d 27c9 483c 8eb3 213d
00000390: 03f3 80bd 63df 8e3b e437 a3bd e323 1bbc
000003a0: 09cc 2c3a 164e 713d 8203 0ebd 1d3b 1b3d
000003b0: a6e3 af3c 495d ebbc 9605 28bc 6e27 3f3b
000003c0: ffa8 073d 5b40 5dbd 9c1c 1dbc 78b3 183d
000003d0: 29c3 b3bd 1bee 8dbd 251f 2dbd 06dd a4bd
000003e0: e5d4 903d 863b 91bd 7a55 5fbc dc6b 323d
000003f0: 1a62 62bd f04f 683c f490 10bd 7a29 5ebd

joint_model.model.0.bias f4 [64]
0.01748322 -0.07216187 0.016913941 -0.018912407 0.018340074 0.048341583 0.028228622 0.015083788
-0.086764164 0.051023774 0.0050432286 0.074377865 0.021545302 -0.027247125 0.05401247 0.064921744
-0.06828764 -0.07440608 0.042746074 -0.047886554 0.04648131 0.028313758 -0.07080216 0.045015477
0.044708047 0.015317677 -0.03484562 -0.037492838 -0.036744785 -0.03051984 -0.074048296 0.0196333
0.012384347 0.064443246 -0.067392536 -0.013046081 -0.07658815 -0.04636127 0.009167971 0.053381566
-0.0800915 0.017688675 0.016140603 -0.02071344 -0.05632489 0.07048096 0.084074184 0.06493458
-0.059205867 0.031661008 0.053639323 -8.457088e-05 -0.019802354 0.017252792 -0.062215105 0.028559558
-0.015461553 -0.034017604 0.08564122 0.04826261 0.07153197 0.07455756 0.010955516 0.038274676
00000000: f838 8f3c 9ac9 93bd 1b8f 8a3c 31ee 9abc
00000010: ec3d 963c d301 463d b63f e73c fe21 773c
00000020: 69b1 b1bd 4efe 503d ab41 a53b 6c53 983d
00000030: c67f b03c 5d35 dfbc 2e3c 5d3d b1f5 843d
00000040: 64da 8bbd 3762 98bd 8216 2f3d b124 44bd
00000050: 3063 3e3d 41f2 e73c b900 91bd 2662 383d
00000060: c91f 373d fef6 7a3c 48ba 0ebd 1792 19bd
00000070: b381 16bd be04 fabc a2a6 97bd 04d6 a03c
00000080: b7e7 4a3c d2fa 833d 1905 8abd 3bbf 55bc
00000090: 3fda 9cbd 51e5 3dbd 4235 163c a1a6 5a3d
000000a0: 0307 a4bd d7e7 903c 4c39 843c 3baf a9bc
000000b0: eeb4 66bd 5258 903d 162f ac3d 6cfc 843d
000000c0: da81 72bd f9ae 013d e8b4 5b3d a55b b1b8
000000d0: 8c38 a2bc ba55 8d3c 44d5 7ebd bcf5 e93c
000000e0: 7452 7dbc 0b56 0bbd aa64 af3d 04af 453d
000000f0: 5a7f 923d a2b1 983d c47e 333c e8c5 1c3d

joint_model.model.2.weight f4 [64, 64]
-0.055947307 0.015164865 0.09910537 -0.09700102 -0.009116817 0.04657534 -0.053758305 -0.04001779
0.07737471 0.08816581 -0.08070035 0.007286772 -0.114711374 -0.10568424 -0.10185903 0.08905283
-0.086498946 0.09425488 0.03713927 -0.0032899715 0.017029038 0.104024686 -0.089443855 -0.07063492
-0.034436446 0.10567453 -0.06806372 -0.08000084 0.11666071 0.03801761 -0.04949847 -0.00046058933
0.093658835 0.07562837 0.014455227 0.10043988 -0.04773611 -0.0031483602 0.09119093 -0.069644704
-0.046642907 -0.09405896 0.032947384 0.013256549 0.04052697 -0.0767183 0.0399633 0.10648832
-0.03572194 -0.027294017 0.07500134 0.103553504 -0.091757774 0.085383184 -0.11912771 -0.018219793
0.10658614 -0.117681816 -0.088955365 0.045584034 0.03434778 0.041972388 -0.07575855 0.09346946
0.07193749 -0.049641576 0.033366524 -0.022850953 0.0025928773 -0.013892231 -0.008703262 -0.11064175
0.0046581253 0.0032132615 -0.12177628 -0.070972964 0.12356231 0.061045308 0.06479371 0.110043555
0.0017659576 -0.02245935 0.104214214 -0.07342588 0.08328911 -0.08424628 -0.08215287 0.12033562
-0.09939658 0.045300536 -0.11727431 -0.025903266 -0.07299125 0.105656296 0.02606164 0.10805284
-0.022060297 0.049510807 0.09631421 0.020603972 0.059876222 0.0891456 -0.03772884 -0.10042846
0.055597506 0.07189993 0.007547771 0.08323831 -0.04678859 0.029841546 -0.048113666 -0.036007315
0.08644482 -0.028896103 0.044707842 0.043931782 -0.0047068866 0.107370384 -0.0062457593 -0.055365037
0.09946032 0.036241587 0.09774589 -0.0782583 0.03879982 -0.03342087 -0.02481239 -0.0255324
0.11890023 0.00283292 -0.061989997 0.0625125 -0.05695103 0.023202473 -0.055145845 0.050847158
-0.044567663 0.039214984 0.024955403 0.12017466 -0.00020516159 -0.06791583 -0.00048028608 0.053608045
0.11244469 0.018551473 0.051591594 0.0075824284 -0.07618432 0.010877342 -0.10317011 -0.083589494
-0.040277895 -0.07712128 -0.028095862 -0.09436886 0.017395966 0.044617992 -0.056480758 0.09691677
-0.038019795 0.096397385 0.023061678 0.050724126 -0.11552768 -0.058692876 -0.042156026 0.034111045
-0.008442503 -0.05307256 0.07346709 -0.102610394 -0.06502241 0.045353565 0.12277517 0.09700438
-0.016874017 0.07909142 0.11036748 0.111106925 -0.060361534 0.053600367 -0.07500844 0.06364465
0.0050245775 -0.0074535133 0.06889814 -0.06255844 0.07068001 0.074526876 -0.008709604 0.07920813
-0.036196303 0.039232276 0.12125494 0.028765175 -0.05783459 0.025024306 0.009258991 0.094124034
0.015848724 -0.10144441 -0.0016347646 -0.036651235 0.04758684 0.047306895 0.057929333 0.123189196
-0.009627092 -0.107681915 -0.043699402 0.03208209 -0.11952197 -0.081870005 0.011886689 -0.114927106
-0.10247619 0.11664154 0.109669164 0.08300353 -0.082864 0.09702889 -0.05722237 0.00023222317
-0.0758076 0.005114225 0.099671654 -0.07419766 -0.05210728 -0.094649464 0.025043339 0.06116603
-0.10447914 -0.061934475 -0.0958821 -0.11879525 0.11956733 -0.06316652 0.07860124 0.038614977
0.008929238 0.11273794 0.11639267 0.036339376 -0.062247515 0.11898823 0.00907375 -0.114146136
0.11150068 0.056861144 0.021125874 -0.10723786 0.05942353 -0.07028066 0.12574084 -0.027546067
00000000: 0129 65bd 0e76 783c c2f7 ca3d 79a8 c6bd
00000010: b45e 15bc c9c5 3e3d ab31 5cbd b2e9 23bd
00000020: a276 9e3d 4790 b43d 3a46 a5bd e0c5 ee3b
00000030: cced eabd fb70 d8bd 789b d0bd 5561 b63d
00000040: 5c26 b1bd b408 c13d 591f 183d 909c 57bb
00000050: 7b80 8b3c e50a d53d 572e b7bd 0aa9 90bd
00000060: 3b0d 0dbd e36b d83d fe64 8bbd 7bd7 a3bd
00000070: cfeb ee3d 5ab8 1b3d e8be 4abd 417b f1b9
00000080: 34d0 bf3d 0ce3 9a3d 9ed5 6c3c 6cb3 cd3d
00000090: f086 43bd b854 4ebb 4fc2 ba3d e2a1 8ebd
000000a0: a20c 3fbd fca1 c0bd d6f3 063d ff31 593c
000000b0: 9cff 253d 7c1e 9dbd 8fb0 233d 8c16 da3d
000000c0: 2b51 12bd b497 dfbc 4d9a 993d dc13 d43d
000000d0: 80eb bbbd 61dd ae3d 3bf9 f3bd ad41 95bc
000000e0: d649 da3d 2a03 f1bd 3b2e b6bd 53b6 3a3d
000000f0: 42b0 0c3d 3deb 2b3d 4c27 9bbd eb6c bf3d
00000100: f653 933d f754 4bbd 56ab 083d ec31 bbbc
00000110: 43ed 293b 3d9c 63bc 2098 0ebc 2498 e2bd
00000120: 30a3 983b 9595 523b d865 f9bd 465a 91bd
00000130: 3d0e fd3d a50a 7a3d 91b2 843d 845e e13d
00000140: b477 e73a acfc b7bc 436e d53d 4f60 96bd
00000150: 7b93 aa3d 5089 acbd c43f a8bd 8672 f63d
00000160: 6f90 cbbd 0e8d 393d 832d f0bd 1633 d4bc
00000170: 707c 95bd 5462 d83d 387f d53c cf4a dd3d
00000180: ccb7 b4bc d8cb 4a3d 6240 c53d a9c9 a83c
00000190: c540 753d f891 b63d 8e89 1abd 70ad cdbd
000001a0: 36ba 633d 4540 933d 4b53 f73b d978 aa3d
000001b0: 64a5 3fbd 4276 f43c d612 45bd 687c 13bd
000001c0: fb09 b13d 85b7 ecbc 921f 373d d0f1 333d
000001d0: 3a3c 9abb 01e5 db3d 3aa9 ccbb 73c6 62bd
000001e0: dab1 cb3d 0f72 143d ff2e c83d e345 a0bd
000001f0: 8fec 1e3d 52e4 08bd 5a43 cbbc 5329 d1bc
00000200: f781 f33d 83a8 393b 39e9 7dbd 8e06 803d
00000210: 7c45 69bd 1d13 be3c 9ce0 61bd 1c45 503d
00000220: 958c 36bd e49f 203d 466f cc3c 221e f63d
00000230: a520 57b9 7417 8bbd e8ce fbb9 1c94 5b3d
00000240: 6749 e63d 42f9 973c b551 533d 0576 f83b
00000250: 8606 9cbd e136 323c da4a d3bd f830 abbd
00000260: 6ffa 24bd c3f1 9dbd 4b29 e6bc 7644 c1bd
00000270: fc81 8e3c 5bc1 363d 5e58 67bd 4d7c c63d
00000280: a5ba 1bbd fe6b c53d d8eb bc3c 1ac4 4f3d
00000290: c799 ecbd f167 70bd ccab 2cbd 06b8 0b3d
000002a0: 6d52 0abc 9d62 59bd ea75 963d 6625 d2bd
000002b0: 782a 85bd a9c4 393d 8c71 fb3d 3baa c63d
000002c0: 613b 8abc affa a13d 5808 e23d 078c e33d
000002d0: a83d 77bd 0f8c 5b3d 069e 99bd 2058 823d
000002e0: 36a5 a43b 9a3c f4bb 781a 8d3d a41e 80bd
000002f0: aec0 903d 8ca1 983d bab2 0ebc df37 a23d
00000300: 9342 14bd 06b2 203d 8354 f83d f2a4 eb3c
00000310: f7e3 6cbd c6ff cc3c 06b3 173c 1ac4 c03d
00000320: 2fd5 813c 16c2 cfbd 9945 d6ba 9b1f 16bd
00000330: 6bea 423d e0c4 413d 4f47 6d3d 9e4a fc3d
00000340: f3ba 1dbc 5688 dcbd 25fe 32bd 8268 033d
00000350: efc7 f4bd 76ab a7bd 63c0 423c e75e ebbd
00000360: 09df d1bd c2e1 ee3d 3a9a e03d c1fd a93d
00000370: 9ab4 a9bd 15b7 c63d 0162 6abd ef80 7339
00000380: 0441 9bbd 3b95 a73b a720 cc3d f1f4 97bd
00000390: 716e 55bd 94d7 c1bd b027 cd3c 3b89 7a3d
000003a0: 29f9 d5bd 01af 7dbd d65d c4bd ed4a f3bd
000003b0: b7df f43d 735d 81bd b0f9 a03d bd2a 1e3d
000003c0: f04b 123c 26e3 e63d 485f ee3d 99d8 143d
000003d0: 40f7 7ebd 1ab0 f33d 11aa 143c 73c5 e9bd
000003e0: 785a e43d 3be7 683d 2b10 ad3c 869f dbbd
000003f0: 1666 733d 4fef 8fbd 35c2 003e 4aa8 e1bc

joint_model.model.2.bias f4 [64]
-0.03834336 -0.025391843 -0.103492826 0.06355952 0.0022089507 -0.071790464 0.114062406 0.08313328
0.0031449734 -0.088104665 0.0723603 -0.12484093 0.099194944 0.012821686 -0.027142573 0.048399445
-0.01393837 -0.12108771 0.012661829 -0.041413162 0.038967427 -0.01824726 -0.019806225 0.084016435
-0.093192354 0.039075147 0.115878694 -0.0014167157 0.07717557 -0.008775789 -0.048511695 0.047207158
-0.09325766 0.0615453 0.017842796 0.014799915 -0.056362886 -0.030572478 0.07614592 -0.046226207
0.068007715 0.030797813 0.09033018 -0.042115342 0.026146334 0.10752298 0.0068115564 -0.03207348
0.0136511745 -0.03243957 -0.0064542633 0.042088974 0.009106304 0.010848909 -0.008052197 -0.014027896
-0.07846077 0.102804534 0.08988689 -0.07799977 -0.11723756 -0.12497103 0.03983884 0.02496611
00000000: ed0d 1dbd 8e02 d0bc 0cf4 d3bd 7e2b 823d
00000010: 0bc4 103b e106 93bd 8d99 e93d c841 aa3d
00000020: e61b 4e3b 3870 b4bd a331 943d 9aac ffbd
00000030: b826 cb3d 0d12 523c 1a5a debc 7f3e 463d
00000040: c35d 64bc d5fc f7bd 8f73 4f3c d9a0 29bd
00000050: 4f9c 1f3d 477b 95bc aa40 a2bc cf10 ac3d
00000060: a2db bebd 430d 203d cf51 ed3d 17b1 b9ba
00000070: 3a0e 9e3d 54c8 0fbc 33b4 46bd 4b5c 413d
00000080: dffd bebd ed16 7c3d 0e2b 923c 587b 723c
00000090: c5dc 66bd 2273 fabc 64f2 9b3d b157 3dbd
000000a0: a147 8b3d b24b fc3c 08ff b83d 2381 2cbd
000000b0: d630 d63c 0235 dc3d 7a33 df3b 7b5f 03bd
000000c0: 2da9 5f3c 5bdf 04bd 497e d3bb 7d65 2c3d
000000d0: 9b32 153c 9fbf 313c 5ded 03bc 43d5 65bc
000000e0: 0ab0 a0bd 2f8b d23d 9e16 b83d 58be 9fbd
000000f0: 3f1a f0bd d0f0 ffbd 0d2e 233d ba85 cc3c
