results_pis_architectures/many_well/langevin_clipping_lgv_100.0_gfn_10000.0_gfn/fwd/fwd_tb/T_100/tscale_1.0/lvr_4.0/seed_12345/model_final.pt (torch, 184646 bytes, 23 tensors)

t_model.timestep_phase f4 [1, 64]
-0.87603176 0.32673216 0.6143641 -0.07480346 -0.47827393 -0.14966592 0.6533624 0.5881778
-0.78227526 0.041158356 0.63778067 0.60489297 -0.36789468 -0.84847635 0.7474666 -0.71270174
-0.82509226 -0.59960717 -0.72912955 -1.800888 0.8239352 1.105759 0.9913327 0.0029535594
0.3588326 -1.0856665 0.7749364 0.24769744 2.172123 2.9060512 0.26277298 -0.6680321
0.7909632 1.0830653 -0.82270217 0.70913464 0.8936546 0.4649681 2.0586753 -1.8074247
0.37829685 -1.2981548 -0.7953249 0.14055866 1.6786976 -0.28526187 0.6284678 0.20586336
0.0033206912 -0.5632772 0.70123756 1.5353202 0.76997584 -0.1899919 0.21498361 -0.07981081
0.72485614 -1.2662119 -0.8014876 -0.85488105 -0.44925758 -0.4118885 -0.20147188 0.8646362
00000000: 9e43 60bf 7049 a73e f746 1d3f 8e32 99bd
00000010: 52e0 f4be 0642 19be c242 273f d292 163f
00000020: 3143 48bf aa95 283d 9845 233f 44da 1a3f
00000030: b15c bcbe bf35 59bf f959 3f3f 9f73 36bf
00000040: 3f39 53bf db7f 19bf 3ca8 3abf 7f83 e6bf
00000050: 6bed 523f 8389 8d3f fbc7 7d3f 8190 413b
00000060: e8b8 b73e 1ff7 8abf 3b62 463f 66a4 7d3e
00000070: 1004 0b40 befc 3940 2e8a 863e 2704 2bbf
00000080: 907c 4a3f e2a1 8a3f 9c9c 52bf d989 353f
00000090: 8cc6 643f 4c10 ee3e 56c1 0340 b159 e7bf
000000a0: 20b0 c13e f029 a6bf 6a9a 4bbf 9cee 0f3e
000000b0: 90df d63f d80d 92be 44e3 203f d8cd 523e
000000c0: f49f 593b ef32 10bf 4e84 333f 5f85 c43f
000000d0: 231d 453f 3d8d 42be aa24 5c3e da73 a3bd
000000e0: 2c90 393f 3b13 a2bf 4b2e 4dbf 7cd9 5abf
000000f0: 1705 e6be 0de3 d2be a54e 4ebe cc58 5d3f

t_model.pe f4 [1, 64]
0.1 1.6857144 3.2714286 4.857143 6.4428573 8.028572 9.614286 11.200001
12.785715 14.371429 15.957144 17.542858 19.128572 20.714287 22.300001 23.885715
25.47143 27.057144 28.642859 30.228573 31.814287 33.4 34.985714 36.57143
38.157143 39.74286 41.32857 42.914288 44.5 46.085716 47.67143 49.257145
50.842857 52.42857 54.014282 55.6 57.185715 58.771427 60.35714 61.942856
63.528572 65.11429 66.7 68.28571 69.87143 71.45714 73.042854 74.62857
76.21429 77.8 79.38571 80.97143 82.557144 84.14285 85.72857 87.314285
88.9 90.48572 92.07143 93.65714 95.24286 96.82857 98.41428 100.0
00000000: cdcc cc3d 7dc5 d73f 165f 5140 b76d 9b40
00000010: e32b ce40 0875 0041 1ed4 1941 3433 3341
00000020: 4a92 4c41 60f1 6541 7650 7f41 c657 8c41
00000030: 5107 9941 dcb6 a541 6766 b241 f215 bf41
00000040: 7dc5 cb41 0875 d841 9324 e541 1ed4 f141
00000050: a983 fe41 9a99 0542 5ff1 0b42 2549 1242
00000060: eaa0 1842 b0f8 1e42 7550 2542 3ba8 2b42
00000070: 0000 3242 c657 3842 8baf 3e42 5107 4542
00000080: 165f 4b42 dbb6 5142 a00e 5842 6666 5e42
00000090: 2cbe 6442 f115 6b42 b66d 7142 7cc5 7742
000000a0: 421d 7e42 843a 8242 6666 8542 4992 8842
000000b0: 2cbe 8b42 0eea 8e42 f115 9242 d441 9542
000000c0: b76d 9842 9a99 9b42 7cc5 9e42 5ff1 a142
000000d0: 421d a542 2449 a842 0775 ab42 eaa0 ae42
000000e0: cdcc b142 b0f8 b442 9224 b842 7550 bb42
000000f0: 587c be42 3aa8 c142 1dd4 c442 0000 c842

t_model.t_model.0.weight f4 [64, 128]
-0.023595527 -0.084859096 0.046906404 0.057607315 -0.081369966 0.04808832 -0.06740965 0.024118075
-0.07534957 0.025813062 0.06311421 0.068047404 0.02410779 0.07253994 -0.08172617 -0.050290912
-0.009010163 -0.0977559 0.06293532 -0.05772177 -0.059163496 0.045702457 0.013837998 -0.06537276
-0.043167546 -0.040982705 -0.033994593 -0.047485452 0.0040817047 0.07819932 -0.018836867 -0.030642997
-0.030753834 0.04249373 0.041857183 0.020498365 0.04282428 0.06627607 0.096756905 0.048485443
0.023102775 0.045872316 0.04391326 0.050341867 0.07581192 -0.0799699 -0.08683119 -0.015308616
0.018862946 -0.0489735 0.088381924 0.06543726 0.02342217 0.09140901 -0.041098837 -0.053396538
0.06455158 -0.08983801 0.061001614 0.017379876 -0.032844 0.03741498 -0.009511238 -0.08892187
-0.025432363 0.06714618 -0.02807912 -0.05981337 0.01585252 -0.07310188 -0.012151303 0.055973068
-0.053289685 0.057500064 -0.044595707 0.05529609 0.013938024 -0.048598845 -0.083513 -0.091577806
-0.020942822 0.084178515 0.09162839 0.04268989 -0.050244305 -0.016542803 -0.06633278 -0.083338335
-0.06275736 0.03833525 -0.040795352 -0.060701843 -0.0773291 0.026047288 0.045688216 -0.08434498
0.009760363 0.07842455 -0.0065414305 0.069091536 -0.022260312 0.06904491 0.05212457 0.07921609
0.047605757 0.071286336 -0.016091235 -0.037022386 0.023026135 0.078244455 -0.025086861 -0.023393694
0.01737083 0.045842312 0.05101138 0.07135439 0.04985433 0.024802128 -0.025605027 0.04808795
0.026923498 0.013333276 -0.03109585 -0.04811574 0.00083980436 -0.04771311 0.013702624 0.0070704236
0.006069622 0.03091781 -0.044895194 -0.07973962 0.050490465 0.012266383 0.004899595 -0.04794827
-0.00057132315 -0.01611825 0.02279045 0.03647514 0.0070664757 0.020348692 -0.02027112 0.013608767
0.009461915 -0.09144906 0.01030363 -0.082331136 0.03875872 -0.053540558 -0.0065241656 0.016354375
-0.0720514 -0.032025322 -0.08517285 -0.057257175 0.039463706 -0.08640371 0.05100215 -0.038631946
-0.01962337 -0.06887388 0.08216842 0.052886423 0.060223334 0.018297078 0.0029304342 0.082916595
-0.084762044 -0.071383424 -0.009927644 -0.008253769 -0.03831323 0.0016028815 0.08548675 0.046157986
0.03489361 0.05041408 -0.04046899 0.054921217 0.024742035 0.041773215 -0.034452286 -0.008730143
0.076992564 0.011704403 -0.031376317 -0.028280782 -0.08240657 -0.07346018 -0.07395081 -0.008087957
-0.010809451 -0.034342304 0.004981767 -0.027082872 0.04418137 -0.020913297 0.06834174 -0.02827734
0.0032102643 -0.0030258037 0.07111322 0.033353206 0.08264672 0.04714023 0.037803743 -0.036721338
0.026652504 -0.05157846 -0.03593763 0.040990878 0.059704255 -0.08748835 0.0217883 0.05100248
0.07796719 0.05233411 0.030134974 -0.009647435 0.092679255 -0.071647465 -0.070916325 -0.06745151
-0.04810656 -0.021321427 -0.012982837 -0.0784744 -0.039506063 0.097333945 -0.0337534 -0.062434718
0.08867059 -0.015974507 -0.037977267 -0.06508963 0.04457861 -0.014124404 0.044096045 -0.084848
-0.0089947255 0.020493979 0.073170014 0.009320428 -0.05340011 -0.046857648 -0.017677777 0.041020975
0.09456389 -0.021004595 -0.056741815 0.042243794 -0.034755707 0.037989683 -0.065076 -0.013695028
00000000: 684b c1bc 9bca adbd ee20 403d a6f5 6b3d
00000010: 4ca5 a6bd 42f8 443d 120e 8abd 4593 c53c
00000020: e050 9abd ea75 d33c 0642 813d 705c 8b3d
00000030: b37d c53c d28f 943d 0d60 a7bd d8fd 4dbd
00000040: 5d9f 13bc 3f34 c8bd 3ce4 803d aa6d 6cbd
00000050: 6c55 72bd 8032 3b3d c5b8 623c 27e2 85bd
00000060: 74d0 30bd 7bdd 27bd ea3d 0bbd 1b80 42bd
00000070: d2bf 853b f726 a03d c64f 9abc 0607 fbbc
00000080: 77ef fbbc e80d 2e3d 7072 2b3d 30ec a73c
00000090: 8368 2f3d c0bb 873d 7c28 c63d ac98 463d
000000a0: 0842 bd3c 9ce4 3b3d 64de 333d 4633 4e3d
000000b0: 4843 9b3d 42c7 a3bd 8dd4 b1bd fdd0 7abc
000000c0: 7786 9a3c 7098 48bd 9501 b53d f803 863d
000000d0: dadf bf3c a634 bb3d 4157 28bd 54b6 5abd
000000e0: 9e33 843d fefc b7bd d4dc 793d 3e60 8e3c
000000f0: 6e87 06bd 7340 193d 06d5 1bbc ab1c b6bd
00000100: 8857 d0bc f083 893d 2f06 e6bc ddfe 74bd
00000110: 25dd 813c 70b6 95bd 4216 47bc 0444 653d
00000120: 4946 5abd 3085 6b3d fda9 36bd 277e 623d
00000130: 4f5c 643c 950f 47bd dd08 abbd 258d bbbd
00000140: 4890 abbc c965 ac3d aaa7 bb3d 98db 2e3d
00000150: f9cc 4dbd c684 87bc 7bd9 87bd 4aad aabd
00000160: ee86 80bd 6c05 1d3d 0719 27bd 7fa2 78bd
00000170: b85e 9ebd 1f61 d53c 9123 3b3d 10bd acbd
00000180: eee9 1f3c 0d9d a03d 7f59 d6bb dd7f 8d3d
00000190: 425b b6bc 6b67 8d3d 9380 553d 0c3c a23d
000001a0: 41fe 423d 92fe 913d c4d1 83bc c9a4 17bd
000001b0: 4ea1 bc3c a13e a03d f682 cdbc 22a4 bfbc
000001c0: 454d 8e3c 26c5 3b3d 4ff1 503d 4022 923d
000001d0: 0e34 4c3d d52d cb3c a2c1 d1bc dff7 443d
000001e0: ab8e dc3c d073 5a3c b9bc febc 0315 45bd
000001f0: 5126 5c3a d26e 43bd f880 603c 03af e73b
00000200: aee3 c63b 5947 fd3c 06e4 37bd 874e a3bd
00000210: 17cf 4e3d f0f8 483c c88c a03b 6865 44bd
00000220: d9c4 15ba 6c0a 84bc 0ab3 ba3c f566 153d
00000230: e58d e73b 4db2 a63c 9f0f a6bc 4ef7 5e3c
00000240: 2606 1b3c a549 bbbd 8ed0 283c 3a9d a8bd
00000250: 77c1 1e3d 584d 5bbd abc8 d5bb 9cf9 853c
00000260: af8f 93bd fc2c 03bd 1a6f aebd 8086 6abd
00000270: b2a4 213d 6ef4 b0bd a1e7 503d 883c 1ebd
00000280: 31c1 a0bc c00d 8dbd eb47 a83d 6f9f 583d
00000290: beac 763d c1e3 953c 870c 403b 2dd0 a93d
000002a0: b997 adbd 7931 92bd 8fa7 22bc d13a 07bc
000002b0: 55ee 1cbd c717 d23a ad13 af3d 2810 3d3d
000002c0: 9aec 0e3d ff7e 4e3d d0c2 25bd 12f5 603d
000002d0: cfaf ca3c 641a 2b3d d71d 0dbd e008 0fbc
000002e0: 47ae 9d3d d3c3 3f3c 7484 00bd 19ad e7bc
000002f0: c7c4 a8bd 4a72 96bd 8673 97bd 5a83 04bc
00000300: 201a 31bc 84aa 0cbd 173e a33b e6dc ddbc
00000310: 86f7 343d 5d52 abbc c1f6 8b3d e1a5 e7bc
00000320: 4c63 523b 904c 46bb cfa3 913d 5f9d 083d
00000330: af42 a93d 1d16 413d 19d8 1a3d 1d69 16bd
00000340: 5a56 da3c ef43 53bd 5633 13bd 0de6 273d
00000350: 738c 743d 182d b3bd 607d b23c fae7 503d
00000360: 43ad 9f3d 4b5c 563d 9fdd f63c 4610 1ebc
00000370: 9fce bd3d e8bb 92bd 943c 91bd 0424 8abd
00000380: 620b 45bd 46aa aebc f7b5 54bc 30b7 a0bd
00000390: 1cd1 21bd 0557 c73d 0141 0abd 8cbb 7fbd
000003a0: ed98 b53d f8dc 82bc 0d8e 1bbd b64d 85bd
000003b0: 1098 363d 0b6a 67bc 0e9e 343d cac4 adbd
000003c0: 9d5e 13bc fde2 a73c 29da 953d b5b4 183c
000003d0: 13ba 5abd ceed 3fbd fcd0 90bc 9c05 283d
000003e0: b6aa c13d d411 acbc 1b6a 68bd d407 2d3d
000003f0: 005c 0ebd 129b 1b3d 9146 85bd 1c61 60bc

t_model.t_model.0.bias f4 [64]
0.05302139 -0.04603165 -0.069611855 0.104553744 0.0029685977 -0.04915201 -0.05385454 -0.047007535
-0.048260096 0.03592842 -0.0057363636 0.028721442 -0.0063783843 0.094117194 -0.07607413 0.08183667
-0.053757202 -0.016761215 0.031864353 -0.059340082 -0.005773812 0.055609267 0.013507647 -0.04213155
0.051377438 0.0037849646 -0.006877001 0.077234134 -0.038925618 0.040591303 0.025707666 -0.059876237
0.065929286 0.043179613 0.070189975 0.022858396 -0.10680942 -0.057626236 -0.049521003 0.068674214
0.06642951 -0.0070812684 -0.09470917 0.014123888 -0.018981945 0.008803901 0.060066476 0.017040763
0.023924597 -0.014203959 -0.03410213 -0.01457182 -0.014782835 0.0046602017 0.0874627 -0.07989737
-0.049299136 -0.03629083 0.07328936 -0.06410909 0.061420567 0.0478902 -0.073294275 -0.03490509
00000000: f52c 593d af8b 3cbd a990 8ebd 4620 d63d
00000010: ce8c 423b 9e53 49bd 9496 5cbd f98a 40bd
00000020: 61ac 45bd ae29 133d 1bf8 bbbb 3b49 eb3c
00000030: c401 d1bb 84c0 c03d c1cc 9bbd fc99 a73d
00000040: 8330 5cbd d14e 89bc 3284 023d 960e 73bd
00000050: 3f32 bdbb 8bc6 633d 2e4f 5d3c 2292 2cbd
00000060: 2671 523d 2b0d 783b 7758 e1bb ee2c 9e3d
00000070: 7870 1fbd 1143 263d e298 d23c c940 75bd
00000080: ef05 873d 1bdd 303d c3bf 8f3d 8841 bb3c
00000090: e6be dabd 7d09 6cbd 89d6 4abd 11a5 8c3d
000000a0: 320c 883d fc09 e8bb e2f6 c1bd e167 673c
000000b0: 0680 9bbc 3d3e 103c 4408 763d 1299 8b3c
000000c0: 84fd c33c b9b7 68bc adae 0bbd a5be 6ebc
000000d0: b433 72bc 9bb4 983b a51f b33d 3ba1 a3bd
000000e0: e4ed 49bd b1a5 14bd bb18 963d a04b 83bd
000000f0: 2294 7b3d 8428 443d 4f1b 96bd a4f8 0ebd

t_model.t_model.2.weight f4 [64, 64]
0.06115577 -0.022445591 -0.05517115 0.05949811 0.08288665 -0.0912331 0.111901626 0.07989695
0.022976438 -0.1094751 -0.00059616857 -0.011709289 0.08194273 -0.04061879 0.07819788 -0.07441424
0.033325847 0.0665769 0.05967871 -0.02990987 0.058909003 -0.10345966 0.06276979 -0.037960213
-0.10791934 0.112970315 -0.10226591 -0.06456498 -0.11586136 0.043968428 0.08491505 -0.027412446
-0.08333143 -0.055632833 -0.092523776 0.073700525 0.055065345 0.05053951 0.115954496 0.08035221
0.013577451 -0.07928829 -0.049008388 0.09703497 0.13378306 0.10275558 0.06307463 -0.10448454
0.05437051 -0.030324843 0.08179672 0.055246264 -0.010962317 -0.005705273 -0.04252371 -0.06826455
0.10411991 -0.046224825 0.012458831 0.09735995 -0.07409907 -0.039601773 -0.016486475 0.07206441
0.029224886 -0.13609308 -0.11359556 -0.03689983 -0.039316565 -0.083137885 -0.01640713 0.09647578
-0.11208894 0.0004052722 -0.07448041 -0.030036647 0.08622657 0.019861938 -0.08483456 -0.11986254
-0.010251061 0.038860578 -0.051720828 -0.030605653 0.038806748 -0.0013881738 -0.07164303 -0.07183483
0.032109987 -0.00058968033 -0.07361837 -0.06268734 -0.12976134 -0.09654003 -0.1346591 0.014468719
-0.07820262 0.10886561 0.021288116 0.0797925 -0.008325736 -0.091411844 -0.07141649 0.023824425
0.014628872 -0.041179687 0.06499851 0.013657012 -0.031695113 -0.056654688 0.024486402 -0.052269127
-0.012190502 -0.05229001 0.00092167116 -0.04686917 -0.1288847 0.10722558 0.089455545 0.04006148
-0.10970632 -0.12198499 0.07260072 0.08111646 -0.010148684 0.081955016 0.034915246 -0.084110446
-0.11845927 -0.0066313157 -0.03164201 -0.070112556 -0.02472264 -0.04843256 0.10998137 -0.047865257
0.064161465 0.011881822 0.08219008 0.022936055 -0.035636332 -0.122461215 0.062499523 0.07920046
0.04396628 0.048310943 0.027891733 0.11482839 -0.02716847 -0.115598164 -0.011839462 0.056456406
0.10665384 -0.09748901 0.040116575 0.101606525 -0.019930676 -0.09665095 -0.019341283 0.08760358
-0.0723263 0.023210572 -0.0740961 0.003476141 0.08033207 0.07521574 -0.08794647 -0.12847203
-0.103309914 -0.06599468 0.11415337 0.09659948 0.111683145 -0.11991594 -0.12076381 0.103711836
-0.031093197 0.11308041 -0.07770344 -0.068227395 -0.026636753 -0.0072547067 -0.08305426 -0.08538692
0.08930487 0.095875524 0.037082262 0.02741063 0.023832878 0.04021411 -0.0008805767 -0.053885646
-0.07680774 0.0036955304 0.020295715 -0.08394894 0.06085384 0.08798824 0.04433387 -0.12678282
-0.008614423 0.10751285 0.0741764 0.12608026 0.06534338 0.111413434 0.058182523 -0.12703441
-0.014006453 -0.09869245 0.016214455 -0.013914303 0.051916394 -0.09926003 0.11419013 -0.009548743
-0.06379012 -0.10996842 -0.08517933 0.10890527 0.080268875 0.10708849 0.021438487 -0.06119466
-0.12513433 0.114783786 0.035313558 0.08377188 0.0906194 -0.106589705 -0.01352058 0.103293024
-0.006511552 -0.020669078 -0.06411086 -0.0638201 -0.11652717 0.0523494 -0.064289786 -0.09188262
-0.093846425 0.065756865 0.089658454 0.053832453 -0.12719165 0.07972849 -0.018701928 -0.008238192
-0.08770573 -0.041874662 0.04046217 -0.10018616 -0.010781307 -0.036951926 0.04570484 -0.023433167
00000000: 797e 7a3d d1df b7bc 25fb 61bd 4ab4 733d
00000010: 7ac0 a93d 6bd8 babd ae2c e53d 03a1 a33d
00000020: 1539 bc3c 7b34 e0bd 3248 1cba 51d8 3fbc
00000030: 97d1 a73d e35f 26bd 3626 a03d 7e66 98bd
00000040: af80 083d 7859 883d aa71 743d 8b05 f5bc
00000050: 914a 713d a9e2 d3bd 738d 803d 2b7c 1bbd
00000060: d104 ddbd fb5c e73d ca70 d1bd a53a 84bd
00000070: b948 edbd 3d18 343d f1e7 ad3d 1190 e0bc
00000080: aba9 aabd 41df 63bd 1b7d bdbd 4df0 963d
00000090: 338c 613d 8402 4f3d 8d79 ed3d b38f a43d
000000a0: f573 5e3c e661 a2bd 05bd 48bd 45ba c63d
000000b0: 6dfe 083e 8471 d23d 462d 813d fefb d5bd
000000c0: 9db3 5e3d ce6b f8bc 0a85 a73d e849 623d
000000d0: 4a9b 33bc 4cf3 babb 572d 2ebd 49ce 8bbd
000000e0: d23c d53d 3e56 3dbd 2020 4c3c a764 c73d
000000f0: 41c1 97bd 7835 22bd a50e 87bc 8196 933d
00000100: 0769 ef3c fc5b 0bbe caa4 e8bd 4724 17bd
00000110: 680a 21bd 3244 aabd 3f68 86bc 1895 c53d
00000120: e38e e5bd b77a d439 2f89 98bd 6a0f f6bc
00000130: 8e97 b03d 81b5 a23c bebd adbd 7e7a f5bd
00000140: 11f4 27bc 452c 1f3d 38d9 53bd b5b8 fabc
00000150: d3f3 1e3d 62f3 b5ba 95b9 92bd 241e 93bd
00000160: c385 033d c794 1aba 3ac5 96bd 3862 80bd
00000170: 28e0 04be c7b6 c5bd 13e4 09be 350e 6d3c
00000180: b228 a0bd eff4 de3d 6a64 ae3c 406a a33d
00000190: ab68 08bc 2236 bbbd cf42 92bd 712b c33c
000001a0: f0ad 6f3c 08ac 28bd f01d 853d a9c1 5f3c
000001b0: bcd2 01bd bf0e 68bd b597 c83c 2718 56bd
000001c0: acba 47bc 0d2e 56bd 4e9c 713a e3f9 3fbd
000001d0: 5afa 03be 1699 db3d 7834 b73d 8217 243d
000001e0: b5ad e0bd 44d3 f9bd b0af 943d 6320 a63d
000001f0: aa46 26bc 08d8 a73d 4a03 0f3d 1942 acbd
00000200: c69a f2bd 824b d9bb 0d9b 01bd 2c97 8fbd
00000210: 2287 cabc 3861 46bd ea3d e13d 5c0e 44bd
00000220: 1667 833d f9ab 423c 4653 a83d 65e4 bb3c
00000230: 67f7 11bd f2cc fabd 80ff 7f3d da33 a23d
00000240: fc15 343d b2e1 453d 347d e43c 262b eb3d
00000250: 6990 debc bbbe ecbd 4efa 41bc d53e 673d
00000260: 546d da3d 51a8 c7bd 4751 243d 1517 d03d
00000270: a845 a3bc eff0 c5bd 9c71 9ebc 8169 b33d
00000280: d01f 94bd 1924 be3c b2bf 97bd f8cf 633b
00000290: 2485 a43d b60a 9a3d 471d b4bd 2c8e 03be
000002a0: 2694 d3bd 3828 87bd 3ec9 e93d f3d5 c53d
000002b0: 22ba e43d 7d96 f5bd 0453 f7bd df66 d43d
000002c0: 29b7 febc b496 e73d fb22 9fbd ceba 8bbd
000002d0: 5235 dabc e4b8 edbb 5a18 aabd 56df aebd
000002e0: 79e5 b63d 635a c43d 92e3 173d 428c e03c
000002f0: 2b3d c33c 8db7 243d 81d6 66ba 32b7 5cbd
00000300: 604d 9dbd b630 723b 3343 a63c 6ced abbd
00000310: e041 793d 2e33 b43d 6f97 353d 5bd3 01be
00000320: 8223 0dbc b22f dc3d cce9 973d 2f1b 013e
00000330: c0d2 853d ba2c e43d cc50 6e3d 4f15 02be
00000340: 527b 65bc 441f cabd 2dd4 843c d1f8 63bc
00000350: 49a6 543d d848 cbbd 84dc e93d 5572 1cbc
00000360: 65a4 82bd 1f37 e1bd 8072 aebd ba09 df3d
00000370: 0264 a43d 3651 db3d c49f af3c 40a7 7abd
00000380: 3723 00be c313 eb3d f3a4 103d 9790 ab3d
00000390: aa96 b93d b44b dabd 6c85 5dbc 4b8b d33d
000003a0: db5e d5bb 3352 a9bc 8e4c 83bd 1db4 82bd
000003b0: cca5 eebd 536c 563d 5daa 83bd f42c bcbd
000003c0: 8e32 c0bd 89ab 863d da9e b73d 6b7f 5c3d
000003d0: 873e 02be b148 a33d c934 99bc 7bf9 06bc
000003e0: 109f b3bd c484 2bbd a9bb 253d 672e cdbd
000003f0: 14a4 30bc e75a 17bd 0035 3b3d eaf6 bfbc

t_model.t_model.2.bias f4 [64]
-0.04831972 -0.12132053 0.0072805188 -0.025482627 -0.090900585 0.05047129 0.023351407 0.100597106
-0.112899974 -0.07585514 0.05793938 0.062100288 -0.06534427 0.039919384 -0.01084866 0.1058518
-0.013208992 -0.037217237 -0.050664924 -0.045223594 0.009232121 0.07233528 0.0026634373 -0.019893866
-0.019402524 0.03228108 -0.13976234 0.011321957 -0.058844227 -0.07193905 -0.10562177 0.02888763
-0.10563139 -0.08966563 0.06498238 -0.07106578 -0.0014375662 0.008771349 -0.06159827 0.053521406
-0.11638955 -0.041780055 0.09521701 0.07936567 0.049224403 0.07198637 0.10634293 -0.03849038
0.025790384 0.09349831 -0.02932994 0.052976243 0.066003114 -0.025867246 -0.021343622 -0.07623401
0.09785738 -0.0030887781 0.11591018 0.10772446 0.10217453 0.097501755 0.08439685 0.068428405
00000000: e6ea 45bd e676 f8bd 6b91 ee3b f1c0 d0bc
00000010: 162a babd fcba 4e3d 734b bf3c db05 ce3d
00000020: 1a38 e7bd f159 9bbd d851 6d3d df5c 7e3d
00000030: 37d3 85bd 8282 233d 94be 31bc d4c8 d83d
00000040: 876a 58bc 1a71 18bd 0686 4fbd 603c 39bd
00000050: 5242 173c 8524 943d 108d 2e3b 76f8 a2bc
00000060: 0bf2 9ebc 2a39 043d dc1d 0fbe bb7f 393c
00000070: a506 71bd c854 93bd 3a50 d8bd c0a5 ec3c
00000080: 4555 d8bd 9da2 b7bd 7b15 853d f08a 91bd
00000090: b86c bcba b4b5 0f3c 784e 7cbd 4339 5b3d
000000a0: a55d eebd 9021 2bbd 2301 c33d 788a a23d
000000b0: 879f 493d 976d 933d 52ca d93d 17a8 1dbd
000000c0: 5b46 d33c 0b7c bf3d 5845 f0bc 9efd 583d
000000d0: a42c 873d 8ce7 d3bc d2d8 aebc 9420 9cbd
000000e0: 7369 c83d 196d 4abb 5162 ed3d a49e dc3d
000000f0: e140 d13d 00af c73d 41d8 ac3d 3124 8c3d

s_model.x_model.weight f4 [64, 32]
0.061985012 -0.098205484 0.17527905 -0.0381758 0.09784903 0.14380333 -0.10936716 0.041657597
0.014080005 -0.0592154 0.09025726 -0.05820556 -0.03587684 -0.09781007 0.10369744 -0.111112885
-0.11253047 -0.020243015 0.007988554 0.059484206 -0.12696142 -0.061335742 -0.08125268 -0.033395708
0.0062373034 0.06176836 -0.15217058 -0.10962929 0.12057231 -0.10217921 0.024660226 0.00621007
-0.12965845 -0.10532118 -0.09884383 0.04049959 -0.048905205 -0.12410013 0.07543837 0.04030143
0.01884611 0.104189865 0.0119800065 -0.17687678 -0.08170763 -0.1541409 -0.13111813 -0.047956288
-0.024902798 0.11983342 -0.022047574 0.08689805 0.016387058 -0.015141143 -0.075879015 0.14657384
0.0276135 0.027604384 0.003732379 -0.14757751 0.0166886 0.025703423 -0.09516771 -0.017141001
0.14727275 -0.1556055 -0.08816603 -0.07923208 -0.13911982 0.14067958 -0.10223818 0.091561265
0.0462464 -0.11369597 0.024029557 -0.13237539 0.12509297 -0.047956355 -0.16862987 0.06542034
0.0055716685 0.10896627 -0.13916469 -0.1703746 0.08256173 0.1345636 -0.07332013 -0.13440278
-0.17074765 -0.18200329 -0.056751616 0.0759106 -0.074663974 -0.13085091 0.004300569 -0.16644922
-0.10397986 0.059725516 0.1770147 0.08651494 -0.03187469 -0.028625937 0.038416058 -0.02333542
-0.09454758 -0.032886766 0.06875106 -0.17038393 0.0034113147 -0.033974674 0.10170993 -0.09495026
0.17074881 0.04507693 0.04518472 0.18665096 -0.087098114 -0.055244952 0.035131622 0.019332098
-0.15201029 -0.158411 -0.10452403 0.1520301 -0.09843434 -0.07004046 -0.05498859 -0.06866745
0.15837868 0.1281531 0.0045715324 -0.15551437 0.10701396 -0.08935759 -0.037009075 0.041195855
-0.16580294 0.14559366 0.16023287 0.06557067 -0.037986536 0.039654303 -0.009642352 -0.052540496
0.059010442 -0.029344691 -0.15996861 -0.12828426 0.034341693 0.10254237 0.058520094 -0.05341174
0.023082735 0.09315286 -0.13311456 -0.14213295 0.15729743 0.005460128 -0.023841674 -0.057077505
-0.13576019 0.043401234 0.091431744 0.07438647 -0.07076085 0.2006863 0.1338939 0.12030141
-0.02290753 0.16259949 0.19188836 -0.12255117 0.10144749 0.01925545 0.12036471 0.06366866
0.17357396 0.14530307 -0.008730695 0.056220517 0.06523421 -0.09062821 0.057999257 0.16291216
-0.085999765 -0.14299136 -0.03296389 -0.03238947 0.07189726 -0.01846022 -0.16525097 0.10249714
-0.15615664 0.013114357 -0.07069664 0.047506373 0.15438893 0.0067519667 0.019598546 -0.0051490013
0.10218656 -0.095110826 0.09372992 -0.18297894 0.0018241807 -0.15814336 -0.020557314 -0.16508166
0.15622345 0.017779006 -0.114736624 -0.117809266 0.1597891 0.10212435 0.075405836 -0.1581473
0.12073687 -0.092753604 0.061393805 -0.086844474 0.04147095 0.13498366 0.14685309 -0.1946359
-0.07015709 0.023243556 0.08325873 -0.11313604 0.08504104 0.12728919 -0.04903621 -0.07899939
0.025631363 -0.044900145 -0.114418544 0.051361077 -0.06891602 0.027625117 -0.06408384 -0.0020198599
0.040856373 0.07165919 0.08639355 0.1672448 0.13539086 0.07086279 0.10694825 -0.14656086
-0.0063868323 0.051456235 0.05336235 -0.026037341 0.025433846 -0.17832258 -0.16819799 0.10194097
00000000: ffe3 7d3d f51f c9bd 5a7c 333e 3a5e 1cbd
00000010: 1265 c83d 2e41 133e e4fb dfbd 28a1 2a3d
00000020: d2af 663c d98b 72bd ccd8 b83d f468 6ebd
00000030: 98f3 12bd a550 c8bd 535f d43d 278f e3bd
00000040: 6076 e6bd aed4 a5bc 6de2 023c b6a5 733d
00000050: 2d02 02be 303b 7bbd ce67 a6bd f0c9 08bd
00000060: 4b62 cc3b d200 7d3d 9bd2 1bbe 5285 e0bd
00000070: 9eee f63d 5543 d1bd 3e04 ca3c d87d cb3b
00000080: 2fc5 04be a1b2 d7bd a26e cabd e6e2 253d
00000090: d350 48bd 3528 febd 6f7f 9a3d 1d13 253d
000000a0: 2863 9a3c 7f61 d53d ca47 443c 301f 35be
000000b0: 5456 a7bd 1dd7 1dbe d543 06be d06d 44bd
000000c0: f400 ccbc 396b f53d 1d9d b4bc 9bf7 b13d
000000d0: 273e 863c 8f12 78bc 7566 9bbd 7417 163e
000000e0: b535 e23c 9722 e23c ee9a 743b 8f1e 17be
000000f0: 88b6 883c fc8f d23c 4ae7 c2bd 496b 8cbc
00000100: abce 163e 0c57 1fbe 6490 b4bd 6e44 a2bd
00000110: 6d75 0ebe 4f0e 103e 4062 d1bd 7984 bb3d
00000120: dd6c 3d3d 6fd9 e8bd a2d9 c43c 6a8d 07be
00000130: 5f18 003e e26d 44bd 4fad 2cbe 19fb 853d
00000140: 8b92 b63b b529 df3d 3081 0ebe ae76 2ebe
00000150: 2016 a93d 0acb 093e dd28 96bd e2a0 09be
00000160: 79d8 2ebe 125f 3abe 6274 68bd 0477 9b3d
00000170: 6de9 98bd c8fd 05be caeb 8c3b aa71 2abe
00000180: 65f3 d4bd bea2 743d 5743 353e bf2e b13d
00000190: 098f 02bd f180 eabc 285a 1d3d ec29 bfbc
000001a0: 29a2 c1bd 46b4 06bd 5bcd 8c3d 2079 2ebe
000001b0: 5d90 5f3b 0729 0bbd 4c4d d03d 4875 c2bd
000001c0: c7d8 2e3e 96a2 383d 9d13 393d 6e21 3f3e
000001d0: 7f60 b2bd 8848 62bd 2de6 0f3d 595e 9e3c
000001e0: 96a8 1bbe 7e36 22be b210 d6bd c7ad 1b3e
000001f0: f197 c9bd 5f71 8fbd b73b 61bd 85a1 8cbd
00000200: 052e 223e 913a 033e cbcc 953b 293f 1fbe
00000210: 232a db3d 1d01 b7bd d496 17bd fcbc 283d
00000220: 3fc8 29be 8116 153e 1614 243e ea49 863d
00000230: c597 1bbd 8d6c 223d f5fa 1dbc b434 57bd
00000240: efb4 713d 4764 f0bc d0ce 23be f35c 03be
00000250: e0a9 0c3d bc01 d23d c4b2 6f3d 45c6 5abd
00000260: 0118 bd3c edc6 be3d 2f4f 08be 4d8b 11be
00000270: 9412 213e e0ea b23b 9d4f c3bc 1aca 69bd
00000280: b804 0bbe 7ec5 313d 9140 bb3d ef57 983d
00000290: 11eb 90bd b680 4d3e 7c1b 093e 9660 f63d
000002a0: 93a8 bbbc 7b80 263e 627e 443e 1cfc fabd
000002b0: b4c3 cf3d 9bbd 9d3c c681 f63d b764 823d
000002c0: 5fbd 313e 54ca 143e 300b 0fbc 7c47 663d
000002d0: 8399 853d 489b b9bd a190 6d3d 72d2 263e
000002e0: a520 b0bd 546c 12be 2505 07bd d2aa 04bd
000002f0: df3e 933d e339 97bc 8d37 29be 05ea d13d
00000300: 87e7 1fbe 9add 563c 66c9 90bd 0b96 423d
00000310: 2218 1e3e 9a3f dd3b 218d a03c f4b8 a8bb
00000320: 3047 d13d 77c9 c2bd 79f5 bf3d d55e 3bbe
00000330: 5919 ef3a 55f0 21be d067 a8bc 2b0b 29be
00000340: 0af9 1f3e 47a5 913c 09fb eabd fc45 f1bd
00000350: c19f 233e 9226 d13d 606e 9a3d 5ef1 21be
00000360: e444 f73d 9af5 bdbd 1278 7b3d 84db b1bd
00000370: 71dd 293d 2839 0a3e a860 163e a24e 47be
00000380: 85ae 8fbd 4569 be3c 8e83 aa3d deb3 e7bd
00000390: ff29 ae3d 1958 023e 31da 48bd 6fca a1bd
000003a0: ddf8 d13c 37e9 37bd 4554 eabd fe5f 523d
000003b0: d823 8dbd 124e e23c 633e 83bd a05f 04bb
000003c0: 0359 273d 0ec2 923d 1aef b03d 3942 2b3e
000003d0: e7a3 0a3e 8320 913d af07 db3d 0d14 16be
000003e0: a248 d1bb c6c3 523d 7b92 5a3d 434c d5bc
000003f0: a45a d03c 329a 36be 183c 2cbe 6dc6 d03d

s_model.x_model.bias f4 [64]
0.054939665 0.0512766 -0.12712589 -0.053541712 0.16622907 0.07449728 0.028842624 0.1531311
0.0005349906 0.05261193 0.15566054 0.15226679 -0.089966215 -0.046079345 0.08667245 -0.04147034
-0.08518034 0.045719817 0.13408954 -0.09554642 -0.048767503 0.05242178 0.085872926 0.1213108
0.16317008 0.14354147 -0.083885014 -0.14132144 -0.06412911 0.039342463 -0.064715296 0.052622788
-0.123157576 0.11923228 -0.062448937 0.11694971 0.03220818 -0.15506953 0.015952522 0.12274745
0.1081109 0.014366211 -0.12368414 0.022658747 0.0918183 0.07601638 0.1110676 -0.09547458
0.044261273 0.17423978 -0.05571745 0.1220239 -0.11781267 -0.11347556 -0.16857797 0.050611343
0.11004356 -0.031668577 -0.05905696 -0.0132107865 -0.10630945 0.07613199 -0.0015294335 0.05284257
00000000: 6a08 613d 6a07 523d 4a2d 02be 8e4e 5bbd
00000010: f437 2a3e 0892 983d 5e47 ec3c 66ce 1c3e
00000020: 9d3e 0c3a 9b7f 573d 7a65 1f3e d3eb 1b3e
00000030: 3540 b8bd b2bd 3cbd 5381 b13d cedc 29bd
00000040: 0873 aebd b444 3b3d c54e 093e d7ad c3bd
00000050: 6fc0 47bd 38b8 563d 25de af3d cc71 f83d
00000060: 0f16 273e 89fc 123e e8cb abbd 91b6 10be
00000070: 1f56 83bd 9025 213d 7489 84bd fe8a 573d
00000080: 0a3a fcbd 0e30 f43d 75ca 7fbd 5483 ef3d
00000090: b9ec 033d 8cca 1ebe ddae 823c 0463 fb3d
000000a0: 3f69 dd3d 4260 6b3c 1c4e fdbd d69e b93c
000000b0: 3c0b bc3d 7aae 9b3d 6977 e33d 2d88 c3bd
000000c0: 4f4b 353d ea6b 323e fb37 64bd abe7 f93d
000000d0: c547 f1bd e065 e8bd b49f 2cbe d74d 4f3d
000000e0: 855e e13d e9b6 01bd b6e5 71bd 0e72 58bc
000000f0: c5b8 d9bd 17eb 9b3d 4677 c8ba 7371 583d

joint_model.model.1.0.weight f4 [64, 64]
-6.327983e-05 0.0047160434 -0.10867617 -0.056389898 0.09062542 0.024230773 0.09771592 -0.08312106
-0.12135955 0.097248875 -0.040769845 -0.11842794 -0.101022966 0.006089291 0.11791793 -0.0017530557
-0.014688239 0.115539595 0.07719694 0.056284152 0.040470507 0.07710387 0.014336533 -0.085173935
-0.07636976 -0.0370811 -0.03853048 -0.11951455 -0.0770206 0.09374742 0.07142365 0.010828319
-0.07746843 -0.09982024 0.068249054 0.03396764 -0.11812726 0.006852437 -0.067461684 0.10194331
-0.08677013 -0.034078978 -0.011429548 0.06879949 0.019810751 -0.086555764 -0.113257416 0.1103739
-0.005790698 0.04174842 -0.10743176 0.108073056 -0.10254855 0.068820745 0.111292884 -0.10426057
-0.035378467 -0.047526553 -0.13900012 0.0895377 0.034533612 -0.045763396 0.08504591 0.07196444
-0.0029697658 0.09848665 0.012116385 0.072612554 -0.0989148 0.019831285 0.053148232 0.045811135
0.08404267 0.08252142 0.08409631 0.10098075 -0.022501972 -0.10518908 -0.10223954 0.033428993
0.002781166 0.024803597 0.08823159 0.061783247 0.017347166 0.1216942 -0.10464826 -0.060000647
0.11899854 -0.039854016 -0.024806278 0.035860796 0.106985785 0.019611327 0.09682238 -0.055236463
-0.105880484 -0.0638847 -0.091724195 0.01673372 -0.11602623 -0.07943659 -0.07377773 0.057284422
-0.0614777 0.05372648 -0.017690053 -0.110032655 -0.080530144 -0.00030029335 -0.08131907 -0.032458846
-0.018316014 -0.016770752 -0.11606738 -0.016745757 -0.07800305 0.1255425 -0.12443818 0.012197135
0.10406927 0.12416737 0.03592576 -0.076870196 0.08645293 -0.09490278 0.10829861 0.03957836
0.02078249 0.045159467 0.09227456 -0.1183371 -0.09787861 0.00044659365 -0.09327851 0.061245307
0.028564392 -0.04615601 -0.08938691 -0.11551349 -0.050491303 -0.019766094 0.0036755833 0.0005242881
0.10796703 -0.12356257 0.04618073 0.014249025 0.0430062 0.022206763 -0.054497328 -0.09463647
0.1190732 -0.028455917 0.08326805 0.0048511936 -0.013096972 0.08210641 0.03926484 -0.025212241
0.09912342 0.013934825 0.114757225 -0.024269203 0.09223179 -0.08649959 -0.06083627 0.0074600205
0.053566545 0.006434268 -0.124860436 0.031929854 -0.0042167185 0.04039909 -0.073824905 0.014421627
-0.011145748 -0.0033304468 0.08113009 0.07721237 0.095424816 0.0057744314 0.069356404 0.0731567
-0.01983627 0.06370371 -0.04071616 0.009270647 -0.089595966 -0.082626946 0.01342903 -0.06509153
-0.043405466 0.021505598 0.01424564 0.09990147 -0.041689817 0.06576712 -0.07314819 -0.040705618
0.0133713735 0.047894042 0.07650203 -0.10104195 -0.12531705 -0.052012682 -0.109252125 0.07160447
0.020618632 -0.059284046 0.102347456 -0.03202222 -0.03334826 0.015287229 -0.07111229 -0.05437508
-0.091389254 0.086453676 0.006735655 0.052192543 0.11116743 0.00061941735 0.057808418 -0.08491134
-0.013497655 -0.12440936 -0.083069354 -0.022939593 0.0999436 -0.11233182 -0.05098362 -0.044022597
0.0066416906 0.0011217801 0.10378686 0.05156296 -0.1173851 -0.033425294 0.09770901 -0.016406797
0.084755935 -0.06971196 -0.10715488 -0.06634429 0.08386767 -0.0024204713 -0.03479663 0.029727789
0.0036863128 -0.08239988 0.0004312657 0.0065229 0.12628789 0.08257899 0.13480073 -0.0731467
00000000: 1ab5 84b8 0a89 9a3b 9d91 debd 18f9 66bd
00000010: d299 b93d 9d7f c63c 491f c83d 603b aabd
00000020: 5b8b f8bd 6b2a c73d 48fe 26bd 598a f2bd
00000030: 21e5 cebd ad88 c73b f57e f13d cac6 e5ba
00000040: f1a6 70bc 06a0 ec3d 6e19 9e3d 368a 663d
00000050: 67c4 253d a2e8 9d3d c7e3 6a3c ac6f aebd
00000060: c067 9cbd 5ae2 17bd 23d2 1dbd 0bc4 f4bd
00000070: fabc 9dbd a6fe bf3d 9046 923d 4369 313c
00000080: c5a7 9ebd 8e6e ccbd 29c6 8b3d a721 0b3d
00000090: b4ec f1bd 688a e03b 5a29 8abd a7c7 d03d
000000a0: 8ab4 b1bd 6696 0bbd 0043 3bbc bfe6 8c3d
000000b0: 284a a23c 2644 b1bd 81f3 e7bd b60b e23d
000000c0: e5bf bdbb 6400 2b3d 2f05 dcbd 6855 dd3d
000000d0: f904 d2bd e4f1 8c3d 86ed e33d 9186 d5bd
000000e0: 03e9 10bd 34ab 42bd 0c56 0ebe 8b5f b73d
000000f0: 1e73 0d3d 6672 3bbd 8d2c ae3d 1862 933d
00000100: 67a0 42bb 5eb3 c93d cd83 463c e4b5 943d
00000110: d893 cabd 3875 a23c f6b1 593d 75a4 3b3d
00000120: 901e ac3d fe00 a93d b03a ac3d ffce ce3d
00000130: 0e56 b8bc 5f6d d7bd f762 d1bd d7ec 083d
00000140: 3944 363b ea30 cb3c c4b2 b43d 6e10 7d3d
00000150: a51b 8e3c cf3a f93d d451 d6bd 3dc3 75bd
00000160: 82b5 f33d f73d 23bd 8936 cbbc c5e2 123d
00000170: 5d1b db3d efa7 a03c d04a c63d a13f 62bd
00000180: ded7 d8bd fbd5 82bd e5d9 bbbd 2815 893c
00000190: 299f edbd a7af a2bd c718 97bd 12a3 6a3d
000001a0: 0ad0 7bbd 4c10 5c3d bbea 90bc cd58 e1bd
000001b0: fdec a4bd b170 9db9 9d8a a6bd 91f3 04bd
000001c0: 770b 96bc d162 89bc bcb4 edbd 662e 89bc
000001d0: 10c0 9fbd 378e 003e 72d9 febd 7ed6 473c
000001e0: 4522 d53d 764b fe3d e426 133d 1f6e 9dbd
000001f0: 3c0e b13d 645c c2bd a9cb dd3d eb1c 223d
00000200: 0a40 aa3c 22f9 383d 72fa bc3d b95a f2bd
00000210: 9574 c8bd c924 ea39 ce08 bfbd 5cdc 7a3d
00000220: dfff e93c 160e 3dbd 7c10 b7bd 5692 ecbd
00000230: f8cf 4ebd 81ec a1bc 0ee2 703b 6170 093a
00000240: d11d dd3d 5f0e fdbd 0128 3d3d be74 693c
00000250: 4527 303d f5ea b53c 9738 5fbd c4d0 c1bd
00000260: a6dc f33d 621c e9bc 7088 aa3d c3f6 9e3b
00000270: af94 56bc 6827 a83d 2bd4 203d e789 cebc
00000280: 3801 cb3d e44e 643c d605 eb3d 35d0 c6bc
00000290: 05e4 bc3d b226 b1bd 742f 79bd 3073 f43b
000002a0: 9868 5b3d 8dd6 d23b d4b6 ffbd e1c8 023d
000002b0: 662c 8abb 8479 253d 8331 97bd b048 6c3c
000002c0: a89c 36bc a043 5abb 8827 a63d 8521 9e3d
000002d0: 166e c33d 7137 bd3b bb0a 8e3d 2ed3 953d
000002e0: ac7f a2bc 1777 823d fdc5 26bd e9e3 173c
000002f0: 177e b7bd 5138 a9bd 6f05 5c3c b54e 85bd
00000300: eec9 31bd 822c b03c 8b66 693c 2499 cc3d
00000310: f1c2 2abd e9b0 863d b8ce 95bd efba 26bd
00000320: 9b13 5b3c 8b2c 443d 19ad 9c3d 15ef cebd
00000330: 1d53 00be 400b 55bd 94bf dfbd 5da5 923d
00000340: 68e8 a83c d4d3 72bd 8b9b d13d bb29 03bd
00000350: 2f98 08bd 4977 7a3c 52a3 91bd 67b8 5ebd
00000360: 4a2a bbbd a00e b13d c5b6 dc3b d9c7 553d
00000370: c0ab e33d 6560 223a 85c8 6c3d ffe5 adbd
00000380: 4525 5dbc 56ca febd 4420 aabd d0eb bbbc
00000390: 3baf cc3d 3a0e e6bd 33d4 50bd 0a51 34bd
000003a0: 8aa2 d93b b208 933a 358e d43d af33 533d
000003b0: 9967 f0bd f6e8 08bd a91b c83d 8c67 86bc
000003c0: 8594 ad3d 25c5 8ebd 0574 dbbd 84df 87bd
000003d0: d0c2 ab3d c5a0 1ebb e986 0ebd b187 f33c
000003e0: 1196 713b 45c1 a8bd 811b e239 0dbe d53b
000003f0: 9d51 013e 2c1f a93d 3409 0a3e f0cd 95bd

joint_model.model.1.0.bias f4 [64]
0.022737997 0.059623912 -0.0961028 -0.0897376 0.056800812 0.056655645 -0.048524965 0.076623626
-0.015853303 0.069899194 -0.045141526 0.096272096 0.062283397 -0.019581534 -0.033010803 0.03436012
-0.075931646 0.0107405465 0.0044187834 0.034499705 -0.011009829 -0.0074903723 -0.041713875 0.00823214
-0.09736637 0.09299207 -0.02641248 -0.0873607 -0.029146608 -0.013215148 -0.079720095 -0.011322539
0.07286202 -0.057156656 -0.03766118 0.07217399 -0.041475035 0.08067401 -0.032470398 -0.0106682265
-0.029654771 0.02397335 -0.00017410523 -0.071441874 0.02516152 -0.06437543 0.05500432 0.058065284
-0.023433652 -0.049133066 -0.106886104 -0.12606509 -0.12004282 0.06674859 -0.06305509 -0.10019211
0.059922002 -0.09021747 0.09762498 -0.09178212 -0.034041498 0.011838214 -0.11625213 0.038350686
00000000: 0945 ba3c 3438 743d 8bd1 c4bd 59c8 b7bd
00000010: f8a7 683d c00f 683d 1dc2 46bd d9ec 9c3d
00000020: c9de 81bc 4f27 8f3d 52e6 38bd 4e2a c53d
00000030: e01c 7f3d 7469 a0bc 5636 07bd 32bd 0c3d
00000040: 0d82 9bbd 1ef9 2f3c 71cb 903b 904f 0d3d
00000050: 9262 34bc cc71 f5bb 2bdc 2abd 19e0 063c
00000060: 0568 c7bd a072 be3d fc5e d8bc 2bea b2bd
00000070: dec4 eebc 5984 58bc 4a44 a3bd 2c82 39bc
00000080: af38 953d 191d 6abd 9c42 1abd f5cf 933d
00000090: bae1 29bd 6a38 a53d aeff 04bd c9c9 2ebc
000000a0: 90ee f2bc c263 c43c 0490 36b9 1e50 92bd
000000b0: 881f ce3c 44d7 83bd 364c 613d ddd5 6d3d
000000c0: eef7 bfbc c13f 49bd 1ae7 dabd 3517 01be
000000d0: 03d9 f5bd 7cb3 883d 0723 81bd 8531 cdbd
000000e0: c670 753d f0c3 b8bd 9bef c73d 44f8 bbbd
000000f0: 196f 0bbd 11f5 413c 9915 eebd 9c15 1d3d

joint_model.model.2.0.weight f4 [64, 64]
0.054282505 0.12792702 -0.096106514 0.05237861 -0.091573134 -0.050042666 -0.09787581 0.09442891
0.021224046 0.08262231 0.016575005 0.04078546 -0.014570501 -0.08635276 0.07927389 -0.0037991398
-0.11262037 0.11969177 -3.0383308e-05 -0.064545125 0.08068692 -0.013295463 0.0790433 -0.038390465
0.015829993 0.07559336 -0.09646005 0.120989434 -0.0897873 0.116482995 0.07562281 0.08956117
-0.031682692 -0.022348363 -0.023261903 -0.040130977 -0.059701625 -0.041759085 -0.030147161 0.055416547
-0.058136173 0.008224431 -0.07664415 0.05313303 -0.053442158 -0.039645102 0.049573574 -0.05851391
-0.0831567 0.02469037 -0.005075305 0.107743844 0.019998793 0.077892035 -0.028898971 -0.083871126
0.00047150932 -0.015274133 0.11395874 -0.12123331 0.024306897 -0.03368152 0.051895626 0.10093265
0.014007882 0.00302846 0.06903413 0.07860945 -0.11205524 0.02769499 -0.10200213 0.09660149
0.027897077 -0.12671292 -0.018975435 -0.035961147 0.070350535 -0.0065273154 0.076128185 0.016936244
0.045449294 -0.041468758 0.05708447 -0.04092485 0.118507266 0.05115899 0.032931663 -0.10639986
-0.08238012 -0.058797516 0.083338164 -0.06265647 0.040565457 -0.040479586 -0.05840261 0.09137926
-0.002522798 0.05374087 0.080154106 -0.06792567 -0.04588172 -0.09930432 0.10194616 -0.032212786
-0.106181815 -0.041484885 0.09934324 -0.09295724 -0.1192276 0.090859 -0.071710475 -0.07840242
0.016911188 -0.05688223 0.013568919 0.035641216 0.032239303 0.049955502 0.0063937074 -0.066834584
0.09840144 0.019036455 -0.09276485 0.13585052 -0.048495684 0.09239007 0.033453617 -0.07239129
0.012176435 0.010705243 0.035694316 -0.009742159 -0.025119197 -0.051655643 0.10542313 -0.046455465
-0.10763874 0.08113456 0.102378786 0.10385501 0.046576634 0.050755043 -0.02182021 0.04345616
-0.08318344 -0.069245145 -0.06366638 -0.11872447 -0.07201036 -0.042634014 -0.07723124 0.069020264
0.11501406 0.062235706 -0.11665685 -0.023137804 -0.0013053173 0.020527929 0.0798913 -0.072020434
0.079137824 0.03218522 0.000502181 0.12465733 -0.051629122 -0.0521472 -0.11531847 0.116766654
-0.08700452 0.05785981 -0.11633237 0.11650662 0.114275575 -0.06819193 -0.12671056 -0.12141019
-0.07370756 0.117704056 -0.09587206 0.11071918 0.06984704 0.020044584 -0.022554707 0.081208564
-0.008777047 -0.02238275 0.08750885 -0.04147312 0.0021023233 -0.11073435 -0.054171987 -0.012803663
-0.091113046 0.05296503 0.0687706 0.074857846 0.07928796 0.0392223 0.046976298 0.018323978
0.024828155 -0.103892535 0.09512097 0.10074853 -0.08315546 0.08503612 -0.09148683 0.115474895
0.10669417 -0.116559364 0.08979413 0.09416369 -0.0064225723 -0.006108641 -0.06359898 -0.100542665
0.04451599 -0.10789406 -0.075453706 0.03158848 0.1024623 0.07576041 0.10532627 0.04450895
-0.0338503 0.061624333 -0.028801402 -0.041661005 0.05486228 0.05617942 0.036950026 0.10378849
-0.022330787 0.022103922 0.015849851 -0.1354695 0.009000562 0.051032547 -0.0033358464 0.12551299
0.007574324 0.04731188 0.005479248 -0.09073433 0.11957817 0.07518102 0.013666449 0.08169322
-0.07836778 -0.031103395 0.12843692 -0.06670813 -0.02041024 0.07300486 0.020888988 -0.08234621
00000000: 5557 5e3d 4dff 023e 7ed3 c4bd f48a 563d
00000010: b28a bbbd 8af9 4cbd 1d73 c8bd f263 c13d
00000020: 0dde ad3c e335 a93d 4ec8 873c a80e 273d
00000030: 1cb9 6ebc b7d9 b0bd 595a a23d fdfa 78bb
00000040: 82a5 e6bd f520 f53d a8df feb7 3c30 84bd
00000050: 2f3f a53d 37d5 59bc 74e1 a13d 523f 1dbd
00000060: e7ad 813c b1d0 9a3d d98c c5bd 4fc9 f73d
00000070: 67e2 b7bd a38e ee3d 22e0 9a3d d96b b73d
00000080: b6c5 01bd ea13 b7bc bf8f bebc 6160 24bd
00000090: b189 74bd 930b 2bbd 2ef7 f6bc 76fc 623d
000000a0: 3220 6ebd c4bf 063c 9cf7 9cbd 05a2 593d
000000b0: 2ae6 5abd e762 22bd a90d 4b3d 48ac 6fbd
000000c0: 0f4e aabd 7543 ca3c be4e a6bb cea8 dc3d
000000d0: 82d4 a33c dc85 9f3d 89bd ecbc a0c4 abbd
000000e0: e934 f739 5b40 7abc 3363 e93d 2b49 f8bd
000000f0: 421f c73c a2f5 09bd 8290 543d c7b5 ce3d
00000100: 5181 653c 2179 463b c461 8d3d fefd a03d
00000110: 387d e5bd 9be0 e23c 7ee6 d0bd 01d7 c53d
00000120: 6988 e43c 08c1 01be 5f72 9bbc ff4b 13bd
00000130: f113 903d 17e3 d5bb 18e9 9b3d e1bd 8a3c
00000140: 0a29 3a3d 25db 29bd 68d1 693d d1a0 27bd
00000150: f0b3 f23d 178c 513d 5ae3 063d 2be8 d9bd
00000160: e9b6 a8bd aad5 70bd 33ad aa3d 0952 80bd
00000170: f727 263d eccd 25bd 9337 6fbd 0d25 bb3d
00000180: 8755 25bb 631f 5c3d d627 a43d 9d1c 8bbd
00000190: 78ee 3bbd 1060 cbbd 26c9 d03d 8ef1 03bd
000001a0: da75 d9bd 0eec 29bd 7874 cb3d 5e60 bebd
000001b0: 9a2d f4bd 4914 ba3d f1dc 92bd 7391 a0bd
000001c0: 5589 8a3c 57fd 68bd 2c50 5e3c 86fc 113d
000001d0: 5c0d 043d 249e 4c3d 4e82 d13b 92e0 88bd
000001e0: b286 c93d 57f2 9b3c 7ffb bdbd 661c 0b3e
000001f0: 69a3 46bd 0137 bd3d a906 093d e241 94bd
00000200: ac7f 473c 0b65 2f3c 3434 123d 949d 1fbc
00000210: c6c6 cdbc de94 53bd 15e8 d73d 1648 3ebd
00000220: b371 dcbd e029 a63d f8ab d13d efb1 d43d
00000230: 24c7 3e3d 85e4 4f3d 4cc0 b2bc 16ff 313d
00000240: 145c aabd 66d0 8dbd 8563 82bd d125 f3bd
00000250: 2b7a 93bd 01a1 2ebd 6a2b 9ebd 7f5a 8d3d
00000260: 7e8c eb3d deea 7e3d c9e9 eebd 7e8b bdbc
00000270: 2e17 abba 302a a83c 0d9e a33d 737f 93bd
00000280: 0313 a23d a6d4 033d cca4 033a 584c ff3d
00000290: 0f79 53bd 4d98 55bd 172c ecbd 5b23 ef3d
000002a0: 6d2f b2bd 68fe 6c3d aa3f eebd 069b ee3d
000002b0: 5009 ea3d 36a8 8bbd 6ac0 01be e8a5 f8bd
000002c0: fdf3 96bd d30e f13d 9258 c4bd bdc0 e23d
000002d0: f70b 8f3d 8a34 a43c a6c4 b8bc ad50 a63d
000002e0: 9acd 0fbc 075c b7bc d737 b33d b8df 29bd
000002f0: 22c7 093b b1c8 e2bd 72e3 5dbd 74c6 51bc
00000300: 7a99 babd dcf1 583d 9ad7 8c3d 124f 993d
00000310: ba61 a23d 90a7 203d 386a 403d 2b1c 963c
00000320: 6a64 cb3c 9cc5 d4bd c8ce c23d 3f55 ce3d
00000330: 694d aabd 6b27 ae3d 725d bbbd 1a7e ec3d
00000340: 7982 da3d adb6 eebd fce5 b73d e5d8 c03d
00000350: 7174 d2bb ff2a c8bb 2f40 82bd 50e9 cdbd
00000360: 6656 363d 90f7 dcbd 7987 9abd ec62 013d
00000370: c1d7 d13d 4628 9b3d 4db5 d73d 044f 363d
00000380: 9da6 0abd cc69 7c3d ebf0 ebbc bba4 2abd
00000390: 45b7 603d 641c 663d e958 173d 0f8f d43d
000003a0: 0eef b6bc 4913 b53c 8cd7 813c 84b8 0abe
000003b0: 1877 133c 8107 513d 379e 5abb 7a86 003e
000003c0: 0932 f83b 1aca 413d 438b b33b ecd2 b9bd
000003d0: 66e5 f43d 82f8 993d 3ee9 5f3c c64e a73d
000003e0: 497f a0bd 8ccc febc f884 033e 469e 88bd
000003f0: 6033 a7bc 9283 953d 621f ab3c 21a5 a8bd

joint_model.model.2.0.bias f4 [64]
0.10809119 0.0107075265 -0.04896523 0.07209716 0.07989606 0.028035589 -0.097482346 0.035992123
-0.10245233 0.07327205 -0.11345064 0.09654806 -0.039054234 0.0659946 0.044667125 -0.119454525
0.074387036 -0.027624061 -0.10759758 0.030687008 -0.12210526 0.111614145 -0.098521546 0.08985833
0.0766196 0.07713508 0.07731382 0.06560174 0.022969838 -0.03768249 0.005158888 0.09983147
0.058602776 0.015603653 -0.10685004 0.03235704 -0.08717844 0.032537464 -0.041234396 0.018854726
-0.09235458 0.040113833 0.08841912 -0.106464155 0.086245514 -0.08681097 -0.09110385 -0.03417621
0.0045720385 -0.08855249 0.044778187 -0.082083404 0.040469654 -0.027273785 -0.12455879 0.015040015
-0.061639607 -0.12913269 -0.07032997 0.055843864 -0.08875119 0.10034499 0.018060122 0.03533887
00000000: ea5e dd3d 9f6e 2f3c c48f 48bd ada7 933d
00000010: 8ca0 a33d e4aa e53c d3a4 c7bd 7a6c 133d
00000020: 87d2 d1bd a80f 963d cf58 e8bd fdba c53d
00000030: 55f7 1fbd 2d28 873d e0f4 363d 93a4 f4bd
00000040: 3b58 983d db4b e2bc 1f5c dcbd 5263 fb3c
00000050: 5312 fabd f595 e43d aac5 c9bd a507 b83d
00000060: bdea 9c3d fff8 9d3d b556 9e3d 345a 863d
00000070: 3e2b bc3c f458 1abd e40b a93b 7174 cc3d
00000080: 7709 703d 77a6 7f3c 32d4 dabd d188 043d
00000090: 9c8a b2bd 0146 053d 66e5 28bd 3a75 9a3c
000000a0: 6624 bdbd 674e 243d 1515 b53d e109 dabd
000000b0: 7da1 b03d f3c9 b1bd a894 babd 5bfc 0bbd
000000c0: 0ad1 953b 025b b5bd 5569 373d 581b a8bd
000000d0: 82c3 253d 466d dfbc ae18 ffbd 656a 763c
000000e0: d079 7cbd 5c3b 04be 2909 90bd 89bc 643d
000000f0: 2fc3 b5bd ad81 cd3d d2f2 933c 7ebf 103d

joint_model.model.3.weight f4 [64, 64]
0.013756475 -0.020265583 -0.0135172345 0.018938877 0.020441627 0.008978999 -0.021428004 0.0024896448
-0.023853498 -0.005936049 -0.008409456 0.023065547 0.0032050207 0.020409716 0.022583777 -0.009606291
0.026595868 -0.015937785 -0.02086826 0.027050722 -0.021807987 0.022854278 -0.019624935 -0.0072970754
0.020082513 0.015349503 0.033487838 0.0020666958 0.03578824 -0.008780516 -0.011626796 0.022358477
0.015869169 0.014054144 -0.023949703 0.00793167 -0.026175829 -0.0050426763 0.014351445 0.014294703
-0.014996613 0.021803653 0.016757084 -0.02318416 0.019147562 -0.010658945 -0.021847822 -0.022894002
-0.020384856 -0.01659264 0.022407923 -0.017346568 -0.0037810784 0.0099532185 -0.022013001 0.027701415
-0.018986028 -0.01777854 -0.015830794 0.021908673 -0.0131799765 0.018365176 -0.02084542 0.015365773
0.0135040935 0.011346486 -0.015638025 -0.000260853 0.005411211 0.014374589 -0.0104533555 -0.0017446678
-0.007941344 0.0047802394 -0.010816048 -0.004602832 -0.013251368 0.0069470415 0.005473463 -0.0039590136
0.00227204 0.0012536278 -0.005540282 0.0072938665 -0.013133492 0.013713366 -0.011984328 0.02227472
0.009709083 0.012996969 0.008333499 0.013580775 0.025597276 -0.010970234 -0.010048167 0.00945866
0.0005692246 0.018088471 -0.009062367 -0.005254841 -0.00037120972 -0.005042714 -0.011789642 0.011642934
-0.002485675 0.00039728804 0.0050347876 -0.011793723 -0.0022329926 -0.0059171813 -0.0029197896 -0.010035802
0.0059125805 -0.004618404 -0.0013720355 -0.010868879 0.02550544 -0.014823625 -0.0072942427 0.0002150353
-0.009041411 -0.019673033 -0.011569748 0.0068060197 0.0010233823 0.00937208 0.005254836 0.004008626
-0.010796398 -0.015639247 0.010800479 0.009620985 0.00021371328 -0.006729495 0.0005666823 0.00531293
0.0041965777 0.0035203153 -0.0061898427 0.0058680386 0.03033598 0.005844577 0.0102442065 0.004143727
0.0030110492 -0.002156496 0.00043604797 -0.0022643642 0.000978828 0.008672975 -0.0004106388 0.0031445245
-0.0075692153 -0.00507576 0.004823615 0.007757185 0.006465598 -0.012020238 0.021891063 0.0019593972
0.0031222817 -0.008428782 0.0020439038 0.0038018897 -0.004717693 0.0061299326 0.03055891 -0.0051206695
0.0053250687 0.010938438 -0.011127497 0.0027980972 0.008534753 0.010568309 -0.014312238 -0.018292667
0.005064625 0.009034312 0.011826881 0.01641194 -0.0146333 -0.009814776 -0.007934482 -0.0027574254
0.0018139248 0.0006138633 0.00955595 0.0067007686 0.0013846369 0.00060817157 -0.013883586 -0.0043707467
0.0018911813 -0.015851384 0.0066497107 0.001988076 0.0062694736 0.00040024024 -0.0036662912 0.0052244067
-0.0015249166 0.005178837 0.004904986 0.009104139 -0.00041612913 -0.0010935476 -0.0008596084 -0.00022366788
-0.0032846613 -0.010134083 0.0027038886 0.013587086 -0.0009872988 0.0031586653 0.0014521258 -0.0031194645
-0.0025956964 -0.0064133354 -0.0014025052 0.005895532 -0.002069824 -0.003848939 -0.0023363705 -0.0018878968
0.007078135 -0.0063627423 -0.0008167277 -0.013582782 0.00029436665 -0.012261461 -0.0041308715 0.0067901965
-0.012505285 0.006223734 -0.0022969556 -0.0042141736 0.0007760046 0.003960183 -0.0057102153 0.0026142485
-0.015254677 -0.0024194773 0.0055693556 0.0003990129 0.008428658 0.008380111 0.00032773783 0.0023925093
0.0011213912 0.004750271 -0.0037421826 -0.012377678 -0.0010532603 0.0017010431 -0.005221346 0.00259497
00000000: d762 613c 0204 a6bc 6477 5dbc b425 9b3c
00000010: 3375 a73c a71c 133c c889 afbc 4f29 233b
00000020: 6968 c3bc 3083 c2bb d1c7 09bc f5f3 bc3c
00000030: 530b 523b 4732 a73c 9d01 b93c b463 1dbc
00000040: 94df d93c f58f 82bc eaf3 aabc 7a99 dd3c
00000050: aaa6 b2bc e538 bb3c 79c4 a0bc 4e1c efbb
00000060: 1584 a43c 7b7c 7b3c 8b2a 093d 6771 073b
00000070: b196 123d 27dc 0fbc 517e 3ebc 2029 b73c
00000080: 0f00 823c 5a43 663c 2b32 c4bc d6f3 013c
00000090: b16e d6bc 093d a5bb 5322 6b3c 5434 6a3c
000000a0: 5bb4 75bc 939d b23c 2746 893c b5ec bdbc
000000b0: 59db 9c3c dba2 2ebc 34fa b2bc 348c bbbc
000000c0: 24fe a6bc 4aed 87bc d290 b73c 641a 8ebc
000000d0: f8cb 77bb d312 233c 9c54 b4bc 14ee e23c
000000e0: 9688 9bbc 4da4 91bc 95af 81bc d179 b33c
000000f0: d4f0 57bc 9172 963c 04c4 aabc b9c0 7b3c
00000100: 4640 5d3c 9de6 393c 511b 80bc 19c3 88b9
00000110: 8750 b13b 6583 6b3c 8d44 2bbc 56ad e4ba
00000120: 691c 02bc 8ea3 9c3b cb35 31bc 5ad3 96bb
00000130: 441c 59bc 02a4 e33b bc5a b33b 9dba 81bb
00000140: 81e6 143b c550 a43a 418b b5bb 6301 ef3b
00000150: dc2d 57bc 07ae 603c ea59 44bc 7979 b63c
00000160: d812 1f3c 3df1 543c 3a89 083c e681 5e3c
00000170: 61b1 d13c 7fbc 33bc 11a1 24bc 7ff8 1a3c
00000180: 0438 153a 462e 943c 527a 14bc cd30 acbb
00000190: ed9e c2b9 5a3d a5bb 5829 41bc 01c2 3e3c
000001a0: b5e6 22bb 194b d039 dcfa a43b 763a 41bc
000001b0: 6657 12bb eae4 c1bb f159 3fbb 346d 24bc
000001c0: 52be c13b fb55 97bb dfd5 b3ba 6213 32bc
000001d0: c9f0 d03c cade 72bc 8b04 efbb 197b 6139
000001e0: 6d22 14bc 5729 a1bc 0a8f 3dbc 0805 df3b
000001f0: 0323 863a 5a8d 193c c230 ac3b cb5a 833b
00000200: 60e3 30bc e11d 80bc 7ef4 303c 56a1 1d3c
00000210: 3918 6039 1883 dcbb 688d 143a 1618 ae3b
00000220: 7283 893b 17b5 663b 2ad4 cabb ad48 c03b
00000230: 2983 f83c de83 bf3b 51d7 273c 1ac8 873b
00000240: 0655 453b 0054 0dbb 5e9d e439 ba65 14bb
00000250: 044c 803a 1819 0e3c 024b d7b9 5e14 4e3b
00000260: 2e07 f8bb 9052 a6bb 6a0f 9e3b fc2f fe3b
00000270: 5edd d33b 88f0 44bc e354 b33c 3b69 003b
00000280: 329f 4c3b e018 0abc 04f3 053b 2029 793b
00000290: e196 9abb 9add c83b ae56 fa3c 4acb a7bb
000002a0: ea7d ae3b 2237 333c 1b50 36bc 4860 373b
000002b0: 59d5 0b3c b326 2d3c e17d 6abc 81da 95bc
000002c0: 27f5 a53b a704 143c 89c5 413c 5572 863c
000002d0: 82c0 6fbc 27ce 20bc a1ff 01bc ecb5 34bb
000002e0: 37c1 ed3a abeb 203a 8f90 1c3c 1f92 db3b
000002f0: b47c b53a b46d 1f3a fb77 63bc 7b38 8fbb
00000300: 84e1 f73a c3da 81bc d1e5 d93b 614a 023b
00000310: 2870 cd3b 56d7 d139 2946 70bb 8031 ab3b
00000320: b6df c7ba 3cb3 a93b 01ba a03b 8729 153c
00000330: e82b dab9 5e55 8fba 5857 61ba 6488 6ab9
00000340: 7943 57bb 6d09 26bc b933 313b 5f9c 5e3c
00000350: 4068 81ba 9c01 4f3b 4255 be3a ee6f 4cbb
00000360: 8f1c 2abb f526 d2bb 44d4 b7ba 4f2f c13b
00000370: e2a5 07bb 7b3e 7cbb cb1d 19bb 4e73 f7ba
00000380: b3ef e73b 8d7e d0bb ab19 56ba 518a 5ebc
00000390: 3955 9a39 4be4 48bc 435c 87bb 4c80 de3b
000003a0: f8e2 4cbc 77f0 cb3b 8588 16bb 0d17 8abb
000003b0: ca6c 4b3a 6cc4 813b c21c bbbb d053 2b3b
000003c0: c1ee 79bc 1890 1ebb 247f b63b 9b32 d139
000003d0: 5b18 0a3c bc4c 093c 3ad4 ab39 a5cb 1c3b
000003e0: a5fb 923a 29a8 9b3b 683f 75bb bfcb 4abc
000003f0: 8d0d 8aba 89f5 de3a d317 abbb 5f10 2a3b

joint_model.model.3.bias f4 [64]
0.019506473 0.00851098 -0.0031613458 0.0016594271 0.022119105 0.0036344463 0.012613299 0.0042610555
0.004024366 0.025120901 0.016948601 0.0031552748 0.023298148 0.0023345938 0.019262329 0.0055056857
0.009775101 0.005044398 -0.010377302 -0.0003137503 0.0013014234 -0.0048772995 0.016153611 0.0030053128
-0.009488066 -0.0072887624 -0.014579303 0.008726904 0.002564536 -0.010514915 -0.0054239887 0.012354249
0.0 0.0 0.0 0.0 0.0 0.0 0.0 0.0
0.0 0.0 0.0 0.0 0.0 0.0 0.0 0.0
0.0 0.0 0.0 0.0 0.0 0.0 0.0 0.0
0.0 0.0 0.0 0.0 0.0 0.0 0.0 0.0
00000000: 0acc 9f3c a371 0b3c 952e 4fbb 2281 d93a
00000010: 2033 b53c e42f 6e3b 03a8 4e3c 53a0 8b3b
00000020: d4de 833b 59ca cd3c cbd7 8a3c bac8 4e3b
00000030: c2db be3c fcff 183b 08cc 9d3c 0a69 b43b
00000040: bf27 203c 7a4b a53b 8f05 2abc da7e a4b9
00000050: 8694 aa3a c1d1 9fbb 9454 843c c8f4 443b
00000060: d573 1bbc 92d6 eebb 07de 6ebc 4afb 0e3c
00000070: c611 283b c046 2cbc b7bb b1bb 7a69 4a3c
00000080: 0000 0000 0000 0000 0000 0000 0000 0000
00000090: 0000 0000 0000 0000 0000 0000 0000 0000
000000a0: 0000 0000 0000 0000 0000 0000 0000 0000
000000b0: 0000 0000 0000 0000 0000 0000 0000 0000
000000c0: 0000 0000 0000 0000 0000 0000 0000 0000
000000d0: 0000 0000 0000 0000 0000 0000 0000 0000
000000e0: 0000 0000 0000 0000 0000 0000 0000 0000
000000f0: 0000 0000 0000 0000 0000 0000 0000 0000
