energy_sampling/results_pis_architectures/many_well/exploration_wd_0.2__clipping_lgv_100.0_gfn_10000.0_gfn/fwd/fwd_tb/T_100/tscale_1.0/lvr_4.0/seed_12345/model.pt (torch, 183012 bytes, 23 tensors)

t_model.timestep_phase f4 [1, 64]
0	0xbf5e82f7	-0.86918586
1	0xbdd47f31	-0.10375822
2	0x3e99c533	0.30033264
3	0xbea30814	-0.318421
4	0xbf24e619	-0.644136
5	0xbe8e6ca6	-0.27817267
6	0x3f1bb943	0.6082956
7	0x3f0ba83d	0.54553586
8	0xbf54f1c8	-0.8318143
9	0x3d883473	0.06650629
10	0x3f111737	0.5667605
11	0x3efdca79	0.49568537
12	0xbec8209a	-0.39087373
13	0xbf6c6f82	-0.9235765
14	0x3f36029c	0.7109773
15	0xbf35cf4c	-0.71019435
16	0xbf4f0d3d	-0.80879575
17	0xbf12737e	-0.5720748
18	0xbf432456	-0.7622732
19	0xbfe8804b	-1.8164152
20	0x3f54ff2d	0.8320187
21	0x3f8ade1d	1.0849034
22	0x3f713a8e	0.9422997
23	0xbca307e1	-0.019901218
24	0x3e8f73ab	0.28017935
25	0xbf9194b8	-1.137351
26	0x3f347273	0.70487136
27	0x3e4f8840	0.20266819
28	0x400f43bf	2.23851
29	0x4038e06a	2.8886971
30	0x3e68869f	0.22707604
31	0xbf39022f	-0.72268957
32	0x3f386668	0.7203126
33	0x3f85b01f	1.0444373
34	0xbf5c1927	-0.8597588
35	0x3f31a9bb	0.69399613
36	0x3f6c2720	0.922472
37	0x3ef07f00	0.46971893
38	0x4001fd86	2.0310988
39	0xbfe6dbdb	-1.8035845
40	0x3eb8ff26	0.36132163
41	0xbfa430e4	-1.282742
42	0xbf4a41a3	-0.79006404
43	0x3e1e01cd	0.15430374
44	0x3fd72f99	1.6811401
45	0xbe981925	-0.29706684
46	0x3f26bc08	0.6513066
47	0x3e5408da	0.20706502
48	0x3bf8450e	0.0075765913
49	0xbf137c4e	-0.5761155
50	0x3f3a96d7	0.72886413
51	0x3fc6321f	1.5484046
52	0x3f3e8f7f	0.7443771
53	0xbe3c2b2e	-0.18375847
54	0x3e822e7a	0.25426084
55	0xbd4649bd	-0.048410166
56	0x3f2ad9f0	0.66738796
57	0xbfa633e5	-1.2984587
58	0xbf55542d	-0.8333157
59	0xbf6e7f5b	-0.9316308
60	0xbefaa145	-0.48951164
61	0xbed48991	-0.41511205
62	0xbe6411ba	-0.22272387
63	0x3f580873	0.8438789

t_model.pe f4 [1, 64]
0	0x3dcccccd	0.1
1	0x3fd7c57d	1.6857144
2	0x40515f16	3.2714286
3	0x409b6db7	4.857143
4	0x40ce2be3	6.4428573
5	0x41007508	8.028572
6	0x4119d41e	9.614286
7	0x41333334	11.200001
8	0x414c924a	12.785715
9	0x4165f160	14.371429
10	0x417f5076	15.957144
11	0x418c57c6	17.542858
12	0x41990751	19.128572
13	0x41a5b6dc	20.714287
14	0x41b26667	22.300001
15	0x41bf15f2	23.885715
16	0x41cbc57d	25.47143
17	0x41d87508	27.057144
18	0x41e52493	28.642859
19	0x41f1d41e	30.228573
20	0x41fe83a9	31.814287
21	0x4205999a	33.4
22	0x420bf160	34.985718
23	0x42124925	36.57143
24	0x4218a0ea	38.157143
25	0x421ef8b0	39.74286
26	0x42255075	41.32857
27	0x422ba83a	42.914284
28	0x42320000	44.5
29	0x423857c6	46.085716
30	0x423eaf8b	47.67143
31	0x42450750	49.25714
32	0x424b5f16	50.842857
33	0x4251b6dc	52.428574
34	0x42580ea1	54.014286
35	0x425e6666	55.6
36	0x4264be2c	57.185715
37	0x426b15f2	58.77143
38	0x42716db7	60.357143
39	0x4277c57c	61.942856
40	0x427e1d42	63.528572
41	0x42823a84	65.11429
42	0x42856666	66.7
43	0x42889249	68.28571
44	0x428bbe2c	69.87143
45	0x428eea0f	71.457146
46	0x429215f2	73.04286
47	0x429541d4	74.62857
48	0x42986db7	76.21429
49	0x429b999a	77.8
50	0x429ec57c	79.38571
51	0x42a1f15f	80.97143
52	0x42a51d42	82.557144
53	0x42a84925	84.14286
54	0x42ab7508	85.72858
55	0x42aea0ea	87.314285
56	0x42b1cccd	88.9
57	0x42b4f8b0	90.48572
58	0x42b82492	92.07143
59	0x42bb5075	93.65714
60	0x42be7c58	95.24286
61	0x42c1a83b	96.828575
62	0x42c4d41e	98.41429
63	0x42c80000	100.0

t_model.t_model.0.weight f4 [64, 128]
0	0x3cd4f9a0	0.025997937
1	0xbdf65e6e	-0.1202973
2	0xbc2b340f	-0.010449423
3	0x3cac6d34	0.021048166
4	0xbde01d95	-0.10943142
5	0x3cdbe8f7	0.026844485
6	0xbd70f0f7	-0.058823552
7	0x3cf7c834	0.030246831
8	0xbd8fb5fc	-0.07017133
9	0x3bfa0107	0.007629517
10	0x3d4b9725	0.04970469
11	0x3d867ac5	0.06566385
12	0xbb67b906	-0.0035358085
13	0x3b99e620	0.0046966225
14	0x3bc61c97	0.0060458886
15	0x3c2fd6e3	0.010732385
16	0x3db0217c	0.08600137
17	0xbd1aaada	-0.037760593
18	0x3d82b665	0.06382445
19	0xbd557e9e	-0.052122705
20	0xbd90197d	-0.070361115
21	0x3ca336cc	0.01992359
22	0x3c8ca848	0.017170087
23	0xbd892b54	-0.06697717
24	0xbc06219e	-0.008186726
25	0xbd14e635	-0.036352355
26	0xbc68a2a5	-0.014198934
27	0xbc7427d3	-0.014902073
28	0xbc43829f	-0.011932998
29	0x3d498b91	0.049205367
30	0x3c3df161	0.011593194
31	0xbb1116df	-0.0022138876
32	0x3bdfab69	0.0068258536
33	0x3d0272ca	0.031847753
34	0x3dc10447	0.09424644
35	0x3c7f660a	0.015588293
36	0x3c5015d0	0.012700513
37	0x3d530796	0.051520906
38	0x3d9590ab	0.07302984
39	0x3da56eda	0.08077784
40	0xbc412bac	-0.011790197
41	0x3d2ca3b8	0.042148322
42	0x3c229c2c	0.00992493
43	0x3dad38eb	0.08458122
44	0x3d5a705c	0.05332981
45	0xbd73fdfb	-0.059568387
46	0xbdb161ea	-0.08661254
47	0x3c5ab0df	0.013347833
48	0x3d7d7709	0.0618811
49	0xbc067470	-0.008206472
50	0x3d8708dc	0.06593487
51	0x3d10b164	0.035325423
52	0xbc2a4d4f	-0.010394408
53	0x3d85d7e6	0.0653532
54	0xbd86479a	-0.06556626
55	0xbcf1f3dc	-0.029535227
56	0x3d2396e3	0.03993882
57	0xbd5a5d41	-0.05331159
58	0x3bf734ae	0.0075441217
59	0xbc9b74de	-0.018976625
60	0xbc9d5172	-0.019203875
61	0x3d3d060e	0.046148352
62	0xbb115c74	-0.002218035
63	0xbd2d5fd4	-0.042327717
64	0xbd8ed148	-0.06973511
65	0xbc90932a	-0.017648298
66	0xbcb268db	-0.021778515
67	0xbd73e029	-0.059539948
68	0x3c6b4e57	0.014361939
69	0xbd76754b	-0.060170453
70	0x3b14b6b6	0.0022691912
71	0x3d4503da	0.048099376
72	0xbd8c7dbd	-0.0685992
73	0x3d59aa75	0.053141076
74	0xbcddb67b	-0.027064553
75	0x3d935051	0.071930535
76	0x3c7e75ac	0.015530985
77	0xbd14ea15	-0.03635605
78	0xbd3d4eb5	-0.04621764
79	0xbbd428d3	-0.006474593
80	0x3c2f96a5	0.010717069
81	0x3c976f9e	0.01848584
82	0x3d18ccdb	0.03730474
83	0x3ccdf42b	0.025140842
84	0xbd49dd66	-0.049283408
85	0x3bedb116	0.0072537763
86	0xbca05714	-0.019572772
87	0xbd07fb5b	-0.033198696
88	0xbd44a1f1	-0.048006
89	0x3d61f539	0.055165503
90	0xbd14aef3	-0.036299657
91	0xbd35311c	-0.044236287
92	0xbdf0d9f7	-0.117603235
93	0x3ca975f3	0.020686125
94	0x3d4d1a63	0.050073992
95	0xbd15fe36	-0.036619388
96	0xbd27c5db	-0.040960174
97	0x3c1c1096	0.009525439
98	0xbc4a4879	-0.01234638
99	0x3c7a542d	0.015278858
100	0xbd81073a	-0.063002065
101	0x3cd51237	0.026009662
102	0x3d84c4b9	0.06482834
103	0x3dbc478e	0.091933355
104	0x3c626b05	0.013819461
105	0x3cd0c389	0.025483863
106	0xbb98851f	-0.004654541
107	0xbc96e65d	-0.018420393
108	0xbc7136c9	-0.014722534
109	0x3d531a4c	0.05153875
110	0xbcda6a00	-0.026661873
111	0xbcb00c99	-0.021490382
112	0xbc164625	-0.009171997
113	0x3c4bde36	0.012443116
114	0x3ccf8127	0.02533014
115	0x3d792e9e	0.060835473
116	0x3c7fa420	0.015603095
117	0xbc834bd1	-0.016027363
118	0xbc5630dd	-0.013073173
119	0x3d5092ae	0.050921135
120	0xbc928132	-0.01788387
121	0xbd357802	-0.0443039
122	0xbd84d4f9	-0.06485934
123	0xbcc83fbd	-0.024444455
124	0x3ce31412	0.027719531
125	0xbd2d4de9	-0.04231063
126	0x3d316b80	0.04331541
127	0xbcf410ca	-0.029793162
128	0x3e4b58d6	0.19858107
129	0xbe0458d8	-0.12924516
130	0xbdd58497	-0.1042568
131	0xbd5cf5a4	-0.0539452
132	0x3dd98f21	0.10623003
133	0xbd7f9fb9	-0.062408183
134	0x3b728577	0.003700582
135	0xbbafcb92	-0.0053648436
136	0x3d86dee5	0.065854825
137	0xbd6f156c	-0.05837004
138	0x3c84fa4a	0.016232628
139	0x3d0a357f	0.033742424
140	0x3c9b3ca0	0.018949807
141	0xbd1fbcb0	-0.038998306
142	0xbc971bb0	-0.01844582
143	0x3d0f6ee4	0.035017863
144	0x3d5c5528	0.05379215
145	0xbe05cb11	-0.13065745
146	0xbb723380	-0.0036956966
147	0xbd5663c3	-0.052341234
148	0xbda0aabf	-0.07845067
149	0xbdcc029d	-0.09961436
150	0x3d577797	0.052604284
151	0x3db2d1d4	0.08731428
152	0xbdf11863	-0.117722295
153	0xbd566c8c	-0.052349612
154	0xbd92fdc9	-0.07177312
155	0x3bbcf193	0.0057661026
156	0xbd3afa39	-0.045648787
157	0x3c89f651	0.016841086
158	0xbcf9999c	-0.030468754
159	0xbd72051a	-0.059086896
160	0xbd207aed	-0.03917973
161	0xbdf88839	-0.121353574
162	0x3c5e3513	0.013562459
163	0x3dcf3f00	0.10119438
164	0x3cdbbc9f	0.02682334
165	0xbd56c1e8	-0.052431017
166	0x3dba3cd4	0.09093633
167	0x3c6f0765	0.014589165
168	0xbd3cec32	-0.04612369
169	0xbcbbe33e	-0.022935506
170	0xbd679e3b	-0.056547385
171	0x3bdb9a41	0.006701738
172	0xbd5a6bb8	-0.053325385
173	0x3aca896e	0.0015452334
174	0x3d160fb4	0.03663607
175	0x3c8ee633	0.017443752
176	0x3c49e625	0.012322937
177	0x3cf203ba	0.029542793
178	0xbc18f21b	-0.009335066
179	0x3d0feb3f	0.035136458
180	0xbc4b9204	-0.01242495
181	0xbabcff9d	-0.001441944
182	0x3c8247db	0.015903404
183	0x3d830f39	0.06399388
184	0x3d41aec6	0.047285818
185	0xbb06b266	-0.002055311
186	0xbd7e3131	-0.06205863
187	0x3c245d2b	0.010031979
188	0xbcc395a5	-0.023875067
189	0xbd9dbb54	-0.07701746
190	0xbd012604	-0.031530395
191	0xbc1efdf9	-0.0097041065
192	0xbe4c4974	-0.19949895
193	0xbe3cdf38	-0.18444526
194	0x3dbf3532	0.09336318
195	0xbc73c608	-0.014878757
196	0xbd009305	-0.03139021
197	0xbdd622d9	-0.104558654
198	0x3e0601f3	0.13086681
199	0xbd9145dc	-0.07093403
200	0xbd590533	-0.052983474
201	0xbd8d4109	-0.0689717
202	0x3d9d63dc	0.07685062
203	0xbd5f4f41	-0.05451894
204	0xbcf5edd6	-0.030020636
205	0xbd7c6a2e	-0.0616247
206	0x3df1800f	0.11792003
207	0xbbaee3ad	-0.0053371997
208	0xbccc5802	-0.02494431
209	0xbdc63727	-0.09678488
210	0xbd045c25	-0.03231444
211	0x3da647f5	0.081191935
212	0x3d138126	0.036011837
213	0x3cb1251b	0.021624139
214	0x3d9c575c	0.0763385
215	0x3d403b23	0.046931397
216	0xbbdb49f8	-0.0066921674
217	0xbd45ba38	-0.048273295
218	0x3de69f44	0.11260846
219	0xbc82658b	-0.01591756
220	0x3e1acf8a	0.15118232
221	0x3c924a11	0.017857583
222	0x3bcc103a	0.0062275203
223	0xbc9fd35c	-0.019509964
224	0xbdae6444	-0.08515218
225	0x3d16f9c3	0.036859285
226	0xbc1fdb0a	-0.009756813
227	0xbda24e6c	-0.07925114
228	0xbd922ee1	-0.07137848
229	0x3df7448f	0.120736234
230	0xbd0b24a5	-0.033970494
231	0xbc8d6efd	-0.017264837
232	0x3cdfafae	0.02730545
233	0xbd794a94	-0.06086214
234	0xbd83ab56	-0.06429164
235	0xbcf6ab44	-0.030110963
236	0x3c43f42e	0.011960072
237	0xbd8081ee	-0.06274782
238	0x3d7bf393	0.061511587
239	0xbd7e3728	-0.06206432
240	0x3c551151	0.013004617
241	0x3d1a4517	0.037663545
242	0x3d98fec7	0.0747047
243	0xbc2efa82	-0.010679843
244	0xbd47df26	-0.048796795
245	0xbc667943	-0.014066997
246	0x3d095db8	0.033536643
247	0x3d21ea5d	0.039530147
248	0x3d375027	0.044754174
249	0xbd6d4a54	-0.057932213
250	0xbbadd217	-0.0053045857
251	0x3dcfc05e	0.10144113
252	0xbd70a3f0	-0.058750093
253	0x3d0552c3	0.03254963
254	0xbd3758cc	-0.044762418
255	0xbdb88ead	-0.09011588

t_model.t_model.0.bias f4 [64]
0	0x3bd15cde	0.0063892445
1	0xbe726ccd	-0.23674317
2	0xbe88c6e9	-0.26714256
3	0x3cb4a0c5	0.022049317
4	0xbe0cc8e4	-0.13748509
5	0xbe5c4b47	-0.21513091
6	0xbdf9c89c	-0.12196466
7	0xbdb5d59e	-0.08878635
8	0xbe36f18f	-0.17865585
9	0xbe108fa5	-0.14117296
10	0xbc4f503f	-0.0126534095
11	0xbcb626b2	-0.022235248
12	0x3dd95c87	0.10613351
13	0x3ea16960	0.31525707
14	0xbc3fe30e	-0.011711849
15	0x3cdc84b2	0.026918743
16	0xbd3559b4	-0.044275
17	0xbd4b962d	-0.049703766
18	0x3dc952d5	0.09830252
19	0xbdbc8a5e	-0.09206079
20	0xbe52091b	-0.20511286
21	0x3c8a1f08	0.0168605
22	0x3e34bacf	0.17649387
23	0xbe56dbd5	-0.20982297
24	0xbdd1df59	-0.10247678
25	0x3d022b1e	0.0317794
26	0xbd10a97c	-0.035317883
27	0xbde35683	-0.11100485
28	0xbe84bdcc	-0.25926054
29	0x3cb439f5	0.022000292
30	0xbd164b06	-0.03669264
31	0xbd813cf4	-0.06310454
32	0xbce5e708	-0.028064266
33	0xbb1db452	-0.0024063778
34	0xbdfb1b4e	-0.12261067
35	0xbdd807ae	-0.1054834
36	0xbe428eb6	-0.18999752
37	0xbd613785	-0.05498459
38	0xbd997bf5	-0.07494346
39	0x3cafb805	0.021450052
40	0x3eb4bc6f	0.35300013
41	0xbe52e39b	-0.20594637
42	0xbe8f5634	-0.27995455
43	0xbd217ab6	-0.039423667
44	0xbddfcce7	-0.10927754
45	0xbe2b63a9	-0.16737236
46	0xbe13815e	-0.14404818
47	0xbdff0aaf	-0.124532096
48	0xbdb87987	-0.090075545
49	0xbc1967cf	-0.009363129
50	0x3d40ab41	0.04703832
51	0xbe0b150d	-0.13582249
52	0xbd210809	-0.039314304
53	0xbddedb99	-0.10881729
54	0x3e45e156	0.1932424
55	0xbe842b7a	-0.2581442
56	0xbe15637d	-0.14588733
57	0xbe3fb7ae	-0.18722412
58	0x3e0260c0	0.1273222
59	0xbdb8cb03	-0.090230964
60	0xbe200750	-0.1562779
61	0xbdbcaf15	-0.09213082
62	0xbe874be8	-0.264251
63	0xbe37776b	-0.17916648

t_model.t_model.2.weight f4 [64, 64]
0	0x3d062c16	0.032756887
1	0x3c9c5647	0.019084109
2	0x3d14fb97	0.036372747
3	0x3d1f48bf	0.038887735
4	0x3d8b3ab1	0.06798304
5	0xbd9e849c	-0.07740137
6	0x3dd9a8b1	0.106278785
7	0x3c3bc99a	0.01146164
8	0x3da2579e	0.07926868
9	0x3c13a82c	0.009012263
10	0x3c5d2e2c	0.013499778
11	0xbc743af0	-0.01490663
12	0x3cae0570	0.021242827
13	0x3cb96131	0.022629352
14	0x3d73586f	0.05941051
15	0xbd09be26	-0.033628605
16	0xbbf101b3	-0.007354939
17	0x3c242de8	0.0100207105
18	0x3cc09d4a	0.023512501
19	0xbc15e5da	-0.009149039
20	0x3dc02486	0.09381966
21	0x3d07f2e1	0.03319061
22	0x3dde38ba	0.108506635
23	0xbb7eb01e	-0.0038862298
24	0xbce7093a	-0.028202642
25	0x3d105435	0.035236556
26	0xbc98ad28	-0.018637255
27	0x3dc80f66	0.09768562
28	0xbd4eb742	-0.050467737
29	0x3cfe4423	0.03103835
30	0x3d2117ee	0.03932946
31	0xbbf18e3c	-0.007371692
32	0xbcc913fa	-0.024545658
33	0x3c8e2819	0.017353104
34	0xbd0b4744	-0.03400351
35	0x3d6361c3	0.055513155
36	0xbae1955e	-0.0017210653
37	0x3c3219bf	0.010870396
38	0x3d347ddc	0.04406534
39	0x3bed9309	0.007250194
40	0xbd871adc	-0.0659692
41	0xbd3052ae	-0.0430476
42	0x3d0eda95	0.034876425
43	0x3e3a794f	0.18210338
44	0x3e016332	0.12635496
45	0x3e0044b7	0.12526213
46	0x3d55126e	0.05201953
47	0x3d97851e	0.07398437
48	0x3dd88def	0.10573947
49	0x3c13c1b0	0.009018347
50	0xbc39af96	-0.011333367
51	0x3d912a86	0.07088189
52	0xbd4ea57e	-0.050450794
53	0x3cb39683	0.021922356
54	0xba38af08	-0.00070451247
55	0xbd096a8b	-0.033548873
56	0x3df2f69f	0.118634455
57	0x3c151708	0.009099729
58	0x3d1450e3	0.036209952
59	0x3d5273fb	0.05138014
60	0xbd238be3	-0.03992833
61	0x3d712307	0.058871295
62	0xbd11ab6e	-0.03556388
63	0x3e279514	0.16365463
64	0x3cd8fcc2	0.026487712
65	0xbedc0d3e	-0.42978853
66	0xbeb80c30	-0.35946798
67	0x3d1f0336	0.03882142
68	0x3a12f313	0.0005605679
69	0xbee521b9	-0.4475229
70	0x3d3993cf	0.045306977
71	0x3da214d4	0.07914129
72	0xbef31e06	-0.47483844
73	0x3dd86d0b	0.10567673
74	0x3bdfedf4	0.006833786
75	0xbbcb4988	-0.006203834
76	0x3def489e	0.116837725
77	0x3e593cdc	0.21214622
78	0xbc11c399	-0.008896732
79	0xbd1268d0	-0.03574449
80	0x3d1e7d58	0.038693756
81	0x3cc440ff	0.023956774
82	0x3d42f0ea	0.047593035
83	0x3c943e71	0.01809618
84	0xbe7b5544	-0.24544245
85	0x3b7b1e19	0.00383175
86	0x3d9162ba	0.07098909
87	0x3bb16664	0.0054138172
88	0x3c95fa35	0.018307785
89	0xbc13478d	-0.008989227
90	0x3cf49432	0.029855821
91	0x3b81fa81	0.00396663
92	0xbef1c268	-0.47218633
93	0xbc97f17f	-0.018547771
94	0xbd8e2b47	-0.06941848
95	0x3ca031dc	0.019555025
96	0xbd9a8bf4	-0.07546225
97	0x3d442640	0.04788804
98	0xbea27b13	-0.31734523
99	0x3dba88ee	0.091081485
100	0xbc2c6b71	-0.010523663
101	0xbd809dba	-0.06280084
102	0xbc1ee103	-0.009697202
103	0xbb675c38	-0.003530277
104	0x3e4a1a0a	0.19736496
105	0xbd809ce8	-0.062799275
106	0xbcb2500c	-0.021766685
107	0x3de48f6b	0.11160167
108	0x3d83e76a	0.06440623
109	0xbee814ef	-0.4532847
110	0xbead75fd	-0.3387908
111	0xbc909f7b	-0.017654171
112	0x3d0104f2	0.031498857
113	0xbd252e34	-0.040327266
114	0x3d49db7e	0.04928159
115	0xbb8c4c60	-0.0042815655
116	0xbcd1f184	-0.025627859
117	0x3e13a1cc	0.1441719
118	0x3e0c41bf	0.13696955
119	0xbe9e27b9	-0.3088968
120	0x3c20e1bd	0.009819445
121	0xbef7de95	-0.48412004
122	0x3db3b13c	0.08774039
123	0x3cef0a0a	0.029179592
124	0x3d245f6d	0.040130068
125	0x3dcc8f43	0.099882625
126	0xbe7299c9	-0.23691477
127	0xbb8712a5	-0.0041220956
128	0xbc63edde	-0.013911692
129	0xbe0d2d97	-0.13786922
130	0xbdc72d9a	-0.09725495
131	0x3ba05570	0.0048929974
132	0x3cf51b61	0.029920282
133	0xbe3a8bc1	-0.18217374
134	0x3db99f43	0.0906358
135	0xbb8ef726	-0.0043629585
136	0xbdefe674	-0.11713877
137	0x3dd05165	0.10171775
138	0x3c6d7c6b	0.014494996
139	0x3c8dc466	0.017305564
140	0x3be08019	0.006851208
141	0x3d845f6b	0.06463512
142	0x3d39e9ec	0.0453891
143	0x3b89885e	0.0041971644
144	0x3bdae3b5	0.006679977
145	0x3c69e4df	0.0142757585
146	0x3bc38cac	0.005967697
147	0x3d5fe2a4	0.0546595
148	0xbe2942fc	-0.16529459
149	0xbd1d8692	-0.038458414
150	0x3ddf78a5	0.10911683
151	0x3de9f07f	0.11422824
152	0x3d189e98	0.03726062
153	0xbda34e0f	-0.07973873
154	0x3d850a0c	0.06496057
155	0x3e0c2fa4	0.13690048
156	0xbdf5309f	-0.11972164
157	0x3cdbea9e	0.026845273
158	0x3ba9c6ba	0.0051811608
159	0x3d857d48	0.06518036
160	0xbc6d8bad	-0.014498633
161	0x3d0522cc	0.032503888
162	0xbe71e05a	-0.2362074
163	0x3d8377e4	0.06419352
164	0x3d5f9231	0.05458278
165	0xbdba80b4	-0.091065794
166	0xbd2fe4eb	-0.042942923
167	0x3cdf41fa	0.02725314
168	0xbd09b14d	-0.033616353
169	0xbd3fa559	-0.046788547
170	0x3e1df9a7	0.15427266
171	0x3e1218c7	0.14267264
172	0x3dce7c2a	0.10082276
173	0xbe8ee934	-0.27912295
174	0xbe857d98	-0.26072383
175	0x3df20b7a	0.11818595
176	0xbcd3174e	-0.025767948
177	0x3d59c0ee	0.053162508
178	0xbd435e3b	-0.047697287
179	0xbd08f5c5	-0.03343751
180	0x3cdc1a11	0.026867898
181	0xbc45bb32	-0.012068557
182	0x3d47e031	0.04879779
183	0xbe7e4aec	-0.24833268
184	0x3e05f85f	0.13083027
185	0xbd97b26f	-0.074070804
186	0x3c588cb9	0.013217145
187	0x3d179202	0.03700448
188	0x3d062e86	0.032759212
189	0x3bf5497f	0.007485568
190	0xbe103ccf	-0.14085697
191	0xbc47621a	-0.012169385
192	0x3c3c965e	0.01151046
193	0xbdc7d47a	-0.097573236
194	0xbd831c1f	-0.06401848
195	0xbccbc235	-0.024872879
196	0x3d1acd86	0.03779366
197	0x3c20b8ea	0.009809712
198	0x3c36a3cd	0.011147452
199	0xbcf37708	-0.029719844
200	0xbdb2a6d3	-0.087232254
201	0x3e1ea057	0.15490852
202	0xbbb2a3c1	-0.00545165
203	0x3d263d6f	0.04058593
204	0x3d905343	0.07047131
205	0x3e3b83d6	0.1831201
206	0x3d242592	0.040074892
207	0xbb9e48ed	-0.004830471
208	0x3d3d54b3	0.046223354
209	0xbc130707	-0.008973843
210	0x3d5d5f82	0.05404616
211	0x3c93e24a	0.018052239
212	0xbc9a37bb	-0.018825402
213	0x3ce2a644	0.027667172
214	0x3dec3592	0.11533655
215	0x3cd0e2d9	0.025498794
216	0x3d327ddd	0.043577064
217	0x3d576e47	0.052595403
218	0xbd117c76	-0.035519086
219	0x3dad9234	0.08475152
220	0x3cc8b9de	0.02450269
221	0xbb886d01	-0.004163385
222	0xbd738c9d	-0.05946027
223	0xbcd0a1fd	-0.025467867
224	0xbd6d6cc8	-0.05796507
225	0x3ce12603	0.027483946
226	0xbcf32eaa	-0.029685337
227	0x3e196108	0.1497842
228	0x3d5ac2ff	0.05340862
229	0xbd339287	-0.04384091
230	0x3cc527f0	0.024066895
231	0xbb538d7c	-0.0032280376
232	0x3db95c62	0.09050824
233	0xbcad67ac	-0.021167599
234	0xbcd9e994	-0.026600637
235	0x3c507e03	0.012725356
236	0x3c39280b	0.011301051
237	0xbd525525	-0.05135073
238	0xbde84935	-0.11342088
239	0xbbd36f2a	-0.006452461
240	0xbd243cbf	-0.040096994
241	0x3cdac764	0.026706405
242	0x3da48477	0.08033078
243	0x3d0ab154	0.03386052
244	0xbc214b9a	-0.009844685
245	0x3dc3db0d	0.09563265
246	0x3cc1997a	0.023632754
247	0xbd9a10dd	-0.07522748
248	0x3cc89395	0.024484435
249	0xbd7fea46	-0.06247928
250	0x3db545c8	0.088512
251	0xbd00c23a	-0.03143523
252	0x3d67b56d	0.056569505
253	0x3d42b7c8	0.04753855
254	0xbaec33e7	-0.0018020839
255	0x3d37a77a	0.044837452

t_model.t_model.2.bias f4 [64]
0	0xbd34825e	-0.04406964
1	0x3e9f5588	0.31119943
2	0x3e7f0661	0.24904777
3	0x3dbc1700	0.091840744
4	0xbc5c5623	-0.013448271
5	0xbd54f3f2	-0.051990457
6	0xbe6470d1	-0.22308661
7	0x3dec49a9	0.11537487
8	0xbe1ff108	-0.1561929
9	0x3d178f89	0.03700212
10	0xbc361daf	-0.011115476
11	0xbd6b0d0b	-0.057385486
12	0x3da40252	0.08008255
13	0xbc154026	-0.009109532
14	0x3d87a54e	0.06623326
15	0x3d881553	0.06644692
16	0xbcd14a29	-0.025548058
17	0xbd3209df	-0.043466445
18	0x3e181155	0.14850362
19	0x3cbf1494	0.023325242
20	0x3cc7deec	0.02439829
21	0x3ee89626	0.45427054
22	0xbd3131c8	-0.043260366
23	0x3d09dbd8	0.033656925
24	0x3e9ded75	0.30845228
25	0x3d2fb6b0	0.042898834
26	0xbe7e4e38	-0.24834526
27	0x3e9db4a5	0.30801883
28	0x3cf2a8ea	0.02962156
29	0x3db756ea	0.089521244
30	0x3d6504ef	0.05591291
31	0x3e1c2d31	0.15251614
32	0x3b9c1907	0.0047637257
33	0x3e41d2f9	0.18928136
34	0x3e46dabd	0.1941938
35	0x3de5ea64	0.11226347
36	0xbea08c90	-0.3135724
37	0x3cfac986	0.030613672
38	0x3d85d642	0.06535007
39	0x3cdba208	0.026810661
40	0xbe05de51	-0.13073088
41	0xbda6e58e	-0.08149253
42	0x3d89c829	0.06727631
43	0x3c8d8773	0.017276501
44	0xbd8239a3	-0.063586496
45	0xbd0351f8	-0.032060593
46	0x3e7a8294	0.24463874
47	0x3e1fc304	0.15601736
48	0x3df1eecc	0.11813125
49	0x3e52e52b	0.20595233
50	0xbd8a7eee	-0.06762491
51	0x3e1d5f8a	0.15368477
52	0xbda031b5	-0.07821981
53	0x3e9ea768	0.30987096
54	0xbc90f77e	-0.017696138
55	0x3cde6d9c	0.027151875
56	0x3ee8a97a	0.454418
57	0x3dc2ab0f	0.09505283
58	0xbc329745	-0.010900323
59	0x3ef9f34a	0.48818427
60	0x3e5e7a19	0.21726264
61	0x3e00ee8d	0.12591
62	0x3e10bf92	0.14135578
63	0xbe25891d	-0.16165586

s_model.x_model.weight f4 [64, 32]
0	0xbe2f7677	-0.17135035
1	0x3bba29a4	0.0056812335
2	0x3ec24a84	0.37947476
3	0x3b4b3511	0.0031006972
4	0x3ec675e3	0.38761815
5	0xbb62478c	-0.0034527509
6	0xbf0be2bc	-0.54642844
7	0xbaa9abcb	-0.0012944875
8	0x3d0de6ce	0.03464394
9	0xbbd30aa8	-0.0064404793
10	0x3e89f5b1	0.2694526
11	0x39fc7e4a	0.00048159278
12	0xbe2afc00	-0.16697693
13	0x3c1e7149	0.009670564
14	0x3e0e762e	0.1391227
15	0xbabaf53a	-0.0014263757
16	0xbd94d2d9	-0.072667785
17	0x3c73c455	0.014878352
18	0x3e04edbd	0.12981315
19	0x3bccbbf0	0.00624799
20	0xbee8e511	-0.45487264
21	0xbbafb90f	-0.005362637
22	0xbe74d61a	-0.23909798
23	0x3bcaed76	0.0061928583
24	0x3d5d0d30	0.053967655
25	0x39ca4b88	0.00038584718
26	0xbdd21855	-0.10258547
27	0x3a9034e0	0.0011002086
28	0x3eac24a8	0.33621716
29	0x3b8d19bc	0.0043060463
30	0xb9fb5151	-0.00047935036
31	0xb89d8ffb	-7.513162e-05
32	0xbef26c86	-0.47348422
33	0x3b5f0c4f	0.0034034436
34	0xbdd9cf95	-0.10635296
35	0xbc0ea4df	-0.0087063005
36	0x3c936d65	0.0179965
37	0x3b7f9da4	0.0039003873
38	0x3ebfbc70	0.37448454
39	0x3b138b26	0.002251336
40	0x3df5f2a5	0.120091714
41	0x3b0dec83	0.0021655865
42	0x3e47965f	0.19490956
43	0x3bacb009	0.0052700085
44	0xbe91be8c	-0.28465688
45	0xbbe1c859	-0.0068903384
46	0xbe5e982a	-0.21737733
47	0x3b8d07c7	0.0043039056
48	0x3bcb07e0	0.006196007
49	0x3ac4bd41	0.0015010015
50	0xbd92e45b	-0.071724616
51	0xbb2d6397	-0.0026457065
52	0x3e1e1709	0.15438475
53	0xbb87b6f6	-0.0041416837
54	0xbe2db5de	-0.16963908
55	0x390f04eb	0.00013639375
56	0xbe735506	-0.23762903
57	0xbbb0e834	-0.0053987745
58	0xbd9cef32	-0.076628104
59	0x3c5fad46	0.013652151
60	0x3bfecaba	0.0077756317
61	0x3ac7871d	0.0015222762
62	0xbea64e10	-0.32481432
63	0xbb2d30eb	-0.0026426862
64	0x3ed26f0a	0.4110034
65	0xb906277d	-0.00012793946
66	0xbde6567e	-0.11246966
67	0x3bb5649a	0.0055356743
68	0xbeb8083f	-0.3594379
69	0xbc01c07a	-0.007919425
70	0xbdba207c	-0.09088227
71	0xbc123b6e	-0.008925302
72	0x3e357158	0.17719018
73	0xbbb62908	-0.0055590905
74	0x3dc0849a	0.09400292
75	0xbb222e42	-0.002474681
76	0x3e9f687c	0.31134403
77	0x3baff6b9	0.005369988
78	0xbcd499d2	-0.025952253
79	0xbbb303ba	-0.0054630907
80	0xbdc2338c	-0.09482488
81	0x3c162973	0.009165156
82	0xbe77a2a5	-0.24183138
83	0xbaeb71ab	-0.0017962953
84	0x3db84adc	0.08998653
85	0xbbda1fbc	-0.006656615
86	0xbe42901f	-0.1900029
87	0xbba4cff3	-0.0050296723
88	0xbea7e48f	-0.32791564
89	0x3b8ce0b5	0.004299248
90	0xbd2e1145	-0.04249694
91	0x39212473	0.00015367735
92	0xbe9a746c	-0.30166948
93	0xbba63d9f	-0.005073264
94	0x3d28be30	0.041197002
95	0x3c1ced3b	0.0095780445
96	0xbe9cf080	-0.30652237
97	0xbbe7579a	-0.0070600035
98	0x3ebf7ea1	0.37401298
99	0xbabdd89a	-0.0014484108
100	0xbea96bf7	-0.33090183
101	0x3b4c2068	0.0031147245
102	0xbddd2903	-0.10798838
103	0xbc32d085	-0.010913973
104	0xbe6de822	-0.23233083
105	0xbc111002	-0.008853914
106	0x3d4a8872	0.04944653
107	0x3c1fb33b	0.009747322
108	0x3e237aaf	0.15964769
109	0x3b4b588f	0.0031028127
110	0x3e6dbb17	0.232159
111	0x3c3fdfd9	0.011711084
112	0x3ed26860	0.41095257
113	0x3be5fa2b	0.0070183477
114	0x3ce0af10	0.027427226
115	0xbb184c90	-0.0023238994
116	0xbe30b607	-0.17256938
117	0x3bff4198	0.007789802
118	0x3d4cec78	0.0500302
119	0x3b786d1f	0.0037906838
120	0xbe8fee72	-0.28111607
121	0xbc90cc85	-0.017675648
122	0xbce0e9df	-0.027455268
123	0x3b28747d	0.0025704198
124	0xbe3990d5	-0.18121655
125	0x3aa53352	0.0012603796
126	0xbdb36fdb	-0.08761569
127	0x3b40ad63	0.0029400222
128	0x3e97c26f	0.2964053
129	0xbbf9d004	-0.0076236743
130	0xbe097794	-0.13424522
131	0xbba7f83d	-0.005126028
132	0x3db2cc04	0.08730319
133	0xbb91c8ca	-0.0044489847
134	0xbe038ae6	-0.12845954
135	0xbb38ea1b	-0.002821571
136	0xbec8fd6b	-0.39255843
137	0xb9cab06d	-0.0003865989
138	0x3ebd2ffa	0.36950666
139	0xb9c68e9d	-0.00037871758
140	0xbde4339d	-0.11142657
141	0x3b2c842f	0.0026323905
142	0x3c9ab389	0.018884437
143	0xbc006865	-0.00783739
144	0x3e48e4c8	0.19618523
145	0xbb8885c4	-0.0041663367
146	0xbeed05ab	-0.46293387
147	0x3b0a6a9a	0.0021120668
148	0xbd3e1eea	-0.0464162
149	0x3b2077d4	0.0024485486
150	0xbc31e409	-0.0108575905
151	0xbb19a2e1	-0.002344303
152	0xbca61d13	-0.020277536
153	0x3c017a1a	0.007902646
154	0xbe7b1c2e	-0.24522468
155	0x3b02a2ad	0.0019933388
156	0x3eb78827	0.35846063
157	0x3bc362a7	0.005962688
158	0x3d49f4d4	0.049305752
159	0x3b580591	0.0032962302
160	0xbe9b35e3	-0.3031455
161	0xb95c8675	-0.00021030924
162	0x3e0190cb	0.1265289
163	0x3bfd746c	0.007734826
164	0xbe756bfb	-0.23966973
165	0xbb1d14d6	-0.0023968718
166	0x3e1dec7b	0.15422241
167	0xbb720f90	-0.0036935546
168	0xbeb8ef2b	-0.3611997
169	0xbaea1561	-0.0017859155
170	0x3e707bc9	0.2348472
171	0xbb8bb437	-0.0042634266
172	0x3deeb8c6	0.116563365
173	0xbb77e507	-0.003782572
174	0x3e8f1da8	0.27952313
175	0xbad410c0	-0.0016179308
176	0x3eab78c8	0.33490586
177	0xbc8a998f	-0.016918926
178	0x3a851f03	0.0010156337
179	0x39a2b3d2	0.00031033024
180	0x3c61a54d	0.013772321
181	0x3c41d6cc	0.011830997
182	0xbd169afc	-0.0367689
183	0x3bd1592e	0.006388805
184	0xbda3d3a7	-0.07999354
185	0xba71c687	-0.0009223003
186	0xbb7cc6ab	-0.0038570564
187	0xbbc252dd	-0.005930288
188	0x3ec64077	0.38721058
189	0x3c0ff9c5	0.008787577
190	0xbec44fb1	-0.3834205
191	0xba8f6e3b	-0.0010942885
192	0xbec4d719	-0.38445356
193	0xbab6570f	-0.0013911444
194	0xbe4b3d27	-0.19847547
195	0xbc41bb2f	-0.011824413
196	0x3e54fcc3	0.20799546
197	0x3bba6f15	0.0056895115
198	0xbc90d3bb	-0.017679086
199	0x3b752766	0.0037407517
200	0x3e035ce9	0.12828411
201	0xbc194eab	-0.009357135
202	0x3e606f6d	0.21917506
203	0x3b87b4f8	0.004141446
204	0x3dab4032	0.08361854
205	0x3b4e3ed0	0.0031470545
206	0x3d9590d5	0.07303015
207	0xb8f601bc	-0.00011730517
208	0x3e48bea3	0.19603972
209	0x3b0835a9	0.0020783937
210	0x3c3a5e93	0.011375087
211	0xbac30d2d	-0.0014881246
212	0x3e73ff39	0.23827828
213	0x3b384fb7	0.0028123686
214	0x3e44f0b3	0.19232444
215	0x3b0132b0	0.001971405
216	0x3e0aae20	0.13542986
217	0xbc3aa72b	-0.011392395
218	0x3e4e4cb4	0.20146447
219	0xbb8ea425	-0.0043530636
220	0x3e3fa6bc	0.18715948
221	0x3bb7e517	0.0056120264
222	0x3eda3344	0.42617238
223	0x3be4e0c8	0.006984804
224	0xbea87ca2	-0.32907587
225	0xbbb0938f	-0.005388684
226	0x3e90c376	0.28274125
227	0x3b142204	0.0022603283
228	0x3e503c46	0.20335492
229	0xbafd9561	-0.0019346887
230	0xbe89aa1f	-0.26887605
231	0x3b71e9da	0.0036913068
232	0xbda5865b	-0.08082267
233	0xbc11afa9	-0.008891978
234	0xbe38cb6b	-0.18046348
235	0x3c2f39d4	0.01069494
236	0xbe5ddb0c	-0.21665591
237	0x3a940ad4	0.0011294731
238	0xbe57a2bf	-0.21058176
239	0xbadce780	-0.001685366
240	0x3ddf1529	0.10892708
241	0x3a691b56	0.0008892318
242	0x3e7d0233	0.2470787
243	0x3c1599dc	0.009130921
244	0x3e8461bc	0.25855815
245	0x3c05e0d5	0.00817128
246	0x3df27b8c	0.11839971
247	0x3c5eb0a5	0.01359192
248	0xbe831e9f	-0.256093
249	0x3abb67cc	0.0014297902
250	0x3ec16b9c	0.37777412
251	0xbb76f8f5	-0.003768501
252	0xbd55ddc4	-0.052213445
253	0x3baab9bb	0.005210129
254	0xbe5c7a97	-0.2153114
255	0x3be13648	0.006872926

s_model.x_model.bias f4 [64]
0	0x3d7270d9	0.05918965
1	0x3ef7b424	0.48379624
2	0x3deac90d	0.11464129
3	0x3d82a01c	0.06378195
4	0x3e798785	0.24368103
5	0xbce51585	-0.027964363
6	0xbe5ed158	-0.21759546
7	0x3e2bf067	0.16790925
8	0xbd2f22f1	-0.042757932
9	0x3e29706c	0.16546792
10	0x3db15e56	0.08660571
11	0x3d064471	0.032780115
12	0x3d632ab2	0.05546064
13	0xbdc2c850	-0.09510863
14	0x3e27af20	0.16375399
15	0xbda5a16a	-0.08087428
16	0xbdc7b808	-0.09751898
17	0x3d21ab80	0.039470196
18	0x3eaaa11b	0.3332604
19	0xbcdd29f3	-0.026997542
20	0xbd09a178	-0.033601254
21	0x3ede6415	0.43435732
22	0x3d23a20b	0.039949458
23	0x3e330eb4	0.17486078
24	0x3efb67b7	0.49102566
25	0x3e1ddbf3	0.15415935
26	0xbe451638	-0.19246757
27	0x3e1f1ada	0.15537587
28	0x3cc75dd2	0.02433673
29	0x3e4d9f5a	0.20080319
30	0x3dc64920	0.09681916
31	0x3e347b81	0.17625238
32	0xbc5119a3	-0.01276246
33	0x3ecbddff	0.39817807
34	0x3d88ba38	0.066761434
35	0x3e99be04	0.30027783
36	0xbe8f52c1	-0.27992824
37	0xbe086c95	-0.13322671
38	0x3e1254a1	0.14290096
39	0x3dc4aeb4	0.096036345
40	0x3dc009f5	0.09376899
41	0xbccfa381	-0.02534652
42	0xbe1b4388	-0.1516248
43	0xbd218248	-0.039430887
44	0xbcabf952	-0.020992909
45	0xbce5a04a	-0.028030533
46	0x3e7f5921	0.24936344
47	0x3dcad216	0.09903352
48	0x3e0be167	0.13660203
49	0x3e92c98d	0.28669396
50	0xbdc089a1	-0.09401251
51	0x3e6413f1	0.22273232
52	0xbe862961	-0.26203445
53	0x3e6398a0	0.2222619
54	0xbe28e3bb	-0.16493122
55	0x3e1db10c	0.1539957
56	0x3eeee6c4	0.46660435
57	0x3d882351	0.06647361
58	0xbe3e5459	-0.18586864
59	0x3ebc081f	0.36724946
60	0x3c0fd30e	0.008778347
61	0x3dd61938	0.10454029
62	0x3d630968	0.055428892
63	0xbe357eb8	-0.1772412

joint_model.model.1.0.weight f4 [64, 64]
0	0xbde61403	-0.11234286
1	0x3dad2dd6	0.08456008
2	0xbd0cc92d	-0.034371544
3	0xbe050e95	-0.12993844
4	0x3e3230f3	0.17401485
5	0x3d801f04	0.06255916
6	0x3e28c10e	0.16479895
7	0xbe43714d	-0.1908619
8	0xbe26c377	-0.16285501
9	0x3e814b7a	0.25252897
10	0xbe6d201f	-0.23156784
11	0xbdd2057f	-0.102549545
12	0x3ba48d21	0.0050217067
13	0xbe02f557	-0.12788902
14	0x3ea9b38a	0.3314479
15	0xbe077c4c	-0.13231009
16	0x3cfeeb18	0.03111796
17	0x3d2009f5	0.039071996
18	0x3e0d6b43	0.13810448
19	0x3e4eca89	0.20194449
20	0x3e06c122	0.13159612
21	0x3e923a8c	0.28560293
22	0x3e26ba5f	0.16282032
23	0xbc23f692	-0.010007517
24	0x3de15502	0.11002542
25	0x3d37e100	0.04489231
26	0xbeafb856	-0.34320325
27	0xbe0ed003	-0.13946538
28	0xbe6783af	-0.22608827
29	0x3d93c353	0.072149895
30	0x3e01985f	0.12655781
31	0xbe757e7b	-0.2397403
32	0xbe9fda5f	-0.3122129
33	0xbe258671	-0.16164567
34	0x3e392bd8	0.18083131
35	0x3e363e4a	0.17797199
36	0x3e005cbd	0.12535377
37	0xbe011484	-0.12605482
38	0xbc40b454	-0.011761744
39	0x3d59ef86	0.053206943
40	0xbc44461e	-0.011979608
41	0x3cf83353	0.03029791
42	0x3d959999	0.07304687
43	0x3e22a6a5	0.15883882
44	0xbd61976e	-0.055076055
45	0xbc3244fe	-0.010880707
46	0xbd72d6a2	-0.05928672
47	0x3dc34e96	0.095364735
48	0x3ddfe1b2	0.1093172
49	0x3e0af19d	0.1356873
50	0xbd513451	-0.051075283
51	0x3e942278	0.28932548
52	0xbdf6a569	-0.12043268
53	0xbd2a306f	-0.041550096
54	0x3e929140	0.28626442
55	0xbde672fc	-0.112524
56	0xbcf8e624	-0.030383177
57	0xbe70dd17	-0.23521839
58	0xbdb1b4dd	-0.08677075
59	0x3e6428d1	0.22281195
60	0xbdd4884f	-0.10377561
61	0xbd0bffaa	-0.034179367
62	0x3e1a803b	0.15087979
63	0x3d131055	0.035904247
64	0x3d994d8e	0.074854955
65	0x3d861d8c	0.06548604
66	0xbd35066c	-0.044195578
67	0x3e2ad9fd	0.16684718
68	0x3d0ca994	0.03434141
69	0x3e000bdf	0.12504528
70	0x3deeb555	0.1165568
71	0x3d2dc80b	0.042427104
72	0xbca8c79b	-0.020602992
73	0xbd3c5ec7	-0.045988824
74	0x3ec93ebb	0.39305672
75	0x3e762f8f	0.2404158
76	0x3d67e866	0.056618117
77	0xbe637c37	-0.22215353
78	0xbe80a743	-0.2512761
79	0x3e8c630d	0.2741932
80	0xbd15da36	-0.036585055
81	0x3a8b83df	0.0010644159
82	0x3d5763ac	0.05258529
83	0x3e32c363	0.17457347
84	0xbd2ddf30	-0.042449176
85	0x3e78f551	0.24312331
86	0xbe11c949	-0.1423694
87	0xbdfa09e2	-0.12208916
88	0x3e618fda	0.22027531
89	0xbdad0435	-0.08448068
90	0x3e53d8ca	0.20688167
91	0x3d6f9ba0	0.058498025
92	0x3dc57e7a	0.09643264
93	0x3d935b2f	0.07195126
94	0x3d1d351c	0.038380727
95	0x3c7162a6	0.014732992
96	0xba85f9be	-0.0010221524
97	0xbc9a24ca	-0.01881637
98	0xbbcf07dd	-0.006318076
99	0xbc803f94	-0.015655316
100	0xbe01683c	-0.12637419
101	0xbe481f13	-0.19543104
102	0x3cdc0f20	0.02686268
103	0xbcaf8e56	-0.021430176
104	0xbe72ba27	-0.23703824
105	0x3d962a35	0.07332269
106	0xbcea41e8	-0.02859588
107	0x3d7b135d	0.061297763
108	0xbe298344	-0.1655398
109	0xbd7167d8	-0.058936924
110	0xbe27e74c	-0.16396827
111	0x3dfa7ecf	0.12231218
112	0xbd9b61bc	-0.07587001
113	0xbd568300	-0.052371025
114	0xbe0271d7	-0.12738739
115	0xbd844371	-0.06458176
116	0xbe2c8599	-0.16847838
117	0x3e777470	0.24165511
118	0xbe9ea859	-0.30987814
119	0x3ddd5e3c	0.108089894
120	0x3e511c89	0.20421042
121	0x3eade9c6	0.33967417
122	0x3cc35dfa	0.023848522
123	0xbcff85ba	-0.031191695
124	0x3d40cc1d	0.047069658
125	0xbdae408a	-0.085084036
126	0x3e2615fc	0.16219324
127	0xbcbfa1a3	-0.023392504
128	0xbdfe1777	-0.12406819
129	0x3e01aee1	0.12664367
130	0x3e5640d3	0.20923166
131	0xbe09e956	-0.13467917
132	0xbd236c6c	-0.03989832
133	0xbd4e7b66	-0.05041065
134	0xbdb70804	-0.08937076
135	0x3e14b287	0.14521228
136	0x3d9b0905	0.0757008
137	0x3d3fe893	0.04685266
138	0xbe2c13d4	-0.16804439
139	0xbe692c9e	-0.22770926
140	0xbd05854c	-0.032597825
141	0x3dfa5aa1	0.12224317
142	0xbe1383fe	-0.1440582
143	0x3db294c5	0.08719782
144	0xbd0c510a	-0.034256972
145	0xbe5c2f91	-0.2150252
146	0x3ca74ed5	0.020423332
147	0xbcb80c9f	-0.022466956
148	0x3e88ee17	0.26744148
149	0x3d64c984	0.055856243
150	0x3d98e863	0.07466199
151	0xbe4f26e5	-0.20229681
152	0x3e86fc97	0.26364586
153	0xbd248fcc	-0.040176198
154	0x3e8d0e32	0.27549893
155	0xbda14101	-0.07873727
156	0xbcbb592c	-0.022869669
157	0x3e4c3de4	0.19945484
158	0x3e31fc0a	0.17381302
159	0x3c4784f7	0.012177697
160	0x3e184f3c	0.14873976
161	0x3d9a4510	0.07532704
162	0x3ea9acf9	0.3313978
163	0x3d7dad68	0.06193295
164	0x3e306e73	0.17229633
165	0x3e07edbd	0.13274284
166	0xbdb27d21	-0.08715273
167	0x3d1ba7d5	0.038001854
168	0x3d9f8707	0.07789426
169	0x3de0fa84	0.10985282
170	0x3aa0992d	0.0012252681
171	0xbddf05db	-0.10889789
172	0x3e16db12	0.14732006
173	0x3da598b5	0.08085767
174	0x3d010792	0.03150136
175	0xbd8f4623	-0.069957994
176	0xbdba1f52	-0.09088005
177	0x3d376ac4	0.044779554
178	0x3df3c82f	0.11903416
179	0x3d2a8ed2	0.04164011
180	0x3de2fda0	0.110835314
181	0x3de8c09d	0.11364863
182	0x3e1a234e	0.1505253
183	0x3d527c89	0.051388297
184	0x3dd68d95	0.104762234
185	0x3e11fbbb	0.14256184
186	0xbe13f7cd	-0.14449997
187	0x3dd436d8	0.10362023
188	0xbe8c1f02	-0.27367407
189	0x3c84cd25	0.016211102
190	0x3df2955e	0.11844896
191	0xbe59f2f3	-0.21284084
192	0x3d3baf53	0.0458215
193	0x3b944914	0.004525313
194	0x3e164a09	0.1467668
195	0x3e53d918	0.20688283
196	0x3cd51056	0.026008766
197	0x3e6b68b9	0.22989167
198	0x3dec8df9	0.11550517
199	0xbe1f6a81	-0.15567972
200	0xbd6c23b1	-0.057651225
201	0xbc90cebc	-0.017676704
202	0x3e867c9f	0.26266953
203	0xbdff573f	-0.12467813
204	0x39f2a6b5	0.00046282043
205	0x3c91357e	0.017725702
206	0xbd81b150	-0.06332648
207	0xbb857e25	-0.0040738755
208	0x3d8bec58	0.06832188
209	0xbecee99e	-0.4041261
210	0x3cf68379	0.030091988
211	0x3df2b694	0.1185123
212	0x3dadb8e2	0.08482529
213	0x3a008da5	0.0004903919
214	0xbeaa78fc	-0.3329543
215	0xbe538ada	-0.20658436
216	0xbc6085f1	-0.013703809
217	0xbdb00043	-0.085938
218	0x3db1ab69	0.08675272
219	0x3d2c1ab8	0.04201767
220	0x3e12d351	0.14338423
221	0x3e242dd6	0.1603311
222	0xbc641b1d	-0.01392248
223	0xbdffcb8a	-0.12489994
224	0xbd1b7e71	-0.03796238
225	0xbea61f43	-0.32445726
226	0xbda3cccf	-0.079980485
227	0xbca487ab	-0.020084223
228	0x3e8271d7	0.25477478
229	0xbdb1dba2	-0.0868447
230	0x3df40287	0.119145446
231	0xbe8471aa	-0.2586797
232	0xbd7cef97	-0.06175193
233	0x3de9f527	0.11423712
234	0x3ec897ad	0.3917822
235	0x3d1ed647	0.03877857
236	0x3d44a9f3	0.04801364
237	0x3d2408e5	0.040047545
238	0x3dd2087c	0.102555245
239	0x3bd1cb32	0.0064023966
240	0x3e2bbd60	0.1677146
241	0xbec688c3	-0.38776216
242	0xbe64c491	-0.22340609
243	0xbe37c2e3	-0.17945437
244	0x3d8111fd	0.06302259
245	0xbbd3420c	-0.0064470824
246	0xbcc1c1f9	-0.023652064
247	0xbda29403	-0.07938387
248	0xbe6ffbc7	-0.23435889
249	0xbe179560	-0.14803076
250	0x3e06b5c7	0.1315528
251	0x3c1aa4bc	0.00943869
252	0x3dcb09d7	0.09913986
253	0x3e680c4c	0.22660941
254	0x3e176e44	0.14788157
255	0x3e488d44	0.19585139

joint_model.model.1.0.bias f4 [64]
0	0x3e56fd22	0.20995
1	0x3e70d8c2	0.23520187
2	0x3dcb6d67	0.09932976
3	0xbe2b0752	-0.16702011
4	0x3d464d59	0.04841361
5	0xbd9cb165	-0.07651023
6	0x3daac19f	0.083377115
7	0x3e1ca128	0.15295851
8	0xbde46904	-0.11152843
9	0xbc0b715c	-0.008510914
10	0x3a5fe83a	0.00085413794
11	0x3b4aa77e	0.0030922587
12	0x3d982a10	0.07429898
13	0xbb8ec225	-0.00435664
14	0x3e28fe53	0.16503267
15	0xbe9beb6b	-0.30453047
16	0xbec2ef18	-0.3807304
17	0xbde526f7	-0.111890726
18	0x3c9f3bd2	0.019437704
19	0x3c9a5143	0.018837577
20	0xbe6dab78	-0.23209941
21	0xbddbea71	-0.107380755
22	0xbded1e15	-0.11578003
23	0xbe2d3f8c	-0.16918772
24	0xbea064e2	-0.31326967
25	0x3ead21b1	0.33814767
26	0xbe2e04da	-0.16994038
27	0xbe5833c8	-0.21113503
28	0x3cc85227	0.024453236
29	0xbd16dd94	-0.036832407
30	0x3c960ebc	0.018317573
31	0x3e4792e6	0.19489631
32	0x3e8dccd8	0.27695346
33	0xbcc0b15d	-0.023522073
34	0xbe753061	-0.23944236
35	0xbe369b62	-0.17832711
36	0x3e9d86e9	0.3076699
37	0x3e56a452	0.2096112
38	0xbe09a088	-0.13440144
39	0xbde3c6a9	-0.11121876
40	0x3da7708a	0.08175762
41	0xbe28c8cd	-0.1648285
42	0x3e188fa9	0.14898552
43	0xbe2792ef	-0.16364644
44	0x3ef9abbe	0.4876384
45	0xbe66c9e6	-0.22537956
46	0xbda94be7	-0.0826643
47	0x3e0b90f9	0.13629521
48	0x3dd51368	0.10404092
49	0x3e94cac4	0.29060948
50	0x3d629e2e	0.055326633
51	0xbeb116a6	-0.34587592
52	0x3bac8423	0.0052647754
53	0xbd1843b1	-0.03717393
54	0x3d3677f8	0.044548005
55	0xbe9fe78b	-0.3123134
56	0xbe0d6342	-0.13807395
57	0x3e7f9c2a	0.24961916
58	0x3e15de7a	0.1463565
59	0xbe34080d	-0.17581196
60	0x3e151e8e	0.14562437
61	0xbd17993d	-0.037011374
62	0xbe444032	-0.19165114
63	0x3e5addbd	0.21373649

joint_model.model.2.0.weight f4 [64, 64]
0	0x3e1fc0a8	0.15600836
1	0x3edd3ed2	0.4321199
2	0x3d0a8d55	0.03382619
3	0xbd96f5f6	-0.07371132
4	0xbe687957	-0.22702537
5	0xbb9da4e8	-0.004810918
6	0x3d20cd74	0.039258435
7	0x3ec962ea	0.39333278
8	0xbb4b1210	-0.0030986108
9	0x3e466f81	0.19378473
10	0x3e0d382c	0.13790959
11	0xbe3894d4	-0.18025523
12	0xbd3345ed	-0.04376786
13	0x3d5fa702	0.05460263
14	0xbbbd9110	-0.005785115
15	0xbe6223ba	-0.22083941
16	0xbe75ce20	-0.24004412
17	0x3e7f6456	0.24940619
18	0xbd017600	-0.031606674
19	0xbea0882f	-0.313539
20	0x3e7828a4	0.24234253
21	0x3d4e506c	0.050369665
22	0x3f39d2c9	0.7258726
23	0x3d95fa94	0.073231846
24	0x3e884e43	0.2662221
25	0x3e008c95	0.12553628
26	0xbe3d5851	-0.18490721
27	0x3ed7f748	0.42180848
28	0xbc537869	-0.012907126
29	0x3e4e3f95	0.20141442
30	0x3ed6f63d	0.4198474
31	0x3dfb219e	0.12262271
32	0xbd829be9	-0.06377394
33	0xbd8c5378	-0.06851858
34	0x3e0a0960	0.13480139
35	0xbdf646ca	-0.12025221
36	0xbe8d9456	-0.27652234
37	0xbe836e62	-0.25670153
38	0x3dfed6d6	0.124433205
39	0x3e4d84ee	0.2007024
40	0x3e10c875	0.14138968
41	0xbc6c1539	-0.014409357
42	0x3de3b5c5	0.11118654
43	0x3ebd8b5e	0.3702039
44	0xbce1d7eb	-0.027568778
45	0x3e0406bf	0.12893198
46	0x3e2fc3f8	0.171646
47	0x3d2700fa	0.040772416
48	0xbde5a197	-0.112124614
49	0xbe899fd6	-0.26879758
50	0xbd3019b4	-0.042993262
51	0x3e809842	0.25116163
52	0xbc8d706b	-0.01726552
53	0x3e718c37	0.23588644
54	0x3d1b9788	0.03798631
55	0xbdf70634	-0.1206173
56	0x3e8a4ef7	0.2701337
57	0x3df74f69	0.12075693
58	0x3de9111c	0.113802165
59	0xbdaca02f	-0.0842899
60	0x3d92c225	0.071659364
61	0xbdfa008a	-0.12207134
62	0x3d3a4d2c	0.045483753
63	0x3ee4bab0	0.4467368
64	0xbe1c6c26	-0.1527563
65	0x3c6ae2de	0.014336316
66	0x3dfebac2	0.12437965
67	0x3eb4d496	0.3531844
68	0xbe787d0f	-0.24266456
69	0x3d4cede1	0.050031547
70	0xbe7b97c4	-0.24569613
71	0xbe19aecb	-0.15008084
72	0x3c8e879c	0.017398648
73	0xbe16d250	-0.14728665
74	0xbe9de99a	-0.30842286
75	0x3dec4918	0.11537379
76	0xbdc8e15c	-0.09808609
77	0xbe6be1d8	-0.23035371
78	0x3e23d270	0.15998244
79	0x3dea6c67	0.11446457
80	0x3e9fb0c3	0.31189546
81	0xbd1471cf	-0.03624135
82	0x3e5ba5ab	0.21449916
83	0x3e789e2d	0.2427909
84	0xbc1a1d7a	-0.009406442
85	0xbe95ec57	-0.29281875
86	0xbe2ed2d4	-0.17072612
87	0xbdfa37cc	-0.12217674
88	0xbe3fad63	-0.18718486
89	0xbd4c9dc7	-0.049955156
90	0x3ec6c769	0.38824013
91	0xbce67f9c	-0.02813702
92	0x3e76cf8a	0.24102607
93	0x3a486ead	0.00076458865
94	0xbec88bd0	-0.39169168
95	0x3ea96ea8	0.33092237
96	0x3da2b139	0.07943959
97	0x3d1bb8aa	0.038017906
98	0x3e2091b9	0.15680589
99	0x3e8bff0b	0.2734302
100	0xbdcdaa83	-0.10042288
101	0xbe166b3a	-0.14689341
102	0xbe5dae02	-0.2164841
103	0x3dc08a48	0.09401375
104	0xbde2760b	-0.11057671
105	0xbbf8ca9a	-0.0075925114
106	0x3e96a141	0.29419902
107	0xbe8d73f6	-0.27627534
108	0xbea2c468	-0.3179047
109	0xbd56c3e3	-0.052432906
110	0xbe17ad74	-0.14812261
111	0xbd8b2f9b	-0.067961894
112	0x3e4d2c66	0.20036468
113	0xbdf5ab73	-0.11995592
114	0xbb70545b	-0.0036671374
115	0x3e2513b5	0.16120799
116	0x3dd024b2	0.10163249
117	0x3e4656dd	0.19369073
118	0x3d69cc62	0.05707968
119	0x3d667188	0.056260616
120	0x3ecc5623	0.39909467
121	0x3e1f447b	0.15553467
122	0xbe35ab84	-0.1774121
123	0x3e8df587	0.27726385
124	0xbdf69d31	-0.12041701
125	0x3ef304f6	0.47464722
126	0x3cc1e64d	0.023669386
127	0xbe60d12a	-0.2195479
128	0x3e284799	0.16433562
129	0x3ce32401	0.027727129
130	0x3c683dbd	0.014174876
131	0xbe8e9845	-0.27850547
132	0x3e0b9cfb	0.13634102
133	0xbe93f53c	-0.28898036
134	0x3e5bac46	0.21452436
135	0x3e0b66ab	0.13613383
136	0xbe98f4df	-0.29874322
137	0x3d2a81f9	0.041627858
138	0x3e992d97	0.29917595
139	0x3d9194db	0.0710847
140	0x3d831975	0.0640134
141	0x3eabb9e4	0.3354026
142	0x3cd74869	0.026279645
143	0xbe9fbbfa	-0.31198102
144	0x3da4bdd8	0.08044022
145	0x3c0c95fe	0.008580683
146	0xbd2197db	-0.03945146
147	0xbe67740b	-0.2260286
148	0xbf0180ee	-0.50587356
149	0xbd7a8869	-0.061165247
150	0x3e808ef4	0.25109065
151	0x3e961219	0.29310682
152	0x3ee70343	0.45119676
153	0x3d7e61da	0.062105037
154	0xbe523793	-0.20529012
155	0x3e6bb84c	0.23019522
156	0xbcd4977e	-0.025951143
157	0xbe01a445	-0.1266032
158	0x3edbb3ce	0.42910618
159	0xbeb9efa1	-0.36315635
160	0x3e4f948d	0.20271511
161	0x3a12c214	0.0005598378
162	0x3d1744f1	0.036930982
163	0x3e36829e	0.17823264
164	0xbd8aef96	-0.06783979
165	0xbc0db3cf	-0.008648827
166	0xbdbffda1	-0.09374548
167	0x3e8be6de	0.27324575
168	0xbdf35792	-0.11881937
169	0x3e8d2dbb	0.27573952
170	0xbe8b0969	-0.27155617
171	0x3eaddeaa	0.33958942
172	0x3e66ac6f	0.22526716
173	0xbccaa5ec	-0.02473732
174	0x3e537e91	0.2065375
175	0xbe8be61d	-0.27324
176	0xbdacb919	-0.08433742
177	0x3d89c635	0.06727258
178	0xbe8770e1	-0.26453307
179	0xbe183cd8	-0.1486696
180	0xbc8f50da	-0.017494608
181	0x3e136d39	0.14397134
182	0xbe18fd5f	-0.14940403
183	0x3ebdae45	0.3704702
184	0xbd8fc986	-0.070208594
185	0xbcbb3ddb	-0.022856643
186	0x3e322b27	0.17399274
187	0xbdac092c	-0.08400187
188	0x3dbc4f09	0.09194762
189	0xbeec24ed	-0.46121922
190	0x3e846695	0.25859514
191	0x3e06f115	0.13177903
192	0xbea071a3	-0.31336698
193	0x3da65750	0.08122122
194	0x3c8b7a63	0.017026132
195	0x3d064b01	0.032786373
196	0xbc7ed143	-0.015552822
197	0x3e5f3cc5	0.21800525
198	0x3e3dc6b1	0.18532826
199	0xbe296a7d	-0.16544528
200	0x3e860042	0.26172072
201	0xbecdf278	-0.4022405
202	0x3e587316	0.21137652
203	0x3e967bf3	0.2939144
204	0xbdbe706c	-0.092987865
205	0x3ea967a9	0.330869
206	0xbe7d3d16	-0.24730334
207	0xbe2cc191	-0.16870715
208	0x3e3cb3e2	0.18427995
209	0xbe800867	-0.2500641
210	0x3e852c62	0.26010424
211	0x3dc9e075	0.09857265
212	0xbeb6841e	-0.35647672
213	0x3d594301	0.053042416
214	0xbe90bbf1	-0.28268388
215	0xbe7ce008	-0.24694836
216	0x3dc888de	0.0979173
217	0xbe16c0b6	-0.14721951
218	0xbea8a32b	-0.32936987
219	0x3cf5fec1	0.030028703
220	0x3e11495f	0.14188145
221	0x3df9748b	0.12180432
222	0x3e7721ab	0.24133937
223	0xbe0f08b0	-0.13968158
224	0x3da2aad9	0.07942743
225	0xbddc8b1b	-0.1076872
226	0xbd8340e4	-0.06408861
227	0x3e3c502e	0.18389961
228	0x3db95ce8	0.090509236
229	0x3c929b77	0.017896397
230	0x3e48aed4	0.19597942
231	0x3e81da4c	0.2536186
232	0xbdb7d43c	-0.08976027
233	0x3e4a56d8	0.19759691
234	0x3dc2dfc4	0.09515336
235	0xbe832e2d	-0.25621167
236	0x3d093898	0.033501238
237	0x3cf72349	0.030168192
238	0xbde9908b	-0.114045225
239	0x3dd54ff4	0.104156405
240	0x3dd1c1e0	0.10242057
241	0x3ef3e36e	0.47634453
242	0x3e27ebec	0.16398591
243	0x3dc015c4	0.093791515
244	0x3ef6fdc5	0.48240486
245	0x3e33fbfc	0.17576593
246	0x3d6df408	0.058094054
247	0x3ea30830	0.31842184
248	0xbe718629	-0.23586334
249	0xbe04891b	-0.12942927
250	0x3d534130	0.05157584
251	0xbcfb6b5c	-0.030690841
252	0x3dfc9b29	0.12334282
253	0xbdef2edc	-0.116788596
254	0xbe126ca4	-0.14299256
255	0xbdf66242	-0.1203046

joint_model.model.2.0.bias f4 [64]
0	0x3d20006a	0.039062895
1	0xbd0bfe12	-0.034177847
2	0x3b873a60	0.004126832
3	0x3e46b3c9	0.1940452
4	0x3e443559	0.19160976
5	0x3ea25af1	0.31710008
6	0x3d99ce0d	0.07510004
7	0x3d854bbb	0.06508585
8	0xbe777023	-0.2416387
9	0x3ea8e488	0.32986856
10	0xbe2d05dc	-0.16896766
11	0x3ec494bf	0.38394734
12	0x3e81e65c	0.25371063
13	0xbdd9aee4	-0.10629061
14	0x3e00f0e9	0.125919
15	0xbe0139b5	-0.1261967
16	0x3df80253	0.12109818
17	0x3eab55f0	0.33464003
18	0xbe4ed973	-0.20200138
19	0x3db8ef43	0.090300106
20	0xbe915e37	-0.28392193
21	0x3f21c0c9	0.6318479
22	0x3dd48c7e	0.10378359
23	0x3e16ca56	0.14725623
24	0x3dcbb4c1	0.099465854
25	0x3cbe7a55	0.023251692
26	0x3ec35287	0.381489
27	0x3e63edf3	0.22258739
28	0x3ec25cfe	0.37961572
29	0xba3c5ca9	-0.00071854383
30	0x3e4bb773	0.19894199
31	0x3e77eb6b	0.24210899
32	0x3ec1a0b5	0.37817922
33	0x3c0b2a53	0.008493978
34	0xbdc86af9	-0.097860284
35	0xbd5f4f76	-0.05451914
36	0xbe94a826	-0.29034537
37	0xbd2e1777	-0.042502847
38	0x3e1b5255	0.15168126
39	0xbcb4388f	-0.021999625
40	0xbd5fa529	-0.05460087
41	0x3f03d269	0.51492935
42	0x3e566a78	0.20939052
43	0xbe2671a9	-0.16254295
44	0xbdbcd198	-0.09219664
45	0x3d998f80	0.074980736
46	0xbd88d54f	-0.066813104
47	0x3da7d627	0.08195143
48	0xbe00a716	-0.12563738
49	0x3dd5022e	0.10400806
50	0x3d41783d	0.04723381
51	0x3d40763e	0.046987765
52	0x3d76a208	0.06021312
53	0xbd892192	-0.06695856
54	0xbe141778	-0.14462078
55	0x3dbef7f5	0.09324638
56	0xbd9f95cb	-0.077922426
57	0xbe38ea97	-0.18058239
58	0xbe862699	-0.26201323
59	0x3e9c1f22	0.30492502
60	0xbd3d23bd	-0.04617666
61	0x3cadec7e	0.021230932
62	0x3dc1cc69	0.09462816
63	0xbd4c0ccf	-0.049816903
