energy_sampling/results_pis_architectures/many_well/clipping_lgv_100.0_gfn_10000.0_gfn/fwd/fwd_pis/T_100/tscale_1.0/lvr_4.0/seed_12345/model.pt (torch, 183012 bytes, 23 tensors)

t_model.timestep_phase f4 [1, 64]
-0.8820799 0.08975203 0.40104324 -0.20784482 -0.45433602 -0.09214926 0.536182 0.503899
-0.839136 0.06302335 0.6245589 0.54138285 -0.37672287 -0.906288 0.67601895 -0.8518118
-0.94639266 -0.64291614 -0.913574 -1.8570178 0.9311896 1.0864486 0.9075397 -0.06856378
0.4115971 -1.1633096 0.7096642 0.12042889 2.0454404 2.8428736 0.21619296 -0.69707966
0.7577029 1.053304 -0.87660056 0.71683174 0.8853598 0.43392527 1.9504936 -1.927031
0.27964234 -1.3252943 -0.8653477 0.13287312 1.60362 -0.24306299 0.4953493 0.1564655
-0.06786625 -0.5927738 0.6679431 1.4932941 0.78887385 -0.21521172 0.18684033 -0.12345598
0.58471024 -1.3536518 -0.94628984 -1.076435 -0.6296974 -0.49873528 -0.33398917 0.6799183
00000000: fdcf 61bf eacf b73d 8a55 cd3e 46d5 54be
00000010: bb9e e8be c0b8 bcbd 3943 093f 86ff 003f
00000020: 9ed1 56bf 6312 813d 18e3 1f3f 1198 0a3f
00000030: d2e1 c0be 7e02 68bf 940f 2d3f 5710 5abf
00000040: ca46 72bf 2796 24bf fcdf 69bf c2b2 edbf
00000050: 7162 6e3f bf10 8b3f 8654 683f 2b6b 8cbd
00000060: dbbc d23e 54e7 94bf 8eac 353f 6ca3 f63d
00000070: 7fe8 0240 a4f1 3540 b061 5d3e d073 32bf
00000080: d1f8 413f aad2 863f e568 60bf 4982 373f
00000090: f1a6 623f 742b de3e c6a9 f93f f4a8 f6bf
000000a0: 482d 8f3e 3ea3 a9bf 6d87 5dbf e40f 083e
000000b0: 6c43 cd3f 81e5 78be 6c9e fd3e 7e38 203e
000000c0: 76fd 8abd 06c0 17bf 52fe 2a3f 4324 bf3f
000000d0: a3f3 493f 7660 5cbe 1253 3f3e 7dd6 fcbd
000000e0: 92af 153f 7644 adbf 0d40 72bf 9fc8 89bf
000000f0: d933 21bf 3b5a ffbe a100 abbe 200f 2e3f

t_model.pe f4 [1, 64]
0.1 1.6857144 3.2714286 4.857143 6.4428573 8.028572 9.614286 11.200001
12.785715 14.371429 15.957144 17.542858 19.128572 20.714287 22.300001 23.885715
25.47143 27.057144 28.642859 30.228573 31.814287 33.4 34.985718 36.57143
38.157143 39.74286 41.32857 42.914284 44.5 46.085716 47.67143 49.25714
50.842857 52.428574 54.014286 55.6 57.185715 58.77143 60.357143 61.942856
63.528572 65.11429 66.7 68.28571 69.87143 71.457146 73.04286 74.62857
76.21429 77.8 79.38571 80.97143 82.557144 84.14286 85.72858 87.314285
88.9 90.48572 92.07143 93.65714 95.24286 96.828575 98.41429 100.0
00000000: cdcc cc3d 7dc5 d73f 165f 5140 b76d 9b40
00000010: e32b ce40 0875 0041 1ed4 1941 3433 3341
00000020: 4a92 4c41 60f1 6541 7650 7f41 c657 8c41
00000030: 5107 9941 dcb6 a541 6766 b241 f215 bf41
00000040: 7dc5 cb41 0875 d841 9324 e541 1ed4 f141
00000050: a983 fe41 9a99 0542 60f1 0b42 2549 1242
00000060: eaa0 1842 b0f8 1e42 7550 2542 3aa8 2b42
00000070: 0000 3242 c657 3842 8baf 3e42 5007 4542
00000080: 165f 4b42 dcb6 5142 a10e 5842 6666 5e42
00000090: 2cbe 6442 f215 6b42 b76d 7142 7cc5 7742
000000a0: 421d 7e42 843a 8242 6666 8542 4992 8842
000000b0: 2cbe 8b42 0fea 8e42 f215 9242 d441 9542
000000c0: b76d 9842 9a99 9b42 7cc5 9e42 5ff1 a142
000000d0: 421d a542 2549 a842 0875 ab42 eaa0 ae42
000000e0: cdcc b142 b0f8 b442 9224 b842 7550 bb42
000000f0: 587c be42 3ba8 c142 1ed4 c442 0000 c842

t_model.t_model.0.weight f4 [64, 128]
0.049205493 -0.12692791 -0.021260235 0.03649287 -0.12116294 0.041399956 -0.047854226 -0.014238029
-0.072440945 0.0022126194 0.028260738 0.06974508 0.011396733 0.03026177 -0.052302912 -0.0334567
0.04813851 -0.092289165 0.057869997 -0.051774263 -0.08517803 -0.012735579 -0.013450221 -0.1032081
0.0026632824 -0.037249126 -0.007490881 -0.030046165 -0.02670336 0.09374228 -0.02694942 -0.040546596
0.025569707 0.03835279 0.08219517 0.0048033465 -0.0032018076 0.049243286 0.10490534 0.035078842
0.03668583 0.06287617 0.035529807 0.046530645 0.07643551 -0.0778454 -0.07623863 0.0071846237
0.050081942 -0.01551996 0.06538409 0.030480748 -0.03249659 0.061829142 -0.0172194 -0.0059261154
0.02042977 -0.048072293 0.0081598805 -0.0014408948 -0.011033562 0.0026996357 -0.026880201 -0.034957834
-0.09225201 -0.10749097 -0.039744746 -0.10243725 -0.0030014776 -0.051801834 -0.023881655 -0.0034463257
-0.117946394 0.0061848382 -0.043352127 0.073827066 0.012425031 -0.051918566 -0.055281356 -0.046791997
-0.04125127 0.019607421 0.016326755 0.028224893 -0.07645915 -0.002880127 -0.017985536 -0.021904863
-0.029161345 0.05637534 -0.05139748 -0.064930305 -0.0830464 0.056687582 0.06215703 -0.04898603
-0.023963602 -0.005740796 -0.024597017 0.028170263 -0.03306151 0.059516218 0.06538612 0.090058304
0.029015362 0.053228177 -0.027478904 -0.034417406 0.018280294 0.07306907 -0.03388829 -0.029311744
-0.026737342 -0.006674666 0.041553624 0.07936481 0.04163919 0.02028447 -0.018984761 0.04741025
-0.0321577 -0.060975377 -0.052614745 -0.028744716 -0.013761933 -0.07303475 0.057621304 -0.022752877
0.08165377 -0.029601883 -0.04257265 -0.03424208 0.040057927 -0.015798116 0.025339136 -0.039358072
0.035994295 -0.062130354 -0.049547818 0.06565485 0.07180293 0.07593704 -0.06610381 0.019087441
0.05261634 -0.05758585 0.0007406522 -0.11420366 0.08629531 -0.064444765 -0.039728336 -0.016778704
-0.118011534 -0.04476892 -0.09012582 -0.07934316 0.046617907 -0.11334383 -0.0033591532 -0.08151767
-0.030190293 -0.049043186 0.09370848 0.06525189 0.062109288 0.05064687 -0.020828115 0.09728678
-0.0788791 -0.041442376 -0.0069667795 0.017624468 -0.050719872 0.021109132 0.04821169 0.009208375
0.024258252 0.015393687 0.0013139413 0.043988492 0.016645238 0.045566093 -0.0024758286 0.033656105
0.06872672 0.022122744 -0.048959002 -0.010433053 -0.017467929 -0.07326497 -0.07647307 0.01859074
-0.08461435 -0.120692134 0.033171646 -0.04379839 -0.0037662964 -0.05032294 0.09340934 -0.043007236
-0.0135909235 -0.11387096 0.111223474 0.07321075 0.078033514 0.015456126 0.034887567 -0.029238781
0.010448151 -0.10627011 -0.11399504 0.0053668683 0.056072634 -0.11615862 -0.0049060234 0.038727984
0.09214352 0.038126796 0.045125287 0.022231208 0.037942935 -0.0447975 -0.106877655 -0.11672577
-0.031001246 0.0020692516 0.036108114 -0.12093151 -0.03640136 0.055713646 -0.04824447 -0.04977854
0.06795454 -0.046714902 -0.059714105 -0.05670664 0.02809135 -0.0677507 0.039603017 -0.08844327
0.013242348 0.065722145 0.06801327 -0.0028476792 -0.07220131 -0.051182587 -0.015612814 0.05142015
0.06632644 -0.03205234 -0.036053605 0.08106637 -0.03655259 -0.0057133096 -0.056596044 -0.029049622
00000000: b38b 493d 64f9 01be f229 aebc 8c79 153d
00000010: 4724 f8bd 0093 293d cb02 44bd 9f46 69bc
00000020: eb5b 94bd 9801 113b 1083 e73c 82d6 8e3d
00000030: 5db9 3a3c 88e7 f73c 943b 56bd e509 09bd
00000040: e32c 453d 1a02 bdbd 1709 6d3d 4011 54bd
00000050: d271 aebd e4a8 50bc 515e 5cbc c55e d3bd
00000060: 778a 2e3b 8a92 18bd 1076 f5bb 6023 f6bc
00000070: 01c1 dabc f4fb bf3d 08c5 dcbc 3014 26bd
00000080: 9077 d13c d117 1d3d f155 a83d 6465 9d3b
00000090: 6bd5 51bb 54b3 493d 9cd8 d63d d5ae 0f3d
000000a0: e243 163d 39c5 803d b487 113d eb96 3e3d
000000b0: 388a 9c3d 696d 9fbd 0023 9cbd fe6c eb3b
000000c0: b922 4d3d 6e47 7ebc 18e8 853d c3b2 f93c
000000d0: 251b 05bd 8e40 7d3d b30f 8dbc dc2f c2bb
000000e0: 555c a73c 74e7 44bd 05b1 053c 68dc bcba
000000f0: 1dc6 34bc 5fec 303b de33 dcbc f22f 0fbd
00000100: 9fee bcbd 3a24 dcbd 63cb 22bd 9fca d1bd
00000110: 70b4 44bb 292e 54bd 76a3 c3bc c0db 61bb
00000120: e18d f1bd 2faa ca3b 0092 31bd a532 973d
00000130: 5b92 4b3c 90a8 54bd b46e 62bd f7a8 3fbd
00000140: 17f7 28bd be9f a03c b0bf 853c e437 e73c
00000150: 9d96 9cbd 83c0 3cbb 6756 93bc d471 b3bc
00000160: c6e3 eebc d4e9 663d 2a86 52bd 2efa 84bd
00000170: 3b14 aabd 3d31 683d 5f98 7e3d 93a5 48bd
00000180: 514f c4bc 4a1d bcbb af7f c9bc 53c5 e63c
00000190: 826b 07bd 47c7 733d 28e9 853d 7d70 b83d
000001a0: a0b1 ed3c ca05 5a3d 701b e1bc 44f9 0cbd
000001b0: 8ec0 953c 3da5 953d 73ce 0abd 2f1f f0bc
000001c0: 4508 dbbc 28b7 dabb 2234 2a3d 048a a23d
000001d0: db8d 2a3d 9e2b a63c ee85 9bbc 4031 423d
000001e0: cbb7 03bd 51c1 79bd 8f82 57bd 0a7a ebbc
000001f0: bb79 61bc 3e93 95bd 5104 6c3d 3e64 babc
00000200: 173a a73d a67f f2bc a960 2ebd 6c41 0cbd
00000210: c813 243d 0d6b 81bc 0594 cf3c ee35 21bd
00000220: c16e 133d 667c 7ebd a7f2 4abd 0d76 863d
00000230: 6a0d 933d e184 9b3d 6f61 87bd 445d 9c3c
00000240: 3b84 573d 24df 6bbd 5428 423a 9ce3 e9bd
00000250: 98bb b03d 9efb 83bd 2eba 22bd 7e73 89bc
00000260: 08b0 f1bd 9d5f 37bd e393 b8bd ab7e a2bd
00000270: 6bf2 3e3d cf20 e8bd 3d25 5cbb bcf2 a6bd
00000280: a251 f7bc 82e1 48bd 3bea bf3d c8a2 853d
00000290: 4f66 7e3d 1873 4f3d b99f aabc 4b3e c73d
000002a0: 5e8b a1bd 7bbf 29bd 9549 e4bb 3061 903c
000002b0: a4bf 4fbd 0fed ac3c 9f79 453d b9de 163c
000002c0: 3eb9 c63c ce35 7c3c 8e38 ac3a 472d 343d
000002d0: 985b 883c 83a3 3a3d 8341 22bb fcda 093d
000002e0: 98c0 8c3d c23a b53c 3c89 48bd 65ef 2abc
000002f0: e718 8fbc f20b 96bd ea9d 9cbd 9c4b 983c
00000300: 4a4a adbd 702d f7bd fede 073d f165 33bd
00000310: f8d3 76bb 6d1f 4ebd 654d bf3d 5b28 30bd
00000320: 77ac 5ebc 2e35 e9bd 22c9 e33d 85ef 953d
00000330: 09d0 9f3d b13b 7d3c 44e6 0e3d 2b86 efbc
00000340: b92e 2b3c 25a4 d9bd 3b76 e9bd 8edc af3b
00000350: 6bac 653d 92e4 edbd b5c2 a0bb 3ca1 1e3d
00000360: beb5 bc3d d82a 1c3d 4bd5 383d 391e b63c
00000370: 0d6a 1b3d 957d 37bd ace2 dabd ec0d efbd
00000380: 53f6 fdbc 489c 073b 1ae6 133d f1aa f7bd
00000390: 9819 15bd fe33 643d fe9b 45bd 95e4 4bbd
000003a0: c02b 8b3d 2058 3fbd c796 74bd 3945 68bd
000003b0: d51f e63c e1c0 8abd c636 223d bf21 b5bd
000003c0: 6ff6 583c 5599 863d 8b4a 8b3d 21a0 3abb
000003d0: 48de 93bd d5a4 51bd e3cc 7fbc ef9d 523d
000003e0: 28d6 873d 5149 03bd f2ac 13bd 2006 a63d
000003f0: 2bb8 15bd b736 bbbb 41d1 67bd 79f9 edbc

t_model.t_model.0.bias f4 [64]
-0.016797386 -0.120729 -0.1632777 0.011687571 -0.079144254 -0.16964617 -0.14863351 -0.07897933
-0.23117366 -0.18466835 -0.1733024 -0.07458896 0.01213358 0.06430807 -0.16261545 -0.02296503
-0.2310209 -0.066680096 -0.11339938 -0.23700696 0.18283491 0.040174462 -0.026511434 -0.17006041
-0.095042534 -0.103958234 -0.14120285 -0.10102891 -0.14526536 -0.065183885 0.040164787 -0.10502561
0.0059979404 -0.14982493 -0.04169411 0.18721098 -0.23131505 -0.12043683 -0.16968964 0.019675465
-0.031875346 -0.15174466 -0.23531462 -0.12971134 -0.18504474 -0.15714206 -0.03573591 -0.045378584
-0.0415489 -0.15229218 -0.23616922 -0.19881883 -0.05786604 -0.12669711 -0.0038262575 -0.24924535
-0.13264246 -0.29392958 -0.00962435 0.3736914 0.04789189 -0.015635354 -0.24482113 0.041491456
00000000: ac9a 89bc c440 f7bd 4532 27be 3a7d 3f3c
00000010: 6216 a2bd bab7 2dbe 6233 18be eabf a1bd
00000020: cab8 6cbe b319 3dbe 2f76 31be 19c2 98bd
00000030: eccb 463c f3b3 833d aa84 26be 2921 bcbc
00000040: be90 6cbe 938f 88bd ef3d e8bd f4b1 72be
00000050: 1339 3b3e fa8d 243d 822e d9bc 5124 2ebe
00000060: a9a5 c2bd 0ee8 d4bd 7b97 10be 3fe8 cebd
00000070: 71c0 14be 217f 85bd d583 243d ab17 d7bd
00000080: 5f8a c43b b56b 19be 71c7 2abd 3cb4 3f3e
00000090: dadd 6cbe 96a7 f6bd 1fc3 2dbe 712e a13c
000000a0: b98f 02bd f462 1bbe 51f6 70be 0dd3 04be
000000b0: 5e7c 3dbe d9e9 20be d15f 12bd e5de 39bd
000000c0: 2e2f 2abd 7bf2 1bbe 58d6 71be 2a97 4bbe
000000d0: f104 6dbd e3bc 01be f3c1 7abb 2c3a 7fbe
000000e0: 6dd3 07be f07d 96be 73af 1dbc 7b54 bf3e
000000f0: 492a 443d b715 80bc 64b2 7abe f2f2 293d

t_model.t_model.2.weight f4 [64, 64]
0.053736124 -0.019937295 -0.06802133 0.004769946 0.054059763 -0.027918844 0.10356065 -0.010109984
-0.1400686 -0.04012232 -0.057194546 -0.033999305 0.11555179 0.10624233 0.050083328 0.0020215593
-0.007292056 -0.01888493 0.004523407 -0.04727841 0.04939753 -0.015483003 -0.003296161 -0.010655706
-0.020061325 0.09698259 0.002255883 -0.21339887 -0.055945292 0.028866792 0.026704187 0.058204636
0.005171424 -0.02464041 0.0645593 0.17996806 0.06526941 0.083485804 0.07291936 0.011069218
0.06428883 -0.27464348 -0.20332922 0.016245134 0.12708785 -0.018080208 -0.015126787 0.07243068
0.072030306 -0.21785699 0.05753026 -0.024198666 -0.013031041 -0.005629488 0.04665236 -0.21055762
0.12310293 -0.0660288 -0.033927254 0.112558536 -0.03528369 0.0014441066 -0.12634471 0.1594671
0.012084895 -0.019885095 -0.15352997 -0.0025078345 -0.11851972 -0.016072415 -0.002504248 -0.020472523
-0.18671288 0.005718095 -0.01939173 -0.017683925 0.027518963 0.22620972 -0.07808494 -0.030645447
0.100774914 0.040291555 -0.017746639 0.17860635 -0.14569272 -0.0037674254 -0.0071268254 -0.04052809
-0.009506096 0.084915236 -0.028596917 -0.11645587 -0.121948615 -0.04425823 -0.13614313 0.06217026
-0.035745453 0.13199012 0.019980371 0.24634647 0.110883646 -0.07220909 -0.031506978 0.017895557
-0.050277118 -0.22535136 -0.08114437 -0.015115156 0.11583358 -0.01983141 0.0028898767 -0.037185185
-0.03257322 -0.22872223 0.079056285 -0.13500564 0.0046508173 0.011918136 0.098969586 -0.094382524
0.06160227 -0.045120705 0.000937912 -0.009510734 0.013786559 0.036134515 -0.12002336 0.018247792
-0.016806014 0.012340607 0.07617076 0.010834848 -0.07395297 0.04174572 0.044962656 -0.009946949
0.19889869 0.103204146 0.039302174 -0.060508538 -0.12524754 -0.08074048 -0.024783058 0.018673759
0.06909686 0.056128692 -0.05456557 0.1090682 -0.09552498 -0.014170275 0.011196953 0.026739037
0.0330773 0.008689632 0.024341501 0.27890766 0.063132375 0.012852809 0.006979779 -0.001582837
0.045004327 0.041292176 -0.09066362 -0.06749163 0.054007787 -0.07266647 0.0076179905 -0.008485311
-0.09803716 0.04962218 0.22931525 -0.033423413 0.10343453 0.051818077 0.020673605 0.08887724
-0.079629436 0.2424473 -0.007176499 0.08043926 0.016328977 0.03127357 -0.03061763 0.0635745
0.11068165 0.031631477 0.006117762 -0.23055415 0.02382231 0.03418342 0.09559301 -0.008819185
0.03752251 0.0390434 0.02199148 0.0055443207 0.09362211 -0.018412465 0.024850858 0.0083568115
-0.017193213 0.07173108 0.035090968 0.11868335 0.09558092 0.106987186 0.03755178 -0.00046221577
-0.016833084 0.0019857525 -0.0386605 -0.007798274 0.14600474 -0.0015658176 0.015941612 -0.017163163
0.059775073 0.010342399 -0.04063596 0.06564321 0.023512281 0.002642013 0.019089665 0.060959466
-0.02358295 0.049161118 0.13616732 0.048568387 0.115911506 0.018952614 0.022405652 0.023924248
0.03634804 -0.014981362 -0.06800553 -0.015839178 -0.047122486 0.0011396242 -0.0030256456 -0.058297142
0.048623968 0.03749795 0.022733435 -0.007739985 -0.02127879 0.011590637 0.10095328 -0.050817955
-0.0036431665 -0.011147435 0.12160191 0.088270135 -0.018591886 0.036903556 0.08374236 -0.027986344
00000000: 691a 5c3d 8a53 a3bc c44e 8bbd 354d 9c3b
00000010: c56d 5d3d 0fb6 e4bc 9b17 d43d 59a4 25bc
00000020: 256e 0fbe 4d57 24bd d444 6abd db42 0bbd
00000030: 6ba6 ec3d 9495 d93d 2d24 4d3d 237c 043b
00000040: 33f2 eebb 92b4 9abc 1739 943b 02a7 41bd
00000050: 1055 4a3d 6cac 7dbc 6804 58bb 4595 2ebc
00000060: a657 a4bc cf9e c63d 70d7 133b 3c85 5abe
00000070: e426 65bd 0d7a ec3c bdc2 da3c fc67 6e3d
00000080: 0c75 a93b afda c9bc ab37 843d 8c49 383e
00000090: f8ab 853d 9bfa aa3d bf56 953d aa5b 353c
000000a0: dda9 833d 129e 8cbe 8935 50be 8414 853c
000000b0: 5123 023e f21c 94bc 58d6 77bc 8956 943d
000000c0: a084 933d e715 5fbe daa4 6b3d 483c c6bc
000000d0: 2680 55bc 9177 b8bb 8c16 3f3d 6b9c 57be
000000e0: 641d fc3d 1c3a 87bd 4ef7 0abd 1785 e63d
000000f0: a185 10bd 2d48 bd3a 8260 01be 584b 233e
00000100: b9ff 453c 11e6 a2bc f636 1dbe 7b5a 24bb
00000110: 78ba f2bd 4caa 83bc 4f1e 24bb feb5 a7bc
00000120: a931 3fbe dc5e bb3b 68db 9ebc e1dd 90bc
00000130: 736f e13c 85a3 673e ffea 9fbd 290c fbbc
00000140: 1463 ce3d c208 253d 6661 91bc 95e4 363e
00000150: 7930 15be e9e6 76bb 2588 e9bb c800 26bd
00000160: 75bf 1bbc 0ae8 ad3d 1544 eabc 6a80 eebd
00000170: 32c0 f9bd 1e48 35bd 1b69 0bbe 3ea6 7e3d
00000180: d369 12bd 6b28 073e e0ad a33c 4042 7c3e
00000190: f716 e33d 5ce2 93bd 760d 01bd b499 923c
000001a0: 61ef 4dbd 82c2 66be 052f a6bd 8fa5 77bc
000001b0: 283a ed3d 7b75 a2bc 1664 3d3b 7e4f 18bd
000001c0: 7f6b 05bd 2936 6abe 43e8 a13d eb3e 0abe
000001d0: e265 983b 4944 433c 91b0 ca3d a04b c1bd
000001e0: a952 7c3d 7dd0 38bd 35de 753a e9d2 1bbc
000001f0: 05e1 613c c901 143d cfce f5bd 657c 953c
00000200: c4ac 89bc 4230 4a3c 6aff 9b3d a584 313c
00000210: a874 97bd 8ffd 2a3d c32a 383d 87f8 22bc
00000220: 19ac 4b3e b25c d33d 51fb 203d cdd7 77bd
00000230: e440 00be 445b a5bd d705 cbbc b6f9 983c
00000240: a882 8d3d 33e7 653d 2680 5fbd 265f df3d
00000250: 9aa2 c3bd 712a 68bc 6d73 373c d30b db3c
00000260: 107c 073d f55e 0e3c d467 c73c fccc 8e3e
00000270: 8c4b 813d 9794 523c a1b6 e43b 3277 cfba
00000280: 7556 383d fc21 293d d9ad b9bd 0d39 8abd
00000290: 4537 5d3d 29d2 94bd 56a0 f93b f905 0bbc
000002a0: b5c7 c8bd a140 4b3d 9ed1 6a3e fde6 08bd
000002b0: 7cd5 d33d 313f 543d b15b a93c 4505 b63d
000002c0: c214 a3bd 1b44 783e d628 ebbb 57bd a43d
000002d0: 59c4 853c b718 003d d3d1 fabc 5933 823d
000002e0: 10ad e23d 0290 013d 8277 c83b 6316 6cbe
000002f0: 0127 c33c ea03 0c3d 45c6 c33d 587e 10bc
00000300: 34b1 193d f9eb 1f3d 7a27 b43c 22ad b53b
00000310: f3bc bf3d bdd5 96bc 0794 cb3c 02eb 083c
00000320: c8d8 8cbc bfe7 923d 8cbb 0f3d 4210 f33d
00000330: eebf c33d 191c db3d e5cf 193d 8d55 f2b9
00000340: 89e5 89bc 6623 023b 795a 1ebd aa88 ffbb
00000350: 4482 153e 1f3c cdba fc97 823c c399 8cbc
00000360: b5d6 743d 2a73 293c e471 26bd f36f 863d
00000370: d49c c03c 9f25 2d3b ee61 9c3c a2b0 793d
00000380: 0831 c1bc 2b5d 493d 726f 0b3e a5ef 463d
00000390: 0363 ed3d 8342 9b3c 0f8c b73c c9fc c33c
000003a0: afe1 143d 6374 75bc 7c46 8bbd 2ac1 81bc
000003b0: 8203 41bd 715f 953a e949 46bb fcc8 6ebd
000003c0: ed29 473d 7397 193d 783b ba3c b39f fdbb
000003d0: db50 aebc a8e6 3d3c 98c0 ce3d 7d26 50bd
000003e0: 31c2 6ebb bba3 36bc 6c0a f93d f9c6 b43d
000003f0: 034e 98bc 2f28 173d 1d81 ab3d 9e43 e5bc

t_model.t_model.2.bias f4 [64]
0.18537542 0.113362774 -0.13583873 -0.005768275 -0.1755717 0.043296684 -0.14031397 0.26796126
-0.18200968 -0.005336971 -0.13126707 0.024431087 -0.14901386 -0.1489858 0.030003088 0.035895422
-0.2029346 0.04399722 0.12645917 -0.17488854 -0.056375265 0.41083995 0.08257152 -0.03692229
0.17593317 0.12927777 -0.34553313 0.051063392 -0.1479065 0.03997663 0.0801108 -0.13280271
-0.08528716 -0.1937694 0.26783976 0.1688311 -0.08327655 0.25555494 0.14578338 0.028149113
-0.2454166 -0.06662728 -0.041798443 -0.17672175 0.18300591 0.032005817 0.2757133 0.24049567
0.041366007 0.28138492 -0.18808684 0.27922508 -0.13019417 -0.08676672 -0.13253146 -0.03831101
0.2687065 -0.12975983 0.13738658 0.3695387 0.12226221 0.21003057 0.13981766 0.02064949
00000000: 0ed3 3d3e be2a e83d 4f19 0bbe cc03 bdbb
00000010: 11c9 33be dd57 313d 77ae 0fbe 3832 893e
00000020: bf60 3abe c2e1 aebb e06a 06be b423 c83c
00000030: 1797 18be bc8f 18be 09c9 f53c 1407 133d
00000040: 16ce 4fbe 6e36 343d 837e 013e fb15 33be
00000050: c0e9 66bd 9d59 d23e 421b a93d d43b 17bd
00000060: d327 343e 6461 043e b8e9 b0be d927 513d
00000070: cd74 17be 89be 233d 2211 a43d 6ffd 07be
00000080: 09ab aebd 7c6b 46be 4b22 893e 0fe2 2c3e
00000090: e58c aabd 19d8 823e 3d48 153e f898 e63c
000000a0: 7d4e 7bbe e273 88bd d834 2bbd 8cf6 34be
000000b0: e765 3b3e 8818 033d 4b2a 8d3e 7f44 763e
000000c0: 676f 293d af11 903e d699 40be 97f6 8e3e
000000d0: 9f51 05be c0b2 b1bd 54b6 07be 01ec 1cbd
000000e0: e693 893e c3df 04be 11af 0c3e 2d34 bd3e
000000f0: 9c64 fa3d 4112 573e 5c2c 0f3e 1f29 a93c

s_model.x_model.weight f4 [64, 32]
-0.16717862 0.0014791144 0.35390797 -0.0017452813 -0.018988837 0.0040933006 -0.38584033 -0.0032722275
0.19986188 0.0003880348 0.08337367 0.004348057 -0.14968961 0.0027933987 0.17477061 -0.0018732372
-0.26515058 -0.0027362583 -0.09458043 -0.0021691606 -0.3711097 7.6670054e-05 0.14649667 0.006159743
0.15948941 0.0028687841 -0.31974435 -0.0032071408 0.25068215 -0.008111499 -0.26105452 -0.0021889557
-0.14588262 -0.007898536 -0.27779576 0.0076437425 0.049994763 -0.005277199 0.46861574 -0.005145367
0.16853523 0.0015986554 0.08114545 -0.006761671 -0.14709707 0.003191269 -0.052495643 0.002293372
-0.060871605 0.007942554 -0.2649076 0.0035478887 -0.08340922 0.0078252675 -0.33060062 0.00691548
0.106793106 0.0009646587 0.17666432 0.001442205 -0.38818446 -0.004800995 -0.23989269 -0.0024057666
0.3566859 -0.009879735 -0.108026795 -0.002383751 -0.064638235 0.007879067 0.13111863 -0.010579941
0.12477435 0.0023981738 0.13372855 0.005421169 0.3442791 -0.0030059859 -0.07027618 0.0038235679
0.08011416 0.0052429084 -0.054213267 0.0037370608 0.35141984 0.0028971944 -0.17844093 -0.0085443165
-0.30997798 0.002327795 -0.06231853 0.0014081904 -0.08689437 0.0010711779 0.11252741 0.0006222896
-0.3382663 -0.0025426992 0.31900072 0.00064717047 -0.20845798 -0.0018538138 0.25580233 -0.0044527836
-0.15886854 0.0075209076 0.11065378 0.0010606709 0.20677747 -0.004776003 0.26160118 -0.0046968106
0.31680572 -0.004729257 -0.10394721 -0.0041587213 0.034155607 0.0045148963 0.01461655 0.0065464983
-0.29396904 0.0005356401 -0.12242595 -0.0018464016 0.017487375 -0.00041135223 0.1553796 0.0012178043
0.38228017 0.0035188394 -0.054349426 0.0030317835 0.03891129 -0.0024505316 -0.10797292 0.004224822
-0.33562595 0.00041023947 0.3567946 -0.00531357 -0.07545839 0.0015441908 -0.10163692 0.00059706357
0.16005608 -0.0010273287 -0.20016876 0.0019888985 0.17781852 -0.003124214 0.1399972 -0.0015683824
0.09773034 -0.0033603238 -0.37432903 -0.004393702 0.27916422 -0.004240698 -0.2512631 0.002915241
-0.47393063 0.0014614185 0.023276629 -0.0028822664 -0.3553279 0.002847839 0.28881085 0.001376424
-0.095963724 -0.009055232 0.22056162 0.0011191502 0.12981066 -0.011222481 0.19583534 -0.00327567
0.35562953 -0.008757049 -0.0881453 -0.00062431186 0.013188507 -0.0032862711 -0.06890282 0.0046648933
-0.23659675 -0.002620532 -0.15203921 -0.0091806725 0.304927 0.003333215 -0.2264345 0.006943075
-0.4153831 -0.0012495865 -0.27092105 -0.0010651924 0.2989502 -0.0065170433 -0.01641376 -0.007813827
0.07840246 0.01396857 0.19361888 0.00029863327 -0.32942978 0.0030554743 -0.24536146 0.0005731493
0.33838764 0.0029966985 -0.23370019 0.003731843 0.4115141 -0.0012588124 0.27656356 0.0035243651
-0.012696394 -0.008536771 0.035143413 -0.012518074 0.044172235 0.0014089613 0.30332482 0.0010381372
-0.3824886 0.00022824311 0.17346735 -0.0024070777 -0.094091386 0.0029440229 -0.16888477 -0.01244815
-0.033487104 -0.000111195615 -0.054462627 -0.011112214 -0.3560347 0.004220762 0.111194484 0.008429271
0.063257486 -0.0017015055 0.2701196 0.009195164 0.083203554 0.005897818 -0.022632936 -0.00036319718
-0.07566508 -0.003548151 0.36615318 0.006992576 -0.08836705 0.0018745636 -0.06410355 -0.0058278963
00000000: df30 2bbe d8de c13a 6d33 b53e ecc1 e4ba
00000010: 7a8e 9bbc 1821 863b dd8c c5be de72 56bb
00000020: 98a8 4c3e 2671 cb39 d1bf aa3d 257a 8e3b
00000030: 3c48 19be 7411 373b 11f7 323e 6987 f5ba
00000040: d1c1 87be cc52 33bb 62b3 c1bd 7a28 0ebb
00000050: 1702 bebe ecc9 a038 3903 163e abd7 c93b
00000060: 3151 233e 3602 3c3b 88b5 a3be e52e 52bb
00000070: 6959 803e 18e6 04bc f0a8 85be 9574 0fbb
00000080: 4162 15be dc68 01bc 3f3b 8ebe 5c78 fa3b
00000090: 4fc7 4c3d 5bec acbb 67ee ef3e 779a a8bb
000000a0: 8094 2c3e f989 d13a 962f a63d 0291 ddbb
000000b0: 9da0 16be 9c24 513b ac05 57bd 664c 163b
000000c0: 8154 79bd 7c21 023c f8a1 87be b283 683b
000000d0: 74d2 aabd 8d35 003c 7c44 a9be 409b e23b
000000e0: 58b6 da3d 26e1 7c3a 7ee7 343e 5f08 bd3a
000000f0: 1dc0 c6be aa51 9dbb 6ea6 75be 11aa 1dbb
00000100: 899f b63e 9dde 21bc 273d ddbd b538 1cbb
00000110: 0d61 84bd 3417 013c f643 063e 7d57 2dbc
00000120: b289 ff3d ae2a 1d3b 23f0 083e 10a4 b13b
00000130: 5a45 b03e 1300 45bb f5ec 8fbd d394 7a3b
00000140: e512 a43d b4cc ab3b bb0e 5ebd 7ae9 743b
00000150: 4ded b33e dbde 3d3b 38b9 36be 76fd 0bbc
00000160: 6fb5 9ebe eb8d 183b b741 7fbd 0793 b83a
00000170: adf5 b1bd c466 8c3a c574 e63d 2621 233a
00000180: 3e31 adbe 6aa3 26bb 1054 a33e e0a6 293a
00000190: 0276 55be abfb f2ba 86f8 823e a8e8 91bb
000001a0: 6fae 22be f271 f63b 739e e23d 3606 8b3a
000001b0: 79bd 533e 0480 9cbb 97f0 853e b4e7 99bb
000001c0: 5c34 a23e e2f7 9abb 46e2 d4bd e245 88bb
000001d0: c0e6 0b3d b2f1 933b 417a 6f3c 0284 d63b
000001e0: 1c83 96be 336a 0c3a 75ba fabd f502 f2ba
000001f0: af41 8f3c c3aa d7b9 d41b 1f3e bb9e 9f3a
00000200: 3aba c33e 549c 663b 819d 5ebd e3b0 463b
00000210: 7261 1f3d 1999 20bb e820 ddbd 6070 8a3b
00000220: 2ad7 abbe 6915 d739 c8ad b63e 751d aebb
00000230: ee89 9abd 7266 ca3a 0427 d0bd 4284 1c3a
00000240: bee5 233e 6ea7 86ba 0af9 4cbe 2e58 023b
00000250: 0f16 363e 9dbf 4cbb 6d5b 0f3e 2e92 cdba
00000260: d826 c83d e138 5cbb 0ea8 bfbe 0bf9 8fbb
00000270: 9dee 8e3e 8ef5 8abb 8fa5 80be a10d 3f3b
00000280: 09a7 f2be 118d bf3a a1ae be3c 68e4 3cbb
00000290: 8aed b5be cfa2 3a3b 04df 933e 2069 b43a
000002a0: a188 c4bd 655c 14bc e8da 613e 73b0 923a
000002b0: 16ed 043e 7fde 37bc 0f89 483e a0ac 56bb
000002c0: 1315 b63e ba79 0fbc 8685 b4bd dca8 23ba
000002d0: 9c14 583c 7b5e 57bb ec1c 8dbd f6db 983b
000002e0: 6b46 72be 3bbd 2bbb 2bb0 1bbe 886a 16bc
000002f0: 641f 9c3e 1172 5a3b 72de 67be bc82 e33b
00000300: 18ad d4be 2ac9 a3ba 2ab6 8abe ed9d 8bba
00000310: 0010 993e ec8c d5bb 2676 86bc 9105 00bc
00000320: 7891 a03d 6edc 643c 0744 463e e191 9c39
00000330: 05ab a8be 5a3e 483b 0940 7bbe 663f 163a
00000340: 2541 ad3e 4264 443b 1a4f 6fbe f091 743b
00000350: fab1 d23e bcfe a4ba bd99 8d3e 09f9 663b
00000360: 8904 50bc d0dd 0bbc 8af2 0f3d 9c18 4dbc
00000370: f2ed 343d e5ac b83a 644d 9b3e 1b12 883a
00000380: 8cd5 c3be 8b54 6f39 6da1 313e 10c0 1dbb
00000390: fcb2 c0bd 82f0 403b 21f0 2cbe 53f3 4bbc
000003a0: c629 09bd b131 e9b8 3414 5fbd 0110 36bc
000003b0: 2e4a b6be 514e 8a3b efb9 e33d ed1a 0a3c
000003c0: 248d 813d 0d05 dfba 1e4d 8a3e 50a7 163c
000003d0: a066 aa3d 7c42 c13b b568 b9bc 806b beb9
000003e0: 4bf6 9abd 1988 68bb 6e78 bb3e fb21 e53b
000003f0: c9f9 b4bd ebb3 f53a b948 83bd f0f7 bebb

s_model.x_model.bias f4 [64]
0.28863484 0.28595898 -0.27024496 -0.033827074 0.081557386 0.06732247 -0.13482283 0.32049438
-0.06857356 0.12312986 -0.033545874 0.11459734 -0.1736351 -0.23498313 0.12752463 -0.11142703
-0.27490738 0.1269342 0.31120908 -0.22521164 -0.114375584 0.39092544 0.16578016 0.104282744
0.35850635 0.24053866 -0.2896556 -0.101579905 -0.15319139 0.15125778 0.12101696 -0.10906735
-0.10281335 0.015127537 0.1404079 0.35684508 -0.04963099 0.09171365 0.22333457 0.09737501
-0.020915851 -0.010480913 -0.26069924 -0.23342875 0.22560012 0.03603578 0.28043798 0.18351212
0.059837293 0.36212602 -0.21447511 0.34827182 -0.31400797 -0.17437461 -0.27976593 0.088534124
0.280893 -0.15833932 -0.037580136 0.24860547 -0.08622177 0.1886608 0.053891823 0.005063798
00000000: f2c7 933e 3769 923e 8c5d 8abe 428e 0abd
00000010: 8f07 a73d 5de0 893d ff0e 0abe d717 a43e
00000020: 4b70 8cbd 822b fc3d 6667 09bd 03b2 ea3d
00000030: 66cd 31be 6b9f 70be d195 023e db33 e4bd
00000040: a9c0 8cbe 0afb 013e cc56 9f3e e19d 66be
00000050: bf3d eabd 6127 c83e 46c2 293e 3192 d53d
00000060: 258e b73e c44f 763e bd4d 94be 2009 d0bd
00000070: 34de 1cbe 52e3 1a3e bdd7 f73d b45e dfbd
00000080: ce8f d2bd 7dd9 773c 17c7 0f3e 66b4 b63e
00000090: dd49 4bbd 5ed4 bb3d d1b1 643e 8d6c c73d
000000a0: b857 abbc 23b8 2bbc 5f7a 85be f207 6fbe
000000b0: b803 673e 419a 133d 9195 8f3e 9aea 3b3e
000000c0: f317 753d 9568 b93e 5d9f 5bbe af50 b23e
000000d0: a7c5 a0be 428f 32be 7b3d 8fbe 6151 b53d
000000e0: 35d1 8f3e b423 22be a1ed 19bd 6f92 7e3e
000000f0: 0a95 b0bd 4c30 413e acbd 5c3d 37ee a53b

joint_model.model.1.0.weight f4 [64, 64]
0.07313585 0.059309714 0.20358072 -0.09128086 0.3095571 -0.03982601 -0.010466629 -0.11210648
-0.13219616 0.20832501 -0.04099681 -0.23317465 -0.26015198 0.059959922 0.20876893 -0.07401492
-0.018088592 0.23785776 0.17406024 0.15829533 0.05258463 0.2161254 -0.075310975 -0.013427792
-0.12763584 -0.023506306 -0.2161863 0.024536509 -0.04741052 0.2009057 0.012993735 -0.02014136
-0.08804909 -0.13927636 -0.15696752 0.18751901 -0.03941358 0.09309194 0.061808042 0.17731892
0.094026096 0.06592164 0.072237894 -0.043591972 0.15554379 -0.15071878 -0.06983464 0.23273998
0.025123825 0.09701918 -0.1438143 0.11405086 -0.64678943 0.21985011 0.15481156 -0.0673371
0.115518354 0.023531169 -0.20479853 0.21184294 0.0946656 -0.15696529 0.18161176 0.14254129
-0.018725973 0.19685346 -0.004809796 0.017830504 0.059816916 0.05114265 0.019643521 -0.0055202376
0.16336218 0.14598471 0.17350751 0.15236309 0.109285384 -0.029087106 -0.39699116 0.30808035
-0.50555336 0.043162223 0.16706188 0.072807066 -0.17248797 0.2835536 0.016233241 -0.3162719
0.05550447 -0.043359715 0.073036775 0.11732736 -0.17533928 0.06328253 0.16147722 0.09289172
0.13006903 0.14336373 -0.06122525 0.2547353 -0.08834529 -0.16924964 -0.06826757 0.027338983
-0.45144004 0.15721186 0.11777634 -0.0916686 -0.021578375 0.07555422 0.0089865085 0.12573642
-0.16872784 -0.17813632 -0.038492523 0.03945473 -0.10521102 0.1469595 0.022480655 0.048181225
0.19290923 0.0004942137 0.10428297 -0.0064522745 0.30595562 -0.061053164 0.19227678 -0.08341033
0.0013947221 0.12056434 0.053937234 -0.009233439 -0.13887228 -0.035612497 -0.091382846 0.11257125
-0.173314 0.118671745 0.09591207 -0.3820994 0.08878461 0.096930936 -0.20170225 0.20936915
-0.05780897 -0.061106298 -0.04664786 0.085429706 0.04723263 0.17034179 0.0005240486 -0.26989865
0.04514304 -0.024409339 0.1752092 -0.35915327 -0.048387654 0.080637984 0.12760898 0.078818776
0.10997596 0.5589227 0.20463242 0.010374695 0.16447543 -0.093073264 -0.15738747 0.050486654
0.13694152 0.3149286 -0.1903174 -0.104673795 0.28890517 0.29351923 0.032729033 -0.19200738
-0.20447393 -0.059989013 0.031157847 0.07216286 0.17721009 0.17255852 -0.120165944 0.09265058
0.039136827 0.1822517 -0.1392185 -0.05322428 -0.21270223 -0.076780096 0.07571821 0.0040328815
-0.13881883 0.25486147 0.23535949 -0.0018623204 -0.066975005 0.17930208 -0.052519936 -0.1179013
0.06150836 0.118371375 0.07696501 -0.026616417 -0.017283872 -0.30213234 -0.112690374 0.10670109
0.16982453 -0.12705588 -0.15357937 0.041115124 -0.1476134 -0.019404154 -0.029924383 -0.0328643
-0.2471061 -0.010908451 0.23441647 0.019105975 0.42138898 0.068323 0.25359687 0.19257079
-0.11693756 0.10485759 -0.011123555 -0.091868475 0.22983411 -0.19436799 0.014009923 -0.07466913
0.37537056 0.028025834 0.0019904538 0.35300863 -0.05362712 0.011051918 -0.0021898276 -0.13303895
0.32308123 -0.26042566 -0.27086002 -0.28371274 0.32875535 0.81306976 0.18283193 -0.024605656
-0.06527111 0.158518 0.055533823 -0.08420343 0.009444618 -0.114721686 0.10052093 -0.22263122
00000000: 40c8 953d beee 723d 7777 503e 76f1 babd
00000010: 457e 9e3e 9920 23bd 397c 2bbc 1598 e5bd
00000020: 6e5e 07be 2753 553e 45ec 27bd 56c5 6ebe
00000030: a432 85be 8998 753d 86c7 553e 2295 97bd
00000040: 872e 94bc fc90 733e d93c 323e 2c18 223e
00000050: fb62 573d fa4f 5d3e a43c 9abd 3e00 5cbc
00000060: f8b2 02be 4c90 c0bc f15f 5dbe ca00 c93c
00000070: 8931 42bd 39ba 4d3e ade3 543c 7eff a4bc
00000080: 1553 b4bd 769e 0ebe 18bc 20be fc04 403e
00000090: 2270 21bd fda6 be3d 6e2a 7d3d 1793 353e
000000a0: c190 c03d ed01 873d 76f1 933d 7f8d 32bd
000000b0: df46 1f3e 0656 1abe 7705 8fbd 6453 6e3e
000000c0: 7bd0 cd3c feb1 c63d 0e44 13be 7f93 e93d
000000d0: fe93 25bf 6320 613e ec86 1e3e 09e8 89bd
000000e0: e394 ec3d 70c4 c03c b5b6 51be 5bed 583e
000000f0: 0ae0 c13d 82bb 20be 6ff8 393e 58f6 113e
00000100: 3667 99bc f493 493e 7e9b 9dbb 4711 923c
00000110: 9502 753d f57a 513d 73eb a03c 1ce3 b4bb
00000120: 6a48 273e 047d 153e f4ab 313e 1205 1c3e
00000130: 04d1 df3d 1548 eebc 6d42 cbbe b5bc 9d3e
00000140: f26b 01bf dfca 303d 4512 2b3e df1b 953d
00000150: b0a0 30be f02d 913e 93fb 843c 64ee a1be
00000160: a858 633d f599 31bd 4e94 953d 5449 f03d
00000170: 248c 33be 459a 813d 495a 253e 043e be3d
00000180: d130 053e f1cd 123e 54c7 7abd aa6c 823e
00000190: 60ee b4bd c74f 2dbe decf 8bbd 01f6 df3c
000001a0: 2623 e7be 25fc 203e b934 f13d bfbc bbbd
000001b0: 22c5 b0bc 2cbc 9a3d 263c 133c 0cc1 003e
000001c0: fec6 2cbe 5e69 36be 56aa 1dbd 489b 213d
000001d0: e078 d7bd 8d7c 163e 5a29 b83c ad59 453d
000001e0: ff89 453e 1f8e 013a 4f92 d53d 9a6d d3bb
000001f0: 37a6 9c3e e212 7abd 34e4 443e 09d3 aabd
00000200: 1ccf b63a 70ea f63d 4aed 5c3d da47 17bc
00000210: 8934 0ebe 69de 11bd ee26 bbbd c18b e63d
00000220: 3a79 31be 2c0a f33d 8c6d c43d 88a2 c3be
00000230: b5d4 b53d ba83 c63d 098b 4ebe de64 563e
00000240: 19c9 6cbd 994a 7abd d411 3fbd c5f5 ae3d
00000250: 0177 413d 146e 2e3e 4e60 093a 2830 8abe
00000260: e9e7 383d 18f6 c7bc 0a6a 333e f0e2 b7be
00000270: 2232 46bd 8725 a53d eeab 023e bd6b a13d
00000280: 133b e13d 8f15 0f3f 298b 513e a0fa 293c
00000290: 3f6c 283e 329d bebd 2e2a 21be 18cb 4e3d
000002a0: 663a 0c3e 523e a13e 91e2 42be 375f d6bd
000002b0: 61eb 933e 2748 963e e10e 063d 959d 44be
000002c0: 9d61 51be 0ab7 75bd be3e ff3c 1fca 933d
000002d0: 9076 353e 2eb3 303e 9019 f6bd 96bf bd3d
000002e0: f04d 203d 31a0 3a3e 4b8f 0ebe b401 5abd
000002f0: 9dce 59be e23e 9dbd 2612 9b3d 4326 843b
00000300: 8626 0ebe 347d 823e 1402 713e 1a19 f4ba
00000310: 312a 89bd f79a 373e 251f 57bd 3d76 f1bd
00000320: 31f0 7b3d b16c f23d d59f 9d3d ac0a dabc
00000330: e896 8dbc 17b1 9abe 36ca e6bd 1a86 da3d
00000340: 7be6 2d3e f01a 02be e943 1dbe 5568 283d
00000350: f827 17be 76f5 9ebc fb23 f5bc b79c 06bd
00000360: 6209 7dbe 5cb9 32bc df0a 703e 2284 9c3c
00000370: 4cc0 d73e eeec 8b3d 73d7 813e 4731 453e
00000380: f67c efbd 93bf d63d 923f 36bc 8a25 bcbd
00000390: a259 6b3e 6708 47be e089 653c 21ec 98bd
000003a0: 9230 c03e 6f96 e53c 4672 023b 8cbd b43e
000003b0: 1ca8 5bbd 1b13 353c 3683 0fbb 5d3b 08be
000003c0: e76a a53e 8356 85be 2aae 8abe cc42 91be
000003d0: 9f52 a83e 5725 503f 4b38 3b3e cd91 c9bc
000003e0: dcac 85bd 8b52 223e 6f77 633d d972 acbd
000003f0: 99bd 1a3c 34f3 eabd ebdd cd3d 70f9 63be

joint_model.model.1.0.bias f4 [64]
0.1844853 0.16636589 -0.10767228 -0.3518537 0.36490527 -0.089474715 -0.40173665 0.17537326
-0.029249646 -0.0060048504 -0.18556112 0.17770088 0.26021612 -0.16840625 -0.11249922 0.27494514
-0.10338641 -0.07546226 0.06339869 -0.2706908 -0.34382308 -0.011690147 -0.142787 0.16136849
-0.29169318 0.30448058 -0.027883528 -0.23812838 0.100148775 -0.10990709 0.16774902 0.028387943
0.037626557 0.10908544 0.10252616 0.14397274 0.14463902 0.27810854 -0.17570336 0.06508332
-0.06671459 -0.04541657 -0.05500967 -0.29662028 0.30563664 -0.17879793 0.0029604037 0.13991608
-0.20527834 -0.119031325 -0.35564995 -0.49486995 -0.22851373 -0.20503359 -0.26624215 -0.11623941
-0.15607253 -0.13620515 -0.029915417 -0.27543348 -0.056998502 0.26874387 -0.26301634 0.03797088
00000000: b7e9 3c3e d25b 2a3e 4983 dcbd 2b26 b4be
00000010: ddd4 ba3e 853e b7bd 6db0 cdbe 0c95 333e
00000020: f49c efbc 56c4 c4bb bc03 3ebe 38f7 353e
00000030: 0c3b 853e b072 2cbe fe65 e6bd 9cc5 8c3e
00000040: 41bc d3bd f58b 9abd 2cd7 813d fc97 8abe
00000050: 9409 b0be 0888 3fbc c136 12be c83d 253e
00000060: cf58 95be e1e4 9b3e ff6b e4bc edd7 73be
00000070: cd1a cd3d f816 e1bd 66c6 2b3e d58d e83c
00000080: 4e1e 1a3d 3068 df3d 3cf9 d13d 976d 133e
00000090: 401c 143e 3e64 8e3e 95eb 33be 674a 853d
000000a0: a9a1 88bd ba06 3abd d251 61bd 9dde 97be
000000b0: 687c 9c3e ce16 37be 5503 423b 2946 0f3e
000000c0: 7c34 52be b2c6 f3bd c017 b6be 985f fdbe
000000d0: 81ff 69be 53f4 51be e450 88be ee0e eebd
000000e0: 7ad1 1fbe 5d79 0bbe 2d11 f5bc 9e05 8dbe
000000f0: 4377 69bd cc98 893e 14aa 86be 5a87 1b3d

joint_model.model.2.0.weight f4 [64, 64]
0.2990706 0.5614256 -0.04221689 -0.45699072 -0.09386926 0.16333106 -0.07717 0.5560409
0.28896922 0.49747786 -0.25669307 0.19043054 -0.0012295732 -0.13373761 0.19672467 -0.060448553
-0.16043031 0.26261166 -0.014287185 -0.14113563 0.23046666 -0.09985749 0.33314592 0.08529872
-0.061321583 0.07244857 -0.09753189 0.114867486 -0.02733537 0.53793406 0.24109854 0.021353403
0.118544884 -0.25467032 -0.061952032 0.019949645 0.008559238 -0.08527467 -0.45610482 0.29896292
0.17981997 -0.5257342 -0.3716609 0.39398876 -0.01795544 -0.035159912 -0.05701519 -0.09212516
-0.14183831 -0.2543674 -0.0339841 0.73473144 -0.25894397 0.4970085 -0.0080868965 0.015156489
-0.09432285 0.13700062 0.14809722 -0.121976696 0.277753 -0.24824427 0.09176379 0.37251097
0.051526207 0.025561664 -0.083731145 0.33991697 -0.38192913 0.47147897 0.14892209 0.25476512
0.06404236 -0.23235379 -0.019405441 -0.018003622 0.15869716 0.21211952 0.36165205 -0.04035969
0.101650916 0.30813187 0.32571226 0.24715479 -0.2764826 -0.021635655 0.0313131 -0.17564109
-0.009511135 -0.0065468135 0.23856086 -0.35788545 0.2453991 -0.17737824 -0.1590669 0.074947156
0.19776024 0.19590381 0.37236148 0.0551009 0.38497093 -0.01875567 0.020402312 -0.22353794
-0.07839424 0.0071420916 0.21082608 0.3109294 -0.25177878 -0.035890497 0.32491425 -0.21031949
0.22130711 0.2915951 -0.5459836 0.08352636 -0.28411552 0.32949284 -0.038871538 0.3261668
0.17398226 0.17496225 -0.1180301 0.46405905 -0.010333175 0.12661742 0.16865511 -0.036847085
0.004953791 0.021985138 0.047321 0.298395 -0.10389296 -0.070958994 0.6598156 0.063136086
-0.4627947 0.1352286 0.27215493 0.12360629 0.047903 0.30185723 0.034225203 0.17055982
-0.36410046 -0.20638455 -0.17489631 0.2303441 -0.019297484 -0.0040006987 -0.00017392651 0.21021588
0.56747323 0.11469794 -0.03521132 -0.20387831 0.08223724 0.33889398 0.09026184 -0.14731848
0.21694924 0.026300112 0.1685102 0.3848017 -0.29067472 0.026889069 -0.32143897 0.38930222
-0.027677733 -0.03965605 -0.69796544 0.29788354 0.33417118 -0.51361245 -0.0044826614 -0.2132428
0.05078998 0.18060865 0.039906584 0.2980208 0.5559849 0.22518963 -0.19731198 0.1759198
0.058010407 0.030234816 4.163318e-05 0.26428592 0.35756847 -0.36278316 -0.18332714 0.035802897
-0.3402618 0.3252845 0.5742993 0.5030633 0.3193278 0.10732831 0.10500052 -0.04656298
-0.21047825 0.007916112 0.10905439 0.44392273 0.06719082 0.06008167 -0.02651932 0.44809657
0.07382281 -0.27097163 0.32749704 -0.41169167 0.19412556 0.20228729 -0.30185676 -0.25637832
-0.41666996 -0.1873835 -0.32052138 0.13078797 0.15995912 -0.012023365 0.46203375 0.24658312
-0.4262998 0.16427447 0.037098844 0.10394542 0.22052494 -0.13653424 -0.1323458 0.42752936
0.05565008 0.4840328 0.005984595 -0.3821267 0.03551369 0.19050041 -0.15294386 0.22338845
0.07083066 0.14899153 -0.3717325 -0.43626454 0.45305476 0.07607275 -0.045174185 -0.047900088
-0.18730298 -0.1253991 -0.00016664137 -0.22356938 -0.14463983 0.3312165 0.06816104 -0.13261235
00000000: c81f 993e 97b9 0f3f 9eeb 2cbd b0fa e9be
00000010: 873e c0bd 4240 273e 4e0b 9ebd b258 0e3f
00000020: c6f3 933e 6bb5 fe3e 466d 83be 3900 433e
00000030: a129 a1ba 83f2 08be 3172 493e e798 77bd
00000040: d847 24be 0975 863e cc14 6abc dc85 10be
00000050: 74ff 6b3e 1582 ccbd 1a92 aa3e 18b1 ae3d
00000060: 572c 7bbd ea5f 943d cdbe c7bd a53f eb3d
00000070: 6dee dfbc 0cb6 093f 89e2 763e 55ed ae3c
00000080: a9c7 f23d 2664 82be 6ac1 7dbd 706d a33c
00000090: 0c3c 0c3c 7ca4 aebd 9286 e9be ab11 993e
000000a0: ba22 383e 8496 06bf 564a bebe e5b8 c93e
000000b0: 4917 93bc d703 10bd c388 69bd 1eac bcbd
000000c0: 103e 11be 723c 82be e932 0bbd 5c17 3c3f
000000d0: 4e94 84be e677 fe3e e77e 04bc ec52 783c
000000e0: 572c c1bd e449 0c3e cca6 173e ebce f9bd
000000f0: a435 8e3e bf33 7ebe a7ee bb3d c2b9 be3e
00000100: 250d 533d b266 d13c 3c7b abbd 9909 ae3e
00000110: 378c c3be b165 f13e 087f 183e 9370 823e
00000120: a428 833d 27ee 6dbe 29f8 9ebc 557c 93bc
00000130: 8281 223e dc35 593e 752a b93e 3450 25bd
00000140: 5b2e d03d 76c3 9d3e c2c3 a63e 2516 7d3e
00000150: 218f 8dbe 423d b1bc 2a42 003d 42db 33be
00000160: 97d4 1bbc a786 d6bb 4c49 743e c33c b7be
00000170: e749 7b3e a4a2 35be 6fe2 22be e57d 993d
00000180: a981 4a3e 029b 483e 2aa6 be3e 7bb1 613d
00000190: e91a c53e 7ea5 99bc c022 a73c 21e7 64be
000001a0: 298d a0bd 3508 ea3b cbe2 573e 2332 9f3e
000001b0: 26e9 80be ea01 13bd 295b a63e fe5d 57be
000001c0: 559e 623e f44b 953e 95c5 0bbf de0f ab3d
000001d0: 9777 91be 49b3 a83e c337 1fbd 56ff a63e
000001e0: 6828 323e 4e29 333e c4b9 f1bd 2699 ed3e
000001f0: 7a4c 29bc ffa7 013e edb3 2c3e f8ec 16bd
00000200: 6953 a23b 2d1a b43c aad3 413d 3bc7 983e
00000210: d5c5 d4bd f352 91bd ade9 283f 7e4d 813d
00000220: 6df3 ecbe 5e79 0a3e e457 8b3e 4b25 fd3d
00000230: f035 443d 088d 9a3e ba2f 0c3d 3ca7 2e3e
00000240: 606b babe 7956 53be 0518 33be 53df 6b3e
00000250: c215 9ebc 4b18 83bb 0b60 36b9 d542 573e
00000260: ed45 113f c1e6 ea3d bf39 10bd 7ac5 50be
00000270: 006c a83d 8383 ad3e 33db b83d a8da 16be
00000280: f127 5e3e 5573 d73c f08d 2c3e ba04 c53e
00000290: 51d3 94be 7746 dc3c a693 a4be 9f52 c73e
000002a0: 6abc e2bc 626e 22bd ddad 32bf 3184 983e
000002b0: 7c18 ab3e 1b7c 03bf 4ae3 92bb 525c 5abe
000002c0: 2709 503d 79f1 383e 1675 233d 2f96 983e
000002d0: 0755 0e3f 1c98 663e 270c 4abe 5224 343e
000002e0: 529c 6d3d 01af f73c 499f 2e38 7c50 873e
000002f0: 3713 b73e b7be b9be 1cba 3bbe 0fa6 123d
00000300: cb36 aebe b18b a63e 4705 133f c2c8 003f
00000310: ef7e a33e f2ce db3d 830a d73d d3b8 3ebd
00000320: 9c87 57be 95b2 013c e857 df3d d749 e33e
00000330: 579b 893d 3218 763d 0c3f d9bc ea6c e53e
00000340: 6a30 973d cbbc 8abe b1ad a73e 40c9 d2be
00000350: dac8 463e 6624 4f3e f88c 9abe 0544 83be
00000360: c455 d5be 76e1 3fbe 611b a4be 48ed 053e
00000370: 53cc 233e a6fd 44bc b08f ec3e 4980 7c3e
00000380: f843 dabe 9137 283e f5f4 173d 56e1 d43d
00000390: 4ad1 613e a2cf 0bbe a885 07be 21e5 da3e
000003a0: 57f1 633d 26d3 f73e 6c1a c43b 1ca6 c3be
000003b0: ce76 113d 8a12 433e 519d 1cbe f1bf 643e
000003c0: aa0f 913d 3c91 183e b953 bebe 115e dfbe
000003d0: cbf6 e73e 08cc 9b3d 9108 39bd e232 44bd
000003e0: 5acc 3fbe 9f68 00be 74bc 2eb9 5fef 64be
000003f0: 771c 14be 3695 a93e 0498 8b3d 88cb 07be

joint_model.model.2.0.bias f4 [64]
0.25902417 0.061462693 -0.0684035 0.28411496 0.37308964 0.2529537 -0.15469484 0.26934347
-0.015584508 0.3618317 -0.15439662 0.0070618256 -0.16412717 0.19360001 0.196227 -0.11781133
0.07060117 -0.29656214 -0.23433726 -0.1295838 0.03986111 0.33694577 -0.31980884 0.16888715
0.15107407 0.22867778 0.125023 0.21562287 0.18199413 -0.27609146 0.1190453 0.37825808
0.40239942 -0.07270494 -0.32566708 0.059278492 -0.21021521 -0.13194592 -0.037321124 0.16863136
-0.036610235 0.05418821 0.020123584 -0.17163841 0.4120318 -0.2266301 -0.091300614 -0.112125665
0.0009040097 -0.18363164 0.19802584 -0.048258666 0.004721538 -0.057866767 -0.36406687 0.27545056
-0.43532953 -0.4674418 -0.2611154 0.20239393 -0.064092554 0.32199627 0.06895594 0.24097043
00000000: d19e 843e 4ec0 7b3d 2217 8cbd 8477 913e
00000010: 9b05 bf3e 2683 813e 5368 1ebe 63e7 893e
00000020: 2a56 7fbc 0142 b93e 261a 1ebe e366 e73b
00000030: f410 28be 153f 463e bbef 483e 1147 f1bd
00000040: 5997 903d fed6 97be 1bf6 6fbe 9eb1 04be
00000050: 6745 233d 2884 ac3e fcbd a3be c1f0 2c3e
00000060: 29b3 1a3e 822a 6a3e 0806 003e 3ecc 5c3e
00000070: ab5c 3a3e dc5b 8dbe 06ce f33d 0bab c13e
00000080: 4c07 ce3e 54e6 94bd d6bd a6be 01ce 723d
00000090: a842 57be d51c 07be 09de 18bd b3ad 2c3e
000000a0: 9df4 15bd 75f4 5d3d 37da a43c fbc1 2fbe
000000b0: d5f5 d23e b911 68be d1fb babd 24a2 e5bd
000000c0: 10fb 6c3a ef09 3cbe 49c7 4a3e e1aa 45bd
000000d0: 22b7 9a3b b405 6dbd f966 babe db07 8d3e
000000e0: 83e3 debe 8854 efbe ebb0 85be 5b40 4f3e
000000f0: f542 83bd b2dc a43e c638 8d3d f4c0 763e

joint_model.model.3.weight f4 [64, 64]
-0.33713552 -0.21378964 -0.22916098 0.14813624 0.15663454 0.24054168 0.49642918 0.02685169
-0.15721454 0.0141965225 -0.33422384 -0.16156195 0.19590823 -0.21756162 0.2669358 0.10812295
0.17199507 0.04582616 0.10992015 -0.28929847 -0.03699761 0.026556542 0.063845746 0.3430696
-0.010409262 0.07534734 -0.0035496661 -0.12107247 -0.048550677 0.08170883 -0.20508818 0.25294435
-0.16974619 0.17101847 -0.051042624 0.0068843174 0.4415707 -0.23973005 0.378433 0.24086371
0.10359577 -1.3994513 -0.28916156 0.14935036 0.10627091 0.0828678 0.06105756 -0.41631618
0.22703364 0.0813024 -0.20393337 -0.05968458 0.22555834 -0.09147782 0.1399263 -0.019540692
0.004926812 -0.17354012 0.10692813 -0.0784588 -0.53126985 0.3728776 -0.17291047 0.09787085
-0.0010271111 -0.011523665 0.0022776097 0.0014194972 0.0016289063 -0.007505596 -0.006675745 -0.003856593
-0.0041173645 0.0015616558 -0.0024325408 -0.00919067 -0.008982965 -0.0037297 0.0028389418 0.01432665
-0.00093228486 -0.008959945 0.0031620334 0.004108447 -0.001655121 -0.006594583 0.008010104 0.009722568
-0.0015729695 -0.0014463317 -0.002530248 -0.0021728256 0.0006911021 -0.013668275 -0.0013562255 0.0010569097
0.004217585 -0.00050729467 0.029161023 -0.0005463466 -0.008655607 0.003653038 -0.0022464786 -0.0014576241
0.0035494294 0.013144508 -0.0060903523 0.00037370613 -0.0029069362 0.0037531515 0.005433111 -0.0027725901
-0.0032656987 0.0036624668 -0.0056181154 0.0015312493 0.0044193524 0.0028732726 -0.0075221728 -0.0016608263
0.016838472 0.010038683 -0.0038515606 -0.0023459482 0.0034244687 0.00090662343 -0.005739882 -0.007102734
0.40751678 0.050172854 0.19763434 0.04447344 0.2660543 -0.03782583 -0.3348667 0.10175713
0.17095855 -0.04896793 -0.41039434 0.027962323 0.027608927 0.23892128 0.27562195 -0.34856713
-0.036017943 -0.01092066 -0.27185056 0.22095986 -0.0052850484 -0.057071775 0.0448766 0.30900374
-0.007405703 0.4462465 0.54079187 -0.06506876 -0.017674126 -0.06868545 -0.043434575 0.1302672
-0.074196905 0.07733722 -0.025798317 -0.108798265 -0.19416296 0.38026637 -0.022298943 -0.17839955
0.3445843 0.031854212 -0.17822446 0.06830742 0.29063365 -0.30687 -0.465805 -0.30510646
0.14833061 -0.24131146 -0.029601209 -0.23008704 -0.23213744 0.0118504735 0.036626592 0.057738084
-0.111279644 -0.030609956 -0.051171727 0.6358868 -0.35304788 0.015818255 0.35740888 -0.37431148
0.001999148 -0.01704047 -0.0017198762 -0.0020457816 -0.0016295267 -0.0014152854 0.0023037465 -0.0012449092
0.0027782358 -0.0009714936 0.004919218 -0.0013262392 -0.0005023305 -0.008891501 -0.0044823675 0.006174844
0.009602626 0.004081148 -0.0037568584 0.002914331 0.0061171153 -0.00033862592 0.0020241833 -0.0034422625
0.0015037915 0.0018699211 0.0041052178 -0.0059455046 0.0033848295 0.016281398 -0.0020862746 -0.0006277151
0.00029943473 -0.0024405245 -0.01156867 -0.009345595 0.0067067533 0.010524451 0.001251051 0.0017413541
0.000107288666 0.01369112 -0.005922811 -0.003632364 0.0067159445 0.001751882 -0.0021070405 -0.0052217655
0.01622629 0.0030681374 0.0024845286 0.0015347481 0.004668087 -0.0005382544 -0.008955921 -0.00066822226
-0.0187845 -0.017611874 0.006304196 -0.0008981405 -0.0024148559 0.0029020954 0.004661755 -0.005407745
00000000: 079d acbe aceb 5abe 2da9 6abe 07b1 173e
00000010: ce64 203e 8f50 763e f72b fe3e 13f8 db3c
00000020: d9fc 20be 8898 683c 631f abbe 7f70 25be
00000030: 2b9c 483e 79c8 5ebe cfab 883e 916f dd3d
00000040: 7a1f 303e 36b4 3b3d d11d e13d ee1e 94be
00000050: ce8a 17bd 1b8d d93c 8fc1 823d d2a6 af3e
00000060: 9c8b 2abc b54f 9a3d 84a1 68bb d8f4 f7bd
00000070: 13dd 46bd f656 a73d a302 52be ec81 813e
00000080: f2d1 2dbe 771f 2f3e 1212 51bd d795 e13b
00000090: 8e15 e23e cb7b 75be f8c1 c13e faa4 763e
000000a0: 052a d43d 3821 b3bf fc0c 94be 4def 183e
000000b0: 90a4 d93d 98b6 a93d 7e17 7a3d 6527 d5be
000000c0: 827b 683e df81 a63d e9d3 50be d177 74bd
000000d0: c4f8 663e b958 bbbd d748 0f3e cd13 a0bc
000000e0: 1871 a13b 80b4 31be 23fd da3d 02af a0bd
000000f0: 4d01 08bf d0e9 be3e 710f 31be 8370 c83d
00000100: 21a0 86ba c1cd 3cbc f343 153b 6c0e ba3a
00000110: 0781 d53a 81f1 f5bb 35c0 dabb e5be 7cbb
00000120: f5ea 86bb 79b0 cc3a 436b 1fbb 7794 16bc
00000130: 492d 13bc fc6d 74bb 8a0d 3a3b 53ba 6a3c
00000140: 9464 74ba bccc 12bc 1e3a 4f3b 27a0 863b
00000150: a5f0 d8ba 5f17 d8bb d03c 033c 684b 1f3c
00000160: 192c ceba d792 bdba 84d2 25bb f765 0ebb
00000170: 142b 353a e7f0 5fbc 60c3 b1ba 0188 8a3a
00000180: ab33 8a3b f8fb 04ba 19e3 ee3c b338 0fba
00000190: 3fd0 0dbc cf67 6f3b a839 13bb c00d bfba
000001a0: 8b9d 683b 105c 573c 9491 c7bb fded c339
000001b0: 4c82 3ebb 6ff7 753b 3d08 b23b 58b4 35bb
000001c0: 5505 56bb ff05 703b 2b18 b8bb 33b4 c83a
000001d0: 37d0 903b 844d 3c3b 8f7c f6bb 15b0 d9ba
000001e0: d6f0 893c 4a79 243c 776a 7cbb 7bbe 19bb
000001f0: 0d6d 603b 78aa 6d3a 9f15 bcbb 0dbe e8bb
00000200: 0aa6 d03e 0d82 4d3d a860 4a3e c829 363d
00000210: 4538 883e 42ef 1abd a673 abbe 0b66 d03d
00000220: c20f 2f3e 9992 48bd 351f d2be 3e11 e53c
00000230: 1e2c e23c c8a7 743e 521e 8d3e 6477 b2be
00000240: 8d87 13bd 91ec 32bc ff2f 8bbe 4d43 623e
00000250: 332e adbb 18c4 69bd 87d0 373d bd35 9e3e
00000260: 8aab f2bb 6c7a e43e 5671 0a3f c542 85bd
00000270: 54c9 90bc f5aa 8cbd 74e8 31bd c464 053e
00000280: 8cf4 97bd fa62 9e3d fe56 d3bc a0d1 debd
00000290: a8d2 46be 46b2 c23e 46ac b6bc 5fae 36be
000002a0: 5a6d b03e 9079 023d 7980 36be c3e4 8b3d
000002b0: efcd 943e 111e 9dbe fe7d eebe ea36 9cbe
000002c0: fbe3 173e 5a1a 77be 3c7e f2bc f09b 6bbe
000002d0: 70b5 6dbe 7d28 423c c405 163d c57e 6c3d
000002e0: 95e6 e3bd bbc1 fabc 7299 51bd 7ac9 223f
000002f0: b1c2 b4be 4995 813c 4cfe b63e c1a5 bfbe
00000300: 2304 033b 7598 8bbc 786d e1ba 8512 06bb
00000310: d895 d5ba 1981 b9ba 74fa 163b 392c a3ba
00000320: 1013 363b d5ab 7eba 6431 a13b 34d5 adba
00000330: d4ae 03ba a9ad 11bc d3e0 92bb 5956 ca3b
00000340: 5554 1d3c 27bb 853b a035 76bb 5cfe 3e3b
00000350: 1572 c83b 9a89 b1b9 29a8 043b 9597 61bb
00000360: df1a c53a 2418 f53a 1085 863b 82d2 c2bb
00000370: 04d4 5d3b 9160 853c e1b9 08bb 3f8d 24ba
00000380: 73fd 9c39 35f1 1fbb 858a 3dbc 441e 19bc
00000390: 53c4 db3b bf6e 2c3c 4efa a33a 263e e43a
000003a0: 2a00 e138 b850 603c 2414 c2bb f50c 6ebb
000003b0: 6d11 dc3b 689f e53a 4616 0abb 581b abbb
000003c0: ffec 843c ce12 493b 79d3 223b 9a29 c93a
000003d0: c0f6 983b a419 0dba dbbb 12bc a32b 2fba
000003e0: f4e1 99bc c746 90bc 6e93 ce3b 3071 6bba
000003f0: 8f42 1ebb 1531 3e3b a3c1 983b 7433 b1bb

joint_model.model.3.bias f4 [64]
0.10665065 -0.0046452517 0.2557385 -0.0022974517 0.13796371 0.0004742491 0.14212553 -0.0020908127
0.152877 -0.0024870539 0.18402153 0.0035141879 0.184512 -0.0042595887 0.14130752 -0.0057145585
0.2033081 0.00088870816 0.07376841 -0.0032423795 0.14922616 0.0018383544 0.082483776 -0.00046308734
0.17393029 -0.00013135011 0.13576029 -0.004862125 0.23915 -0.006646754 0.04191544 -0.0067078136
0.0 0.0 0.0 0.0 0.0 0.0 0.0 0.0
0.0 0.0 0.0 0.0 0.0 0.0 0.0 0.0
0.0 0.0 0.0 0.0 0.0 0.0 0.0 0.0
0.0 0.0 0.0 0.0 0.0 0.0 0.0 0.0
00000000: a86b da3d 3237 98bb 28f0 823e d890 16bb
00000010: 5c46 0d3e a3a4 f839 5b89 113e 0406 09bb
00000020: ca8b 1c3e d7fd 22bb 2470 3c3e 4a4e 663b
00000030: b7f0 3c3e 0594 8bbb ebb2 103e 3141 bbbb
00000040: 0030 503e 32f8 683a e413 973d 1a7e 54bb
00000050: bece 183e f0f4 f03a 41ed a83d 88ca f2b9
00000060: c81a 323e 07bb 09b9 bf04 0b3e 7652 9fbb
00000070: bde3 743e 04cd d9bb 86af 2b3d 38cd dbbb
00000080: 0000 0000 0000 0000 0000 0000 0000 0000
00000090: 0000 0000 0000 0000 0000 0000 0000 0000
000000a0: 0000 0000 0000 0000 0000 0000 0000 0000
000000b0: 0000 0000 0000 0000 0000 0000 0000 0000
000000c0: 0000 0000 0000 0000 0000 0000 0000 0000
000000d0: 0000 0000 0000 0000 0000 0000 0000 0000
000000e0: 0000 0000 0000 0000 0000 0000 0000 0000
000000f0: 0000 0000 0000 0000 0000 0000 0000 0000
