results_pis_architectures/many_well/clipping_lgv_100.0_gfn_10000.0_gfn/fwd_bwd/fwd_tb_bwd_tb/T_100/tscale_1.0/lvr_4.0/seed_12345/model_final.pt (torch, 184646 bytes, 23 tensors)

t_model.timestep_phase f4 [1, 64]
0	0xbf5b12a6	-0.8557533
1	0x3ead47c0	0.33843803
2	0x3f20e429	0.62848145
3	0xbd9c4124	-0.07629612
4	0xbef4a21d	-0.47779933
5	0xbe24adeb	-0.1608197
6	0x3f25f1bf	0.64822
7	0x3f1f8da7	0.6232552
8	0xbf42f66d	-0.76157266
9	0x3cb057ea	0.021526296
10	0x3f25f106	0.648209
11	0x3f1cfbe2	0.6132184
12	0xbecebac4	-0.40376866
13	0xbf64279e	-0.8912295
14	0x3f45d765	0.7728179
15	0xbf3a5eab	-0.728007
16	0xbf567701	-0.83775336
17	0xbf18ae7a	-0.5964123
18	0xbf3f6ea8	-0.74778223
19	0xbfe9ecd5	-1.82754
20	0x3f5bb415	0.8582166
21	0x3f8a7e6a	1.0819829
22	0x3f81b59d	1.0133549
23	0x3bf931b4	0.007604802
24	0x3eb67cec	0.35642183
25	0xbf8ddd24	-1.1083112
26	0x3f4168af	0.7555036
27	0x3e7d9808	0.24765027
28	0x400b460d	2.1761506
29	0x403a91b1	2.9151423
30	0x3e86afe5	0.26306072
31	0xbf2690ec	-0.65064883
32	0x3f4cc3a6	0.79986036
33	0x3f8b1e56	1.0868633
34	0xbf5615c1	-0.83626944
35	0x3f31f1a0	0.69509315
36	0x3f6b75e8	0.91976786
37	0x3ef0d4d9	0.4703739
38	0x4003aadf	2.0573041
39	0xbfe88d18	-1.8168058
40	0x3eb2ce0f	0.34922835
41	0xbfa2d18c	-1.2720199
42	0xbf447edf	-0.7675609
43	0x3e173c29	0.14769043
44	0x3fd95ced	1.6981484
45	0xbe9955aa	-0.2994817
46	0x3f1e1dfb	0.61764497
47	0x3e7fa4bb	0.24965183
48	0x3af19090	0.0018429924
49	0xbf0e5b83	-0.55608386
50	0x3f3540e8	0.70802164
51	0x3fc31ae7	1.5242585
52	0x3f481d4a	0.7816969
53	0xbe525b69	-0.20542683
54	0x3e5fdb0b	0.21860902
55	0xbcd057f7	-0.02543257
56	0x3f39ef85	0.726311
57	0xbfa197c6	-1.2624443
58	0xbf5003c9	-0.81255776
59	0xbf57c924	-0.8429129
60	0xbed50c23	-0.41610822
61	0xbed958c1	-0.42450526
62	0xbe3b294d	-0.18277474
63	0x3f5cf877	0.8631663

t_model.pe f4 [1, 64]
0	0x3dcccccd	0.1
1	0x3fd7c57d	1.6857144
2	0x40515f16	3.2714286
3	0x409b6db7	4.857143
4	0x40ce2be3	6.4428573
5	0x41007508	8.028572
6	0x4119d41e	9.614286
7	0x41333334	11.200001
8	0x414c924a	12.785715
9	0x4165f160	14.371429
10	0x417f5076	15.957144
11	0x418c57c6	17.542858
12	0x41990751	19.128572
13	0x41a5b6dc	20.714287
14	0x41b26667	22.300001
15	0x41bf15f2	23.885715
16	0x41cbc57d	25.47143
17	0x41d87508	27.057144
18	0x41e52493	28.642859
19	0x41f1d41e	30.228573
20	0x41fe83a9	31.814287
21	0x4205999a	33.4
22	0x420bf15f	34.985714
23	0x42124925	36.57143
24	0x4218a0ea	38.157143
25	0x421ef8b0	39.74286
26	0x42255075	41.32857
27	0x422ba83b	42.914288
28	0x42320000	44.5
29	0x423857c6	46.085716
30	0x423eaf8b	47.67143
31	0x42450751	49.257145
32	0x424b5f16	50.842857
33	0x4251b6db	52.42857
34	0x42580ea0	54.014282
35	0x425e6666	55.6
36	0x4264be2c	57.185715
37	0x426b15f1	58.771427
38	0x42716db6	60.35714
39	0x4277c57c	61.942856
40	0x427e1d42	63.528572
41	0x42823a84	65.11429
42	0x42856666	66.7
43	0x42889249	68.28571
44	0x428bbe2c	69.87143
45	0x428eea0e	71.45714
46	0x429215f1	73.042854
47	0x429541d4	74.62857
48	0x42986db7	76.21429
49	0x429b999a	77.8
50	0x429ec57c	79.38571
51	0x42a1f15f	80.97143
52	0x42a51d42	82.557144
53	0x42a84924	84.14285
54	0x42ab7507	85.72857
55	0x42aea0ea	87.314285
56	0x42b1cccd	88.9
57	0x42b4f8b0	90.48572
58	0x42b82492	92.07143
59	0x42bb5075	93.65714
60	0x42be7c58	95.24286
61	0x42c1a83a	96.82857
62	0x42c4d41d	98.41428
63	0x42c80000	100.0

t_model.t_model.0.weight f4 [64, 128]
0	0xbd16c465	-0.03680839
1	0xbd9b25d5	-0.07575575
2	0x3d99caad	0.075093605
3	0x3dc00985	0.09376816
4	0xbd873da2	-0.066035524
5	0x3d3f1a63	0.046656024
6	0xbd1ba23c	-0.037996516
7	0x3d70a6d8	0.058752865
8	0xbd8780eb	-0.06616386
9	0x3d21e611	0.03952605
10	0x3dabb8ee	0.08384882
11	0x3dc5d90e	0.096605405
12	0x3d437cd7	0.04772648
13	0x3d9a04bd	0.07520435
14	0xbda729ac	-0.08162245
15	0xbd3e4b54	-0.046458557
16	0xbbaacbdf	-0.0052122916
17	0xbdc622e0	-0.09674621
18	0x3d7a0473	0.0610394
19	0xbd8a669a	-0.06757851
20	0xbd78c1cb	-0.06073169
21	0x3ca84eed	0.020545447
22	0x3aad5121	0.0013223031
23	0xbd90c01d	-0.07067893
24	0xbd1ce654	-0.038305596
25	0xbd1d18da	-0.03835378
26	0xbd224645	-0.039617795
27	0xbd54b25d	-0.051927913
28	0x3c04cf7c	0.008106109
29	0x3db1b5d9	0.08677263
30	0xbd1088df	-0.03528678
31	0xbd6b7d44	-0.05749251
32	0xbd0cfab7	-0.034418788
33	0x3d75294d	0.05985384
34	0x3ca33cd2	0.019926462
35	0x3d2e2962	0.042519934
36	0x3d8bb2c2	0.06821205
37	0x3db62026	0.088928506
38	0x3de8356b	0.11338314
39	0x3cd4c8d6	0.025974672
40	0x3d1f5c9b	0.038906675
41	0x3cd97e84	0.026549585
42	0x3d30115e	0.042985313
43	0x3d8500de	0.06494306
44	0x3dc3ae62	0.09554745
45	0xbd5bce55	-0.05366357
46	0xbd5d43d1	-0.054019753
47	0x3c2e70e7	0.010647035
48	0x3c7bea96	0.015375754
49	0xbd76b53d	-0.060231436
50	0x3daa2e88	0.083096564
51	0x3d8d7c39	0.06908459
52	0x3c9101b5	0.01770101
53	0x3dab15b1	0.08353747
54	0xbc9638bd	-0.018337602
55	0xbcba36e1	-0.022731246
56	0x3d88102b	0.06643709
57	0xbd8d111b	-0.06888028
58	0x3d795139	0.060868476
59	0x3c93fce8	0.018064931
60	0xbd399ab6	-0.04531356
61	0x3c9d4683	0.019198662
62	0xbc8216ef	-0.015880076
63	0xbd90f84e	-0.0707861
64	0xbc5cb45c	-0.013470735
65	0x3dd0bc61	0.101921804
66	0xbcb60211	-0.022217782
67	0xbd46a3ed	-0.048496176
68	0x3d00f29d	0.031481374
69	0xbd58dea6	-0.05294671
70	0x3bc1edbc	0.0059182327
71	0x3d50599a	0.0508667
72	0xbcf19544	-0.02949012
73	0x3d8be262	0.068302885
74	0xbd43ec38	-0.047832698
75	0x3d1df104	0.03855993
76	0x3c7eb227	0.0155454045
77	0xbd488599	-0.048955534
78	0xbd990868	-0.074723065
79	0xbda69b74	-0.08135119
80	0xbc8d7573	-0.017267918
81	0x3dac6819	0.084182926
82	0x3dd2c2ea	0.10291083
83	0x3d820faf	0.06350648
84	0xbd99d6a6	-0.07511644
85	0xbc852388	-0.016252294
86	0xbd4bed72	-0.049786992
87	0xbd8ff527	-0.07029181
88	0xbd81383f	-0.06309556
89	0x3d0c4824	0.034248486
90	0xbd11d9d9	-0.035608146
91	0xbd5d136b	-0.053973597
92	0xbd9a578e	-0.07536231
93	0x3cfb35ef	0.030665366
94	0x3d36aae2	0.04459656
95	0xbdbd79f5	-0.09251777
96	0x3d18619e	0.03720247
97	0x3dc7b4ba	0.09751268
98	0x3bd979ae	0.00663682
99	0x3db2274d	0.08698902
100	0xbc7e6d34	-0.015528966
101	0x3db78e90	0.089627385
102	0x3d056214	0.032564238
103	0x3dae6c45	0.085167445
104	0x3d76d0be	0.060257666
105	0x3db4390a	0.08799942
106	0x3bdb03f1	0.0066838195
107	0xbccd9565	-0.02509565
108	0x3c15c2e0	0.0091407
109	0x3dd63fed	0.104614116
110	0xbd50563d	-0.050863493
111	0xbd699dce	-0.05703526
112	0xbc68278a	-0.014169583
113	0x3cc9d36d	0.024636948
114	0x3d82dd4e	0.06389867
115	0x3da0e393	0.07855906
116	0x3d820411	0.06348432
117	0x3d336feb	0.043807905
118	0xbc076224	-0.008263145
119	0x3d67b241	0.05656648
120	0x3b572aee	0.0032831985
121	0x3bd155f1	0.006388419
122	0xbd3897b1	-0.04506654
123	0xbd7bf593	-0.061513495
124	0xbc15481a	-0.009111429
125	0xbd2a1cd1	-0.041531388
126	0x3d0781dd	0.03308283
127	0x3b7cb06b	0.0038557302
128	0x3afe7e33	0.0019416272
129	0x3d1a9c48	0.037746698
130	0xbd5ae270	-0.053438604
131	0xbda64896	-0.081193134
132	0x3d13a8f5	0.0360498
133	0x3d13eeb7	0.036116328
134	0x3cfeaa3b	0.031087032
135	0xbd051c3b	-0.032497626
136	0x3ccbd99e	0.024884041
137	0xbbca632e	-0.006176374
138	0xbbcff0d1	-0.006345846
139	0x3c94771b	0.0181232
140	0xbc2feeb4	-0.010738064
141	0x3c3ea66f	0.011636361
142	0xba9eada5	-0.0012106193
143	0x3c731733	0.014837074
144	0x3cae17d0	0.021251589
145	0xbd33b39c	-0.04387246
146	0x3d91567b	0.07096573
147	0xbce292f4	-0.027657963
148	0x3a29ec58	0.00064820563
149	0xbd8f5530	-0.0699867
150	0xbc848f75	-0.016181687
151	0x3c1a66b3	0.009423899
152	0xbd8a88e7	-0.06764393
153	0xbcfa03a6	-0.030519318
154	0xbdae9966	-0.08525352
155	0xbd65e89a	-0.05613003
156	0x3d2d1cf0	0.042263925
157	0xbdf0477f	-0.11732387
158	0x3d9ef57b	0.077616654
159	0xbc42f77e	-0.011899827
160	0xbd288018	-0.041137785
161	0xbd934076	-0.07190029
162	0x3da9f50a	0.082986906
163	0x3d578a65	0.052622218
164	0x3d5e0366	0.05420246
165	0x3c8a588d	0.016887927
166	0x3a4fc85f	0.0007926281
167	0x3da1ccd8	0.07900399
168	0xbd948bcb	-0.07253226
169	0xbd69b826	-0.057060383
170	0x3c0dc861	0.008653731
171	0xbc3dd061	-0.011585326
172	0xbd5b01d9	-0.05346856
173	0x3b2b818d	0.0026169748
174	0x3d82214a	0.06354006
175	0x3ce59426	0.028024744
176	0x3c285027	0.010273016
177	0x3caa7a28	0.020810202
178	0xbd31ab79	-0.04337642
179	0x3db861ae	0.09003006
180	0x3d4c5567	0.049886134
181	0x3d656117	0.056000795
182	0xbd772123	-0.060334336
183	0xbce28f61	-0.027656259
184	0x3dc6064e	0.09669171
185	0x3d180434	0.037113383
186	0xbc8f7877	-0.017513497
187	0xbd450544	-0.048100725
188	0xbdd92b6f	-0.106039874
189	0xbdb0fce3	-0.08641984
190	0xbd8fc65c	-0.07020256
191	0x3c54f810	0.012998596
192	0xbbbd6d9d	-0.005780889
193	0xbd1b4832	-0.037910648
194	0xbb7a8fe4	-0.0038232738
195	0xbcd3efb9	-0.025871145
196	0x3d9ca64f	0.07648908
197	0x3ba6cee8	0.005090583
198	0x3d628b25	0.05530848
199	0xbd414b70	-0.047191083
200	0x3bcde08f	0.006282873
201	0xbd07e020	-0.033172727
202	0x3d8258ce	0.063645944
203	0x3d7b27d8	0.061317295
204	0x3dea4bce	0.1144024
205	0x3da0acb5	0.07845441
206	0x3cc9522c	0.024575315
207	0xbc9e2c14	-0.019308127
208	0x3d7d275a	0.061805107
209	0xbceab8cb	-0.02865257
210	0xbd330df8	-0.043714494
211	0x3d58594c	0.052819535
212	0x3d72e595	0.059300978
213	0xbd98daf8	-0.0746364
214	0x3d08a00c	0.033355758
215	0x3d73f3cf	0.059558686
216	0x3dbc93be	0.09207867
217	0x3d8d0ea0	0.06887555
218	0x3cb0760a	0.02154066
219	0xbaceb077	-0.0015769143
220	0x3d901136	0.07034533
221	0xbda9782c	-0.08274874
222	0xbddb2474	-0.10700312
223	0xbdc78937	-0.097429685
224	0xbd5e5b26	-0.054286145
225	0xbc5f5521	-0.013631136
226	0xbc6088ca	-0.013704488
227	0xbdc4f851	-0.09617675
228	0xbd39b899	-0.04534206
229	0x3dba6a41	0.091022976
230	0xbd039f2d	-0.032134224
231	0xbd58f671	-0.0529694
232	0x3d9a3170	0.07528961
233	0xbc174a92	-0.009234088
234	0xbd3c684e	-0.04599791
235	0xbdaaaaf4	-0.08333388
236	0x3d401573	0.046895456
237	0xbd05ed28	-0.032696873
238	0x3d09f299	0.033678625
239	0xbdd7ead6	-0.10542838
240	0xbcd5a460	-0.026079357
241	0x3afb01f6	0.0019150365
242	0x3dd65d51	0.104670174
243	0xba78d29a	-0.00094918313
244	0xbda32abe	-0.07967137
245	0xbd9f7e5c	-0.07787773
246	0xbced5111	-0.02896932
247	0x3d603099	0.054733846
248	0x3dc6ae75	0.09701244
249	0xbba1f3e4	-0.004942404
250	0xbdad8eaf	-0.0847448
251	0x3c7fc6e6	0.015611386
252	0xbcb8be7d	-0.02255177
253	0x3d6fffc7	0.058593538
254	0xbd34fab4	-0.0441844
255	0xbc71e19b	-0.014763261

t_model.t_model.0.bias f4 [64]
0	0x3d866744	0.06562665
1	0xbd29d7f9	-0.041465733
2	0xbd8b2e18	-0.06795901
3	0x3dd4ded1	0.10394061
4	0x3cf065fa	0.029345501
5	0xbd3630c6	-0.044480108
6	0xbce6db86	-0.028180849
7	0xbc9c03df	-0.019044815
8	0xbd0b70a3	-0.034042966
9	0x3d222159	0.039582584
10	0x3cf0b61a	0.029383708
11	0x3d2f69b5	0.04282542
12	0x3cb826a8	0.02247937
13	0x3db90814	0.09034744
14	0xbd4cae08	-0.049970657
15	0x3dc4b243	0.09604313
16	0xbd9dcdfe	-0.077053055
17	0x3b536a4f	0.003225941
18	0x3c3c953f	0.011510192
19	0xbd70b08c	-0.05876212
20	0xbd03886a	-0.032112516
21	0x3d7b9229	0.061418686
22	0xbad84baa	-0.0016502042
23	0xbca326c1	-0.01991594
24	0x3d7f1dba	0.06228421
25	0x3b32405e	0.002719901
26	0x3ce61def	0.028090445
27	0x3d9b8365	0.07593421
28	0xbd6a338b	-0.05717806
29	0x3cde8433	0.027162647
30	0x3ca6483e	0.02029812
31	0xbcd803a2	-0.02636892
32	0x3d97ba5b	0.07408591
33	0x3d22ac7c	0.039715275
34	0x3d102aee	0.03519719
35	0x3d5e9f63	0.05435122
36	0xbdb1a8c6	-0.08674769
37	0xbd714c35	-0.058910567
38	0xbcfd1986	-0.03089596
39	0x3d853efc	0.06506154
40	0x3da1789e	0.07884334
41	0xbc9983b9	-0.018739568
42	0xbdea07d9	-0.11427278
43	0x3c8a3d64	0.016874976
44	0xba21d5c2	-0.0006173515
45	0x3a0b20df	0.00053073274
46	0x3d4cc729	0.04999462
47	0x3d08b89f	0.033379193
48	0x3d43c013	0.047790598
49	0xbcde0da9	-0.027106123
50	0xbd3acafc	-0.045603737
51	0x3bd9628e	0.006634063
52	0x3ca3fb9c	0.020017438
53	0xbbe857cf	-0.0070905457
54	0x3dbbfc94	0.09179035
55	0xbdd389f9	-0.103290506
56	0xbd0f6728	-0.035010487
57	0xbc8b7ea6	-0.017028164
58	0x3dcd0139	0.10009999
59	0xbdbf25b4	-0.09333363
60	0x3dd264eb	0.10273155
61	0x3d8604f9	0.06543917
62	0xbde11dcf	-0.10992014
63	0xbcc15670	-0.023600787

t_model.t_model.2.weight f4 [64, 64]
0	0x3dbc3c83	0.09191229
1	0xbab24228	-0.0013600038
2	0xbd58217f	-0.05276632
3	0x3d910fbe	0.07083081
4	0x3dd5ce2b	0.10439714
5	0xbda09540	-0.07840967
6	0x3e06b479	0.13154782
7	0x3dd2f16e	0.10299955
8	0x3c3b32d5	0.0114256935
9	0xbdd8a002	-0.10577394
10	0x3d040187	0.03222802
11	0x3be09c55	0.0068545737
12	0x3dc69d26	0.096979424
13	0xbbfea610	-0.007771261
14	0x3d9a19a8	0.07524425
15	0xbd7c2de3	-0.0615672
16	0x3ce27081	0.027641537
17	0x3d8e3fdf	0.06945776
18	0x3da571fd	0.08078382
19	0xbba0b2f9	-0.0049041477
20	0x3dc0ab80	0.09407711
21	0xbddad59d	-0.10685275
22	0x3db09925	0.0862296
23	0xbc9a5d29	-0.01884325
24	0xbdb7c876	-0.08973782
25	0x3dfcde6a	0.123471096
26	0xbd9ef6bb	-0.07761904
27	0xbd97412d	-0.07385478
28	0xbdc24fd0	-0.09487879
29	0x3cf914ff	0.03040552
30	0x3de487c0	0.11158705
31	0xbc834773	-0.01602528
32	0xbd94a656	-0.072582886
33	0xbd4591c5	-0.04823472
34	0xbd89ec7a	-0.067345574
35	0x3dac880d	0.08424387
36	0x3da2dc3a	0.07952161
37	0x3da276d7	0.07932823
38	0x3dfc276b	0.12312206
39	0x3dc14179	0.09436316
40	0x3d437a94	0.04772432
41	0xbda7bd61	-0.08190418
42	0xbcd8c7ab	-0.026462397
43	0x3deeed43	0.11666348
44	0x3e005867	0.12533723
45	0x3dd1274c	0.102125734
46	0x3d803633	0.06260338
47	0xbdae1483	-0.08500006
48	0x3d8e50d1	0.06949008
49	0xbd1f0ec4	-0.03883244
50	0x3dbc82b5	0.09204618
51	0x3d0a6058	0.033783287
52	0x3d1ab85a	0.037773468
53	0x3ce9c19f	0.028534709
54	0xbcf57267	-0.029961778
55	0xbdc6ad8f	-0.097010724
56	0x3e0634f8	0.13106143
57	0xbd0580ff	-0.032593723
58	0x3ccac8a5	0.024753878
59	0x3df47009	0.119354315
60	0xbd30193a	-0.042992808
61	0xbd01ef11	-0.031722132
62	0xbc4b56e8	-0.012410857
63	0x3db34c46	0.087547824
64	0x3d1dc89e	0.0385214
65	0xbdd8c5fa	-0.10584636
66	0xbe042cf8	-0.12907779
67	0xbd556719	-0.052100275
68	0xbcc62399	-0.024186896
69	0xbd929d6b	-0.07158931
70	0xbc39ad66	-0.011332845
71	0x3de81237	0.11331599
72	0xbde90f58	-0.1137988
73	0x3c64e4f2	0.0139706
74	0xbd519a12	-0.051172324
75	0xbc9d376b	-0.019191464
76	0x3d8b4111	0.0679952
77	0x3d153922	0.03643144
78	0xbda99bbf	-0.08281659
79	0xbdde0b00	-0.10841942
80	0x3c24cd96	0.010058781
81	0x3d358e82	0.04432536
82	0xbd973ece	-0.07385026
83	0xbbee8db5	-0.0072800764
84	0x3d5cd041	0.053909544
85	0x3ca8daac	0.020612083
86	0xbd97005c	-0.073731154
87	0xbd82b22d	-0.063816406
88	0x3d0f7a99	0.035029028
89	0x3c00d57e	0.0078634005
90	0xbd82b522	-0.063822046
91	0xbc65e6e7	-0.014032102
92	0xbdf134ee	-0.11777674
93	0xbd912ce1	-0.07088638
94	0xbde49a93	-0.11162295
95	0xbcac64ce	-0.021044161
96	0xbd9dc0c8	-0.07702786
97	0x3dea74d9	0.11448068
98	0x3d069457	0.03285631
99	0x3ddd22ad	0.107976295
100	0xbc31e04c	-0.010856699
101	0xbdab8aae	-0.083760604
102	0xbd4a8192	-0.049439974
103	0x3d40150c	0.046895072
104	0x3c11bc79	0.008895033
105	0xbc669d20	-0.014075547
106	0x3d940ae0	0.07228637
107	0x3d88a048	0.06671196
108	0xbc8949bc	-0.016758792
109	0xbda0dc7e	-0.078545555
110	0x3d4b0264	0.049562827
111	0xbd00fe65	-0.03149261
112	0xbc5fda72	-0.013662921
113	0xbd19bbc7	-0.037532594
114	0x3d1e5ea7	0.038664486
115	0xbbb61d44	-0.005557688
116	0xbdfd0871	-0.12355126
117	0x3e07afb5	0.1325062
118	0x3de0713c	0.10959098
119	0x3d214177	0.039369073
120	0xbdcbc663	-0.09949949
121	0xbdd2094e	-0.10255681
122	0x3db17cf7	0.08666413
123	0x3d8d649d	0.06903956
124	0x3c561ca0	0.013068348
125	0x3df476de	0.119367346
126	0x3caf365c	0.021388225
127	0xbd808dfd	-0.06277082
128	0xbdbcddca	-0.092219904
129	0xbcbae2c1	-0.022813203
130	0xbd0120a3	-0.031525265
131	0xbd874fff	-0.06607055
132	0xbba76fc1	-0.0051097577
133	0xbbe7a4db	-0.007069213
134	0x3dec53f2	0.11539449
135	0xbd8bc757	-0.068251304
136	0x3dca390e	0.098741636
137	0x3c5e68f3	0.0135748265
138	0x3d9e1fde	0.07720922
139	0x3d5ce7c2	0.05393196
140	0xbcb7f7f3	-0.022457099
141	0xbde261a5	-0.110537805
142	0x3dba0120	0.09082246
143	0x3dbf2b2a	0.09334405
144	0x3cd8fe97	0.026488585
145	0x3d50dd2d	0.05099218
146	0x3c92c1f4	0.01791475
147	0x3dccd722	0.10001971
148	0xbd8543d9	-0.065070815
149	0xbdac6b76	-0.08418934
150	0xbcd1069f	-0.025515852
151	0x3d9533f0	0.07285297
152	0x3dc8a099	0.097962566
153	0xbdc2604a	-0.09491022
154	0x3d3ee475	0.046604592
155	0x3ddc8a20	0.10768533
156	0xbab7714d	-0.0013995558
157	0xbdc8c6e8	-0.09803563
158	0xbba37df5	-0.0049893805
159	0x3db131b5	0.08652059
160	0xbd8ca721	-0.06867815
161	0x3cb7ee78	0.022452578
162	0xbdba72e0	-0.09103942
163	0x3d432ec9	0.04765204
164	0x3db25e2b	0.08709367
165	0x3dad4cbd	0.08461902
166	0xbd654c17	-0.055980768
167	0xbdcad264	-0.0990341
168	0xbdbe4729	-0.092909165
169	0xbd26d12f	-0.040726837
170	0x3db02ef3	0.08602705
171	0x3df7dbd8	0.12102479
172	0x3e16bbb3	0.14720039
173	0xbd8f94f7	-0.07010835
174	0xbdb16c7f	-0.08663272
175	0x3dde2a8e	0.108479604
176	0xbc538972	-0.0129111875
177	0x3dece45d	0.11566994
178	0xbd98275d	-0.07429383
179	0xbd65a4f8	-0.05606553
180	0xbd2d54fe	-0.042317383
181	0xbc58f1c8	-0.013241239
182	0xbd895936	-0.06706469
183	0xbdab8ab1	-0.08376063
184	0x3dcd81fc	0.10034558
185	0x3e0252f9	0.12726964
186	0x3d20cb00	0.039256096
187	0x3cb42a78	0.021992907
188	0x3d0e64de	0.034764163
189	0x3d812219	0.06305332
190	0xbd63f344	-0.055651918
191	0xbd61c692	-0.055121012
192	0xbcf451ac	-0.0298241
193	0x3bf42be8	0.007451523
194	0x3c2a29cb	0.010385941
195	0xbd9f3ff7	-0.07775872
196	0x3d3535d4	0.044240788
197	0x3dfd0080	0.12353611
198	0x3d6d14c1	0.05788112
199	0xbde41159	-0.11136121
200	0x3bf70cec	0.007539382
201	0x3dc3e051	0.09564269
202	0x3dbfffed	0.09374986
203	0x3e10748d	0.1410696
204	0x3db6a644	0.089184314
205	0x3df1fa05	0.118152656
206	0x3d08613f	0.033295866
207	0xbdc5fd55	-0.0966746
208	0xbcd91e73	-0.026503777
209	0xbd7d2e55	-0.061811764
210	0x3d719512	0.058980055
211	0x3cf42230	0.029801458
212	0x3d918e9d	0.071072794
213	0xbd9a9cbe	-0.075494274
214	0x3e118ac3	0.1421309
215	0x3d0ae225	0.033907074
216	0xbcabd3bb	-0.020974984
217	0xbdcf39c5	-0.101184405
218	0xbd96e297	-0.07367437
219	0x3dd0a481	0.10187627
220	0x3dc71b1c	0.097219676
221	0x3daa19e5	0.0830572
222	0x3cd7d281	0.026345493
223	0xbd3de6a7	-0.046362545
224	0xbdcb8ed4	-0.09939352
225	0x3dd65b69	0.10466654
226	0x3d934aab	0.07191976
227	0x3dba5520	0.090982676
228	0x3dc26938	0.09492725
229	0xbd9b6bce	-0.075889215
230	0xbc850274	-0.016236521
231	0x3dd68d0e	0.10476123
232	0x3c2ce874	0.010553468
233	0xbc241239	-0.01001411
234	0xbd8b3a94	-0.06798282
235	0xbd05e125	-0.032685418
236	0xbdea7e21	-0.114498384
237	0x3d523c44	0.051327005
238	0xbd83281c	-0.06404135
239	0xbdbfe138	-0.09369129
240	0xbdad1c24	-0.08452633
241	0x3d8951b2	0.06705035
242	0x3dbabfb4	0.09118596
243	0x3d4ebde8	0.050474077
244	0xbdd246ce	-0.10267411
245	0x3d972802	0.07380678
246	0xbc49bb7a	-0.012312764
247	0xbc5c46d6	-0.013444623
248	0xbd857950	-0.06517279
249	0xbcf90444	-0.030397542
250	0x3d6820cb	0.0566719
251	0xbddc83ad	-0.10767303
252	0xbc0b3844	-0.0084973015
253	0xbce975ce	-0.028498556
254	0x3d4554e1	0.04817665
255	0xbd0bd222	-0.034135945

t_model.t_model.2.bias f4 [64]
0	0xbc905b41	-0.017621638
1	0xbdcec5a7	-0.10096293
2	0x3d157dc8	0.036496907
3	0x3b18c28a	0.0023309314
4	0xbd9521e9	-0.072818585
5	0x3da71d64	0.08159903
6	0x3d5d9e99	0.05410633
7	0x3debc72e	0.115126
8	0xbdadd28a	-0.08487423
9	0xbd4d24de	-0.050083987
10	0x3d63ebdd	0.05564486
11	0x3cfed12a	0.031105597
12	0xbda961d8	-0.08270615
13	0x3cf56e11	0.02995971
14	0x391517f9	0.00014218678
15	0x3e044213	0.1291583
16	0xbd31b0ed	-0.04338162
17	0xbcfa46c8	-0.03055133
18	0xbd2bc2b6	-0.041933738
19	0xbc3dd791	-0.01158704
20	0x3c3c62b3	0.011498141
21	0x3db06c92	0.08614458
22	0x3cc4168e	0.023936536
23	0xbca4af7a	-0.020103205
24	0xbbddb7f1	-0.0067663123
25	0x3d15f7a8	0.036613137
26	0xbe0e84aa	-0.13917795
27	0x3d0a3f5b	0.033751827
28	0xbca72063	-0.020401185
29	0xbd5f9dca	-0.05459384
30	0xbd96a43d	-0.07355545
31	0x3cd170b7	0.025566442
32	0xbdcd08da	-0.10011454
33	0xbd9aefa4	-0.07565239
34	0x3db7c850	0.089737535
35	0xbd5175fc	-0.05113791
36	0x3cce933d	0.025216693
37	0x3ce0cfde	0.027442869
38	0xbd4661c7	-0.04843309
39	0x3da39c26	0.07988767
40	0xbdd048a1	-0.10170103
41	0xbca3322d	-0.019921387
42	0x3dc3816a	0.09546168
43	0x3d898d24	0.067163736
44	0x3db16ea1	0.08663679
45	0x3d947b7e	0.07250117
46	0x3e1ededb	0.155147
47	0xbac30b43	-0.0014880676
48	0x3d17e79f	0.037086125
49	0x3de6076f	0.112318866
50	0xbd72fce7	-0.059323218
51	0x3d8bf969	0.068346806
52	0x3d864a41	0.065571316
53	0xba8a827e	-0.0010567454
54	0xbcf4e744	-0.029895432
55	0xbd4ba514	-0.049717978
56	0x3de3aa6f	0.11116492
57	0x3bb4d688	0.005518738
58	0x3e18fd14	0.14940292
59	0x3dffbaf9	0.12486834
60	0x3dea7c82	0.11449529
61	0x3dfc52c6	0.12320475
62	0x3dcf5776	0.10124104
63	0x3dc6fa7c	0.09715745

s_model.x_model.weight f4 [64, 32]
0	0x3d89d685	0.067303695
1	0xbe0087c3	-0.12551789
2	0x3e7a2e67	0.24431764
3	0xbd87e252	-0.06634964
4	0x3e028891	0.12747408
5	0x3e0f1c78	0.13975704
6	0xbd0ac325	-0.03387751
7	0xbb52a63f	-0.0032142547
8	0x3d72bd61	0.059262637
9	0xbd770c0c	-0.060314223
10	0x3e02bf40	0.12768269
11	0xbd3887eb	-0.045051496
12	0xbb1809f2	-0.0023199287
13	0xbdbf22cc	-0.09332809
14	0x3e25f0fb	0.16205208
15	0xbd9c68bc	-0.07637164
16	0xbd8b7be1	-0.068107374
17	0xbb164fe8	-0.0022935811
18	0x3d29c61c	0.041448697
19	0x3cded409	0.027200716
20	0xbdcf9a70	-0.101368785
21	0xbcd71c65	-0.026258657
22	0xbdc7d290	-0.097569585
23	0x3cd8fbc6	0.026487242
24	0x3d813663	0.063092016
25	0x3d814ebf	0.06313848
26	0xbe06b602	-0.13155368
27	0xbdfc20f8	-0.12310976
28	0x3e23b196	0.15985712
29	0xbdd79d84	-0.105280906
30	0x3dc18a8c	0.09450254
31	0x3d32451b	0.043522935
32	0xbe0272f0	-0.12739158
33	0xbdbfc22a	-0.09363206
34	0xbe32f570	-0.1747644
35	0x3ca45026	0.020057749
36	0xbd3df5df	-0.04637706
37	0xbdd6143d	-0.10453079
38	0x3db4f415	0.088356175
39	0x3d7daf57	0.061934795
40	0xbd0d2679	-0.03446052
41	0x3db87df9	0.090084024
42	0xbcd686ea	-0.026187379
43	0xbe4504ac	-0.19240063
44	0xbe1d3119	-0.1535076
45	0xbe1a3bda	-0.15061894
46	0xbe294f1e	-0.16534087
47	0xbdb028b0	-0.086015105
48	0xbd89edcf	-0.067348115
49	0x3e0d87a5	0.13821276
50	0xbd64f572	-0.055898137
51	0x3d8c16c6	0.06840281
52	0x3d57e5f2	0.052709527
53	0xbc93f246	-0.01805986
54	0xbdb006a9	-0.0859502
55	0x3e07f5ec	0.13277406
56	0x3b93e030	0.004512809
57	0x3c1379bd	0.009001193
58	0xbcc43ce2	-0.023954812
59	0xbe2f74ce	-0.17134401
60	0x3bc8b3b9	0.0061249402
61	0xbcf34985	-0.029698143
62	0xbe20b6f2	-0.15694788
63	0xbd5dddaf	-0.054166492
64	0x3e3862e0	0.18006468
65	0xbe0e39e6	-0.13889274
66	0xbe1215e0	-0.14266157
67	0xbdc7121c	-0.09720251
68	0xbe0f6ac4	-0.14005572
69	0x3e20427b	0.1565036
70	0xbe16deda	-0.14733449
71	0x3defb099	0.11703605
72	0x3c2a9022	0.0104103405
73	0xbe13e117	-0.14441334
74	0xbd0e798e	-0.034783892
75	0xbe1bcaa7	-0.15214024
76	0x3df7c049	0.12097222
77	0xbcff66e8	-0.031177
78	0xbe3daa0a	-0.18521896
79	0x3d15e826	0.036598347
80	0xbcf59d0a	-0.029982109
81	0x3dc375f8	0.09543985
82	0xbe6ac0cd	-0.2292511
83	0xbe4085d0	-0.18801045
84	0x3da99993	0.08281245
85	0x3d8920c4	0.06695703
86	0xbdb8e701	-0.090284355
87	0xbdd746f3	-0.10511579
88	0xbe5481f3	-0.20752697
89	0xbe1eb2e8	-0.15497935
90	0xbca458c3	-0.020061856
91	0x3d6a8f09	0.057265315
92	0xbdfd8a8a	-0.1237994
93	0xbe18eab4	-0.14933282
94	0xbcedc0e8	-0.029022649
95	0xbe3ef305	-0.18647392
96	0xbdfb02a0	-0.1225636
97	0x3d8b006d	0.067871906
98	0x3e4c75e2	0.19966844
99	0x3d910ea4	0.070828706
100	0x3d031f73	0.032012414
101	0xbd0ec9c7	-0.0348604
102	0x3de1427b	0.10999008
103	0xbd66a347	-0.056308057
104	0xbd3d2180	-0.046174526
105	0x3b5ef42f	0.0034020056
106	0x3e0f8f20	0.14019442
107	0xbe3acdcd	-0.1824257
108	0x3c97671a	0.01848178
109	0xbc6e36b9	-0.014539414
110	0x3e3d758c	0.18501872
111	0xbdc5430e	-0.0963193
112	0x3e60e723	0.21963172
113	0x3d5a864d	0.053350735
114	0x3dd8990f	0.105760686
115	0x3e16c5a3	0.1472383
116	0xbc6ed8b0	-0.0145780295
117	0x3b107f61	0.002204858
118	0x3d31c1cd	0.043397713
119	0x3de5fde5	0.11230067
120	0xbe0852a6	-0.13312778
121	0xbe285674	-0.16439229
122	0xbd9797c4	-0.07401994
123	0x3e355b2f	0.17710565
124	0xbd911e03	-0.070858024
125	0xbbccd433	-0.006250882
126	0x3ce385f9	0.027773844
127	0xbd9040ab	-0.070435844
128	0x3e040948	0.12894166
129	0x3dfde32d	0.12396846
130	0x3d9a3552	0.07529701
131	0xbe171eb8	-0.14757812
132	0x3e05ec31	0.13078381
133	0xbde66e00	-0.112514496
134	0x3c976215	0.018479386
135	0x3b5593d4	0.0032589333
136	0xbdc9b4b9	-0.09848923
137	0x3e03504d	0.12823601
138	0x3e5848ac	0.21121472
139	0x3dc297b4	0.09501591
140	0xbb4f71c5	-0.0031653505
141	0x3d9367d1	0.07197536
142	0x3c407e51	0.011748866
143	0xbd4ae1d4	-0.049531773
144	0x3de1c01f	0.11022972
145	0xbd3245fa	-0.043523766
146	0xbdf60035	-0.12011758
147	0xbe0101d9	-0.12598361
148	0x3d8d95eb	0.0691336
149	0x3dfc3cb6	0.12316267
150	0x3db7cb64	0.089743406
151	0xbc5c8771	-0.013460026
152	0x3d990061	0.074707754
153	0x3dbe3dfd	0.09289167
154	0xbdb99b81	-0.09062863
155	0xbe17e4c6	-0.14833364
156	0x3e24c471	0.16090561
157	0x3c8f0741	0.017459514
158	0x3d20a118	0.03921613
159	0xbd30cc4c	-0.043163583
160	0xbe37f30c	-0.17963809
161	0x3d351d71	0.04421753
162	0x3df696a9	0.12040455
163	0x3d8a2650	0.06745589
164	0xbcab1bde	-0.020887312
165	0x3e258ddd	0.16167398
166	0x3e3a5e2c	0.18199986
167	0x3dfbb944	0.12291196
168	0x3c73b1fc	0.014873978
169	0x3e40ba74	0.18821126
170	0x3e5ed7f0	0.21762061
171	0xbe199787	-0.1499921
172	0x3deb95ee	0.11503206
173	0x3d0af462	0.033924468
174	0x3e271444	0.16316324
175	0x3dd23358	0.10263699
176	0x3e537429	0.2064978
177	0x3e0c50b8	0.13702667
178	0x3c46e34d	0.012139154
179	0x3c8a4d4e	0.016882565
180	0x3de10ab2	0.10988368
181	0xbd534891	-0.051582877
182	0x3d8cd650	0.06876814
183	0x3e5b5199	0.21417846
184	0xbd17c210	-0.037050307
185	0xbdf56d8e	-0.119837865
186	0xbd000edb	-0.031264167
187	0xbc77b288	-0.015118249
188	0x3dbc15ff	0.09183883
189	0x3ca5b4be	0.020227786
190	0xbdc18b7c	-0.09450433
191	0x3de8b56c	0.113627285
192	0xbe43b858	-0.1911329
193	0x3cf2eb05	0.029653082
194	0xbc2ded9d	-0.010615733
195	0x3d0b3665	0.03398742
196	0x3e3d09ee	0.18460819
197	0xbcc4addf	-0.02400869
198	0x3da27880	0.0793314
199	0xbd6999a4	-0.05703129
200	0x3e154b0c	0.1457941
201	0xbdc82ac0	-0.09773779
202	0x3e1f8d3b	0.15581219
203	0xbe3778de	-0.17917201
204	0x3cd63a71	0.026150914
205	0xbe1dd8b9	-0.15414704
206	0x3d159e24	0.036527768
207	0xbde88fc3	-0.11355545
208	0x3e61589d	0.2200646
209	0x3d2256a1	0.039633397
210	0xbd94d96e	-0.07268034
211	0xbe0903f7	-0.13380419
212	0x3e5bd4fb	0.21467964
213	0x3dfef1f9	0.12448496
214	0x3e01dbda	0.12681523
215	0xbdd08405	-0.10181431
216	0x3e0491bc	0.12946218
217	0xbdc73ba7	-0.09728175
218	0x3dbca651	0.0921141
219	0xbd61f7c0	-0.055167913
220	0x3da99182	0.082797065
221	0x3e18544f	0.14875911
222	0x3e665f95	0.22497399
223	0xbe21e5e1	-0.15810348
224	0xbddd26f8	-0.10798448
225	0x3d3ecf6c	0.04658453
226	0x3dafd5d2	0.08585705
227	0xbe09fa09	-0.13474287
228	0x3e004d7a	0.12529555
229	0x3e08f279	0.13373746
230	0x3b88d9d3	0.0041763573
231	0xbdc64e94	-0.09682956
232	0x3d5c10df	0.053727027
233	0xbd0f5a22	-0.034998067
234	0xbd545a8f	-0.051844176
235	0x3d43599a	0.047692873
236	0xbd70a253	-0.058748554
237	0x3d9b22a3	0.07574966
238	0x3c7fb015	0.015605946
239	0x3b3815b4	0.0028089108
240	0x3da0b742	0.07847454
241	0x3da123d7	0.07868164
242	0x3e064fc7	0.1311637
243	0x3e3aa8d8	0.18228471
244	0x3e319f2b	0.17345874
245	0x3df6aa53	0.120442055
246	0x3e088cef	0.13335012
247	0xbdcba39f	-0.099433176
248	0x3d0dd66a	0.03462831
249	0x3d5ecc80	0.054394245
250	0x3da0701a	0.07833882
251	0xbc512f6a	-0.012767652
252	0x3d1f3e6d	0.038877893
253	0xbe07b221	-0.13251545
254	0xbdbb9d46	-0.09160857
255	0x3dfd4ff5	0.12368766

s_model.x_model.bias f4 [64]
0	0x3daf62da	0.08563776
1	0x3d92b4f6	0.07163422
2	0xbdc884c2	-0.097909465
3	0xbcd2c3d8	-0.025728151
4	0x3e3cbc0f	0.18431114
5	0x3dd851ef	0.105625026
6	0x3d741c90	0.05959755
7	0x3e2baf08	0.16765988
8	0x3ce9f819	0.028560685
9	0x3da0874f	0.07838308
10	0x3e1d0bf0	0.15336585
11	0x3df85d80	0.12127209
12	0xbddbced7	-0.10732811
13	0xbd65892b	-0.056039017
14	0x3dc803b0	0.09766328
15	0xbc94cc73	-0.018163895
16	0xbdec3e34	-0.11535302
17	0x3d56926a	0.052385725
18	0x3e123f91	0.14282061
19	0xbd7d952d	-0.061909843
20	0xbd3e785f	-0.046501514
21	0x3d87a428	0.06623107
22	0x3ddb6f60	0.107146025
23	0x3df8040f	0.12110149
24	0x3e340694	0.17580634
25	0x3e176c28	0.14787352
26	0xbdaa997b	-0.08330055
27	0xbdf37d72	-0.11889161
28	0xbcd26b95	-0.025686065
29	0x3d68315f	0.05668771
30	0xbd05baf4	-0.032648996
31	0x3d49f07e	0.049301617
32	0xbdf0ed9f	-0.117640726
33	0x3e087185	0.13324554
34	0xbd1a64a6	-0.037693642
35	0x3e0c29a8	0.13687766
36	0x3d7119bf	0.058862444
37	0xbe0babf0	-0.13639808
38	0x3cee8842	0.029117707
39	0x3e18b144	0.14911371
40	0x3dfb7e41	0.122799404
41	0x3d146086	0.036224864
42	0xbdfccdd1	-0.12343944
43	0x3c2b52fe	0.010456799
44	0x3e045514	0.1292308
45	0x3d9cbc61	0.07653118
46	0x3e23b565	0.15987165
47	0xbd6f80a5	-0.058472294
48	0x3d638fba	0.05555699
49	0x3e45b19d	0.19306035
50	0xbdaf891a	-0.08571072
51	0x3e0cb125	0.1373945
52	0xbdf22a2b	-0.11824449
53	0xbdb59608	-0.08866507
54	0xbe35617d	-0.1771297
55	0x3d9df4fc	0.07712743
56	0x3dfc9f85	0.123351134
57	0xbcbcea80	-0.023061037
58	0xbcd16bfe	-0.02556419
59	0x3b80e16a	0.0039331215
60	0xbdc07d24	-0.09398869
61	0x3dd08edd	0.10183499
62	0x3c7aeac1	0.015314759
63	0x3da70f08	0.08157164

joint_model.model.1.0.weight f4 [64, 64]
0	0x3c2b580a	0.010458002
1	0xbd81171b	-0.06303235
2	0xbe0a627a	-0.13514128
3	0xbd1de09f	-0.038544293
4	0x3df7413a	0.12072988
5	0x3d051361	0.032489184
6	0x3e28c8d3	0.16482858
7	0xbd577591	-0.052602354
8	0xbd7d4035	-0.06182881
9	0x3df2fe0b	0.11864861
10	0xbd493b32	-0.04912872
11	0xbdd1c9bc	-0.10243556
12	0xbe137e97	-0.14403759
13	0x3d4c4d63	0.04987849
14	0x3e102b4a	0.14079013
15	0x3ce9a978	0.028523192
16	0xbd52e077	-0.051483598
17	0x3e238853	0.15969972
18	0x3dca74b9	0.09885544
19	0x3dd7112d	0.10501323
20	0x3d760cb3	0.060070705
21	0x3d8a97ce	0.06767236
22	0x3d525e2a	0.051359333
23	0xbde77f1f	-0.11303543
24	0xbda04046	-0.07824759
25	0xbbe52958	-0.006993454
26	0xbc8922f5	-0.016740302
27	0xbe42e2b6	-0.19031796
28	0xbdd73382	-0.10507871
29	0x3dba8856	0.09108035
30	0x3ca9f1e8	0.020745233
31	0xbadd96ac	-0.0016905866
32	0xbdedd862	-0.11613537
33	0xbe012675	-0.12612326
34	0x3db57dbd	0.08861873
35	0x3d6cd704	0.057822242
36	0xbda9e7b0	-0.08296144
37	0x3d32f70f	0.043692645
38	0xbd605e2c	-0.05477731
39	0x3e02c9cb	0.1277229
40	0xbd818780	-0.06324673
41	0xbcf6909b	-0.03009825
42	0x3c15f5e9	0.009152868
43	0x3da9b28c	0.08286008
44	0x3d845bd5	0.06462828
45	0xbd6bccb0	-0.057568252
46	0xbdaa1051	-0.08303893
47	0x3dd6bb7e	0.1048498
48	0x3bd04ec9	0.006357048
49	0x3d885d91	0.066584714
50	0xbdd6a628	-0.104809105
51	0x3e07a34d	0.13245888
52	0xbd96bd65	-0.07360343
53	0x3bd2dd7a	0.0064350935
54	0x3da5f1a5	0.08102731
55	0xbdb9f940	-0.09080744
56	0xbcf04196	-0.029328149
57	0xbd496ba9	-0.04917494
58	0xbdc70595	-0.097178616
59	0x3d9f0972	0.077654734
60	0x3bf7bc3e	0.007560282
61	0xbce2bbeb	-0.027677497
62	0x3dfafb0b	0.12254914
63	0x3de1a69d	0.11018107
64	0x3ce785c6	0.02826203
65	0x3d5be44a	0.05368451
66	0xbd346740	-0.04404378
67	0x3deda21d	0.11603186
68	0xbda907e3	-0.082534574
69	0x3d65d400	0.056110382
70	0x3d86474a	0.06556566
71	0x3d664ae6	0.056223772
72	0x3dcea1b5	0.10089437
73	0x3deef8a7	0.116685204
74	0x3dc8afd9	0.09799165
75	0x3e049a32	0.12949446
76	0xbd1704a2	-0.036869653
77	0xbde05bde	-0.10955022
78	0xbdcd4456	-0.100228
79	0x3d754803	0.05988313
80	0x3c77d75f	0.015127032
81	0x3d3432b9	0.043993685
82	0x3dbf1804	0.093307525
83	0x3d7ae22c	0.06125085
84	0x3cba2859	0.022724317
85	0x3de05707	0.10954099
86	0xbdee0667	-0.11622315
87	0xbdccfb0e	-0.100088224
88	0x3e038809	0.12844862
89	0xbd3b2dbd	-0.045697916
90	0xbcdaf741	-0.026729228
91	0xbcbb4149	-0.022858279
92	0x3e004fdf	0.12530468
93	0x3c8ef1d4	0.017449297
94	0x3cd92776	0.026508074
95	0xbd7c9b45	-0.061671514
96	0xbe0e4947	-0.1389514
97	0xbd8ccd8d	-0.06875143
98	0xbdcc8509	-0.09986312
99	0x3cf274dd	0.02959674
100	0xbda18a2a	-0.07887681
101	0xbd8f8664	-0.07008055
102	0xbd3b02c4	-0.045656934
103	0x3dadd1ab	0.084872566
104	0xbd9b698e	-0.07588492
105	0x3d771fb0	0.060332954
106	0xbc6d2484	-0.014474038
107	0xbda3c6ae	-0.079968795
108	0xbd8efd87	-0.0698195
109	0x3c15fcb2	0.009154486
110	0xbd74ede3	-0.05979718
111	0xbd047cde	-0.032345645
112	0x3c181a47	0.009283609
113	0xbbdf58e0	-0.0068160146
114	0xbe001154	-0.1250661
115	0xbc2fa074	-0.010719407
116	0xbd5fd630	-0.054647624
117	0x3d782ee7	0.060591605
118	0xbe137b52	-0.14402512
119	0x3c50b06a	0.012737373
120	0x3dbca99e	0.092120394
121	0x3db769dc	0.08955738
122	0x3d4c77d7	0.049918976
123	0xbd90d1f1	-0.07071293
124	0x3e0dae76	0.13836083
125	0xbda549cb	-0.080707155
126	0x3de21a56	0.110401794
127	0x3d51541c	0.051105604
128	0x3b047236	0.0020209677
129	0x3da478cb	0.08030852
130	0x3e176670	0.1478517
131	0xbe1e7b8a	-0.15476814
132	0xbde6b81f	-0.11265587
133	0xbc8d5882	-0.017254118
134	0xbe063fb1	-0.13110234
135	0x3d4c84fd	0.049931515
136	0xbce6f1d5	-0.028191486
137	0xbd79a754	-0.060950592
138	0xbe14e6cc	-0.14541167
139	0xbe02b734	-0.12765199
140	0xbd32ce6a	-0.043653883
141	0xbd09f3a0	-0.033679605
142	0xbcab675b	-0.020923307
143	0x3b2f14b9	0.0026715233
144	0x3dda877c	0.10670373
145	0xbe1910bc	-0.1494779
146	0x3d4bec02	0.04978562
147	0x3c72dae8	0.014822699
148	0x3d87e512	0.066354886
149	0x3d514e3d	0.051100004
150	0xbcdace17	-0.0267096
151	0xbd4fcfa8	-0.050735146
152	0x3de54bb5	0.111960806
153	0xbd1a6034	-0.037689403
154	0x3d86d8a3	0.06584289
155	0x3d87bff0	0.06628406
156	0xbd40e2a2	-0.047091134
157	0x3da341f2	0.079715624
158	0x3de3df79	0.111266084
159	0xbd10dae3	-0.035364997
160	0x3e0028ea	0.12515607
161	0x3cd49cac	0.025953613
162	0x3e016bcf	0.12638782
163	0xbcc2c3ab	-0.023774942
164	0x3dadbe1b	0.08483525
165	0xbda55907	-0.08073621
166	0xbda4c877	-0.08046048
167	0xbb74d244	-0.0037356773
168	0x3d75b06f	0.059982713
169	0xbb00bf67	-0.0019645335
170	0xbdf56c50	-0.119835496
171	0x3cce0cf4	0.02515266
172	0xbc11811a	-0.008880878
173	0x3d301379	0.04298732
174	0xbdca1257	-0.09866779
175	0x3c8911e9	0.016732173
176	0xbd444df2	-0.047925897
177	0xba7ff1d6	-0.00097635144
178	0x3d5d5147	0.05403259
179	0x3d9fa46e	0.07795034
180	0x3d5b4581	0.05353308
181	0x3d924b48	0.07143265
182	0x3d9ac80e	0.07557689
183	0x3dc1ad48	0.09456879
184	0x3cb1fde4	0.02172751
185	0x3ddf2187	0.10895067
186	0xbd889015	-0.066681065
187	0x3d07b2f4	0.033129647
188	0xbdd8fa0d	-0.105945684
189	0xbded7758	-0.11595029
190	0x3c80ab82	0.015706781
191	0xbddd1826	-0.107956216
192	0x3d1bca18	0.03803453
193	0x3d6f10bd	0.058365572
194	0xbb520d30	-0.0032051317
195	0x3de1b3e5	0.1102064
196	0xbc08fd4f	-0.008361175
197	0x3df81f93	0.12115397
198	0xbda39a92	-0.07988466
199	0xbc90490a	-0.017612953
200	0x3b998af3	0.0046857535
201	0x3e0c1e69	0.13683476
202	0x3e0f25b1	0.13979222
203	0xbd36a222	-0.044588216
204	0xbdc753bf	-0.0973277
205	0xbdcf1be9	-0.10112745
206	0xbdead38a	-0.11466129
207	0x3dc46889	0.09590251
208	0x3d764403	0.060123455
209	0xbd0cc32e	-0.034365825
210	0x3ddbed70	0.10738647
211	0xbd9d8b98	-0.07692641
212	0xbced7a1c	-0.02898889
213	0x3d83ca01	0.064350136
214	0xbde379a4	-0.111071855
215	0xbcbbe868	-0.022937968
216	0xbcc29859	-0.023754286
217	0x3e02b9db	0.1276621
218	0x39e42eda	0.00043522456
219	0x3d7ce7a1	0.061744336
220	0x3e52c6e2	0.2058368
221	0x3d2ef241	0.0427115
222	0x3d19e3e1	0.037570838
223	0xbcc7184a	-0.024303574
224	0xbca2cbca	-0.019872565
225	0xbd7857f7	-0.060630765
226	0xbdaf1777	-0.085493974
227	0x3cbd6b09	0.023122327
228	0x3dd261b9	0.10272545
229	0xbe44417b	-0.19165604
230	0xbcb8b9af	-0.022549478
231	0xbbf2af4b	-0.0074061505
232	0x3d248d6b	0.04017393
233	0x3d746226	0.059663914
234	0x3e05b230	0.13056254
235	0x3ded57a9	0.115889855
236	0xbe0abe8c	-0.1354925
237	0xbd09a4fb	-0.033604603
238	0x3e0aa8a3	0.13540892
239	0xba7aac02	-0.00095623743
240	0x3e200dc3	0.1563025
241	0xbdab7037	-0.08371013
242	0xbd8c51ce	-0.068515405
243	0xbd87cbad	-0.06630645
244	0x3ddc47bb	0.10755869
245	0x3cc0f7f8	0.02355574
246	0x3ab6242b	0.0013896277
247	0x3cd4d9ff	0.025982855
248	0x3d22e2de	0.03976714
249	0xbe1441fe	-0.14478299
250	0x3c40149a	0.011723662
251	0x3d0668ff	0.032814976
252	0x3e51913f	0.20465563
253	0x3df6a341	0.12042857
254	0x3def5fb1	0.116881736
255	0xbd91e93f	-0.07124566

joint_model.model.1.0.bias f4 [64]
0	0x3d575f8b	0.05258135
1	0x3d9f2bd8	0.077720344
2	0xbdb038ab	-0.086045586
3	0xbd826ba5	-0.06368188
4	0x3d85d3d3	0.06534543
5	0x3cb0afb4	0.021568157
6	0xbd859925	-0.065233506
7	0x3dbd04ce	0.09229432
8	0xbce58fb4	-0.028022625
9	0x3db61c3c	0.08892104
10	0xbd68e558	-0.056859344
11	0x3df5b147	0.119967036
12	0x3dab4ddb	0.08364459
13	0xbd404986	-0.046945117
14	0xbd298969	-0.04139081
15	0x3d850eea	0.06496985
16	0xbdcf444c	-0.101204485
17	0xbc811fb0	-0.01576218
18	0x3cfc69fb	0.030812254
19	0x3d70072a	0.058600582
20	0xbd03171a	-0.032004453
21	0x3be13f2a	0.006873985
22	0xbd08a57a	-0.033360936
23	0x3ce4e0d7	0.027939243
24	0xbdaf73aa	-0.08566983
25	0x3df18529	0.117929764
26	0xbd5e7b5d	-0.054316867
27	0xbdc8a1ea	-0.09796508
28	0xbbc07c68	-0.0058742054
29	0xba4c8614	-0.00078019616
30	0xbd46fd26	-0.048581265
31	0xbd03ff73	-0.032226037
32	0x3d902813	0.070388936
33	0xbd519bb5	-0.051173884
34	0x394d09e5	0.0001955401
35	0x3dd0a519	0.1018774
36	0xbc668ee6	-0.014072156
37	0x3d9cf368	0.076636136
38	0xbc9f112b	-0.019417366
39	0x3c8c801b	0.01715093
40	0xbd8edc82	-0.06975652
41	0x3bf975bb	0.0076129115
42	0xbc822617	-0.015887303
43	0xbda28ba5	-0.07936791
44	0x3d431e69	0.047636423
45	0xbda514b0	-0.080605865
46	0x3d1ab55c	0.037770614
47	0x3da5ee26	0.08102064
48	0xbd2bb8ef	-0.041924413
49	0xbd850076	-0.064942285
50	0xbde3670a	-0.111036375
51	0xbe163f27	-0.14672528
52	0xbdf56c1d	-0.119835116
53	0x3da5faa7	0.08104449
54	0xbd9bfbc1	-0.076163776
55	0xbe03f3b5	-0.12885936
56	0x3d3c5636	0.045980655
57	0xbdb5b6be	-0.08872746
58	0x3db1d28a	0.08682735
59	0xbdc149a5	-0.09437875
60	0xbc2af1e6	-0.01043365
61	0x3d36dd8a	0.04464487
62	0xbe09bd98	-0.1345123
63	0x3d619ec7	0.055083062

joint_model.model.2.0.weight f4 [64, 64]
0	0x3d7f60b7	0.062348094
1	0x3e075ee5	0.13219793
2	0xbe063483	-0.13105969
3	0x3d043ca1	0.032284383
4	0xbd9c0625	-0.076183595
5	0xbdb62aca	-0.0889488
6	0xbe06aae3	-0.13151126
7	0x3da25c24	0.07927731
8	0xbcd24be6	-0.025670957
9	0x3db8cd4d	0.09023533
10	0xbc0edbcd	-0.008719397
11	0x3d86151d	0.06546996
12	0x3be3b711	0.0069493135
13	0xbdef3aa8	-0.1168111
14	0x3d6e91a7	0.058244374
15	0xbc69c206	-0.01426745
16	0xbe092c95	-0.13395913
17	0x3da0e240	0.07855654
18	0x3cae6f76	0.021293383
19	0xbd45d56d	-0.04829924
20	0x3d1e4122	0.038636334
21	0xbcbf96f6	-0.023387413
22	0x3d8f0cc1	0.069848545
23	0xbcd59ef7	-0.026076777
24	0x3c86b649	0.016444342
25	0x3dbd494a	0.092424944
26	0xbe0e5f8d	-0.13903637
27	0x3dbd8c9e	0.09255336
28	0xbdbaaef7	-0.09115403
29	0x3dee7ff6	0.116455
30	0x3d8804b7	0.06641524
31	0x3d4bfb6c	0.04980032
32	0xbd32ab18	-0.0436202
33	0xbd2ed80d	-0.04268651
34	0xbc43a017	-0.011940024
35	0xbbbd7e08	-0.0057828464
36	0xbd205ad1	-0.03914911
37	0xbda5d6bc	-0.08097598
38	0xbc0b8ef4	-0.008517969
39	0x3db03da5	0.08605508
40	0xbd7ebbae	-0.062190704
41	0xbc5c855c	-0.01345953
42	0xbde25ae1	-0.1105249
43	0x3d1c1e55	0.038114864
44	0xbd840829	-0.06446869
45	0xbd5610c4	-0.052262083
46	0x3d7aca1d	0.061227906
47	0xbd5d0436	-0.053959094
48	0xbe100154	-0.14063007
49	0xb9d06d27	-0.00039754176
50	0xbd00ef77	-0.03147837
51	0x3da4942a	0.080360726
52	0xbbdf4fe3	-0.006814943
53	0x3daa001f	0.08300804
54	0xbd9639de	-0.07335256
55	0xbdbdaaaa	-0.09261067
56	0x3a7a0426	0.00095373613
57	0xbd31866c	-0.043341085
58	0x3d9d9f02	0.07696344
59	0xbe1e3710	-0.15450692
60	0x3d47d5cb	0.048787873
61	0xbd2077a1	-0.039176587
62	0x3d25d0a4	0.04048218
63	0x3de3a710	0.11115849
64	0xbcee9c31	-0.029127212
65	0xbcc7c522	-0.024385992
66	0x3dbff83d	0.093735196
67	0x3d3db93a	0.046319224
68	0xbe052f85	-0.13006409
69	0x3d64a457	0.05582079
70	0xbd968fd4	-0.07351652
71	0x3df2441f	0.11829399
72	0x3d7183c4	0.058963552
73	0xbe16b692	-0.14718083
74	0x3c0056e7	0.007833219
75	0xbd602a80	-0.05472803
76	0x3d37ded5	0.044890244
77	0x3c7857f8	0.015157692
78	0x3da79a65	0.08183745
79	0x3c26cdde	0.0101809185
80	0x3d9cfb7c	0.07665154
81	0xbc819e92	-0.015822683
82	0x3d0c7393	0.034289908
83	0xbd91ea38	-0.07124752
84	0x3e0e8df3	0.13921337
85	0x3d136e3b	0.035993796
86	0x3c6775a2	0.014127167
87	0xbe1372dc	-0.14399284
88	0xbdee8fca	-0.11648519
89	0xbd942a75	-0.072346605
90	0x3ded19fe	0.11577223
91	0xbcfa09cf	-0.030522255
92	0x3d2e9613	0.04262359
93	0xbd807ac1	-0.062734134
94	0xbd33c57a	-0.0438895
95	0x3ddf69cc	0.10908851
96	0x3c880212	0.01660255
97	0x3da2b593	0.07944789
98	0x3d3cd45d	0.046100963
99	0xbdd9b27f	-0.106297486
100	0xbd8509ae	-0.06495987
101	0xbdbd0589	-0.09229571
102	0x3d6a4b47	0.057200696
103	0xbd850069	-0.06494219
104	0xbdbb5e0b	-0.09148797
105	0xbc6f7977	-0.014616362
106	0x3e015e1c	0.12633556
107	0xbdbec51b	-0.09314939
108	0xbdeeece7	-0.11666279
109	0x3dd7be16	0.10534303
110	0xbdb9035a	-0.090338424
111	0xbdcd19c7	-0.10014682
112	0x3d8d70ae	0.069062576
113	0xbd132b12	-0.035929747
114	0x3cb0606a	0.021530349
115	0x3d7fa69d	0.062414754
116	0x3d9cafcf	0.0765072
117	0x3c495dc5	0.012290423
118	0x3d173d50	0.036923707
119	0xbcec7c54	-0.028867878
120	0x3d911fd6	0.0708615
121	0x3c802b33	0.015645599
122	0xbd927a01	-0.07152177
123	0x3e02f45c	0.12788528
124	0xbd8a5af7	-0.067556314
125	0x3d7ede78	0.06222388
126	0x3d7ba709	0.061438594
127	0xbdd0b20d	-0.101902105
128	0xbc7b3c26	-0.015334165
129	0xbc487870	-0.012235746
130	0x3d5ff827	0.054680016
131	0x3d245e74	0.04012914
132	0xbd2e0d30	-0.042493045
133	0xbced6f15	-0.028983632
134	0x3e03ae4d	0.12859459
135	0xbd33aa48	-0.043863565
136	0xbdd44e39	-0.10366482
137	0x3d960ba9	0.07326443
138	0x3df5d3bc	0.12003276
139	0x3d959b27	0.073049836
140	0x3d0ebe53	0.034849476
141	0x3d93e75e	0.07221864
142	0xbcc05aca	-0.023480792
143	0x3db97f95	0.090575375
144	0xbda99391	-0.08280099
145	0xbd58e55d	-0.052953113
146	0xbdbe1a2f	-0.09282338
147	0xbde41136	-0.11136095
148	0xbd180ed7	-0.037123527
149	0xbd6b2b55	-0.05741437
150	0xbd97d7e5	-0.074142255
151	0x3d5ad053	0.05342133
152	0x3e112f90	0.141783
153	0x3d52be24	0.051450863
154	0xbde7def9	-0.113218255
155	0xbc2f9e73	-0.01071893
156	0x3c94d903	0.018169886
157	0x3cf155b1	0.029459806
158	0x3dff0b8b	0.124533735
159	0xbd566202	-0.05233956
160	0x3dbd0a5c	0.092304915
161	0x3d27d264	0.04097213
162	0x3c4306fe	0.011903523
163	0x3dbbe81c	0.09175131
164	0xbda486fa	-0.08033557
165	0xbd3e0b0c	-0.046397254
166	0xbde3edc8	-0.111293375
167	0x3de1266e	0.10993658
168	0xbdd2ed3d	-0.10299156
169	0x3d5ba1cd	0.053621102
170	0xbdc1da2c	-0.09465441
171	0x3e008192	0.12549427
172	0x3e1131c9	0.14179148
173	0xbd3886f1	-0.045050565
174	0xbe1f60f1	-0.15564324
175	0xbe1cff81	-0.15331842
176	0xbd3f3a3c	-0.046686396
177	0x3e04e551	0.12978102
178	0xbd962a85	-0.07332329
179	0x3e09a469	0.13441624
180	0x3db1d808	0.08683783
181	0x3c158142	0.009125056
182	0xbcb0c336	-0.021577459
183	0x3dbf63d5	0.09345213
184	0xbc3a8e77	-0.011386505
185	0x3c7843e4	0.015152905
186	0x3df1a407	0.11798864
187	0xbd285788	-0.0410991
188	0x3c3e3558	0.011609398
189	0xbe27bc12	-0.16380337
190	0xbd4a233f	-0.04935002
191	0xbcd05e8d	-0.02543571
192	0xbdc40fa9	-0.095732994
193	0x3db9534b	0.0904909
194	0x3d0557fa	0.032554604
195	0x3dd16620	0.10224557
196	0x3db41d6e	0.08794676
197	0x3c9bf0ae	0.019035663
198	0x3c90403f	0.01760876
199	0xbbfcd35d	-0.007715626
200	0x3abbc2d5	0.0014325032
201	0xbdb39973	-0.087695025
202	0x3d80ee1a	0.06295414
203	0x3e02e33d	0.12781997
204	0xbda30326	-0.07959585
205	0x3d631e2d	0.0554487
206	0xbdc71c86	-0.09722237
207	0x3ddd4d04	0.10805705
208	0x3db0b78d	0.086287595
209	0xbe027887	-0.1274129
210	0x3dd255c2	0.10270263
211	0x3dada2b9	0.084783025
212	0xbceb0e56	-0.02869336
213	0xbca38aeb	-0.019963702
214	0xbd657aac	-0.056025192
215	0xbdbef0e5	-0.09323291
216	0x3b0e437f	0.0021707711
217	0xbdc92eec	-0.09823403
218	0xbdfaf8d5	-0.12254492
219	0x3b0ea63c	0.0021766564
220	0x3dcb45a8	0.09925395
221	0x3d7febb5	0.062480647
222	0x3e012e30	0.12615275
223	0x3ce77569	0.028254228
224	0xbd812e54	-0.063076645
225	0x3cb1f3fb	0.021722784
226	0xbcc51673	-0.024058556
227	0xbd0e7651	-0.034780804
228	0x3d81aa2b	0.06331285
229	0x3d4d9800	0.050193787
230	0x3d250c72	0.040295072
231	0x3e0ec11f	0.13940857
232	0xbd36c27e	-0.044619076
233	0x3c8cd93f	0.017193435
234	0xbc827517	-0.015924973
235	0xbe1dcf87	-0.15411197
236	0x3b7ea950	0.0038858242
237	0x3cf49d1c	0.029860072
238	0x3cbd10dd	0.02307933
239	0x3de2c2c2	0.11072303
240	0xbcf88e57	-0.03034131
241	0x3c7864b1	0.015160725
242	0xbcd79f70	-0.026321143
243	0xbdf4138e	-0.11917792
244	0x3daf51bc	0.085605115
245	0x3dc592f6	0.09647171
246	0xbbccb177	-0.0062467414
247	0x3d4dab14	0.05021198
248	0xbd57f08c	-0.052719638
249	0xbd7367e2	-0.059425242
250	0x3db97044	0.09054616
251	0xbdbd45a1	-0.09241796
252	0xbcf6c903	-0.030125147
253	0x3d64e296	0.05588015
254	0xbbe82c82	-0.007085384
255	0xbd96a924	-0.0735648

joint_model.model.2.0.bias f4 [64]
0	0x3dff57c5	0.124679126
1	0xbb624cee	-0.0034530717
2	0xbd82c977	-0.063860826
3	0x3dc39b04	0.09551051
4	0x3dc591bb	0.096469365
5	0x3d61783f	0.055046316
6	0xbdf7a81c	-0.12092611
7	0x3d72862f	0.05921
8	0xbe069e42	-0.13146308
9	0x3dc1da60	0.0946548
10	0xbe057f4a	-0.13036838
11	0x3de4992b	0.11162027
12	0xbd687da5	-0.05676045
13	0x3d96f065	0.0737007
14	0x3d7c46ca	0.061590947
15	0xbe0acd0f	-0.13554786
16	0x3db5c7e3	0.08876016
17	0xbd39cc63	-0.045360934
18	0xbe044c84	-0.12919813
19	0x3c67b1c5	0.014141505
20	0xbe1a6ec4	-0.15081316
21	0x3e090d89	0.1338407
22	0xbdf191de	-0.117954
23	0x3dd706e3	0.104993604
24	0x3dcbef08	0.09957701
25	0x3dbeeff2	0.0932311
26	0x3da99051	0.08279479
27	0x3dc2a228	0.09503585
28	0x3d39601b	0.04525767
29	0xbd8a9729	-0.06767113
30	0xbc8acaa2	-0.016942326
31	0x3de9dda4	0.11419228
32	0x3dbf0d4c	0.09328708
33	0x3d2c7f74	0.042113736
34	0xbe0d04b8	-0.13771331
35	0x3d5ccbb6	0.05390521
36	0xbdea3d55	-0.114374794
37	0x3d2e8473	0.042606782
38	0xbd7ed544	-0.062215105
39	0x3d09c7a4	0.033637658
40	0xbdf2b37d	-0.11850641
41	0x3d6c4dcf	0.05769139
42	0x3ddb4fff	0.107086174
43	0xbe05f717	-0.13082539
44	0x3dd104e5	0.10206012
45	0xbddb698e	-0.10713492
46	0xbdf196c9	-0.11796338
47	0xbd57d28b	-0.052691024
48	0xbc162d51	-0.009166078
49	0xbde20a6d	-0.11037145
50	0x3d80f054	0.06295839
51	0xbdd6e19b	-0.104922496
52	0x3d6c0238	0.057619303
53	0xbd55308c	-0.05204825
54	0xbe21a78c	-0.1578657
55	0x3d0b0226	0.033937596
56	0xbdacf32a	-0.08444817
57	0xbe1bec98	-0.15226972
58	0xbdd03f53	-0.10168328
59	0x3d96d3af	0.07364594
60	0xbde7602d	-0.11297641
61	0x3ddb4965	0.10707358
62	0x3b13d98b	0.0022560086
63	0x3d69d580	0.057088375
