energy_sampling/results_pis_architectures/many_well/langevin_clipping_lgv_100.0_gfn_10000.0_gfn/fwd_bwd/fwd_tb_bwd_tb/T_100/tscale_1.0/lvr_4.0/seed_12345/model.pt (torch, 183012 bytes, 23 tensors)

t_model.timestep_phase f4 [1, 64]
000000 66 5d 70 bf cf cc cf 3e f2 5f 2c 3f 50 0f 33 3d
       -0.93892515 0.40585944 0.673339 0.043715775
000010 22 39 e7 be 3b 12 28 be 9f b4 1c 3f 2a 88 0e 3f
       -0.45160776 -0.16413204 0.61213106 0.5567652
000020 c6 db 37 bf d7 25 c9 3d 30 52 30 3f 6a 75 22 3f
       -0.7181972 0.098216705 0.6887541 0.6346041
000030 eb ec a1 be 9a 71 5c bf 61 3b 4d 3f a2 1f 39 bf
       -0.31626067 -0.8611084 0.8016873 -0.7231389
000040 a3 60 5d bf e6 67 0d bf 12 3f 3c bf 65 0d e6 bf
       -0.8647558 -0.5523666 -0.7353374 -1.7972838
000050 3b bb 45 3f 1a da 88 3f cd 4d 77 3f a8 dc a0 3c
       0.77238816 1.0691559 0.9660309 0.019636467
000060 4a 16 c5 3e 6d 6d 8d bf f5 eb 41 3f a7 9f 84 3e
       0.38493568 -1.1049019 0.75750667 0.25903055
000070 41 55 0f 40 b0 05 39 40 aa de 87 3e e5 5a 29 bf
       2.2395785 2.8909721 0.26537067 -0.6615432
000080 9e 02 4e 3f 6d 3d 88 3f 55 ee 5e bf 17 cd 20 3f
       0.80472744 1.0643746 -0.87082416 0.6281294
000090 0b b6 64 3f ef a5 eb 3e 8f e2 03 40 c9 39 f0 bf
       0.89340276 0.46025035 2.060703 -1.8767635
0000a0 fc 79 aa 3e 48 66 ad bf 68 c8 45 bf e4 34 1c 3e
       0.33296192 -1.3546839 -0.7725892 0.15254551
0000b0 da 9f d8 3f 4a f4 b6 be 94 9e 09 3f 00 14 68 3e
       1.6923783 -0.35733253 0.53757596 0.2266388
0000c0 6d 7a da bc 6c fe 0a bf 66 53 2f 3f c9 8b bc 3f
       -0.026669705 -0.54294467 0.6848663 1.4730159
0000d0 e4 42 38 3f 7c 7d 69 be e1 94 87 3e 59 a3 90 bd
       0.71977067 -0.22801775 0.26480773 -0.07062406
0000e0 20 5b 36 3f 1b a5 a8 bf 4e 4d 51 bf 8c 95 4d bf
       0.71232796 -1.3175386 -0.8175858 -0.80306315
0000f0 b5 6a ef be 60 c5 be be 7a 8b 19 be 0a d7 5f 3f
       -0.46761099 -0.3725996 -0.14994612 0.874375

t_model.pe f4 [1, 64]
000000 cd cc cc 3d 7d c5 d7 3f 16 5f 51 40 b7 6d 9b 40
       0.1 1.6857144 3.2714286 4.857143
000010 e3 2b ce 40 08 75 00 41 1e d4 19 41 34 33 33 41
       6.4428573 8.028572 9.614286 11.200001
000020 4a 92 4c 41 60 f1 65 41 76 50 7f 41 c6 57 8c 41
       12.785715 14.371429 15.957144 17.542858
000030 51 07 99 41 dc b6 a5 41 67 66 b2 41 f2 15 bf 41
       19.128572 20.714287 22.300001 23.885715
000040 7d c5 cb 41 08 75 d8 41 93 24 e5 41 1e d4 f1 41
       25.47143 27.057144 28.642859 30.228573
000050 a9 83 fe 41 9a 99 05 42 5f f1 0b 42 25 49 12 42
       31.814287 33.4 34.985714 36.57143
000060 ea a0 18 42 b0 f8 1e 42 75 50 25 42 3b a8 2b 42
       38.157143 39.74286 41.32857 42.914288
000070 00 00 32 42 c6 57 38 42 8b af 3e 42 51 07 45 42
       44.5 46.085716 47.67143 49.257145
000080 16 5f 4b 42 db b6 51 42 a0 0e 58 42 66 66 5e 42
       50.842857 52.42857 54.014282 55.6
000090 2c be 64 42 f1 15 6b 42 b6 6d 71 42 7c c5 77 42
       57.185715 58.771427 60.35714 61.942856
0000a0 42 1d 7e 42 84 3a 82 42 66 66 85 42 49 92 88 42
       63.528572 65.11429 66.7 68.28571
0000b0 2c be 8b 42 0e ea 8e 42 f1 15 92 42 d4 41 95 42
       69.87143 71.45714 73.042854 74.62857
0000c0 b7 6d 98 42 9a 99 9b 42 7c c5 9e 42 5f f1 a1 42
       76.21429 77.8 79.38571 80.97143
0000d0 42 1d a5 42 24 49 a8 42 07 75 ab 42 ea a0 ae 42
       82.557144 84.14285 85.72857 87.314285
0000e0 cd cc b1 42 b0 f8 b4 42 92 24 b8 42 75 50 bb 42
       88.9 90.48572 92.07143 93.65714
0000f0 58 7c be 42 3a a8 c1 42 1d d4 c4 42 00 00 c8 42
       95.24286 96.82857 98.41428 100.0

t_model.t_model.0.weight f4 [64, 128]
000000 57 9a 7e 3d c5 fd 54 be 0c 22 6a 3d 40 f7 d3 3d
       0.06215891 -0.2079993 0.057161376 0.103498936
000010 21 7b 95 bc 2a 9d c3 3d 6a b6 63 3c 73 db 05 3e
       -0.018247189 0.09551461 0.013898471 0.13071994
000020 a1 e8 ab 3c e0 4e 19 3c a0 aa aa 3c 65 42 68 3d
       0.02098495 0.009357184 0.020833313 0.056703944
000030 69 2a 2c bc 15 13 b2 bb 27 16 30 3c f9 91 80 bc
       -0.010508158 -0.0054344037 0.010747469 -0.015694605
000040 c8 d1 9c 3d de af 45 bd a3 93 ff 3c f2 d0 a9 bd
       0.076572 -0.048263423 0.031198328 -0.08291806
000050 5d 4b 41 bd 24 01 7b 3d 1b d3 74 3d 78 36 d3 bc
       -0.047191013 0.061280385 0.05977164 -0.025782809
000060 f6 9c 97 3c 57 00 f7 bc cc 97 fe ba 0e 9f 92 b9
       0.018507462 -0.03015153 -0.0019423901 -0.00027965795
000070 05 26 a3 bc 5a f5 85 3d 7e 16 aa 3b 7b 7b db bb
       -0.01991559 0.06540938 0.0051906696 -0.0066980696
000080 e8 e9 f2 bb ec 22 e3 3c de 51 a2 3d ae 09 b1 3c
       -0.0074131377 0.027726613 0.07925771 0.021611061
000090 ac f8 b4 3c 49 79 43 3d db 25 93 3d 9d 47 bb 3d
       0.022091232 0.04772309 0.07184955 0.091445185
0000a0 a3 80 10 bd be 36 54 3c 43 36 31 bc e8 16 88 3d
       -0.035278928 0.012952505 -0.01081616 0.06644994
0000b0 45 24 a3 3d f5 11 bb bd 25 fd 87 bd 1e 7c b6 3c
       0.07965902 -0.091342844 -0.0664008 0.02227598
0000c0 24 bf 54 3d f9 49 ec bc ca ad 95 3d 2b 5a fc 3c
       0.0519401 -0.028843867 0.07308538 0.030804714
0000d0 a1 04 dd bc c5 14 2a 3d e8 a9 53 bd 55 6d 08 bd
       -0.026979746 0.041523714 -0.051675707 -0.033307392
0000e0 9a a0 12 3d dc 25 b6 bd c3 2e 6c 3b 8a 7c 99 bc
       0.035797693 -0.0889394 0.0036038614 -0.018736143
0000f0 33 24 2f bd 95 eb 46 3a f4 f7 22 bd 54 83 01 bd
       -0.04275913 0.0007588205 -0.039787248 -0.031619385
000100 bf ca f3 bd 0e 9a 00 3e 69 66 38 3e f0 ff 09 3e
       -0.11903905 0.12558767 0.18007816 0.13476539
000110 4e 6b 06 3e 31 f3 02 bd 68 27 83 3b 01 39 be 36
       0.13126871 -0.031970207 0.0040025003 5.6690774e-06
000120 8e 86 5c bd 79 d2 e4 bb 74 44 dc bc c6 23 98 3d
       -0.05383926 -0.006983098 -0.02688811 0.07428698
000130 76 d1 1c 3c dd 4f 63 bd 0b a5 88 bc 1a ee d3 3c
       0.009571424 -0.055496085 -0.016680261 0.025870372
000140 7d 87 07 3d a1 d2 bf 3c 0e da 31 3d 44 67 d5 3b
       0.033088196 0.023415865 0.043420844 0.0065125544
000150 89 db cd bc 70 ae 7e 3c 67 0b dd bc be 04 91 bc
       -0.025129097 0.015544519 -0.026982976 -0.017702457
000160 bf f5 83 bd 98 fe 87 3d 02 db 3a bd 1b 4e 67 bd
       -0.06443357 0.06640357 -0.04561902 -0.05647097
000170 6f 90 cd bd 51 99 ad 3c 2a 86 78 3d 31 49 30 bd
       -0.10037314 0.021191271 0.060674824 -0.04303855
000180 dc 3d 12 bd 2a 58 f6 3c 41 a9 16 bc 36 c1 f4 3c
       -0.035703525 0.030071337 -0.009195627 0.029877286
000190 81 95 79 bd 08 a0 16 3d ca 61 a7 3d 82 52 88 3d
       -0.060933594 0.03677371 0.08172949 0.06656362
0001a0 72 97 18 3d 11 92 8a 3c 8d 3e b9 3a ea 11 a2 bb
       0.037253805 0.016915353 0.0014133021 -0.004945983
0001b0 ab 67 b5 3c 8f c0 ac 3d 1d f0 6e bb a8 2c 89 bc
       0.02214416 0.08435165 -0.0036459037 -0.016744927
0001c0 21 1b 1e bb 5c aa cb 3c df 54 08 3d ce 0d 9e 3d
       -0.0024125057 0.024861507 0.033284064 0.07717477
0001d0 93 60 5b 3d 52 40 8b 3c 62 d0 3b 3c 39 bd 73 3d
       0.053558897 0.016998444 0.011463257 0.05950663
0001e0 93 50 5a 3b 56 03 2f bd 07 03 3a bd 74 5a fa bc
       0.0033312186 -0.04272779 -0.045413043 -0.03056071
0001f0 c4 0e 1f 3c 02 bc 25 bd 30 ad 83 3d 16 1b bc 3c
       0.00970811 -0.0404625 0.06429517 0.022962134
000200 d4 4d 5a 3e 93 3e 1e be 54 02 17 be 78 97 78 bd
       0.21318752 -0.15453558 -0.14746982 -0.060691327
000210 4e 34 b7 3d ee 18 98 bd bb 07 2f bd f4 ba 47 3b
       0.08945523 -0.0742663 -0.04273198 0.0030476423
000220 03 83 fe 3c 41 cd 15 bd 31 0a ae 3c 14 af 9d 3d
       0.03106833 -0.0365727 0.021245094 0.07699409
000230 b0 81 3e 3d 3e 41 9b 3c 1c 40 71 bc 9c db 9c 3a
       0.0465104 0.018952008 -0.0147247575 0.0011967304
000240 31 fe 7c 3d 80 fc 28 bd bb 6b f5 3c 98 e1 6f bd
       0.061765853 -0.041256428 0.029958596 -0.058564752
000250 9f 1c 43 3c 98 72 a6 bd d2 7e a3 b9 17 fb 4d 3d
       0.011908679 -0.08127326 -0.0003118427 0.050288286
000260 62 f1 93 bd 8d 3e 83 bb 27 b2 bf bd a3 76 1a bd
       -0.072237745 -0.0040052594 -0.09360152 -0.037710797
000270 58 63 34 bc ff 6e 35 bd 75 78 80 bb e9 76 83 bd
       -0.0110100135 -0.044295307 -0.0039206096 -0.06419165
000280 59 08 c9 bc c2 8f a3 bd b6 e8 5b 3d a5 4e 9a 3d
       -0.024540113 -0.07986404 0.053688727 0.075345315
000290 aa 97 23 3d 54 ab 08 bd b7 dd 90 3d 91 14 d8 3c
       0.03993956 -0.033366516 0.07073539 0.026376994
0002a0 db de 64 bd 57 42 26 bd fe 08 8c bd 90 13 55 3c
       -0.055876594 -0.04059061 -0.068376526 0.013005152
0002b0 77 0c db bc aa 31 09 3d 7a 77 7a 3d d6 c0 44 3d
       -0.026739342 0.03349463 0.061149098 0.048035465
0002c0 56 e9 9c 3d 25 72 cc 3d 39 75 87 bc 14 5e 47 3d
       0.07661693 0.09982709 -0.016535388 0.048673704
0002d0 ee 07 04 3d 3e 31 6f 3d 3f 5a 18 bb c0 37 71 3d
       0.032234125 0.05839657 -0.002324715 0.058891058
0002e0 8f af 4f 3d 5e a4 a7 3d a5 55 29 bd 1a b8 d4 bc
       0.050704535 0.081856474 -0.041341443 -0.025966693
0002f0 69 cb 82 bd 0b 7d b7 bd 16 93 f5 bd ef 3f 35 bb
       -0.06386454 -0.08959397 -0.11990945 -0.0027656516
000300 18 0d 58 be 40 32 dd bd ae c9 fb 3d 40 d1 bd 3c
       -0.21098745 -0.108006 0.12294327 0.023171067
000310 4c da 85 bb 5f bb bc bd 35 8d 32 3e d6 72 2a 3d
       -0.004084861 -0.09215426 0.17436679 0.041613422
000320 d7 db e4 3c 1d f0 eb bc e8 89 d8 3d ee 1a 3b 3d
       0.027936859 -0.028801018 0.105731785 0.04567998
000330 81 56 80 3d 60 3f 9e ba 3c 2a c7 3d 49 96 b0 3c
       0.06266499 -0.001207333 0.097248524 0.021556037
000340 9c 70 92 3d 3e 4e a4 bd 41 1c 84 bd f5 93 36 3d
       0.07150385 -0.08022736 -0.064507015 0.044574697
000350 40 ca 39 3d 79 89 8d bd 25 74 19 3d ec 0e 56 3d
       0.045358896 -0.069109865 0.03746428 0.052260324
000360 fb 18 ff 3c 8b 01 71 3c 49 cb 22 3d b7 45 10 bd
       0.031139841 0.0147098405 0.03974465 -0.035222735
000370 c8 25 01 3e 97 56 cd bb 87 fb 2b bd d2 a2 6d bd
       0.12612069 -0.006266426 -0.041987922 -0.058016606
000380 ea 6b 52 bd 58 60 d6 3b 9f 5e 82 bb ec 3a b2 bd
       -0.051372446 0.006542247 -0.003978565 -0.08702645
000390 46 3f 62 bd 71 bd e8 3d 7a 76 dd bc 6f 2e 2b bd
       -0.055236124 0.11364258 -0.027034033 -0.04179233
0003a0 56 5b 55 3d 23 ff 55 bd e5 f7 51 bd a6 c7 20 3b
       0.052089058 -0.05224527 -0.0512618 0.0024533062
0003b0 8f 4f b5 bc e0 77 0e bd 4c db 51 3d 86 fa 34 bd
       -0.022132663 -0.03478229 0.05123453 -0.04418423
0003c0 34 67 a0 3c 27 e7 28 3d 9d 89 33 3d 5f c2 fb bc
       0.019580461 0.04123607 0.04383241 -0.030732332
0003d0 9c 52 ac bd 2b 23 66 bd b5 79 dd bc 57 f4 ff 3b
       -0.08414194 -0.056185883 -0.027035573 0.00781111
0003e0 0b 69 97 3b d9 06 87 bd f8 6e d3 bd 23 53 02 3d
       0.0046206764 -0.06593103 -0.103239 0.031817567
0003f0 98 4e 8a bd 64 fc 77 bc b6 1a a0 bd b9 e4 1c 3c
       -0.06753272 -0.015135858 -0.07817595 0.009576016

t_model.t_model.0.bias f4 [64]
000000 f0 52 15 bd 34 04 80 be 93 20 d2 bd e9 94 59 3d
       -0.03645605 -0.25003207 -0.10260119 0.053120527
000010 59 7f 82 bd 44 23 f4 bd 31 ff cb bd 34 09 c7 bc
       -0.06371946 -0.11920789 -0.09960783 -0.02429638
000020 9a a4 89 be 0f e6 69 bd cc ca 9d bd c5 f2 43 be
       -0.26883394 -0.057104167 -0.07704696 -0.19135578
000030 59 d8 0e be c5 1b 43 3e cf 52 5b be 4d df 5e 3b
       -0.13949718 0.19053562 -0.21418308 0.003400761
000040 02 4b 9b be e6 4c 71 be 39 d9 23 3d 88 86 12 be
       -0.30330664 -0.2356449 0.04000208 -0.14309132
000050 1d 1b 15 be 0f 51 e9 bd 01 b3 9e bd 14 3c b5 bd
       -0.14561124 -0.11392414 -0.07748986 -0.088493496
000060 ec d7 3c be dc 5a 4d bd c1 ce 2a bd 0b 10 11 be
       -0.18441743 -0.05013548 -0.041701082 -0.14166276
000070 8c 45 b7 be 35 c8 f8 bd 0f 55 3e 3d a4 1d ec bd
       -0.35795248 -0.121475615 0.046467837 -0.11529091
000080 72 d5 85 3d 20 15 11 be 94 dd 02 be 6e 5b ee 3d
       0.06534852 -0.14168215 -0.12779838 0.116385326
000090 7a 2f 2b be 0a 13 0a be 1d 5e c1 3c 6d ba 55 3e
       -0.1671733 -0.13483825 0.023604447 0.20871897
0000a0 6f 8b 16 bd 75 6e d9 3d a5 9e 9a be 6d 7a 4b 3e
       -0.036754068 0.10616771 -0.3019916 0.1987092
0000b0 b4 e1 fa 3c 34 a5 85 be 98 71 fe bd 19 81 9a 3d
       0.030625202 -0.26102602 -0.1242401 0.07544155
0000c0 8b 8f 93 bc d3 05 58 bd 75 90 62 be 67 62 2c bc
       -0.018012783 -0.05273993 -0.22125418 -0.010521508
0000d0 47 ab e7 bc 90 9d 74 bd ed f5 9f 3d fb bb 59 be
       -0.028279914 -0.059720576 0.078105785 -0.21263115
0000e0 08 29 9b bd 61 fe 7c be db 19 86 3d ac 8c 86 be
       -0.075761855 -0.24706413 0.065479 -0.262792
0000f0 1c 4b 2c bc 1d 71 ff 3d 1c e1 4f be e6 db 10 ba
       -0.010515954 0.124727465 -0.20300716 -0.00055259315

t_model.t_model.2.weight f4 [64, 64]
000000 5c 27 99 3c ec f4 1f bc 3e fe 99 bd 3f 54 7e 3a
       0.018695526 -0.009762984 -0.07519196 0.00097018847
000010 e4 e1 ad bc 82 94 af bd d0 4a 5b 3d 7c ca c6 bc
       -0.021225877 -0.085732475 0.053538144 -0.024266474
000020 97 3f c3 bb ad 2b b0 bd 6e e0 0d bd bc cc b9 bc
       -0.0059585082 -0.086020805 -0.03463786 -0.022680633
000030 5e 3a 9d 3d 2d 04 87 3d d1 7d c7 bc e0 5f e9 bb
       0.07677148 0.06592593 -0.024351986 -0.007122025
000040 78 21 8e bd d6 e9 33 3b 7f 71 38 3e 1a 2c c7 39
       -0.069399774 0.002745261 0.18012045 0.00037989096
000050 6a 4e 03 bc c4 79 43 be 7a 92 9f bc 63 3b f2 bd
       -0.008014301 -0.19089419 -0.019479025 -0.11827733
000060 93 b6 fb bd 3c 6b 7d bc 5a 28 88 bd a7 f7 05 be
       -0.12290683 -0.015467461 -0.066483214 -0.13082753
000070 8e aa ee bd da a1 9e bc cf fa 05 3e e1 59 e3 bd
       -0.116536245 -0.019364286 0.13083957 -0.111011274
000080 13 6a b1 3c 37 e9 bc bd 48 34 32 3c 70 0d ae 3d
       0.021657025 -0.0922417 0.010876723 0.08498657
000090 d4 ef d0 3d 2c e4 33 bc 40 c9 00 3e b2 bf 31 3e
       0.102019936 -0.010979693 0.12576771 0.17358282
0000a0 89 c0 07 3c 35 4d 18 3d 12 3f 56 bd 2f 3c 3f 3e
       0.00828565 0.037183005 -0.052306242 0.18675302
0000b0 91 e1 2a 3e 16 e7 55 3d 1f ab 17 3d ee 79 ed 3c
       0.1668761 0.052222334 0.03702843 0.028988805
0000c0 06 ba 55 3d 0a 93 74 bc 75 34 c8 3b 8f 51 8c 3d
       0.05217936 -0.014927635 0.006109769 0.068514936
0000d0 4b fa f3 bc 53 f4 d4 bd 58 d3 8f bc eb 8c 09 be
       -0.029782435 -0.10398164 -0.017556831 -0.13432662
0000e0 03 cc 5b 3d 13 52 e1 bd 82 35 27 3d e3 6f 2e 3d
       0.053661358 -0.110019825 0.040822513 0.042587172
0000f0 be 42 fb bd 8d ac 29 3d d0 50 cd bd 6c 24 36 3d
       -0.122685894 0.041424323 -0.100251794 0.04446833
000100 c3 89 57 bd 09 f9 02 be 56 31 0b be 34 b3 87 bb
       -0.052621614 -0.12790312 -0.13593039 -0.0041412357
000110 88 bb 71 bd ae 41 ec bd b0 21 47 3d bd 7b 8c 3d
       -0.059016734 -0.11535965 0.04861611 0.06859539
000120 df 77 11 be 27 b5 12 bd f1 62 7a bd 90 23 b5 bd
       -0.14205883 -0.03581729 -0.061129514 -0.08844674
000130 11 28 b1 bc 79 03 01 3e c3 ac 06 be 75 d8 4b bd
       -0.02162555 0.12598981 -0.13151841 -0.049766976
000140 b6 97 33 bd c1 8f 4e bd ca 22 d7 3d 5d f5 c1 3d
       -0.043845855 -0.050430063 0.10504682 0.094706275
000150 96 e0 60 bc 09 fa f3 bc 0f 44 d7 bd a6 91 c6 bd
       -0.01372542 -0.029782312 -0.10511028 -0.09695749
000160 19 dd 04 3d 04 06 42 bd d7 4e 21 bc cf 97 18 bd
       0.032437418 -0.04736902 -0.009845457 -0.03725415
000170 a3 10 35 be fd c9 27 be b1 36 51 3d 4f a4 39 bd
       -0.17682128 -0.16385646 0.05107755 -0.045322713
000180 6c a5 f0 bc 43 36 a5 3c 10 44 89 3c f1 fb f2 3d
       -0.029375754 0.020167476 0.016756088 0.1186446
000190 ab bf f8 3c 32 1d 0a be e4 68 80 3d 1a c9 e7 3d
       0.030364832 -0.134877 0.06270006 0.11317654
0001a0 94 f2 9b 3d 61 b9 5c 3d 49 51 21 3c 57 d1 10 3e
       0.076146275 0.05388773 0.00984604 0.14142357
0001b0 26 20 b0 3d f5 89 2e be 46 7a 8e 3b 58 f7 6c 3c
       0.08599882 -0.17044814 0.004348072 0.014463268
0001c0 92 92 09 3c 28 c7 33 3d 79 96 6d bd 4f 11 6d 3d
       0.0083967615 0.043891102 -0.05800483 0.057877835
0001d0 17 f7 52 bd 34 b9 1d 3d 78 5c 90 3d e7 ec 2c 3b
       -0.051505174 0.0385067 0.07048887 0.0026386322
0001e0 ae 21 33 bd 1a bf f8 bd e0 eb c2 3d 5f e5 96 3d
       -0.04373329 -0.12145825 0.09517646 0.07367968
0001f0 50 03 4d bd f9 1c f0 3d 83 41 68 bd ed 2e b9 bc
       -0.050051987 0.11724276 -0.0567031 -0.022605384
000200 29 0f ab bd 8f 4b 03 3d b8 fd 6c bd 8b 21 f6 bd
       -0.08352501 0.03205448 -0.057859153 -0.120181166
000210 0b 92 ac bd e7 34 a9 bd 19 c3 88 3d c9 8b 0a be
       -0.08426293 -0.082620434 0.06677837 -0.13529886
000220 7f a4 0a 3e 99 6e 1f 3c 2a 34 a3 bc b3 a8 3d 3d
       0.13539313 0.009730958 -0.019922335 0.046303462
000230 02 77 ac bb 28 62 b2 bd a0 43 16 3e d1 c5 b8 3d
       -0.0052632103 -0.08710128 0.14674234 0.090221055
000240 a5 6b 07 3d da 19 dd 3d 5d c1 4f 3d c0 c0 99 3d
       0.033061642 0.107959464 0.050721515 0.07507467
000250 c5 81 ff bc 3d 25 b7 3c 2f ca 01 bd f9 b0 5d 3c
       -0.031189809 0.022356624 -0.031686958 0.013530963
000260 9a 70 31 3e a2 21 8b bd d2 9a 2f 3d 72 a6 3a 3e
       0.1732811 -0.06793524 0.042872258 0.18227556
000270 fd 66 47 3d a0 29 61 bd d8 d3 75 3a ee b9 9e 3c
       0.0486822 -0.054971337 0.00093775755 0.019375768
000280 08 34 9b 3c ac da 8d 3d 5f d6 f7 3b d1 d0 31 3d
       0.018945709 0.06926474 0.007563397 0.043412033
000290 01 ff ff 3d b4 fa 70 3c 85 e6 24 3d 2b c3 f8 bc
       0.1249981 0.01470821 0.040258903 -0.0303665
0002a0 09 7e 22 be 6d 60 43 bd 59 19 4a 3e 55 86 d3 3d
       -0.15868391 -0.04769938 0.19736232 0.10328356
0002b0 50 64 05 3d b0 0d 0d 3c 76 7c 4b 39 c3 4e 07 3e
       0.03256637 0.00860922 0.00019405954 0.13213639
0002c0 32 c1 27 39 38 30 0e 3d c5 9a 06 bd 19 35 2f bc
       0.00015998332 0.034713954 -0.032862443 -0.010693812
0002d0 f5 5b a8 bd 34 b3 53 bd 96 af d9 bd 9a 9c 6b bc
       -0.082206644 -0.051684573 -0.106291935 -0.014380598
0002e0 7b c5 a4 3d 3c 2f 18 3e 63 26 1d bd 1c be ed 3d
       0.08045479 0.14861768 -0.038366687 0.11608526
0002f0 d3 9f 04 3d 07 86 f8 3c db 8f 60 bd 63 10 42 bd
       0.032378983 0.030337347 -0.05482469 -0.04737891
000300 6b 4b b0 bc 1c ad 18 bd 0c b2 8d bc 4b d6 f7 bc
       -0.021520337 -0.037274465 -0.017296813 -0.03025355
000310 05 7e 80 3d 11 6d ad 3d 9a 71 88 3d 78 d7 00 bd
       0.06274036 0.084680684 0.06662293 -0.031455487
000320 f3 9f ba 3c d6 eb 0f 3c 52 45 8a 3d 3f c6 c6 3d
       0.022781348 0.008784255 0.06751503 0.09705781
000330 43 19 06 bd 04 b2 de 3d 9b 83 e1 3c e4 92 61 bd
       -0.032738935 0.108737975 0.027528575 -0.055071726
000340 38 a7 17 3c 78 e4 6e bd d6 8b 85 3d 53 06 ad 3d
       0.009256177 -0.058323354 0.06520812 0.08448472
000350 c6 46 a7 3d 7a 3c f9 bd 1d 13 b9 3d a7 01 92 3c
       0.08167796 -0.12169738 0.09036849 0.017823054
000360 af 41 b8 bc be 71 5b 3b a1 f5 75 bc f4 7c e3 3d
       -0.022492258 0.0033484544 -0.015012176 0.11107817
000370 ed 22 c9 3d f4 6f 86 3b ba ec 67 3b 40 be 7d bc
       0.09821115 0.0041027013 0.0035388903 -0.015487254
000380 b3 99 b9 bc 3a e3 49 3d 09 a7 51 3d d8 30 81 3d
       -0.022656297 0.049288966 0.051184688 0.06308144
000390 3e d2 5c 3d 65 1c f8 3a ad 2c 50 bb 3a a1 93 3d
       0.05391144 0.0018929361 -0.003176491 0.07208486
0003a0 1f 5f 60 3d 52 b6 b0 bc d8 70 37 bd 82 90 e1 bc
       0.054778215 -0.021571312 -0.04478535 -0.027534727
0003b0 40 df b6 3a fd d7 89 3c 1d 81 5c bd c2 23 03 bd
       0.0013952032 0.016826624 -0.05383407 -0.032016523
0003c0 38 ad 52 bb 5e 7f cc 3d d6 10 aa 3d 6b 77 8f 3d
       -0.0032146703 0.09985231 0.083039925 0.07005199
0003d0 2b c7 c9 bc 7c 23 93 3d ea e5 e1 3d 13 e5 ce 3a
       -0.024631104 0.071845025 0.11030181 0.0015784822
0003e0 7b 86 98 3c 2b d0 c8 bc f6 6e d3 3d 6f aa 84 bd
       0.018618813 -0.024513325 0.103238985 -0.0647782
0003f0 b6 09 d2 bc 66 86 e0 3c 1e 5c 4a 3d 76 78 e7 3c
       -0.025639396 0.027407836 0.049404256 0.028255682

t_model.t_model.2.bias f4 [64]
000000 e6 1b ad 3d 2b e5 47 bd 72 9f 24 bd 9b 15 42 bc
       0.08452587 -0.048802536 -0.04019112 -0.011845971
000010 3d 75 02 be 8a de 41 3e 9a 6a 09 3e 5e c8 54 3e
       -0.12740035 0.18932548 0.13419572 0.20779559
000020 2c 81 39 bd 97 4c 40 3d 6e 4a e3 3d 80 8d ea bb
       -0.045289204 0.04694804 0.11098181 -0.0071579814
000030 f9 f8 0c be 5e 94 ff 3d 6e ac 8b 3d 8a 8d 59 3e
       -0.1376685 0.12479471 0.06819998 0.21245399
000040 0b 03 b1 3d a6 ff f3 bc 1d c1 8a bc f2 cd ab bc
       0.086431585 -0.029784989 -0.016937787 -0.020972226
000050 b0 7f 95 3d 7d 77 84 3e 5a 62 ab 3d 62 ca 41 3d
       0.07299745 0.25872412 0.083683684 0.047312148
000060 6b bb 34 3e d0 3a f6 3d f3 a1 9a bd 82 95 16 3e
       0.1764962 0.12022936 -0.075504206 0.1470547
000070 e2 c3 bf 3d 39 e9 d2 3d d6 85 d5 bc 83 55 83 bb
       0.093635336 0.1029839 -0.026064795 -0.0040079965
000080 ff 08 69 3d 83 e7 93 3d b9 6f 47 3e 3b ba da 3b
       0.056893345 0.07221892 0.19476213 0.0066750324
000090 25 fd 8d ba 29 be 0d 3e e5 5b 41 3d 77 33 30 3e
       -0.0010832889 0.13842072 0.047206778 0.17207132
0000a0 f8 56 29 3c 84 85 56 bc 12 b6 1b 3c 0e dd c4 3d
       0.010335676 -0.013093356 0.009503858 0.09612475
0000b0 55 e4 e0 3d 88 fe aa 3d 7d da 6c 3e 2c 0b c2 3d
       0.10981051 0.08349329 0.23130222 0.09474787
0000c0 9b bc 5f 3c ed d7 7a 3e cb fd d0 bc 15 db 33 3e
       0.013655807 0.24496432 -0.025511643 0.17564042
0000d0 10 23 cf 3d 4d eb 7e bd d3 36 18 3d 5d 44 95 3d
       0.101141095 -0.06223612 0.03716166 0.0728843
0000e0 74 65 7d 3e 9c 2a f5 3d f6 3f 61 3e de fd 83 3e
       0.24745733 0.11971018 0.21997055 0.25779623
0000f0 3e d1 4f 3e 55 bf 47 3e a2 ad 83 3e 89 2d 44 3e
       0.20294663 0.19506581 0.2571841 0.19157995

s_model.x_model.weight f4 [64, 32]
000000 a5 9e aa 3d 66 33 f7 bc d3 07 a1 3e 0c 74 0e bd
       0.0833104 -0.030175876 0.31451282 -0.03477864
000010 c5 e7 0c 3e f4 4b 0c ba 52 b0 82 be 62 f9 a2 bc
       0.13760288 -0.0005351894 -0.25525147 -0.019894306
000020 96 59 c7 3d 19 59 33 bc 94 48 9f bc a0 06 5d bb
       0.09733884 -0.0109465355 -0.019443788 -0.0033725873
000030 00 70 4e 3d 8e b2 ef bc 8c 5c 18 3e c8 70 7f bd
       0.05039978 -0.029259946 0.14879054 -0.062363416
000040 17 b3 25 bd f1 85 a9 3c b4 eb 1d be 9d 41 b1 bc
       -0.040453997 0.020693751 -0.15421945 -0.021637732
000050 21 b0 ee be 3e f4 c9 bc c5 bc 0e bf 19 9d ce ba
       -0.4661875 -0.024652597 -0.5575679 -0.0015763371
000060 7b f4 92 bd d2 75 6b 3b d1 cf c6 bd 79 05 d8 bc
       -0.07175537 0.003592838 -0.097076066 -0.026369797
000070 a0 57 f5 3e d0 2e f0 bc 08 6d 2f 3e e7 da 86 bb
       0.47918415 -0.029319197 0.17131436 -0.0041154507
000080 29 d2 07 3e e2 52 0c b7 d3 1c 27 3d 23 1b be bb
       0.13263763 -8.363948e-06 0.040798973 -0.005801575
000090 50 22 b2 3c 05 0f 9e ba 50 d6 d8 3d 07 0d 38 bc
       0.021744877 -0.001205892 0.10587752 -0.011233575
0000a0 bc d2 fa 3d 9d 21 23 3d b2 d7 06 3e 0e 61 b7 bc
       0.12247226 0.039826978 0.13168219 -0.022385146
0000b0 0a 1a bf bd 18 1d a9 bc 4c 5c 37 bd b7 38 70 bb
       -0.093311384 -0.020643756 -0.044765756 -0.0036654898
0000c0 5a ba 1d 3d 9a 54 04 3d 19 79 85 3d da cd e1 ba
       0.038507797 0.032307245 0.06517238 -0.0017227486
0000d0 d7 42 db 3d 09 fb 13 bc d8 d7 db be 6e e1 2b ba
       0.10706108 -0.009032019 -0.42938113 -0.0006556724
0000e0 1b f7 9f 3d ce f3 c5 ba 54 56 2f 3e 8a c0 4b 3a
       0.078108035 -0.0015102567 0.17122775 0.0007772526
0000f0 b7 89 26 3e 10 0b 07 3d 82 cb 7f bf e7 ed 07 bd
       0.16263472 0.032969534 -0.99919903 -0.033185866
000100 5a c4 d0 3a e2 bc 20 3c f7 7f a0 bd 68 3f 93 3c
       0.0015927658 0.009810658 -0.07836907 0.01797457
000110 53 e4 a2 bc fa a5 89 3b 14 5f 47 ba 73 32 4c 3c
       -0.019884264 0.004200694 -0.00076054153 0.0124632
000120 9b fe 0e 3c 08 bc 5c bb 65 6f d2 bc de d6 8d 3a
       0.008727695 -0.0033681411 -0.025687883 0.0010821482
000130 57 54 85 bb cd ba 05 bd f1 d9 8c bd 2e 1e 0d bb
       -0.004068892 -0.03264885 -0.068775065 -0.002153288
000140 8a 56 bf 3c 05 4f 67 3c 5c 7a 47 bd 6c 3b 1d bc
       0.023356695 0.014117961 -0.048700675 -0.009596687
000150 30 29 ec 3b 5e 19 b4 3c f2 18 48 bd 71 61 82 bc
       0.0072070584 0.021984752 -0.048851915 -0.015915604
000160 7e 6f 8f bf 21 01 aa 3c 78 44 91 3b 07 f8 53 bc
       -1.12059 0.020752491 0.004433211 -0.012937552
000170 a3 3e d4 bc 38 47 1f bd 0c 40 73 3c 7b e2 c2 bc
       -0.025908774 -0.03888628 0.014846813 -0.023789635
000180 b5 30 7b be 5f 84 df 3c c0 dd 56 3e 72 82 11 3c
       -0.24530299 0.0272848 0.20983028 0.008881198
000190 6f cf a7 bd 91 df 5b bc 56 0a 8d 3e 2e ea 2a 3c
       -0.08193862 -0.013420002 0.27546948 0.010431809
0001a0 81 af c9 3b cf 46 ca 3c b9 3c f8 3d d6 71 fd bc
       0.006154955 0.024691967 0.12120957 -0.03093807
0001b0 bd 58 b2 3d 40 80 27 bc 53 36 e7 3e f3 e4 cb 3a
       0.08708332 -0.010223448 0.45158634 0.0015555903
0001c0 c4 d5 a5 3e ca 5e f3 bb e4 2e 40 3e a0 46 96 3a
       0.32389653 -0.007427071 0.18767887 0.001146514
0001d0 47 af 64 3d e2 3f df 3b 52 c8 01 3e 3a a3 09 bc
       0.05583122 0.0068130353 0.12674072 -0.008400733
0001e0 6f d0 22 bf 2c be 03 bb 54 79 09 bd 32 e4 e3 bb
       -0.63599294 -0.0020102365 -0.033562973 -0.0069546932
0001f0 33 94 04 3e 6a 7a 76 3b 26 d5 8e 3c 05 87 ba bc
       0.12947159 0.0037609586 0.017435621 -0.02276946
000200 3f b8 03 3d 45 9e 4f 3a bc 49 b4 3c 22 1d 50 ba
       0.032158133 0.00079200073 0.022007816 -0.00079389114
000210 31 e4 bd 3c bc 7c b8 bb 0c 19 dd bc 4b f4 2d 3c
       0.0231801 -0.005630104 -0.026989482 0.010617326
000220 83 68 0c bd 65 cd 22 bc 09 10 bd 3d cf d5 d1 3b
       -0.034279358 -0.009936665 0.09231574 0.006403662
000230 c1 2c b9 bb fd be 4e 3c 9b 4b 27 3d 5d f3 53 bb
       -0.005651087 0.012618777 0.040843587 -0.00323411
000240 c9 3a 3b 3d 41 65 1e 3c 47 9f 80 bd 60 aa fd 3b
       0.04571036 0.0096676955 -0.0628038 0.0077412575
000250 e7 9d 0c 3d a6 d5 fd 3b 61 eb 53 3c 44 90 3b 3c
       0.034330275 0.007746416 0.012934537 0.01144797
000260 d5 8c 50 3c ed 08 e7 ba a7 95 af bf 4a ed 7c 3b
       0.0127288895 -0.0017626561 -1.3717545 0.0038593584
000270 ff 37 c3 3c 2d 6d 68 bb 0b db ee bb 17 2d b0 3c
       0.023830412 -0.0035465464 -0.0072892956 0.021505876
000280 40 12 11 be f5 08 e4 bc f7 3f 69 3e 24 88 76 3d
       -0.14167118 -0.027836302 0.22778307 0.060188428
000290 be e0 33 be eb 13 27 3b b3 ea a5 3c b4 94 22 3d
       -0.17566201 0.002549405 0.020253515 0.039692596
0002a0 b5 a7 14 3e a7 ba 26 3d d3 82 1c 3e 04 70 64 bd
       0.145171 0.04070535 0.1528428 -0.05577089
0002b0 90 7e f6 3d 90 ee ed 3b 7b a6 5d 3e 0a b3 bc 3c
       0.12035859 0.007261105 0.21645539 0.023034591
0002c0 bf 59 58 3e c7 09 15 3d 83 c7 f9 bb a2 cd a4 3c
       0.21127985 0.036386278 -0.0076226606 0.020117585
0002d0 fc 28 c5 3d bf 17 c1 bc 4f 5b 28 be aa d5 76 3d
       0.09626958 -0.023570893 -0.16441081 0.06026236
0002e0 82 02 6f be 54 b8 51 bd 41 fb 51 be 9d dd 74 bd
       -0.233408 -0.05120118 -0.20506002 -0.05978166
0002f0 3b dc 33 3c 80 97 3c 3c 5f 65 3c be 44 ea 93 3d
       0.0109778 0.01151073 -0.18398045 0.07222417
000300 16 15 b9 be ff b1 4c 3b 76 cd 2c be 37 09 0f 3c
       -0.361489 0.0031234024 -0.16875252 0.008730224
000310 d2 81 23 3e 9c ba d8 ba a5 13 db bd a1 7f e9 bc
       0.15967491 -0.0016535106 -0.10697106 -0.028503241
000320 31 fb 08 3e 4b a0 9a 3c 24 0b 46 3e 9b d1 40 b9
       0.13377072 0.018875262 0.19340187 -0.00018388631
000330 0c 24 12 3c 36 da 72 bd f6 63 c1 bb 3d 1b 7d bd
       0.008919727 -0.059290133 -0.005901809 -0.061793555
000340 7a 93 87 3e 6a 5a 21 3b 38 3a 83 bd df b1 03 bd
       0.26479703 0.0024620541 -0.06407589 -0.032152053
000350 35 b3 0c 3e 36 87 6a 3d e1 ea 13 3d a0 4f 96 bd
       0.13740237 0.057257853 0.03611267 -0.07339406
000360 ca 87 21 3e e2 71 17 bd 83 4c 53 3e 38 bc 7e bd
       0.15774456 -0.03697384 0.20634656 -0.06219122
000370 28 a5 6a 3d 0b 78 d1 3c 53 dd ed 3e f6 9e f9 bc
       0.05728641 0.025569936 0.4645792 -0.030471306
000380 a5 58 da bd 5c 6c 14 3a b8 8f 03 3e 9e 09 07 bd
       -0.10661439 0.0005661899 0.12847793 -0.032968156
000390 b0 5a b5 3d 01 13 3d 3d 65 1e ba 3c 5f f1 d9 bc
       0.08855188 0.0461607 0.022719571 -0.026604353
0003a0 f8 22 82 3d 8a cf ff bc 6b db a7 be 0d 45 cc 3c
       0.06354326 -0.031226892 -0.3278459 0.02493527
0003b0 dd 2d f5 be 16 4e 5a 3c 35 70 72 bd 30 f8 94 bc
       -0.47886553 0.013324281 -0.05918904 -0.018184751
0003c0 58 59 3b 3e 6d df 20 3c ae 7b ab bd 86 e7 f9 3c
       0.182958 0.009818894 -0.083731994 0.030505907
0003d0 45 70 99 3e f5 a1 5b bc 18 bb 69 3e e2 85 08 bd
       0.29968467 -0.013405313 0.22825277 -0.033330806
0003e0 b8 5e 98 3d d1 4f e3 bc 13 66 72 3e 71 19 0f bc
       0.07439941 -0.02774802 0.2367175 -0.008734093
0003f0 1d 49 78 3e ac c9 16 bd 16 03 19 bd 5c ac 08 3d
       0.2424664 -0.036813423 -0.03735646 0.0333675

s_model.x_model.bias f4 [64]
000000 9e 4a 40 3e 1e 88 fd 3d bc c9 32 be 55 73 23 bd
       0.18778464 0.12379478 -0.17459768 -0.03990491
000010 e7 d7 04 3e cb 78 5a 3e 1b 0a 0f 3e d3 49 85 3e
       0.12972985 0.21335141 0.13968699 0.26032886
000020 ea 8f 8b 3d 36 a0 33 3e eb b5 55 3e 38 00 aa 3d
       0.06814559 0.17541584 0.20870177 0.08300823
000030 6e 2f 26 be 22 e8 1e 3d e6 b2 29 3e ed 63 85 3d
       -0.1622903 0.038795598 0.1657215 0.065132
000040 9b eb 6c 3c de b5 59 3d 2a d8 2b 3e 19 03 92 bd
       0.01446047 0.053151958 0.16781679 -0.07129497
000050 6d b8 75 3c 9c 8a 74 3e 13 e6 2a 3e 98 0a 41 3e
       0.014997584 0.23881 0.16689329 0.18851697
000060 eb d7 b7 3e 75 0b 6d 3e d6 c8 a0 bc c8 23 b7 bb
       0.3590692 0.23148902 -0.019627016 -0.0055889823
000070 0e f1 b4 3d 6c 68 5b 3e 27 2a 73 3c 23 9b a1 3c
       0.0883504 0.21426553 0.014841593 0.019727295
000080 5d 3f 21 3d 8d ee 8f 3e ce e4 89 3d 11 5d 47 3e
       0.03936707 0.28111687 0.06733094 0.19469096
000090 10 60 05 3d bb 3d d0 bc f2 80 ff 3d b3 16 77 3e
       0.032562315 -0.02542006 0.12475766 0.24129753
0000a0 d6 78 70 3e 2b 58 30 3d 2c 6c 56 be a3 74 21 3d
       0.23483595 0.043052834 -0.20939702 0.039417874
0000b0 29 10 1c 3e 74 3f b3 3d 0d b1 71 3e 18 ae 1a 3d
       0.1524054 0.08752337 0.23602696 0.037763685
0000c0 14 97 03 3d e3 c2 a6 3e 2c 94 54 bd 7b 8f 7a 3e
       0.0321265 0.32570562 -0.05189912 0.24468796
0000d0 68 51 a9 bd d5 70 19 be 0d 6e e1 bd 23 86 4c 3e
       -0.0826748 -0.14984448 -0.11007319 0.19973044
0000e0 dc ef 84 3e 80 a2 ba 3d 4e 55 38 3d 89 25 0c 3e
       0.25964248 0.09113026 0.045003228 0.13686194
0000f0 e7 76 b5 bb 65 dd 31 3e f9 5d 2f 3e c2 37 34 3e
       -0.005537856 0.17369612 0.17125691 0.17599395

joint_model.model.1.0.weight f4 [64, 64]
000000 99 4a 80 bd b1 27 8a 3c 1d 43 9a be 4b ed 82 3e
       -0.062642284 0.01686463 -0.30129328 0.25571665
000010 29 c2 7e 3d 2e 29 ca 3d e3 be 39 3e 3d 12 1e 3c
       0.062196884 0.09871136 0.18139224 0.009647903
000020 3a 3c fc 3c 55 f9 42 3e 5f 73 ac 3e 06 3d dc bc
       0.030790437 0.19040425 0.3368177 -0.026884567
000030 40 7b a3 bd 22 96 76 bd 06 87 6c 3c 81 8a 86 3d
       -0.079824924 -0.06020177 0.014436489 0.06569386
000040 b8 fd 65 bd bc f6 16 3e 98 aa 10 3e c3 e5 4d 3e
       -0.05615017 0.14742559 0.14127576 0.20107178
000050 dc 60 8a bd d4 65 69 3e 5b 42 92 3e ff 8c 81 3e
       -0.06756756 0.2279275 0.2856625 0.25302884
000060 56 de b8 bd 4a 09 89 3d c7 5d cf bd 91 3e a2 bc
       -0.09026782 0.06691225 -0.101253085 -0.019805225
000070 94 79 ae bd 51 e4 b0 3d e4 39 9b bd 96 9f a6 bd
       -0.08519283 0.08637298 -0.07579401 -0.08135907
000080 2e 89 21 be 0e bc a4 bd ff d2 e5 3d 36 c1 e5 bd
       -0.15774986 -0.08043681 0.11221885 -0.11218493
000090 c1 32 11 be c0 2c 1f bd f4 ec 53 be b5 8d 55 3e
       -0.14179517 -0.038861036 -0.20695859 0.20854838
0000a0 41 a7 8b bd 15 ac 3a be 9b c8 25 bf 5c 07 15 3e
       -0.068190105 -0.18229707 -0.64759225 0.14553589
0000b0 f7 04 da 3d b9 4c 09 bd e2 4f cf bd 81 5b aa 3c
       0.10645478 -0.033520434 -0.10122658 0.020795586
0000c0 4e 58 0b bd 0e 60 0b 3c 14 0d a7 3c 8b 3e 78 3d
       -0.03401976 0.008506788 0.020391978 0.06060652
0000d0 5d 76 6e be de b3 83 be fc e2 f0 bd 5d 48 57 3d
       -0.2328734 -0.25723165 -0.11762044 0.052559245
0000e0 01 f7 43 3e 64 a8 eb 3d 49 b2 80 be 55 e3 a8 bc
       0.19137193 0.11506727 -0.2513602 -0.020616213
0000f0 52 c9 61 3e 9f 17 3f be fa a8 95 3e 2e 68 b3 3d
       0.22049454 -0.18661354 0.2923048 0.08760105
000100 8c e7 17 3e 05 f5 ca bd c6 8c f1 bd d1 02 47 3d
       0.14834422 -0.09910015 -0.117944285 0.04858667
000110 ff d5 0e bf 7a 09 8f 3d 23 f6 18 3e 22 0e 1e 3e
       -0.5579528 0.069842294 0.14937644 0.15435079
000120 bb db b8 3e 9b a9 2b 3e 8c 85 18 bd 92 13 7e 3d
       0.3610514 0.16763918 -0.037236735 0.062030382
000130 a5 e9 dd bd 86 85 24 be 32 d4 35 3e 79 37 81 3d
       -0.1083558 -0.1606656 0.17756727 0.06309409
000140 06 d1 96 bd 64 88 0c 3e a9 55 00 3d 73 7a 84 3d
       -0.07364087 0.13723904 0.031331692 0.06468668
000150 4d 42 a7 3c f8 08 80 bd e8 06 a6 3c fa 67 1a 3e
       0.020417357 -0.06251711 0.020266965 0.15078726
000160 0a c0 61 3e bc 23 bc 3c 09 dd 69 3d 1e 27 dd 3d
       0.22045913 0.022966258 0.05709556 0.10798477
000170 48 cf 5c 3d df ce 6b bd 9f 91 fc 3c 66 8d b8 be
       0.053908616 -0.057570335 0.030831156 -0.36045378
000180 7f a5 90 3e d6 77 87 bd 25 58 81 be ea 1b 60 3d
       0.28251263 -0.06614654 -0.2526256 0.05471412
000190 81 f7 93 3c 2c 7b 26 3b e7 e6 03 3e 9e b4 f2 3d
       0.018062355 0.0025403006 0.12881051 0.11850856
0001a0 90 87 49 bd 2a 8b 1a be 5c f8 44 be 94 6f 92 be
       -0.049201548 -0.1509215 -0.19235367 -0.28600752
0001b0 18 07 f8 bd 68 0e fa bd b1 36 ae 3d 62 00 0b be
       -0.12110728 -0.12209779 0.08506525 -0.13574365
0001c0 13 dd c6 bd 5f fe 44 3e de 58 68 3e 17 43 83 3c
       -0.09710135 0.1923766 0.2269015 0.016023202
0001d0 9b 91 7a bd ad ee 97 3d 69 d6 2c 3d b1 25 8e bd
       -0.061174016 0.07418571 0.042196665 -0.06940783
0001e0 01 fa 83 bc 56 ae af bd 34 45 f3 3d 31 05 e5 bc
       -0.016110422 -0.08578174 0.11878434 -0.027956577
0001f0 2f c0 13 3e 67 3d 0a be 56 5c bd 3d 8e 23 a1 3d
       0.14428781 -0.13499986 0.09246127 0.0786811
000200 31 72 99 bd 88 46 36 3c c7 6d 8f 3d 03 d3 f9 3d
       -0.074924834 0.011125214 0.0700336 0.121984504
000210 35 04 7a bd 3c 7c c8 bd 0a ab 48 be bc a5 5e 3a
       -0.06103917 -0.09789321 -0.19596496 0.0008493324
000220 0d 99 b5 3b 65 d2 f0 3c e4 01 dc bd 09 6b 4c bd
       0.0055419267 0.029397199 -0.10742548 -0.049906764
000230 43 84 82 3d be 2b 62 bb 08 42 08 3d 0d 30 3b bd
       0.06372883 -0.0034510936 0.033266097 -0.04570012
000240 a2 f8 07 3e 5d 88 40 be b3 91 d3 bb 0a 9d 64 3d
       0.1327844 -0.18802018 -0.0064565777 0.055813827
000250 99 2c 42 bc 64 51 af 3d 47 1c 4e bd fb 5c 5b 3c
       -0.011851453 0.08560446 -0.050319936 0.0133888675
000260 e5 db a1 3d 16 b1 7d bd 4f 17 2b 3d 7c 6a 45 3c
       0.0790327 -0.06193646 0.041770276 0.012049314
000270 ed 0b 58 b8 5f 4c 35 3c 42 7b 93 3b 0e 88 5c 3c
       -5.150952e-05 0.011065572 0.0045007775 0.013460172
000280 eb 53 ef 3d e0 1c 6d bc b0 55 a8 3d 7c c4 f7 3b
       0.11685928 -0.014472216 0.082194686 0.0075612646
000290 3d 0b 90 b8 73 b3 07 be a2 45 a7 bd 12 27 3d bc
       -6.8685484e-05 -0.13252048 -0.08167578 -0.01154496
0002a0 f3 04 43 3d a3 47 9d bd 4a 5f 00 bd eb 27 26 3d
       0.04761214 -0.07679679 -0.031340875 0.040565412
0002b0 e4 a4 ab bd d2 dc cc bc 94 e7 02 be f4 bb 82 bd
       -0.0838106 -0.02500764 -0.12783653 -0.063835055
0002c0 ca 77 bb 3d c6 d8 9e bd 82 c2 78 bc c7 22 43 bc
       0.09153707 -0.0775619 -0.015183093 -0.011910147
0002d0 a5 f1 88 3c aa 89 f6 3d a2 04 37 3d b9 1d 7b 3d
       0.016716788 0.12037976 0.044682153 0.061307643
0002e0 9f 54 aa 3b 2f ea 57 bd f8 9a 5a bd 9c e4 18 3c
       0.005198076 -0.05271357 -0.053370446 0.0093318485
0002f0 b9 2d 6b bd 5a a5 13 be 9e e8 bc bb 2b 45 39 be
       -0.05741665 -0.14418545 -0.005765035 -0.18092792
000300 c8 a0 f1 bd 62 3b 2e be ac c6 a1 bd a4 04 6b 3e
       -0.11798245 -0.1701484 -0.07899222 0.22950989
000310 17 89 01 3c b1 c3 06 3e 7f ff 2f 3e e4 cf 90 3d
       0.00790622 0.13160588 0.17187308 0.07070902
000320 38 b2 f1 3d ca 1a f5 bd 0b c5 f8 3d 95 e0 db bc
       0.11801571 -0.11968 0.12146958 -0.026840487
000330 57 61 42 3c aa 5c 18 be 27 97 a9 be f3 f6 53 bd
       0.011864028 -0.14879099 -0.33123133 -0.05174918
000340 e4 60 dc 3d 56 a1 75 be 76 48 d7 be 13 b2 7e be
       0.10760668 -0.23987326 -0.4204747 -0.24872617
000350 d3 e1 74 3d 75 48 a5 bb 1d 6c be be dd 5c 19 3d
       0.059785675 -0.005044038 -0.3719186 0.037442077
000360 15 8a f2 3d 68 c5 63 bd 44 7e 60 bd 25 c1 fb 3d
       0.11842743 -0.055608183 -0.054807916 0.12292699
000370 1f dc db 3e f0 e2 7a 3d 8d 81 05 3f 87 62 48 bb
       0.42941377 0.06125158 0.52150804 -0.0030576305
000380 89 2d e5 bc 3a 2b 2c be d0 94 10 be ab c0 c0 bd
       -0.027975814 -0.16813365 -0.14119267 -0.094117485
000390 d2 72 a9 3e 20 e2 e1 be 22 a8 fb 3e 37 f4 1f be
       0.33095413 -0.44117832 0.49151713 -0.15620504
0003a0 9a 7f 58 bd 6f 56 a4 bd 2f 11 a2 3d f1 92 12 3e
       -0.052856065 -0.080242984 0.07913434 0.14313866
0003b0 f5 96 9f be fa 25 f6 3d 26 7c d7 bd 43 9e 80 3e
       -0.3116986 0.12018962 -0.10521726 0.25120744
0003c0 81 6d 98 3e 4f 51 f9 3d 54 c3 58 be 97 7c ad bd
       0.29771045 0.121737115 -0.21168262 -0.08471029
0003d0 99 bf c2 3d b7 eb ec 3c 74 b0 76 be 77 3d a3 3d
       0.095092006 0.028920991 -0.24090749 0.07970708
0003e0 89 aa 93 be f9 82 98 bd 7f 9e 90 be 53 cb 8c bc
       -0.28841045 -0.07446856 -0.28245923 -0.017186796
0003f0 06 d3 d6 3d 1d 46 0e 3f b8 04 90 3e d0 bb 20 be
       0.10489468 0.55575734 0.281286 -0.15696645

joint_model.model.1.0.bias f4 [64]
000000 ca 67 30 3e c8 f6 2f 3e 91 b9 93 be 38 92 61 bd
       0.17227092 0.17183983 -0.28852513 -0.055071086
000010 aa 93 64 3e 4b 82 ee 3c c7 e0 8c bd b9 a5 87 3e
       0.22321954 0.029114863 -0.068788104 0.26493624
000020 d1 44 35 be b5 12 67 3e 10 19 58 be b5 50 a3 3e
       -0.17702033 0.2256573 -0.2110331 0.31897512
000030 d3 15 55 3e a8 49 30 be 08 19 01 be 56 52 46 3d
       0.20809107 -0.17215598 -0.12607205 0.048418365
000040 79 7c 86 bc f9 af 0d be 88 e5 d6 3d bd f2 16 be
       -0.016416775 -0.1383666 0.10492998 -0.14741035
000050 2b bb e7 bd b8 fd ac 3d 85 82 ab 3d 2d db 26 3e
       -0.11314996 0.084468305 0.08374504 0.16294546
000060 58 91 43 be ef d1 3b 3e a4 16 7a 3d 96 85 82 be
       -0.19098413 0.18341802 0.061056748 -0.25492543
000070 c5 4d 2c 3e 06 1d 96 3d 21 65 a8 3d 0b 91 32 bc
       0.16826542 0.073297545 0.08222414 -0.010898839
000080 9f 16 3f 3d c5 d5 36 be 38 eb ed 3d 9e 72 3d 3e
       0.046652433 -0.17854984 0.1161713 0.18500754
000090 fe 6f 09 3e b0 e0 d6 bd 0d 6b 73 3d 3f 32 b1 bd
       0.13421628 -0.104920745 0.059428263 -0.08652162
0000a0 44 ac aa bd 05 6e 15 3e 0c 61 56 be e1 bb 8b be
       -0.08333638 0.1459275 -0.20935458 -0.27291778
0000b0 b8 20 1e bd 95 50 58 bd eb 7b 55 3e 11 3e 2d 3e
       -0.03860542 -0.052811224 0.20848052 0.16918208
0000c0 cb e3 1e be dc 7d c9 bd 23 c3 39 be ab dd 82 be
       -0.15516584 -0.09838459 -0.18140845 -0.25559744
0000d0 1e 7a af be 06 b4 11 3e b0 13 bb bd 55 a1 be be
       -0.34272856 0.1422883 -0.091346145 -0.37232462
0000e0 ab 2a 2d 3d 0c b5 3d be 98 d2 11 ba b0 e1 89 be
       0.04227702 -0.18526095 -0.0005562692 -0.26929998
0000f0 2c a6 9a 3d ea 81 01 3e ab 34 49 be 94 11 19 3e
       0.07551226 0.12647215 -0.19648997 0.14948112

joint_model.model.2.0.weight f4 [64, 64]
000000 5d 12 ae 3a c7 e2 26 3e 70 92 9c be f5 e3 91 3d
       0.0013280619 0.16297446 -0.30580473 0.071235575
000010 b2 e8 ec bd b5 92 3e 3e aa 97 8d 3d 9d 59 44 3d
       -0.115678206 0.18610652 0.06913693 0.047937024
000020 c7 8f 3f bd 8f a0 a0 3e 29 73 e2 bc 9d 58 1f 3d
       -0.046767976 0.31372496 -0.027642803 0.038902868
000030 ac 5d 04 3c 59 43 5f be 85 28 4e bc 31 76 9b bd
       0.008078974 -0.21803035 -0.012582903 -0.075909026
000040 0a 3d 4b be 53 78 b4 3d 91 18 51 bd eb e7 cd bd
       -0.19847503 0.088120125 -0.05104882 -0.100540005
000050 8b c7 50 be 17 5f 0e be 90 44 18 3e 46 47 69 3c
       -0.2038862 -0.13903461 0.14869905 0.014238184
000060 df 9a af bd f5 0c 1a 3e 48 c8 83 be 4b 1c 3e 3e
       -0.08574461 0.15044005 -0.2573874 0.1856548
000070 86 a6 d4 bd a9 b9 ca 3d 9c 61 63 3d d2 9d b3 3c
       -0.10383324 0.09898693 0.05551301 0.02192584
000080 dd 43 87 bd f0 d9 8e bf 78 78 b2 bd f1 19 d5 3c
       -0.06604741 -1.1160259 -0.08714384 0.026013346
000090 36 2e 74 3c ca 5d 2c be 60 a7 d6 3d 96 f4 86 bc
       0.014903596 -0.16832653 0.10481143 -0.01647405
0000a0 d2 65 ff bc 83 05 11 bd 37 02 4f be 36 60 ce 3c
       -0.031176481 -0.035405647 -0.20215689 0.025192361
0000b0 2c 06 03 3c f4 0d f8 3b 33 4e ab 3d 72 2a 17 bd
       0.007997077 0.0075700227 0.08364525 -0.036905713
0000c0 7f 48 a1 be 5f 67 4d be 10 74 33 be f1 09 2e 3d
       -0.31500623 -0.20058964 -0.17524743 0.04248995
0000d0 7f 84 99 bd 62 18 20 3d e5 d7 22 3d 18 da 1c bd
       -0.07495975 0.039085753 0.039756674 -0.038293928
0000e0 9c 38 24 3e e1 00 9e 3c bf 2b f4 3d 06 b5 38 be
       0.1603722 0.019287528 0.119224064 -0.18037805
0000f0 a8 97 8d 3e 3c c2 d7 3b 29 8c 08 bd 26 41 74 3d
       0.27654767 0.006584434 -0.033336792 0.059632443
000100 8e 1a b5 3d d8 be 0e bd 65 88 04 3d 6e a6 0a bd
       0.088429555 -0.03484997 0.03235664 -0.033850126
000110 38 0e 0d c0 16 95 99 bd 17 81 1c be d6 5a e7 3e
       -2.2039928 -0.07499139 -0.15283619 0.4518649
000120 68 64 8d 3d a1 03 eb bd 23 19 0b 3d b6 19 99 be
       0.069039166 -0.114753015 0.03395952 -0.29902428
000130 5b 36 c7 3d d1 2a 3e be 3c e2 2a 3e e8 f3 03 bd
       0.09727164 -0.1857102 0.16687864 -0.03221503
000140 98 4c 07 3d 35 56 85 3c 24 04 4e 3e a8 d9 24 be
       0.03303203 0.016276458 0.20118767 -0.16098654
000150 55 fe 6a 3e 85 e2 14 3c 9c e9 9f 3e 08 7f aa 3d
       0.22948582 0.00908721 0.31232917 0.083250105
000160 7b ff 8d ba c9 25 d0 bd 5d ca a1 3e 7b f0 8d 3d
       -0.0010833585 -0.10163457 0.31599703 0.06930634
000170 8c 5a 3a 3c 78 c4 8a bd e4 67 ca bd 23 1f 9c 3e
       0.011374127 -0.06775755 -0.09883097 0.30492505
000180 4c 03 c5 3c de d1 86 bd 43 b2 29 bc 58 04 d1 bd
       0.024049424 -0.06582998 -0.010357442 -0.10205907
000190 c6 70 cb bd 35 29 03 3e 5a c9 da 3c 58 85 79 bd
       -0.09933619 0.12808688 0.02670734 -0.060918182
0001a0 87 ac 60 be 35 0b 18 3c 18 86 72 3d e8 b9 ad bd
       -0.21940814 0.009280016 0.059209913 -0.084827244
0001b0 2a cf 27 bd 44 92 47 3d 48 1e 06 3b c1 5e 0f bc
       -0.04096905 0.048723474 0.0020464826 -0.008750618
0001c0 20 75 60 3d e9 46 ba 3d b8 0e 27 3d ee ac ff bd
       0.0547992 0.09095556 0.04078552 -0.124841556
0001d0 0d b9 8c be 3c b5 ae 3b 94 dc 82 3c db fc 43 be
       -0.27484933 0.0053316634 0.01597432 -0.19139425
0001e0 c2 ca 08 3e d2 97 99 bd ee 1e 38 bd 5a 3f d3 3d
       0.13358596 -0.074996606 -0.04495137 0.10314818
0001f0 44 51 40 bd 18 9b 63 3e 77 0b 47 bd cc 76 ba 3c
       -0.0469525 0.22227132 -0.048594918 0.022761725
000200 06 1d b5 3e 07 91 09 3e 27 a8 88 bc 5b 31 5b be
       0.35373706 0.1343423 -0.016681744 -0.21405546
000210 f2 73 7e bd 6e ea ff 3d 29 2d 5e 3b 20 dd da bb
       -0.062122293 0.12495886 0.003390143 -0.006679192
000220 d3 bd c9 bd 7f 05 f9 3d 99 ff b9 3d e5 e9 86 3d
       -0.09850659 0.121592514 0.090819545 0.065875806
000230 64 e4 5a bd 8a d4 13 be f5 e2 a5 bd 2c 49 bc 3d
       -0.053440467 -0.14436546 -0.08099929 0.09193644
000240 27 95 82 be 73 85 9c be b6 bd 83 bc f7 fc 99 3e
       -0.2550442 -0.30570564 -0.016081672 0.3007581
000250 02 ce 2b be ad bd cb 3b ec 5f e1 3c 64 e8 cf 3e
       -0.16777804 0.0062176795 0.02751156 0.40606987
000260 52 cf 11 3f 7d 9e a4 bc 3c ca 18 3e 85 9a 43 bf
       0.5695697 -0.020095104 0.14920896 -0.76407653
000270 36 22 ba 3d 20 ec 7e 3d dd ad 02 bd 0e 24 6f bd
       0.090885565 0.062236905 -0.03190409 -0.058383994
000280 3d 04 da ba f5 81 8e 3d 4b 13 5b 3a 49 40 6b 3e
       -0.0016633343 0.06958381 0.0008357062 0.22973742
000290 18 35 6c be 15 39 2c bd 92 86 0c bd 07 47 1b bd
       -0.23067129 -0.042046625 -0.034308024 -0.037909534
0002a0 70 7c 1d bf 73 cf d7 3d 87 e6 ad be 82 50 19 be
       -0.61518 0.10537615 -0.3396494 -0.14972118
0002b0 5c 02 31 bb 59 cd 90 be 89 92 45 be 6f 48 51 3e
       -0.0027009463 -0.28281668 -0.1929418 0.20437787
0002c0 0c ad a4 be 3d 30 32 3e 36 f9 64 bd 55 1c aa bc
       -0.32163274 0.17401214 -0.05590173 -0.020765463
0002d0 f9 0d 7b bb 6d 3e 73 3d 81 da cc 3d cc f2 83 be
       -0.003830789 0.059385706 0.10002614 -0.25771177
0002e0 2a 9d 82 bd e4 d8 0d bd 9f 73 d5 3d 64 0b d4 bc
       -0.06377633 -0.03463067 0.104224436 -0.025884338
0002f0 33 16 a3 3d 18 dc 83 3d c2 d0 1f 3c 6e 3d a9 be
       0.079632185 0.06438464 0.009754362 -0.3305468
000300 cd ef c7 3d a3 09 27 bd b5 83 86 be 77 fe e6 3d
       0.09762535 -0.040780675 -0.2627236 0.11279004
000310 f5 54 f2 3d 0f e4 a8 3d 50 3c 2c bd 17 b6 71 3e
       0.118326105 0.08246624 -0.042049706 0.23604618
000320 d7 cf 44 3c bd 5c 90 be 0e 62 6a 3e 52 9d cb bc
       0.0120124435 -0.28195754 0.22888967 -0.02485529
000330 16 b2 cd bd 81 88 47 be 1d 77 2d be bc 1e a1 3d
       -0.10043733 -0.19485666 -0.1693997 0.0786719
000340 66 0e e8 bc 2b 40 a1 bd 03 39 cb 3d 00 6e 24 be
       -0.028327178 -0.07873567 0.099229835 -0.16057587
000350 cd 69 20 be ac 0d 1b be 29 4c 5d be 7f 15 05 3d
       -0.1566536 -0.15141934 -0.21611084 0.032491203
000360 cd ab 40 be 3f 1a 27 3e 9c a4 af bd cf c3 83 3d
       -0.18815537 0.16318606 -0.085763186 0.06433832
000370 29 d7 32 3e 13 92 5d 3e 38 c9 af bd 82 07 4e bd
       0.1746489 0.21637754 -0.08583301 -0.05030013
000380 ad 3b a4 3d 04 38 33 3c a0 1a 0b 3c b3 3e a2 bd
       0.08019195 0.010938648 0.008490235 -0.07922115
000390 60 8b 22 be 4c cb 78 bd 92 7b 61 3e 0e 2c 09 bd
       -0.1587348 -0.060740754 0.22019795 -0.03348928
0003a0 e3 a2 9b 3c 34 f3 a0 3c cc fd d2 bd 57 00 09 be
       0.018998569 0.019647218 -0.10302314 -0.13379036
0003b0 d1 03 a8 bf a7 4e bc 3d 58 ec 98 3e b4 7d 12 3d
       -1.3126165 0.09194689 0.29867816 0.03576441
0003c0 54 35 e5 bd 53 ca 52 be eb ef d4 bc aa 39 83 bd
       -0.11191812 -0.20584993 -0.025993308 -0.06407483
0003d0 c1 cc 93 3d e1 ff 2a 3e 71 73 4a 3d 46 00 51 bd
       0.07216788 0.16699173 0.0494265 -0.05102565
0003e0 40 b8 ef bd 59 e1 a1 be 44 20 5f 3e ff 0c 0c bd
       -0.11705065 -0.3161724 0.21789652 -0.03419208
0003f0 b4 95 09 bd 33 05 33 3e b3 22 30 3e 56 d7 28 3d
       -0.033590034 0.17482452 0.17200737 0.041220985

joint_model.model.2.0.bias f4 [64]
000000 d6 8c 80 3e 62 14 a2 bd 1e 02 48 bd 61 5e 59 3e
       0.2510745 -0.07914044 -0.048830144 0.21227409
000010 b8 5d 85 3e cf f1 4d 3e 27 23 63 be ce 87 7c 3e
       0.26048064 0.20111774 -0.22181378 0.2466118
000020 43 30 34 be a9 db 72 3e 3c 22 16 be f0 99 73 3e
       -0.17596535 0.23716606 -0.14661497 0.23789191
000030 90 2c e0 bd f5 4e 8e 3e 65 f3 5b 3e e1 b2 b8 be
       -0.109459996 0.27794614 0.21479566 -0.36073974
000040 69 9f 46 3e b9 d8 3e be 08 bf 74 be 33 6e 7c 3e
       0.19396748 -0.1863736 -0.23900998 0.24651413
000050 68 c3 dc be 14 e5 8f 3e 35 56 9f be 5c 3d 6c 3e
       -0.43117833 0.2810446 -0.31120458 0.23070282
000060 08 c3 7f 3e be 9d a6 3e bd 41 8e 3e 50 cc 0c 3e
       0.24976742 0.32542223 0.2778453 0.13749814
000070 4e 39 b7 3d 71 20 6c bd c8 a4 11 3d 32 17 8a 3e
       0.08946477 -0.057648126 0.03555754 0.26970822
000080 c2 3d 87 3e 03 19 03 3e 88 2a ea be 60 11 83 3e
       0.26414305 0.1280251 -0.45735574 0.25599194
000090 70 1d 2a be bd 3d 62 3e b3 45 fe 3c 09 93 2a 3e
       -0.16612792 0.22093864 0.031039095 0.16657652
0000a0 94 34 9a be 7f 86 02 3e 2d ee 80 3e 8e dc b9 be
       -0.3011824 0.12746619 0.25181714 -0.36301082
0000b0 cf fd 69 3e 9c d5 97 be 07 c2 44 be 66 90 1d be
       0.22850727 -0.2965516 -0.1921464 -0.15387115
0000c0 52 7d 5b bd a5 80 c8 be 97 9b 62 3e e8 4d c1 bd
       -0.05358631 -0.39160648 0.22129665 -0.094386876
0000d0 68 5d 2e 3e 78 8e 6f be 07 20 90 be 28 7a 30 3e
       0.17027819 -0.23394191 -0.28149435 0.17234099
0000e0 34 51 7d be 82 4b 81 be 0a 72 63 be bf ef 36 3e
       -0.24738008 -0.2525292 -0.22211471 0.17864893
0000f0 c3 3c 9b be 76 f5 67 3e 0c 8c e0 bd e3 13 49 3e
       -0.30319795 0.2265223 -0.10964212 0.19636492
