results_pis_architectures/many_well/clipping_lgv_100.0_gfn_10000.0_gfn/bwd/bwd_tb/T_100/tscale_1.0/lvr_4.0/seed_12345/model_final.pt (torch, 184646 bytes, 23 tensors)

t_model.timestep_phase f4 [1, 64]
-0.8389797 0.3305888 0.61036724 -0.08690038 -0.5322307 -0.17799014 0.70772564 0.647075
-0.7413689 -0.0030959966 0.67702514 0.6108031 -0.4028735 -0.9093692 0.78449404 -0.7418342
-0.85905886 -0.5938303 -0.7615118 -1.8609827 0.85175353 1.1014067 1.0153003 -0.018341143
0.34633 -1.1339215 0.7665293 0.22176047 2.1841102 2.8926964 0.25022456 -0.649994
0.81934315 1.1216908 -0.85822386 0.7229294 0.8931251 0.48741025 2.0498526 -1.8261123
0.35190734 -1.2466274 -0.75894785 0.14466721 1.6675352 -0.28142518 0.6035058 0.2607503
0.017916007 -0.56289417 0.7129944 1.556323 0.79929745 -0.1840404 0.18951406 -0.019211842
0.68440855 -1.2473136 -0.8349278 -0.8502694 -0.42904684 -0.46368068 -0.19393086 0.9007636
00000000: 60c7 56bf ef42 a93e 0741 1c3f d4f8 b1bd
00000010: 4540 08bf 0c43 36be 822d 353f b5a6 253f
00000020: 5aca 3dbf 34e6 4abb 8551 2d3f 985d 1c3f
00000030: 6f45 cebe 6bcc 68bf 9ad4 483f d9e8 3dbf
00000040: 48eb 5bbf 4305 18bf 70f2 42bf ae34 eebf
00000050: 850c 5a3f e5fa 8c3f 5cf5 813f 2a40 96bc
00000060: 2a52 b13e 5724 91bf 443b 443f 2d15 633e
00000070: 76c8 0b40 f021 3940 6f1d 803e 0266 26bf
00000080: 79c0 513f 9093 8f3f 8fb4 5bbf e711 393f
00000090: d9a3 643f d68d f93e c930 0340 0cbe e9bf
000000a0: 332d b43e 7d91 9fbf 684a 42bf a423 143e
000000b0: cb71 d53f f616 90be 5b7f 1a3f 1081 853e
000000c0: 97c4 923c d519 10bf cd86 363f 9835 c73f
000000d0: c29e 4c3f 1675 3cbe f90f 423e 2762 9dbc
000000e0: 6635 2f3f f9a7 9fbf d4bd 55bf 41ab 59bf
000000f0: 07ac dbbe 8e67 edbe d095 46be 7198 663f

t_model.pe f4 [1, 64]
0.1 1.6857144 3.2714286 4.857143 6.4428573 8.028572 9.614286 11.200001
12.785715 14.371429 15.957144 17.542858 19.128572 20.714287 22.300001 23.885715
25.47143 27.057144 28.642859 30.228573 31.814287 33.4 34.985714 36.57143
38.157143 39.74286 41.32857 42.914288 44.5 46.085716 47.67143 49.257145
50.842857 52.42857 54.014282 55.6 57.185715 58.771427 60.35714 61.942856
63.528572 65.11429 66.7 68.28571 69.87143 71.45714 73.042854 74.62857
76.21429 77.8 79.38571 80.97143 82.557144 84.14285 85.72857 87.314285
88.9 90.48572 92.07143 93.65714 95.24286 96.82857 98.41428 100.0
00000000: cdcc cc3d 7dc5 d73f 165f 5140 b76d 9b40
00000010: e32b ce40 0875 0041 1ed4 1941 3433 3341
00000020: 4a92 4c41 60f1 6541 7650 7f41 c657 8c41
00000030: 5107 9941 dcb6 a541 6766 b241 f215 bf41
00000040: 7dc5 cb41 0875 d841 9324 e541 1ed4 f141
00000050: a983 fe41 9a99 0542 5ff1 0b42 2549 1242
00000060: eaa0 1842 b0f8 1e42 7550 2542 3ba8 2b42
00000070: 0000 3242 c657 3842 8baf 3e42 5107 4542
00000080: 165f 4b42 dbb6 5142 a00e 5842 6666 5e42
00000090: 2cbe 6442 f115 6b42 b66d 7142 7cc5 7742
000000a0: 421d 7e42 843a 8242 6666 8542 4992 8842
000000b0: 2cbe 8b42 0eea 8e42 f115 9242 d441 9542
000000c0: b76d 9842 9a99 9b42 7cc5 9e42 5ff1 a142
000000d0: 421d a542 2449 a842 0775 ab42 eaa0 ae42
000000e0: cdcc b142 b0f8 b442 9224 b842 7550 bb42
000000f0: 587c be42 3aa8 c142 1dd4 c442 0000 c842

t_model.t_model.0.weight f4 [64, 128]
-0.04935485 -0.061903987 0.08085318 0.08925336 -0.07952477 0.06320447 -0.02959784 0.03304808
-0.08186503 0.048407093 0.10057294 0.10029696 0.05548229 0.09223063 -0.10048201 -0.030265281
-0.007383545 -0.09608184 0.07563075 -0.04931201 -0.07870891 0.012132707 -0.027802387 -0.08321073
-0.063931465 -0.059948526 -0.017352542 -0.04054498 -0.030827029 0.10005611 -0.058226343 -0.07086888
-0.056312192 0.060029726 0.0013881285 0.06665003 0.09241388 0.10975769 0.12234799 0.029163316
0.03393459 0.018012187 0.04460875 0.069710195 0.09332964 -0.039403886 -0.0632003 -0.0021551433
-0.0010592242 -0.07700344 0.06792508 0.09020096 0.038950108 0.096319914 0.004954221 -0.017394416
0.0759707 -0.0553484 0.061872423 0.016087504 -0.04777774 0.018310698 -0.019377206 -0.070975505
-0.0006417177 0.10293602 -0.038985394 -0.05731142 0.050342448 -0.056587685 -0.014424632 0.03829942
-0.01594871 0.07930207 -0.05796623 0.016549787 0.014394466 -0.050409544 -0.08219801 -0.08769532
-0.02244905 0.091203086 0.104911685 0.07586256 -0.096115865 -0.039359864 -0.06281955 -0.08942781
-0.08920517 -0.0032787248 -0.023701172 -0.06501439 -0.06717399 0.06292512 0.0500052 -0.10641792
0.04511929 0.110272944 0.004432317 0.11078259 0.0017070852 0.09578096 0.017417025 0.099497624
0.0687114 0.08629259 0.020783143 -0.026415374 0.0029047597 0.08991797 -0.051884595 -0.05210161
-0.019190747 0.007582224 0.083197266 0.09960535 0.08297094 0.06436191 -0.0012592002 0.07702927
0.007015314 0.011057008 -0.031625785 -0.06146083 0.0026744711 -0.03940932 0.046024986 0.008636372
-0.018149855 0.043812674 0.004493152 -0.02003402 0.10159164 0.045959253 0.045217127 0.016589556
0.046129808 0.019289985 0.062965825 0.08811841 0.053321168 0.04231421 0.033429388 0.055016708
0.06644103 -0.047154404 0.03930219 -0.12002391 0.063988954 -0.03250432 0.018724363 0.068565115
-0.028432192 -0.020177724 -0.029743722 0.010010168 -0.022986863 -0.11885205 0.061758053 -0.013102148
-0.019319724 -0.117144994 0.10193061 0.046583906 0.04343036 -0.018439483 -0.02437212 0.10902983
-0.108519964 -0.061837547 -0.05491104 -0.043323405 -0.03911436 -0.0054632644 0.031114371 0.008136881
-0.01763948 0.018202402 -0.07152421 0.072275974 0.017500909 0.0013981513 -0.05829918 -0.02625407
0.04771489 -0.024461677 -0.09778721 -0.10276786 -0.13381769 -0.121811815 -0.0955902 0.042678464
0.011061253 0.01866637 0.03862491 0.02460732 0.08695771 -0.006340584 0.07749562 -0.029746408
0.05039915 0.02671932 0.122761585 0.073795594 0.11898809 0.07765768 0.023459421 0.030232346
0.078726284 -0.017438155 0.0071061123 0.08661477 0.018681211 -0.105281964 0.0013049615 0.04384057
0.042658295 0.06158943 0.033154335 -0.015173352 0.0435252 -0.041631535 -0.08690258 -0.031430267
-0.09920195 -0.061200377 -0.051062655 -0.106382206 -0.095833555 0.043059044 0.015373576 -0.08989271
0.06151187 -0.06250282 -0.07044342 -0.046664126 0.03786681 -0.061873425 0.061557658 -0.06473261
-0.008622789 -0.0028027322 0.10103697 0.05866356 -0.018063845 -0.037754342 0.02020709 0.058384895
0.12544855 -0.08224892 -0.08799296 0.04769683 0.030882139 0.097185224 -0.014601936 0.0350766
00000000: 5028 4abd 098f 7dbd 5a96 a53d 77ca b63d
00000010: e2dd a2bd 5871 813d 2b77 f2bc 6c5d 073d
00000020: daa8 a7bd 8446 463d 30f9 cd3d 7e68 cd3d
00000030: 6641 633d 6ae3 bc3d 83c9 cdbd e5ee f7bc
00000040: aaf1 f1bb 8ec6 c4bd 4be4 9a3d 64fb 49bd
00000050: 2332 a1bd 43c8 463c d5c1 e3bc 636a aabd
00000060: 80ee 82bd 968c 75bd eb26 8ebc 7e12 26bd
00000070: f788 fcbc 38ea cc3d bf7e 6ebd b423 91bd
00000080: 9da7 66bd bbe1 753d ddf1 b53a d07f 883d
00000090: 7d43 bd3d a4c8 e03d 9591 fa3d e8e7 ee3c
000000a0: fffe 0a3d 4b8e 933c aab7 363d 38c4 8e3d
000000b0: 9c23 bf3d f865 21bd 296f 81bd 4e3d 0dbb
000000c0: abd5 8aba fbb3 9dbd 4e1c 8b3d 48bb b83d
000000d0: 268a 1f3d 6043 c53d 0557 a23b bc7e 8ebc
000000e0: 8796 9b3d 01b5 62bd f06d 7d3d f1c9 833c
000000f0: 97b2 43bd 5100 963c f2bc 9ebc 9b5b 91bd
00000100: f238 28ba 1fd0 d23d 26af 1fbd 61bf 6abd
00000110: e233 4e3d 7dc8 67bd 4b55 6cbc dadf 1c3d
00000120: dea6 82bc 2069 a23d ff6d 6dbd 6b93 873c
00000130: c4d6 6b3c 3d7a 4ebd 6e57 a8bd 9b99 b3bd
00000140: 12e7 b7bc afc8 ba3d f0db d63d d45d 9b3d
00000150: 65d8 c4bd cf37 21bd 89a7 80bd ed25 b7bd
00000160: 33b1 b6bd e0df 56bb f628 c2bc 4426 85bd
00000170: 8492 89bd e3de 803d 41d2 4c3d a3f1 d9bd
00000180: 01cf 383d c8d6 e13d f83c 913b fce1 e23d
00000190: 46c0 df3a cf28 c43d 26ae 8e3c 69c5 cb3d
000001a0: 90b8 8c3d 2bba b03d 6941 aa3c 0e65 d8bc
000001b0: c85d 3e3b ea26 b83d f184 54bd 7f68 55bd
000001c0: ea35 9dbc 4e74 f83b 5463 aa3d e4fd cb3d
000001d0: abec a93d 2dd0 833d bf0b a5ba 86c1 9d3d
000001e0: b8e0 e53b 7428 353c 0a8a 01bd 5abe 7bbd
000001f0: 2e46 2f3b ab6b 21bd b284 3c3d 927f 0d3c
00000200: 01af 94bc eb74 333d 4a3b 933b 631e a4bc
00000210: 470f d03d c53f 3c3d 9835 393d d2e6 873c
00000220: 9cf2 3c3d 0806 9e3c 3af4 803d 6d77 b43d
00000230: 4c67 5a3d aa51 2d3d 41ed 083d 3359 613d
00000240: 3c12 883d fa24 41bd 55fb 203d 19cf f5bd
00000250: a40c 833d 4023 05bd d663 993c de6b 8c3d
00000260: a1ea e8bc c14b a5bc 1ba9 f3bc b001 243c
00000270: f24e bcbc b468 f3bd 03f6 7c3d 64aa 56bc
00000280: 6644 9ebc b7e9 efbd ffc0 d03d c4ce 3e3d
00000290: 08e4 313d 660e 97bc 0aa8 c7bc 084b df3d
000002a0: b73f debd 5e49 7dbd 66ea 60bd e273 31bd
000002b0: 6136 20bd 2f05 b3bb 91e3 fe3c 8d50 053c
000002c0: ac80 90bc 341d 953c 497b 92bd 6d05 943d
000002d0: 115e 8f3c 2c42 b73a 1fcb 6ebd c712 d7bc
000002e0: b070 433d db63 c8bc a944 c8bd f577 d2bd
000002f0: 8107 09be 7978 f9bd cbc4 c3bd 9dcf 2e3d
00000300: 423a 353c 37ea 983c 2735 1e3d 4a95 c93c
00000310: e216 b23d acc4 cfbb 06b6 9e3d bdae f3bc
00000320: 576f 4e3d 7ae2 da3c 6d6a fb3d 2522 973d
00000330: 07b0 f33d fd0a 9f3d f92d c03c d3a9 f73c
00000340: 3f3b a13d 76da 8ebc 64da e83b 1663 b13d
00000350: 5709 993c 129e d7bd 3e0b ab3a 2b92 333d
00000360: 77ba 2e3d 3345 7c3d d7cc 073d a799 78bc
00000370: 7b47 323d d485 2abd fbf9 b1bd 06bd 00bd
00000380: 642a cbbd 3fad 7abd 1327 51bd eade d9bd
00000390: 6244 c4bd ae5e 303d 74e1 7b3c ab19 b8bd
000003a0: dff3 7b3d 7a01 80bd a444 90bd e222 3fbd
000003b0: 3a1a 1b3d fd6e 7dbd e223 7c3d 8892 84bd
000003c0: 9946 0dbc 0bae 37bb 79ec ce3d 3349 703d
000003d0: a1fa 93bc 4ca4 1abd 5789 a53c 0025 6f3d
000003e0: 9675 003e 1f72 a8bd a735 b4bd c05d 433d
000003f0: 8afc fc3c 0c09 c73d f53c 6fbc 7bac 0f3d

t_model.t_model.0.bias f4 [64]
0.078296594 -0.022904472 -0.04339524 0.1090756 0.047732934 -0.028398015 -0.022826025 -0.01194705
-0.030807534 0.051899318 0.038757563 0.059605837 0.037940126 0.09315734 -0.041166052 0.10780395
-0.09792693 0.017376885 0.0051390934 -0.04516439 0.030770982 0.10213512 0.006369494 -0.010745997
0.06702244 0.025351066 0.035386834 0.09040048 -0.03252784 0.068349406 0.015234418 -0.017369967
0.11449264 0.030336235 0.051095754 0.0685324 -0.07879156 -0.06154957 -0.090795666 0.0903939
0.069778726 -0.055625096 -0.11607726 0.025457468 -0.035184883 0.016464023 0.097495526 0.043527592
0.06223299 -0.04319772 -0.06381331 0.0289444 0.036813032 -0.023267144 0.10528323 -0.1084205
-0.017927725 -0.01720434 0.1081048 -0.039627735 0.1173067 0.07744919 -0.11784565 -0.028986711
00000000: f759 a03d 29a2 bbbc 35bf 31bd 0763 df3d
00000010: 9c83 433d f4a2 e8bc a5fd babc 8fbd 43bc
00000020: 1560 fcbc 6194 543d 40c0 1e3d 4025 743d
00000030: 1b67 1b3d 47c9 be3d bc9d 28bd 51c8 dc3d
00000040: ea8d c8bd f859 8e3c d765 a83b 4cfe 38bd
00000050: 6d13 fc3c 382c d13d 30b7 d03b fa0f 30bc
00000060: 1043 893d 0aad cf3c c9f1 103d e323 b93d
00000070: ea3b 05bd c6fa 8b3d c899 793c 764b 8ebc
00000080: 1e7b ea3d b283 f83c c849 513d b75a 8c3d
00000090: 785d a1bd 671b 7cbd 14f3 b9bd 7020 b93d
000000a0: 26e8 8e3d 24d7 63bd eab9 edbd 2e8c d03c
000000b0: 061e 10bd 8fdf 863c bcab c73d fd49 323d
000000c0: 05e8 7e3d 18f0 30bd 8db0 82bd ce1c ed3c
000000d0: 43c9 163d bd9a bebc bc9e d73d 910b debd
000000e0: 2add 92bc 1ef0 8cbc 0d66 dd3d b150 22bd
000000f0: 7f3e f03d ae9d 9e3d 0f59 f1bd 8a75 edbc

t_model.t_model.2.weight f4 [64, 64]
0.10251814 0.011138988 -0.044104587 0.08511614 0.117474295 -0.05479588 0.13884553 0.11386995
0.023241714 -0.0942148 0.03823167 0.018024046 0.09859742 -0.0012112973 0.08592554 -0.049933124
0.012988 0.09103451 0.10696201 0.02490163 0.10309793 -0.08504011 0.092777655 -0.010414486
-0.069895506 0.14432837 -0.06915348 -0.036315307 -0.07668395 0.06579287 0.12666227 0.001577392
-0.058886506 -0.04761933 -0.06358282 0.09977329 0.09218594 0.10111207 0.09640659 0.11542822
0.06346508 -0.09737441 -0.04028626 0.12961964 0.13047671 0.1278276 0.082199164 -0.08005998
0.079234146 -0.05950966 0.08946238 0.06696207 0.044936556 0.021437386 -0.021223176 -0.10821285
0.13776025 -0.016513405 0.028087836 0.12656838 -0.034134384 -0.018589292 -0.041688483 0.10135657
-0.009909817 -0.092666544 -0.15318401 -0.07531641 -0.074045405 -0.1334536 -0.062163148 0.071513794
-0.07420111 -0.03769649 -0.07659723 -0.057212606 0.048481457 -0.012045799 -0.10488302 -0.14251232
-0.017981205 -0.009366439 -0.090766475 -0.036741257 0.04057208 -0.042413145 -0.08797708 -0.105735384
0.008178471 -0.013237911 -0.10123766 -0.07730082 -0.16252589 -0.1222136 -0.14850752 -0.028575918
-0.13379441 0.076674424 0.0011243151 0.07024161 -0.010803243 -0.11525565 -0.03959394 0.00687654
-0.026349895 -0.020963082 0.053813577 0.0103617925 -0.016820136 -0.054257464 -0.01415319 -0.07737958
-0.06263555 -0.013253775 -0.012888992 -0.050556313 -0.14612648 0.13451225 0.060444564 0.042274397
-0.14786427 -0.10347993 0.042009152 0.060738023 -0.039721515 0.049991146 0.023973767 -0.12136152
-0.12930638 -0.05212201 -0.049985416 -0.10291089 -0.053871814 -0.06353859 0.07659542 -0.09548214
0.07405071 -0.026545916 0.049665343 0.015883448 -0.050942484 -0.14783236 0.04945271 0.05367451
0.0010943983 0.015739199 0.00932913 0.09234729 -0.05815592 -0.14313753 -0.053937268 0.038297825
0.078581735 -0.12412628 0.0023267192 0.0742462 -0.04447365 -0.125542 -0.0075821723 0.05758732
-0.10782141 -0.0042642276 -0.11620075 -0.019277379 0.04626022 0.041709147 -0.04382028 -0.15627581
-0.12402029 -0.04579689 0.11835177 0.06792864 0.14168964 -0.08320266 -0.14596958 0.07260657
-0.061202485 0.1538111 -0.07183133 -0.1176546 -0.072519034 -0.027001016 -0.12391724 -0.059317295
0.06061789 0.08014602 0.0005337476 0.011153066 -0.009270147 -0.0038380814 -0.008231795 -0.09715628
-0.032556348 0.010214741 0.031368833 -0.06681284 0.071898185 0.1480125 0.07098398 -0.09138946
-0.017244564 0.11133678 0.10608511 0.1438723 0.086040094 0.13324612 0.038893078 -0.093508564
-0.0052031917 -0.049322773 0.07972435 0.020758463 0.07387749 -0.06137062 0.1547535 0.04077567
-0.016548352 -0.080435544 -0.054899774 0.13121629 0.10472349 0.12089503 0.04482381 -0.03191076
-0.09653323 0.12676546 0.076883286 0.10386325 0.111582935 -0.048598215 -0.027648658 0.12683743
0.029518321 -0.022212625 -0.061341323 -0.024591984 -0.13482526 0.0488359 -0.041955233 -0.07269152
-0.06576895 0.042150956 0.10140789 0.07104393 -0.09426148 0.097432986 0.004972473 -0.025529398
-0.059323065 -0.01738907 0.07053751 -0.083364 0.005798434 -0.0037934086 0.04859838 -0.016827477
00000000: 08f5 d13d 4d80 363c 03a7 34bd 5f51 ae3d
00000010: 5d96 f03d a571 60bd 862d 0e3e a634 e93d
00000020: 6865 be3c b0f3 c0bd d098 1c3d 2aa7 933c
00000030: 72ed c93d 65c4 9eba bbf9 af3d ad86 4cbd
00000040: 9fcb 543c 4d70 ba3d e60e db3d 81fe cb3c
00000050: 0225 d33d 8229 aebd 3602 be3d 85a1 2abc
00000060: 6025 8fbd d1ca 133e 57a0 8dbd 5cbf 14bd
00000070: 7a0c 9dbd 6abe 863d c1b3 013e 7ec0 ce3a
00000080: fa32 71bd 7d0c 43bd b637 82bd f055 cc3d
00000090: fbcb bc3d d813 cf3d d170 c53d a165 ec3d
000000a0: fbf9 813d 3c6c c7bd 3503 25bd 03bb 043e
000000b0: b09b 053e 3de5 023e 0958 a83d 7df6 a3bd
000000c0: 8345 a23d 67c0 73bd 0d38 b73d 6923 893d
000000d0: 650f 383d 759d af3c 3adc adbc b39e ddbd
000000e0: 0611 0d3e 1f47 87bc 7618 e63c 249b 013e
000000f0: 7fd0 0bbd 9248 98bc 8bc1 2abd 0994 cf3d
00000100: c95c 22bc f5c7 bdbd 45dc 1cbe 7d3f 9abd
00000110: 1ea5 97bd 0fa8 08be c99e 7ebd d375 923d
00000120: c0f6 97bd a267 1abd 02df 9cbd c457 6abd
00000130: 7e94 463d be5b 45bc e9cc d6bd c0ee 11be
00000140: 524d 93bc b175 19bc c6e3 b9bd 007e 16bd
00000150: e92e 263d 68b9 2dbd 542d b4bd cb8b d8bd
00000160: fefe 053c d3e3 58bc b155 cfbd e44f 9ebd
00000170: 306d 26be 204b fabd 5b12 18be 0b18 eabc
00000180: 6701 09be 7b07 9d3d c15d 933a d5da 8f3d
00000190: 1600 31bc 270b ecbd 412d 22bd 9954 e13b
000001a0: bcdb d7bc c5ba abbc a06b 5c3d 82c4 293c
000001b0: 62ca 89bc 133d 5ebd c8e2 67bc 2f79 9ebd
000001c0: 1147 80bd 5d26 59bc 5a2c 53bc 2314 4fbd
000001d0: 2ea2 15be 94bd 093e b894 773d eb27 2d3d
000001e0: bb69 17be 49ed d3bd ca11 2c3d 6fc8 783d
000001f0: 07b3 22bd 84c3 4c3d a264 c43c 638c f8bd
00000200: e468 04be e47d 55bd 82bd 4cbd f2c2 d2bd
00000210: b1a8 5cbd 8520 82bd 0fde 9c3d 248c c3bd
00000220: e6a7 973d d276 d9bc e36d 4b3d 011e 823c
00000230: 11a9 50bd 5e61 17be ed8e 4a3d ced9 5b3d
00000240: ea71 8f3a 7eef 803c 35d9 183c 9320 bd3d
00000250: e734 6ebd a592 12be 53ed 5cbd 2ede 1c3d
00000260: 76ef a03d eb35 febd df7b 183b 640e 983d
00000270: 012a 36bd 158e 00be df73 f8bb afe0 6b3d
00000280: 79d1 dcbd efba 8bbb a9fa edbd 98eb 9dbc
00000290: 5b7b 3d3d 36d7 2a3d e57c 33bd c406 20be
000002a0: 5afe fdbd 8595 3bbd 6a62 f23d 2c1e 8b3d
000002b0: 1717 113e 2866 aabd 0d79 15be c1b2 943d
000002c0: 75af 7abd a880 1d3e 4e1c 93bd e5f4 f0bd
000002d0: dc84 94bd 3c31 ddbc 52c8 fdbd b1f6 72bd
000002e0: 774a 783d 9923 a43d 32eb 0b3a 59bb 363c
000002f0: d1e1 17bc 5288 7bbb a7de 06bc dff9 c6bd
00000300: ce59 05bd bb5b 273c 9b7c 003d 2cd5 88bd
00000310: 5b3f 933d 9790 173e 0d60 913d 662a bbbd
00000320: 7944 8dbc 8a04 e43d 2643 d93d 4353 133e
00000330: ca35 b03d ac71 083e 594e 1f3d 6b81 bfbd
00000340: 897f aabb ad06 4abd 8546 a33d a70d aa3c
00000350: 154d 973d c25f 7bbd b477 1e3e 6404 273d
00000360: 6990 87bc 64bb a4bd 96de 60bd 905d 063e
00000370: 4579 d63d d097 f73d 2c99 373d dbb4 02bd
00000380: 37b3 c5bd cece 013e fc74 9d3d 41b6 d43d
00000390: 9885 e43d ec0e 47bd 707f e2bc ace1 013e
000003a0: 68d0 f13c 40f7 b5bc 0a41 7bbd 2175 c9bc
000003b0: a20f 0abe 2708 483d 40d9 2bbd 4bdf 94bd
000003c0: dfb1 86bd 7ba6 2c3d f1ae cf3d 7b7f 913d
000003d0: 2a0c c1bd f28a c73d 20f0 a23b 0723 d1bc
000003e0: befc 72bd 8673 8ebc f875 903d bfba aabd
000003f0: ca00 be3b d69a 78bb 180f 473d c7d9 89bc

t_model.t_model.2.bias f4 [64]
-0.013883363 -0.14033715 -0.01029482 0.0031028434 -0.06007619 0.08709039 0.06093128 0.13296477
-0.08495037 -0.05439386 0.021007653 0.06954674 -0.09552437 0.0047800387 -0.005672973 0.13382128
-0.0523746 -0.017418973 -0.09100397 -0.0040537217 0.022592964 0.042982563 0.038474053 -0.058322303
0.0034321793 0.055809326 -0.08993643 -0.014896443 -0.046175804 -0.10541476 -0.10886637 -0.0033802637
-0.09751926 -0.06863036 0.044588536 -0.041317187 0.027813058 -0.034913808 -0.10541924 0.08561968
-0.07672336 -0.007848705 0.10418311 0.04282079 0.09931368 0.06187681 0.15785336 0.005560203
0.040173486 0.049113274 -0.024101412 0.061191984 0.09765246 -0.0565474 -0.057723444 -0.034086753
0.13424158 0.01482962 0.15682633 0.07359659 0.065515585 0.137213 0.10932445 0.100254774
00000000: 0c77 63bc 8bb4 0fbe 9bab 28bc 1359 4b3b
00000010: 7312 76bd 725c b23d 1493 793d eb27 083e
00000020: 76fa adbd 19cc 5ebd 3e18 ac3c 856e 8e3d
00000030: 48a2 c3bd dfa1 9c3b 59e4 b9bb 7208 093e
00000040: c086 56bd 3cb2 8ebc 4a60 babd 15d5 84bb
00000050: e114 b93c 7c0e 303d f896 1d3d 5ee3 6ebd
00000060: 6aee 603b 5298 643d 9730 b8bd 3610 74bc
00000070: d722 3dbd b2e3 d7bd 55f5 debd 6a87 5dbb
00000080: 2eb8 c7bd 138e 8cbd 78a2 363d 363c 29bd
00000090: 36d8 e33c c801 0fbd 0be6 d7bd 5f59 af3d
000000a0: 2321 9dbd db97 00bc f45d d53d da64 2f3d
000000b0: f864 cb3d 8a72 7d3d 50a4 213e 5d32 b63b
000000c0: f48c 243d 002b 493d 5370 c5bc 72a4 7a3d
000000d0: 03fe c73d 3f9e 67bd 6b6f 6cbd 8d9e 0bbd
000000e0: a076 093e eff7 723c 1597 203e cfb9 963d
000000f0: 092d 863d 9181 0c3e 7fe5 df3d 6052 cd3d

s_model.x_model.weight f4 [64, 32]
0.09349219 -0.14591439 0.19786605 -0.09860582 0.1182101 0.1377406 -0.07589648 -0.008843624
0.040750954 -0.08058651 0.093400344 -0.006171117 -0.029394127 -0.13085286 0.1256701 -0.13592945
-0.09886803 -0.027549706 0.031807434 0.06644767 -0.098199606 -0.06892388 -0.07560046 0.009340314
0.039660268 0.09974073 -0.12330161 -0.14451207 0.16155675 -0.14311576 0.05058838 0.030486807
-0.1386519 -0.08479124 -0.1161267 -0.005240796 -0.048344284 -0.10650075 0.057889305 0.0039933445
-0.0057682237 0.06390743 -0.012859186 -0.12921228 -0.11231672 -0.11173354 -0.1309377 -0.026462426
-0.061147228 0.08931285 -0.04779456 0.069686845 0.0060910815 0.027573148 -0.08078718 0.12410182
0.005440909 0.018638678 -0.017102227 -0.11965504 -0.025710117 -0.009580874 -0.09467179 -0.0052446667
0.13775408 -0.11680902 -0.10320358 -0.03601738 -0.16124128 0.10567402 -0.10455434 0.045025248
0.0171277 -0.113081746 -0.011109911 -0.10678989 0.09100975 -0.020723343 -0.16488113 0.036115
-0.017669005 0.08490061 -0.16755413 -0.13840106 0.0825078 0.0937418 -0.12048293 -0.09508459
-0.17850822 -0.1397955 -0.051060338 0.05007937 -0.107781656 -0.09130127 -0.009924123 -0.13232562
-0.085384145 0.027010996 0.1711996 0.0596261 -0.031322747 0.0076991944 0.06498201 -0.056407318
-0.08728682 -0.018370548 0.07599975 -0.1954974 0.0015877965 -0.068592586 0.14619179 -0.11758827
0.17683344 0.06289566 0.033319335 0.18470316 -0.061494492 -0.064328276 0.004692091 0.11930345
-0.102987476 -0.16978225 -0.0889974 0.20695919 -0.095740505 -0.05365715 -0.027873423 -0.07596291
0.17289042 0.14580494 0.046024006 -0.17105328 0.12119081 -0.13001849 -0.015550875 0.01936813
-0.12723397 0.14628705 0.18823215 0.11504329 -0.010000856 0.080485575 0.0041827937 -0.064352974
0.08796661 -0.059318226 -0.12818791 -0.11243877 0.07133005 0.08167473 0.098471224 -0.062939264
0.05521858 0.11202063 -0.1000368 -0.1823215 0.17443885 -0.006809044 0.007091191 -0.062349953
-0.096910365 0.053508632 0.10446818 0.04364991 -0.054214645 0.17784503 0.17120984 0.12095189
0.0048166076 0.18825452 0.20203201 -0.12950301 0.11032004 0.043716285 0.13462831 0.07837304
0.19124831 0.15828435 -4.478398e-05 0.07017949 0.100470126 -0.09164315 0.060158145 0.20948257
-0.032505848 -0.14880002 -0.017522573 -0.040281132 0.10479325 -0.0011698677 -0.13705169 0.13294965
-0.11089801 0.041879613 -0.043572728 0.019154036 0.15485156 -0.033937763 0.048190564 -0.060291354
0.13442075 -0.107394814 0.11875784 -0.1732369 0.014046546 -0.17771216 0.0110656535 -0.15435721
0.19453079 0.050011903 -0.08764095 -0.11286772 0.1939929 0.08593485 0.10576833 -0.15574007
0.1580165 -0.1331682 0.092595026 -0.08470679 0.0892434 0.13140549 0.18668465 -0.17666875
-0.0462459 0.017873568 0.09241467 -0.18625598 0.10835336 0.15009274 -0.012336899 -0.13048075
0.03956668 -0.029862113 -0.085132666 0.076979816 -0.0686327 0.07434181 -0.0047921906 -0.033797905
0.05058266 0.07759449 0.1179477 0.23258139 0.16219789 0.07248592 0.11927338 -0.1285927
0.040210493 0.045259032 0.090554975 -0.03946783 0.048984412 -0.20385867 -0.12586732 0.1530082
00000000: d578 bf3d 956a 15be 669d 4a3e d9f1 c9bd
00000010: 2318 f23d df0b 0d3e 9d6f 9bbd d9e4 10bc
00000020: 79ea 263d 8a0a a5bd ae48 bf3d 1537 cabb
00000030: f4cb f0bc 4bfe 05be aaaf 003e 1731 0bbe
00000040: 527b cabd ecaf e1bc 8348 023d b715 883d
00000050: e01c c9bd f727 8dbd 6ad4 9abd 1e08 193c
00000060: ce72 223d de44 cc3d 8e85 fcbd f9fa 13be
00000070: 226f 253e f08c 12be c335 4f3d 78bf f93c
00000080: c4fa 0dbe 08a7 adbd d6d3 edbd fcba abbb
00000090: a804 46bd 111d dabd 561d 6d3d 9ada 823b
000000a0: 5e03 bdbb e6e1 823d 56af 52bc 3950 04be
000000b0: 4f06 e6bd 8ed4 e4bd 8814 06be bbc7 d8bc
000000c0: 8475 7abd a8e9 b63d 3bc4 43bd fab7 8e3d
000000d0: b297 c73b 15e1 e13c c073 a5bd 1829 fe3d
000000e0: a749 b23b 24b0 983c f819 8cbc b40d f5bd
000000f0: 069e d2bc 19f9 1cbc 49e3 c1bd 74db abbb
00000100: 680f 0d3e 9139 efbd 665c d3bd f686 13bd
00000110: 6f1c 25be 9f6b d83d 9620 d6bd 656c 383d
00000120: 644f 8c3c 6797 e7bd 5806 36bc a8b4 dabd
00000130: 5263 ba3d 00c4 a9bc 99d6 28be 52ed 133d
00000140: 97be 90bc 5fe0 ad3d 4f93 2bbe 02b9 0dbe
00000150: d9f9 a83d b3fb bf3d c1bf f6bd b6bb c2bd
00000160: dcca 36be 8d26 0fbe a524 51bd 0720 4d3d
00000170: a1bc dcbd 29fc babd ca98 22bc 5e80 07be
00000180: e2dd aebd 2a46 dd3c f34e 2f3e 7f3a 743d
00000190: 484c 00bd 8649 fc3b 4a15 853d 5c0b 67bd
000001a0: 6fc3 b2bd d57d 96bc c2a5 9b3d 7830 48be
000001b0: 9c1d d03a 457a 8cbd 4db3 153e 1ed2 f0bd
000001c0: d313 353e 71cf 803d db79 083d d322 3d3e
000001d0: a6e1 7bbd 8bbe 83bd 1dc0 993b 5e55 f43d
000001e0: 19eb d2bd 66db 2dbe 4544 b6bd 1ced 533e
000001f0: 9913 c4bd 9ac7 5bbd ce56 e4bc 7192 9bbd
00000200: 300a 313e e44d 153e ab83 3c3d 9728 2fbe
00000210: e332 f83d 9123 05be 19c9 7ebc eaa9 9e3c
00000220: 9f49 02be 46cc 153e eebf 403e d19b eb3d
00000230: a1da 23bc 9fd5 a43d d10f 893b 7ecb 83bd
00000240: d727 b43d abf7 72bd b143 03be 4c46 e6bd
00000250: 7d15 923d 1545 a73d 48ab c93d 4de6 80bd
00000260: e12c 623d 126b e53d 18e0 ccbd 7db2 3abe
00000270: 19a0 323e 671e dfbb 395d e83b aa62 7fbd
00000280: f178 c6bd de2b 5b3d 6af3 d53d 3fca 323d
00000290: 2d10 5ebd 021d 363e a251 2f3e a0b5 f73d
000002a0: a2d4 9d3b cbc5 403e 7be1 4e3e 709c 04be
000002b0: 79ef e13d d90f 333d 01dc 093e 0b82 a03d
000002c0: 99d6 433e 4b15 223e 6fd6 3bb8 44ba 8f3d
000002d0: 48c3 cd3d 67af bbbd 6368 763d 9982 563e
000002e0: da24 05bd 085f 18be 808b 8fbc d4fd 24bd
000002f0: d89d d63d 3f56 99ba 4757 0cbe f423 083e
00000300: 7f1e e3bd f589 2b3d 5179 32bd ede8 9c3c
00000310: 6891 1e3e 5302 0bbd 7863 453d 11f4 76bd
00000320: 98a5 093e d0f1 dbbd 4f37 f33d 0465 31be
00000330: 7c23 663c 2dfa 35be b74c 353c d10f 1ebe
00000340: 1433 473e 48d9 4c3d 197d b3bd 3127 e7bd
00000350: 13a6 463e 9cfe af3d 119d d83d 537a 1fbe
00000360: 14cf 213e 3f5d 08be 76a2 bd3d c17a adbd
00000370: 3ec5 b63d 298f 063e 432a 3f3e a7e8 34be
00000380: 576c 3dbd 976b 923c e743 bd3d e3b9 3ebe
00000390: 5ee8 dd3d e9b1 193e b420 4abc bf9c 05be
000003a0: ac10 223d 64a1 f4bc 095a aebd 98a7 9d3d
000003b0: 4d8f 8cbd 8540 983d cf07 9dbb ac6f 0abd
000003c0: c32f 4f3d dce9 9e3d 908e f13d d129 6e3e
000003d0: 3417 263e 7f73 943d 9a45 f43d cead 03be
000003e0: c2b3 243d 8961 393d e374 b93d 05a9 21bd
000003f0: e1a3 483d 54c0 50be 5de3 00be 2eae 1c3e

s_model.x_model.bias f4 [64]
0.08937598 0.032260027 -0.14470117 -0.024956234 0.19705349 0.11111638 0.06642247 0.18549873
0.028484533 0.0740732 0.11872879 0.15971322 -0.12014632 -0.08121872 0.091848105 -0.013500831
-0.124345966 0.06551806 0.09375046 -0.054376516 -0.035406686 0.023069039 0.12168354 0.08288239
0.18600488 0.16706972 -0.03405909 -0.16753985 -0.051460695 0.0058668046 -0.06795987 0.020354906
-0.11504545 0.14026754 -0.082842715 0.14669831 0.061458774 -0.19875465 -0.027868465 0.15484568
0.14777704 0.048297577 -0.11471801 -0.013886132 0.14190756 0.06590683 0.16257802 -0.051424023
0.058644377 0.12985472 -0.05048892 0.13023968 -0.08616333 -0.14415568 -0.20495772 0.09275867
0.14642778 -0.01375018 -0.018140767 -0.0473387 -0.14296843 0.115843244 0.023398165 0.08466895
00000000: c10a b73d 1723 043d 8b2c 14be 0471 ccbc
00000010: 64c8 493e fc90 e33d 8108 883d 61f3 3d3e
00000020: 6558 e93c b1b3 973d 1428 f33d dd8b 233e
00000030: 460f f6bd 0056 a6bd dc1a bc3d 9732 5dbc
00000040: 19a9 febd 552e 863d 3e00 c03d e9b9 5ebd
00000050: 9a06 11bd 48fb bc3c 3835 f93d 3ebe a93d
00000060: 1078 3e3e 5314 2b3e 8b81 0bbd 918f 2bbe
00000070: 73c8 52bd 533e c03b 8b2e 8bbd 55bf a63c
00000080: f39c ebbd 4ba2 0f3e 71a9 a9bd 1538 163e
00000090: 32bc 7b3d 5786 4bbe 684c e4bc de8f 1e3e
000000a0: dd52 173e aed3 453d 47f1 eabd a982 63bc
000000b0: 3750 113e 29fa 863d da7a 263e ffa1 52bd
000000c0: 1635 703d a3f8 043e 78cd 4ebd 8d5d 053e
000000d0: 6676 b0bd 8c9d 13be 70e0 51be 42f8 bd3d
000000e0: 2af1 153e 6f48 61bc f29b 94bc 3ae6 41bd
000000f0: 5166 12be 393f ed3d 82ad bf3c ea66 ad3d

joint_model.model.1.0.weight f4 [64, 64]
0.011178233 -0.04052226 -0.11852831 -0.07990675 0.104694165 0.0045985305 0.13085444 -0.06492075
-0.11030414 0.09761143 -0.05799239 -0.116921976 -0.13274251 0.024598662 0.12078207 0.0033693719
-0.04063341 0.14077939 0.08221405 0.09004845 0.04499393 0.058880433 0.0343001 -0.10361516
-0.07063012 -0.012547536 -0.017610189 -0.14282104 -0.12843329 0.06559009 0.07207165 -0.0072085294
-0.10533071 -0.10464583 0.06868769 0.06831677 -0.11112906 0.028259298 -0.09420138 0.10364578
-0.0803439 -0.031668466 -0.0009287553 0.09174643 0.044997264 -0.072090626 -0.09637658 0.113863565
-0.014475347 0.067184314 -0.10615409 0.1296027 -0.094137214 0.04403767 0.09410367 -0.081053354
-0.018873991 -0.024909753 -0.117145754 0.06596416 -0.008919423 -0.03890046 0.11773821 0.07990437
0.031584818 0.055011373 -0.028203629 0.119341634 -0.07195653 0.055537384 0.071830355 0.075481966
0.10455655 0.104196794 0.05528683 0.13423078 -0.04941376 -0.1144599 -0.081893675 0.061834615
-0.025356192 0.06673516 0.05060161 0.09247609 0.036193874 0.070263416 -0.08461973 -0.106134176
0.1389244 -0.026553364 0.0022359556 0.0040550428 0.09666049 -0.023477983 0.06319241 -0.07565071
-0.15003878 -0.041575152 -0.11607517 0.061194446 -0.078094676 -0.103623204 -0.09992108 0.0829783
-0.060043793 0.044767167 0.007009801 -0.0914123 -0.05283098 0.019412376 -0.058006305 -0.054084606
0.008994262 -0.021862293 -0.09984243 0.014899288 -0.04182256 0.07924041 -0.14974596 0.037992153
0.121824995 0.13235413 0.06595571 -0.12058337 0.048185863 -0.07165165 0.12324168 0.061273992
-0.031979363 0.075299464 0.12711346 -0.13032085 -0.14370534 -0.02571872 -0.14120817 0.01776527
-0.020958124 -0.09483759 -0.07445885 -0.15332285 -0.013506784 0.0018186698 -0.011493754 -0.011877953
0.13990204 -0.15688534 0.0723472 -0.010930525 0.02630274 0.06560953 -0.08493759 -0.05255612
0.057541575 -0.07889281 0.054608386 0.041155454 -0.030012716 0.10953423 0.06534865 0.010376564
0.13154057 -0.038740337 0.12523966 -0.060293972 0.07582953 -0.056669787 -0.040677093 -0.016420564
0.012638354 -0.04240688 -0.15051603 0.013303914 -0.046072356 0.0042526578 -0.10419889 -0.010817023
-0.051180635 -0.0007016156 0.018963028 0.043718934 0.03908781 0.0442555 0.09875424 0.03006239
-0.039996505 0.03239636 -0.07788684 0.054293532 -0.034110583 -0.12891614 -0.017037876 -0.104340725
-0.022045447 0.004450734 -0.009766563 0.1140474 -0.019642768 0.08505265 -0.05817329 -0.02714523
0.04175287 0.076049075 0.07102253 -0.09162987 -0.15010026 -0.07977322 -0.09307975 0.08096121
-0.001685403 -0.029644655 0.064478 -0.022623705 -0.020316305 -0.02097812 -0.05966442 -0.09601841
-0.079195015 0.09851956 0.013037853 0.024112284 0.1103643 -0.029925747 0.038136676 -0.1097074
-0.03534271 -0.12674531 -0.10441808 -0.0027290476 0.10170577 -0.14768451 -0.071011916 -0.030873321
0.023541896 -0.00440191 0.12992896 0.051573303 -0.08871849 -0.018140785 0.11266904 -0.034565534
0.0973443 -0.09340874 -0.07714743 -0.06454151 0.09571368 -0.06039001 -0.041106302 0.036360987
0.016682556 -0.084894545 0.033387 -0.044565517 0.07346805 0.09673246 0.13809666 -0.049189296
00000000: e824 373c abfa 25bd f8be f2bd 26a6 a3bd
00000010: e569 d63d 45af 963b b5fe 053e 2cf5 84bd
00000020: 23e7 e1bd 80e8 c73d 6e89 6dbd ca74 efbd
00000030: a7ed 07be 2283 c93c 975c f73d aed0 5c3b
00000040: 386f 26bd 7928 103e d75f a83d 526b b83d
00000050: 8e4b 383d 9c2c 713d 437e 0c3d 2f34 d4bd
00000060: 86a6 90bd 2e94 4dbc 3e43 90bc ae3f 12be
00000070: 0484 03be 1954 863d 4d9a 933d 8735 ecbb
00000080: a1b7 d7bd 8e50 d6bd 22ac 8c3d aae9 8b3d
00000090: a297 e3bd 0b80 e73c a7ec c0bd 3d44 d43d
000000a0: 588b a4bd cbb6 01bd b777 73ba 8de5 bb3d
000000b0: 0d4f 383d 40a4 93bd 1661 c5bd 4d31 e93d
000000c0: 012a 6dbc ee97 893d 5167 d9bd 92b6 043e
000000d0: 03cb c0bd d860 343d 6db9 c03d 4dff a5bd
000000e0: a19d 9abc 8a0f ccbc 1dea efbd 3818 873d
000000f0: c622 12bc 1756 1fbd bb20 f13d e7a4 a33d
00000100: 155f 013d 9b53 613d 4c0b e7bc 6369 f43d
00000110: f25d 93bd 2b7b 633d cb1b 933d 4a96 9a3d
00000120: bf21 d63d 2165 d53d 7174 623d cb73 093e
00000130: 1566 4abd f469 eabd dfb7 a7bd 4b46 7d3d
00000140: cab7 cfbc 72ac 883d a243 4f3d 1b64 bd3d
00000150: 0740 143d 44e6 8f3d 1c4d adbd e05c d9bd
00000160: 3342 0e3e 7186 d9bc 1c89 123b 2ae0 843b
00000170: eff5 c53d e654 c0bc 066b 813d c2ee 9abd
00000180: c4a3 19be b54a 2abd d2b8 edbd 07a7 7a3d
00000190: 1af0 9fbd 6738 d4bd 6ca3 ccbd 87f0 a93d
000001a0: 7bf0 75bd c75d 373d 79b2 e53b 5f36 bbbd
000001b0: 4c65 58bd b406 9f3c 0598 6dbd d287 5dbd
000001c0: ab5c 133c 8d18 b3bc 307a ccbd 251c 743c
000001d0: 224e 2bbd cc48 a23d 0157 19be a99d 1b3d
000001e0: 627f f93d d787 073e ca13 873d 6af4 f6bd
000001f0: 8a5e 453d 1abe 92bd 2266 fc3d 70fa 7a3d
00000200: cbfc 02bd 9b36 9a3d 082a 023e d472 05be
00000210: 7e27 13be 11b0 d2bc e098 10be 7988 913c
00000220: 5fb0 abbc 363a c2bd e27d 98bd aa00 1dbe
00000230: 8f4b 5dbc 6f60 ee3a 4c50 3cbc bf9b 42bc
00000240: 7b42 0f3e 8da6 20be c52a 943d f215 33bc
00000250: d878 d73c 4a5e 863d c2f3 adbd 1645 57bd
00000260: b7b0 6b3d 8e92 a1bd 0bad 5f3d 9f92 283d
00000270: 3add f5bc 7b53 e03d 83d5 853d 7702 2a3c
00000280: 92b2 063e 30ae 1ebd d33e 003e d0f6 76bd
00000290: 834c 9b3d 941e 68bd 069d 26bd 6b84 86bc
000002a0: 1911 4f3c d6b2 2dbd e020 1abe a9f8 593c
000002b0: 5eb6 3cbd e159 8b3b 3a66 d5bd e239 31bc
000002c0: c9a2 51bd a0ec 37ba 5a58 9b3c a012 333d
000002d0: 8a1a 203d 4145 353d aa3f ca3d 6745 f63c
000002e0: 60d3 23bd 0cb2 043d 2383 9fbd e562 5e3d
000002f0: 8ab7 0bbd 9802 04be 0493 8bbc 97b0 d5bd
00000300: a798 b4bc 76d7 913b ef03 20bc af91 e93d
00000310: dfe9 a0bc 1530 ae3d 1e47 6ebd ac5f debc
00000320: 0f05 2b3d 9ebf 9b3d 4374 913d 71a8 bbbd
00000330: e2b3 19be 2460 a3bd 99a0 bebd fece a53d
00000340: bee8 dcba 59d9 f2bc 0b0d 843d 5955 b9bc
00000350: 616e a6bc 4eda abbc ae62 74bd 4da5 c4bd
00000360: ff30 a2bd a0c4 c93d b89c 553c 2087 c53c
00000370: ae06 e23d d726 f5bc 3435 1c3d 46ae e0bd
00000380: 84c3 10bd 86c9 01be 25d9 d5bd d2d9 32bb
00000390: 1d4b d03d 9c3a 17be b26e 91bd 0cea fcbc
000003a0: efda c03c e63d 90bb 190c 053e 873e 533d
000003b0: 0ab2 b5bd fc9b 94bc 07bf e63d 9794 0dbd
000003c0: 735c c73d 154d bfbd 79ff 9dbd 572e 84bd
000003d0: 8905 c43d 845b 77bd 155f 28bd 42ef 143d
000003e0: dba9 883c 31dd adbd cfc0 083d 558a 36bd
000003f0: 6b76 963d ab1b c63d 3669 0d3e b77a 49bd

joint_model.model.1.0.bias f4 [64]
0.04476112 0.08991024 -0.11573552 -0.07724996 0.026532102 0.022612877 -0.09450461 0.039549902
-0.043680023 0.10096909 -0.073562644 0.13436617 0.098596424 -0.041117482 -0.062576406 0.057659626
-0.10568298 0.029949676 0.04554699 0.06721646 0.012121353 -0.032881983 -0.01966306 0.04038021
-0.0777868 0.13020584 -0.07554902 -0.11842017 0.0055723535 0.011671002 -0.0974839 -0.051791728
0.12140424 -0.05082223 0.0128267445 0.11425831 -0.0029364815 0.045506712 -0.0046848687 0.032548368
-0.09568701 -0.008012428 0.040607154 -0.100605875 -0.0016801666 -0.0968413 0.021256607 0.08111591
-0.060164347 -0.06295669 -0.13267311 -0.15386815 -0.13518259 0.09630144 -0.08919623 -0.13937357
0.027388737 -0.10588914 0.07652461 -0.11998343 -0.067103244 0.068090774 -0.15636967 0.071544714
00000000: 7057 373d dc22 b83d bf06 edbd 3a35 9ebd
00000010: da59 d93c a43e b93c a28b c1bd 14ff 213d
00000020: d3e9 32bd e2c8 ce3d 03a8 96bd 4997 093e
00000030: ecec c93d ce6a 28bd 0f28 80bd 802c 6c3d
00000040: 5170 d8bd 0659 f53c 7b8f 3a3d c9a8 893d
00000050: a498 463c 42af 06bd 6d14 a1bc b865 253d
00000060: b04e 9fbd ae54 053e 72b9 9abd 4686 f2bd
00000070: 4a98 b63b bb37 3f3c a4a5 c7bd 9023 54bd
00000080: c9a2 f83d f82a 50bd 4427 523c 4300 ea3d
00000090: fc71 40bb 3f65 3a3d 8783 99bb 7051 053d
000000a0: 8df7 c3bd 8f46 03bc b053 263d 740a cebd
000000b0: 0939 dcba bb54 c6bd 5622 ae3c 1920 a63d
000000c0: e46e 76bd 70ef 80bd 76db 07be 9d8f 1dbe
000000d0: 4e6d 0abe b039 c53d 83ac b6bd f2b7 0ebe
000000e0: 585e e03c 68dc d8bd efb8 9c3d dfb9 f5bd
000000f0: 6d6d 89bd 2d73 8b3d 5f1f 20be 0986 923d

joint_model.model.2.0.weight f4 [64, 64]
0.06114367 0.13739607 -0.13905694 0.051544372 -0.11480835 -0.103720225 -0.13328773 0.050459065
-0.044143837 0.095144324 -0.019298417 0.080084905 0.018290797 -0.13434558 0.04261851 0.008732541
-0.15684712 0.13209407 0.039148208 -0.033934377 0.08556147 -0.045635577 0.084493585 -0.011865498
0.041355934 0.103195876 -0.14962433 0.07515348 -0.080942035 0.13088994 0.044546332 0.03369541
0.0041742716 -0.02466676 0.005572845 0.0083677815 -0.026136229 -0.10676715 0.0017065796 0.09012681
-0.06731858 -0.03768105 -0.06634778 0.020545006 -0.09705022 -0.07896975 0.023239842 -0.039133046
-0.15428838 -0.015421246 -0.047372766 0.060271423 -0.017613804 0.09635935 -0.07765791 -0.10506497
-0.040463675 -0.05744707 0.060164858 -0.15040383 0.0011779589 -0.023491783 0.031175138 0.12823829
-0.0035534867 0.018480483 0.027616315 0.06657185 -0.12762459 -0.011744222 -0.12294881 0.056535643
-0.004120477 -0.085995115 -0.0586846 -0.001468977 0.09542962 -0.045807667 0.026191486 -0.0034396104
0.019902254 -0.020253874 0.09282995 -0.0120239165 0.14214191 0.009390333 0.053864736 -0.08438306
-0.09922166 -0.019326536 0.062119678 -0.09454678 0.0707625 -0.004206344 -0.08565782 0.043515988
0.020487837 0.04581487 0.096287794 -0.04677496 -0.008148817 -0.1389683 0.12313033 0.0071494537
-0.11708307 -0.051768173 0.13220672 -0.15590158 -0.1599417 0.06072474 -0.09223727 -0.057869367
0.01201848 -0.09727133 -0.03974089 0.0016850163 0.008365507 0.07138086 -0.035661064 -0.081780314
0.06515453 -0.044389095 -0.13657741 0.0875923 -0.091204606 0.11399127 0.00017272713 -0.055926602
-0.0106372535 -0.030067315 0.06995551 -0.055074275 0.0033616854 -0.013939066 0.136628 -0.003688849
-0.061792076 0.04564143 0.13530064 0.052927077 0.0013429516 0.090375185 0.0013182437 0.018538682
-0.051971175 -0.10935996 -0.12550786 -0.1669642 -0.099374734 0.01262257 -0.1009026 0.03010349
0.079952165 0.016065981 -0.084359355 0.020147456 -0.0279217 -0.00017429881 0.11839499 -0.030365454
0.030409537 0.013622978 -0.036094625 0.06455684 -0.11700323 -0.0038582478 -0.15066014 0.06331364
-0.06781766 0.08859064 -0.15249884 0.14760229 0.16045387 -0.035389148 -0.09543972 -0.16527651
-0.028300637 0.14375001 -0.058347322 0.15244862 0.09974342 -0.01969917 0.005609745 0.10217926
0.035119638 0.016929906 0.13155377 -0.018392257 0.036383644 -0.15165102 -0.043569803 -0.04694356
-0.0934755 0.08987414 0.022233343 0.08014887 0.05716735 0.0037435615 0.003910901 -0.017538035
-0.009478388 -0.073795915 0.046272364 0.14893256 -0.059770748 0.03977501 -0.11063035 0.12129357
0.05091624 -0.08109955 0.12506332 0.09551914 0.01287719 -0.051953312 -0.04106759 -0.0755104
0.036980566 -0.08442778 -0.13587263 -0.0075633824 0.105084784 0.0854319 0.06711073 0.010307442
-0.011030359 0.042885512 0.0041248137 -0.0128151905 0.079642065 0.013457255 0.057170283 0.12890469
-0.05141417 -0.009193786 0.02694195 -0.16748601 -0.04228917 0.0041068923 0.0020279633 0.13529971
-0.04813826 -0.0016226405 -0.040618014 -0.14064845 0.070216194 0.11287715 -0.03125376 0.03427762
-0.09117979 -0.07031729 0.07153935 -0.09192741 -0.07521103 0.076336324 -0.022492101 -0.04624522
00000000: c971 7a3d 8eb1 0c3e f164 0ebe 3120 533d
00000010: a420 ebbd 456b d4bd 947c 08be 2aae 4e3d
00000020: 2bd0 34bd 07db c23d b717 9ebc 8e03 a43d
00000030: 95d6 953c e391 09be bf90 2e3d ef12 0f3c
00000040: 889c 20be ab43 073e df59 203d c6fe 0abd
00000050: da3a af3d 5fec 3abd f90a ad3d 8167 42bc
00000060: d764 293d 5c58 d33d 1f37 19be 11ea 993d
00000070: f0c4 a5bd 0308 063e 3776 363d 3304 0a3d
00000080: 54c8 883b f211 cabc 6a9c b63b 0519 093c
00000090: a51b d6bc bca8 dabd 4faf df3a 6894 b83d
000000a0: 53de 89bd 7257 1abd 58e1 87bd 004e a83c
000000b0: 44c2 c6bd e4ba a1bd 7b61 be3c f949 20bd
000000c0: c6fd 1dbe 65a9 7cbc f209 42bd 2bdf 763d
000000d0: d34a 90bc 0d58 c53d 1c0b 9fbd 4e2c d7bd
000000e0: 3dbd 25bd 9e4d 6bbd 6d6f 763d 7603 1abe
000000f0: be65 9a3a d771 c0bc 0163 ff3c e650 033e
00000100: 9de1 68bb 6264 973c 9c3b e23c d256 883d
00000110: 05b0 02be d66a 40bc 96cc fbbd eb91 673d
00000120: 1105 87bb 351e b0bd 435f 70bd b08a c0ba
00000130: 9b70 c33d d2a0 3bbd 878f d63c 166b 61bb
00000140: 0d0a a33c 74eb a5bc a11d be3d f6ff 44bc
00000150: a68d 113e e9d9 193c 45a1 5c3d 07d1 acbd
00000160: ba34 cbbd af52 9ebc 3471 7e3d bea1 c1bd
00000170: eeeb 903d 5fd5 89bb 5e6d afbd d23d 323d
00000180: 1cd6 a73c 60a8 3b3d 8932 c53d 1a97 3fbd
00000190: 9e82 05bc b54d 0ebe c12b fc3d f745 ea3b
000001a0: 40c9 efbd dd0a 54bd 3361 073e aaa4 1fbe
000001b0: c2c7 23be 81ba 783d e5e6 bcbd 6e08 6dbd
000001c0: 29e9 443c 3136 c7bd 58c7 22bd c4db dc3a
000001d0: 7b0f 093c 2130 923d 5611 12bd 707c a7bd
000001e0: bd6f 853d 57d1 35bd f3da 0bbe 9763 b33d
000001f0: 7bc9 babd 4174 e93d 161e 3539 4b13 65bd
00000200: e047 2ebc bb4f f6bc d644 8f3d 9095 61bd
00000210: b94f 5c3b ae60 64bc 36e8 0b3e 9ec0 71bb
00000220: b019 7dbd 82f2 3a3d 408c 0a3e 10ca 583d
00000230: fa05 b03a a016 b93d ebc8 ac3a 6fde 973c
00000240: badf 54bd 1df8 dfbd 2285 00be aaf8 2abe
00000250: fb84 cbbd e5ce 4e3c 06a6 cebd 989b f63c
00000260: f6bd a33d ce9c 833c 99c4 acbd 470c a53c
00000270: 0dbc e4bc fbc3 36b9 1379 f23d f9c0 f8bc
00000280: 6c1d f93c e932 5f3c f5d7 13bd 6036 843d
00000290: 649f efbd a8da 7cbb a746 1abe 95aa 813d
000002a0: fce3 8abd 026f b53d a828 1cbe 0e25 173e
000002b0: 054e 243e 36f4 10bd e675 c3bd 3f3e 29be
000002c0: bdd6 e7bc 3433 133e 9afd 6ebd 7e1b 1c3e
000002d0: 4746 cc3d 2760 a1bc f4d1 b73b 5c43 d13d
000002e0: 9cd9 0f3d 96b0 8a3c 08b6 063e 5cab 96bc
000002f0: 0407 153d 684a 1bbe 4076 32bd e447 40bd
00000300: 1570 bfbd ef0f b83d b322 b63c 1725 a43d
00000310: 5028 6a3d 8a56 753b 0427 803b edab 8fbc
00000320: 3e4b 1bbc 5022 97bd 1788 3d3d c781 183e
00000330: 2cd2 74bd 1feb 223d 2a92 e2bd c368 f83d
00000340: 8c8d 503d 8517 a6bd 9910 003e 8a9f c33d
00000350: d9fa 523c ffcc 54bd 7d36 28bd 32a5 9abd
00000360: ef78 173d 79e8 acbd 3222 0bbe 40d6 f7bb
00000370: b136 d73d ecf6 ae3d 5a71 893d 8ce0 283c
00000380: aeb8 34bc b8a8 2f3d 7229 873b cef6 51bc
00000390: 611b a33d d27b 5c3c 632b 6a3d 97ff 033e
000003a0: aa97 52bd 89a1 16bc 5db5 dc3c 7481 2bbe
000003b0: 6937 2dbd 1c93 863b 94e7 043b 028c 0a3e
000003c0: a02c 45bd c8ae d4ba 135f 26bd 2606 10be
000003d0: 82cd 8f3d 232c e73d f103 00bd b166 0c3d
000003e0: 78bc babd 8302 90bd 3983 923d 7044 bcbd
000003f0: 3e08 9abd 3856 9c3d 5b41 b8bc a16b 3dbd

joint_model.model.2.0.bias f4 [64]
0.14117871 0.056893148 -0.07841282 0.11255654 0.11226615 0.07046981 -0.1221595 0.070836805
-0.13309786 0.10945727 -0.13502626 0.12532659 -0.07031375 0.089127325 0.08127403 -0.14084998
0.10232281 -0.05119628 -0.13486318 -0.0071725273 -0.14947875 0.14866486 -0.11871109 0.1182219
0.1172764 0.110329956 0.09789864 0.1090315 -0.019165767 -0.069473326 -0.030326735 0.13232408
0.10191329 0.059828766 -0.13628264 0.069916554 -0.122458786 0.055917468 -0.07858715 0.056895826
-0.12416666 0.07386434 0.12533276 -0.12759446 0.116194166 -0.11763005 -0.12615786 -0.06516226
-0.01779057 -0.11301631 0.08002232 -0.10561159 0.0783873 -0.070836 -0.15658012 0.05573018
-0.09024767 -0.15320355 -0.107819945 0.081330284 -0.120816156 0.12287292 0.058317628 0.073321246
00000000: 2791 103e ca08 693d e796 a0bd 0b84 e63d
00000010: cceb e53d 7a52 903d c32e fabd e312 913d
00000020: ce4a 08be 222b e03d 5344 0abe 9d55 003e
00000030: a800 90bd 6388 b63d 0073 a63d fa3a 10be
00000040: 9f8e d13d 31b3 51bd 9319 0abe 8507 ebbb
00000050: f510 19be 9a3b 183e cd1e f3bd 531e f23d
00000060: 9c2e f03d acf4 e13d 157f c83d e84b df3d
00000070: 8701 9dbc 0848 8ebd c66f f8bc f77f 073e
00000080: eab7 d03d 020f 753d ad8d 0bbe 6930 8f3d
00000090: accb fabd b709 653d 4df2 a0bd 990b 693d
000000a0: 174b febd 3046 973d 3b57 003e 1fa8 02be
000000b0: 35f7 ed3d 06e8 f0bd 872f 01be ca73 85bd
000000c0: 88bd 91bc 1875 e7bd bee2 a33d e44a d8bd
000000d0: 8589 a03d 7712 91bd 8a56 20be 5445 643d
000000e0: c5d3 b8bd 64e1 1cbe b4d0 dcbd 7e90 a63d
000000f0: 766e f7bd cca4 fb3d 77de 6e3d 7329 963d

joint_model.model.3.weight f4 [64, 64]
0.03290648 0.025801107 -0.040978674 0.027626043 0.03204223 0.029584195 -0.039838072 0.026788332
-0.03928059 0.03122238 -0.039666962 0.030633863 -0.04074104 0.031005912 0.032971766 -0.040725864
0.028146701 -0.042389445 -0.039669152 -0.041745298 -0.03979439 0.029517436 -0.040453147 0.033171598
0.032823343 0.029568037 0.030875474 0.029398471 -0.04140166 -0.042484403 -0.03999919 0.029756982
0.032416683 0.03072992 -0.039279237 0.031749167 -0.040190652 0.030576322 -0.040760018 0.030166015
-0.041750204 0.030165968 0.030794242 -0.040386066 0.030232767 -0.037585206 -0.042253017 -0.042899504
-0.038070235 -0.038351428 0.028097339 -0.040448297 0.031630874 -0.03985531 -0.04164269 0.030042464
-0.0424859 -0.039845437 -0.042371586 0.033557612 -0.04111491 0.029224874 0.033516288 0.032395914
-0.0074196244 0.0032250897 -0.0018135714 -0.002486592 -0.0041621947 0.021427503 -0.005748609 -0.0036180094
-0.0034903388 0.0046491968 -0.0014094623 -0.013002484 -0.0028682356 -0.023712246 -0.011098023 -0.007369578
0.011419737 -0.0025674582 -0.010207656 0.0009177323 -0.0027743964 0.019663682 -0.0047905943 0.0029546316
-0.0075971955 -0.009283719 -0.011205632 0.0364638 -0.00081572455 -0.012236996 0.0005221565 0.0155755915
0.03589764 -0.008129371 -0.0008594186 -0.01295672 -0.018032344 -0.015159932 -0.006778059 0.003823847
0.0013020608 0.023396373 -0.012131991 -0.0026550472 -0.009104387 -0.0036162138 -0.012901819 -0.013987651
-0.0010021765 -0.007972989 -0.0061406465 -0.0058499244 0.018252997 0.0014348809 0.00031687584 -0.0061510126
-0.006694963 0.0022001038 -0.020885376 -0.013542918 -0.0072333217 -0.010859045 0.035557576 0.028918209
0.02994158 0.030024536 -0.040557563 0.02894851 0.029271616 0.03217296 -0.04139774 0.028388226
-0.039335247 0.029949293 -0.039789584 0.026831307 -0.0406477 0.029317563 0.03141757 -0.04057521
0.030684644 -0.042131804 -0.0404273 -0.04228282 -0.039976917 0.032402717 -0.041156076 0.032503176
0.032084174 0.028626926 0.030680155 0.033067208 -0.042548124 -0.042389713 -0.03983526 0.029725747
0.033277202 0.030822562 -0.038845617 0.033355698 -0.04040832 0.028033745 -0.04097338 0.031937398
-0.041900363 0.03397964 0.030040177 -0.04018724 0.030387696 -0.037662838 -0.041765325 -0.042205855
-0.037376 -0.039526913 0.030389361 -0.04159541 0.03335823 -0.04019203 -0.04142489 0.030000802
-0.042661276 -0.040015124 -0.041331124 0.031898305 -0.041213173 0.029376484 0.026218602 0.037429888
-0.00930306 -0.0038382746 0.011264937 0.007836122 0.00628326 -0.0059608854 -0.0025898665 0.00306589
-0.0053254487 0.002927637 -0.0052448204 0.012424374 -0.0010665099 -0.016808499 0.010380148 0.0023925395
-7.796891e-05 0.0035975447 -0.0069579505 -0.0047905156 -0.002635206 0.011984867 4.450813e-05 0.0036130105
0.0060841325 0.0014924951 -0.017723639 0.022958163 0.0014802641 0.0033578775 -0.0001952116 0.002843176
0.0010181194 0.007010362 -0.0035066071 0.0034739557 0.0017079853 0.011230472 -0.0010542293 -0.007457094
-0.0026744874 0.009147547 -0.0063196593 -0.00038214592 9.961837e-05 -0.008377272 -0.0027451487 -0.003964248
0.015183056 -0.0011960557 -0.003287348 0.0072517777 -0.0041444497 -0.005390637 -0.005447637 0.0032888013
-0.0032593636 -0.006817192 0.01074107 0.008061995 -0.00040171144 -0.0004379556 -0.0050510727 0.010148435
00000000: f2c8 063d d85c d33c 41d9 27bd 0350 e23c
00000010: b73e 033d 8e5a f23c 3f2d 23bd 3473 db3c
00000020: afe4 20bd 14c6 ff3c d379 22bd def3 fa3c
00000030: 14e0 26bd 1c00 fe3c 670d 073d 2ad0 26bd
00000040: e993 e63c 8ea0 2dbd 1f7c 22bd 1efd 2abd
00000050: 71ff 22bd 8dce f13c 33b2 25bd f1de 073d
00000060: c571 063d ab38 f23c 90ee fc3c 10d5 f03c
00000070: c994 29bd 2004 2ebd 31d6 23bd eac4 f33c
00000080: 5bc7 043d 50bd fb3c 44e3 20bd 6a0b 023d
00000090: f49e 24bd 327b fa3c faf3 26bd b81e f73c
000000a0: 4302 2bbd 9f1e f73c 3544 fc3c dc6b 25bd
000000b0: b5aa f73c f2f2 19bd 8011 2dbd 64b7 2fbd
000000c0: 89ef 1bbd 6316 1dbd 642c e63c 1dad 25bd
000000d0: 608f 013d 523f 23bd 8691 2abd 9d1b f63c
000000e0: b205 2ebd f834 23bd d48d 2dbd b573 093d
000000f0: 1c68 28bd 0169 ef3c 6048 093d 94b1 043d
00000100: 5220 f3bb 075c 533b 5cb5 edba 17f6 22bb
00000110: 0563 88bb bb88 af3c d45e bcbb 201c 6dbb
00000120: 2bbe 64bb 4a58 983b b5bd b8ba 5f08 55bc
00000130: 02f9 3bbb 2f40 c2bc 7bd4 35bc 807c f1bb
00000140: d919 3b3c cd42 28bb 033e 27bc f993 703a
00000150: a6d2 35bb bb15 a13c 6bfa 9cbb 7ea2 413b
00000160: e5f1 f8bb bd1a 18bc d497 37bc 115b 153d
00000170: 59d6 55ba ae7d 48bc 54e1 083a c430 7f3c
00000180: 6709 133d 0e31 05bc 9b4a 61ba 6c48 54bc
00000190: 91b8 93bc 5d61 78bc 7b1a debb 8299 7a3b
000001a0: e9a9 aa3a c0a9 bf3c 42c5 46bc 4d00 2ebb
000001b0: 912a 15bc 00fe 6cbb 2762 53bc 762c 65bc
000001c0: 775b 83ba 24a1 02bc 7a37 c9bb b9b0 bfbb
000001d0: 4f87 953c 9d12 bc3a 5b22 a639 6f8e c9bb
000001e0: 6c61 dbbb 9e2f 103b cf17 abbc 1de3 5dbc
000001f0: 8005 edbb 23ea 31bc d2a4 113d e1e5 ec3c
00000200: 0b48 f53c 04f6 f53c b01f 26bd 6d25 ed3c
00000210: 07cb ef3c cbc7 033d ad90 29bd 6d8e e83c
00000220: ff1d 21bd 3858 f53c 67fa 22bd 54cd db3c
00000230: 347e 26bd 632b f03c b6af 003d 3132 26bd
00000240: 5d5e fb3c 6692 2cbd 1997 25bd c030 2dbd
00000250: d6be 23bd b6b8 043d 4693 28bd 0d22 053d
00000260: b26a 033d 0483 ea3c f354 fb3c 7b71 073d
00000270: f146 2ebd d6a0 2dbd 4c2a 23bd 6983 f33c
00000280: ad4d 083d 997f fc3c 951c 1fbd fc9f 083d
00000290: 3283 25bd 06a7 e53c b4d3 27bd cad0 023d
000002a0: b79f 2bbd 3c2e 0b3d d116 f63c 609b 24bd
000002b0: 9eef f83c 5944 1abd 1e12 2bbd 0ce0 2cbd
000002c0: 9417 19bd f9e6 21bd 1cf3 f83c f35f 2abd
000002d0: a4a2 083d 66a0 24bd 25ad 29bd 3ec4 f53c
000002e0: 97bd 2ebd e6e6 23bd d34a 29bd cca7 023d
000002f0: 25cf 28bd f4a6 f03c 65c8 d63c 1550 193d
00000300: dd6b 18bc 908b 7bbb 9290 383c 1463 003c
00000310: cee3 cd3b 8853 c3bb c0ba 29bb 19ed 483b
00000320: 1a81 aebb 99dd 3f3b bedc abbb 9a8f 4b3c
00000330: 22ca 8bba fab1 89bc 7f11 2a3c 27cc 1c3b
00000340: 3d83 a3b8 c9c4 6b3b 85ff e3bb c2f9 9cbb
00000350: 6cb3 2cbb 2d5c 443c 3eae 3a38 42c8 6c3b
00000360: 675d c73b d39f c33a 2a31 91bc c212 bc3c
00000370: 6c05 c23a d60f 5c3b b7b1 4cb9 9454 3a3b
00000380: 6b72 853a 2eb7 e53b 1bcf 65bb 4eab 633b
00000390: 7ade df3a 0300 383c 112e 8aba a35a f4bb
000003a0: 7446 2fbb 98df 153c 2515 cfbb c25a c8b9
000003b0: 35ea d038 d340 09bc f4e7 33bb 86e6 81bb
000003c0: 5ac2 783c f8c4 9cba 8c70 57bb 52a0 ed3b
000003d0: 2ace 87bb f1a3 b0bb 1782 b2bb ee88 573b
000003e0: 0c9b 55bb c062 dfbb 50fb 2f3c 7516 043c
000003f0: cc9c d2b9 689d e5b9 7883 a5bb 9f45 263c

joint_model.model.3.bias f4 [64]
0.034121655 0.0006709394 0.03434095 0.0036608768 0.03556673 0.0057733427 0.034864966 0.0056030247
0.034065563 0.017532041 0.034503695 -0.011157693 0.035575364 0.0014682678 0.03538931 -0.012051772
0.03490896 0.01144825 0.03520457 -0.014176117 0.034338363 -0.01119388 0.03405137 -0.0076297144
0.03501664 -0.0012396523 0.03469706 0.00021937351 0.034225747 0.0087297065 0.03527181 -0.0087350365
0.0 0.0 0.0 0.0 0.0 0.0 0.0 0.0
0.0 0.0 0.0 0.0 0.0 0.0 0.0 0.0
0.0 0.0 0.0 0.0 0.0 0.0 0.0 0.0
0.0 0.0 0.0 0.0 0.0 0.0 0.0 0.0
00000000: 26c3 0b3d fbe1 2f3a 19a9 0c3d 52eb 6f3b
00000010: 6bae 113d 4f2e bd3b 91ce 0e3d 9499 b73b
00000020: 5588 0b3d 5b9f 8f3c bf53 0d3d c2ce 36bc
00000030: 79b7 113d e472 c03a 62f4 103d cc74 45bc
00000040: b3fc 0e3d 7191 3b3c ab32 103d f242 68bc
00000050: 62a6 0c3d 8966 37bc 7379 0b3d af02 fabb
00000060: 9c6d 0f3d d47b a2ba 811e 0e3d a107 6639
00000070: 4c30 0c3d 0b07 0f3c 2c79 103d 661d 0fbc
00000080: 0000 0000 0000 0000 0000 0000 0000 0000
00000090: 0000 0000 0000 0000 0000 0000 0000 0000
000000a0: 0000 0000 0000 0000 0000 0000 0000 0000
000000b0: 0000 0000 0000 0000 0000 0000 0000 0000
000000c0: 0000 0000 0000 0000 0000 0000 0000 0000
000000d0: 0000 0000 0000 0000 0000 0000 0000 0000
000000e0: 0000 0000 0000 0000 0000 0000 0000 0000
000000f0: 0000 0000 0000 0000 0000 0000 0000 0000
