results_pis_architectures/many_well/clipping_lgv_100.0_gfn_10000.0_gfn/bwd/bwd_tb/T_100/tscale_1.0/lvr_4.0/seed_12345/model.pt (torch, 183012 bytes, 23 tensors)

t_model.timestep_phase f4 [1, 64]
0	0xbf6327f4	-0.8873284
1	0x3e26c5fd	0.16286464
2	0x3f057bd6	0.52142084
3	0xbe10429a	-0.14087906
4	0xbee971a9	-0.45594528
5	0xbdad0506	-0.08448224
6	0x3f17b523	0.5926077
7	0x3f07d277	0.5305552
8	0xbf434667	-0.762793
9	0x3cb9ee29	0.022696571
10	0x3f1e73fb	0.6189572
11	0x3efb9782	0.4913903
12	0xbed05e58	-0.4069698
13	0xbf69d29b	-0.91336983
14	0x3f2f1297	0.6838774
15	0xbf60beae	-0.87790954
16	0xbf7eef9d	-0.9958437
17	0xbf2ab78b	-0.66686314
18	0xbf5481c7	-0.83010525
19	0xbff1c999	-1.8889648
20	0x3f59c67c	0.8506849
21	0x3f86dcf5	1.0536181
22	0x3f69eb5d	0.9137476
23	0xbd1cb351	-0.038256947
24	0x3eaffd19	0.34372786
25	0xbf93f550	-1.1559238
26	0x3f2fbf82	0.6865159
27	0x3e2af68d	0.16695614
28	0x4006b78a	2.1049523
29	0x40383ebe	2.8788295
30	0x3e7f4840	0.24929905
31	0xbf248275	-0.6426156
32	0x3f53b531	0.8269835
33	0x3f89c16e	1.0762155
34	0xbf585cbf	-0.8451652
35	0x3f298704	0.6622164
36	0x3f66fb06	0.9022678
37	0x3ee4e645	0.44706932
38	0x3ffebcf5	1.9901415
39	0xbfe6c4a2	-1.8028758
40	0x3e9d5c58	0.30734515
41	0xbfa6d617	-1.3034085
42	0xbf4c0134	-0.79689336
43	0x3e12292e	0.14273521
44	0x3fd33a05	1.6502081
45	0xbe9b96a1	-0.30388358
46	0x3f1d5f1d	0.61473256
47	0x3e8f6132	0.28003842
48	0xbd1fca91	-0.03901154
49	0xbf13e203	-0.5776674
50	0x3f225721	0.634142
51	0x3fbf6677	1.4953145
52	0x3f4c5f08	0.79832506
53	0xbe468d34	-0.19389802
54	0x3e432d20	0.19060183
55	0xbd533b84	-0.05157043
56	0x3f33ff56	0.70311487
57	0xbfa042b7	-1.252036
58	0xbf534c2b	-0.825381
59	0xbf50c21f	-0.81546205
60	0xbef20d61	-0.47275832
61	0xbeee36ee	-0.46526283
62	0xbe481e91	-0.1954291
63	0x3f49748a	0.7869345

t_model.pe f4 [1, 64]
0	0x3dcccccd	0.1
1	0x3fd7c57d	1.6857144
2	0x40515f16	3.2714286
3	0x409b6db7	4.857143
4	0x40ce2be3	6.4428573
5	0x41007508	8.028572
6	0x4119d41e	9.614286
7	0x41333334	11.200001
8	0x414c924a	12.785715
9	0x4165f160	14.371429
10	0x417f5076	15.957144
11	0x418c57c6	17.542858
12	0x41990751	19.128572
13	0x41a5b6dc	20.714287
14	0x41b26667	22.300001
15	0x41bf15f2	23.885715
16	0x41cbc57d	25.47143
17	0x41d87508	27.057144
18	0x41e52493	28.642859
19	0x41f1d41e	30.228573
20	0x41fe83a9	31.814287
21	0x4205999a	33.4
22	0x420bf15f	34.985714
23	0x42124925	36.57143
24	0x4218a0ea	38.157143
25	0x421ef8b0	39.74286
26	0x42255075	41.32857
27	0x422ba83b	42.914288
28	0x42320000	44.5
29	0x423857c6	46.085716
30	0x423eaf8b	47.67143
31	0x42450751	49.257145
32	0x424b5f16	50.842857
33	0x4251b6db	52.42857
34	0x42580ea0	54.014282
35	0x425e6666	55.6
36	0x4264be2c	57.185715
37	0x426b15f1	58.771427
38	0x42716db6	60.35714
39	0x4277c57c	61.942856
40	0x427e1d42	63.528572
41	0x42823a84	65.11429
42	0x42856666	66.7
43	0x42889249	68.28571
44	0x428bbe2c	69.87143
45	0x428eea0e	71.45714
46	0x429215f1	73.042854
47	0x429541d4	74.62857
48	0x42986db7	76.21429
49	0x429b999a	77.8
50	0x429ec57c	79.38571
51	0x42a1f15f	80.97143
52	0x42a51d42	82.557144
53	0x42a84924	84.14285
54	0x42ab7507	85.72857
55	0x42aea0ea	87.314285
56	0x42b1cccd	88.9
57	0x42b4f8b0	90.48572
58	0x42b82492	92.07143
59	0x42bb5075	93.65714
60	0x42be7c58	95.24286
61	0x42c1a83a	96.82857
62	0x42c4d41d	98.41428
63	0x42c80000	100.0

t_model.t_model.0.weight f4 [64, 128]
0	0xbe05e1e2	-0.13074449
1	0x3d633694	0.05547197
2	0xbd1f2734	-0.038855746
3	0xbd9f5b4a	-0.07781084
4	0xbe8f6bf5	-0.28012052
5	0x3d76a779	0.060218308
6	0x3c3ac1ed	0.011398775
7	0xbd9761a0	-0.07391667
8	0xbe17b4ad	-0.14815016
9	0xbbbd1813	-0.005770692
10	0x3d647a62	0.055780776
11	0x3d14f874	0.036369756
12	0xbc39d761	-0.011342854
13	0x3d891272	0.06692971
14	0xbdca304c	-0.09872493
15	0xbd0182b6	-0.031618796
16	0xbd45d8e4	-0.048302546
17	0xbdbef8b6	-0.093247816
18	0x3de0ce7c	0.10976884
19	0x3ba1b2b4	0.004934633
20	0xbde343ea	-0.11096938
21	0x3cd2482b	0.025669178
22	0xbcf625fe	-0.030047413
23	0xbdfd4f01	-0.123685844
24	0xbc79e604	-0.015252594
25	0xbd693479	-0.056934807
26	0xbb89af00	-0.00420177
27	0xbd37c2ea	-0.04486362
28	0xbc12b9b9	-0.008955413
29	0x3d6acd75	0.057324845
30	0xbcdf3da2	-0.027251069
31	0xbd700502	-0.058598526
32	0x3c10cd23	0.008837971
33	0x3d79bc4a	0.060970582
34	0x3deccbed	0.11562333
35	0xbcc5daf8	-0.024152264
36	0x3c88e384	0.01671005
37	0x3d96055e	0.073252425
38	0x3dde7ee1	0.10864044
39	0x3d5e391d	0.054253686
40	0x3c5a63bd	0.0133294435
41	0x3d3b2755	0.045691807
42	0x3c908c17	0.017644925
43	0x3d4f8cd1	0.050671402
44	0x3db695af	0.08915269
45	0xbd11e99c	-0.035623178
46	0xbdd9b047	-0.10629325
47	0xbc061294	-0.00818314
48	0x3d3c16d0	0.045920193
49	0xbc4e288d	-0.01258291
50	0x3d678f1a	0.056532957
51	0x3d28540d	0.041095782
52	0xbc4a1a95	-0.012335439
53	0x3d8d3320	0.06894517
54	0xbd962c92	-0.0733272
55	0xbd3204bf	-0.043461557
56	0x3d4972ed	0.049181867
57	0xbce34053	-0.027740633
58	0x3b105ab2	0.0022026715
59	0xbc64cd36	-0.013964942
60	0xbba2b8dd	-0.004965885
61	0x3c6bc3a5	0.014389907
62	0xbd49135c	-0.04909073
63	0xbceb1fac	-0.028701626
64	0x3db4eb44	0.08833936
65	0xbd93f706	-0.0722485
66	0xbe6b2a7c	-0.22965425
67	0xbe92e7b5	-0.28692403
68	0xbb8b6074	-0.0042534415
69	0x3daa0443	0.08301594
70	0xbddbfb4d	-0.10741291
71	0xbda30f22	-0.07961871
72	0xbe249fa5	-0.16076525
73	0x3de0ef5e	0.10983156
74	0xbd5007a0	-0.05078852
75	0x3da8ee6b	0.082485996
76	0x3da31b8a	0.07964237
77	0x3c35f9c9	0.011106917
78	0xbe05ac3c	-0.13053983
79	0xbe1467f9	-0.14492787
80	0xbd326bde	-0.0435599
81	0x3de1ef51	0.11031974
82	0x3d9239b1	0.0713991
83	0x3d15dccf	0.036587533
84	0xbd13e468	-0.036106497
85	0x3bd26fcc	0.0064220186
86	0xbcb9a89d	-0.022663409
87	0xbd04bd9d	-0.03240739
88	0xbc6b14d2	-0.014348226
89	0x3d9e2d01	0.077234276
90	0xbd8caf82	-0.06869413
91	0xbd99d5eb	-0.07511505
92	0xbdb9e2f0	-0.09076488
93	0x3d215e8a	0.0393968
94	0x3ceaad1b	0.028646996
95	0xbdb39711	-0.08769048
96	0x3c516ed4	0.012782771
97	0xbb8a5b0d	-0.00422228
98	0xbd1bf305	-0.03807356
99	0x3d3da3ba	0.04629872
100	0x3c6cb674	0.014447797
101	0x3daadbf7	0.08342736
102	0x3d3799b5	0.04482432
103	0x3dbad969	0.09123499
104	0x3d15d9a0	0.036584496
105	0x3d3e8a11	0.04651839
106	0xbcb865f0	-0.022509545
107	0xb98c6336	-0.000267768
108	0xbc5c8327	-0.0134590035
109	0x3d508c58	0.050915092
110	0xbd0e6e1d	-0.03477298
111	0xbc013e71	-0.007888422
112	0x3bf32435	0.0074200877
113	0x3c601906	0.013677841
114	0x3d024c25	0.0318109
115	0x3d9a5ddc	0.075374335
116	0x3cab1f1e	0.020888861
117	0xbcb51670	-0.022105426
118	0xbc919d9d	-0.017775351
119	0x3da47dc5	0.08031801
120	0xbc4383bd	-0.011933264
121	0xbd5bea92	-0.0536905
122	0xbd88ea81	-0.06685353
123	0xbcd9aca7	-0.026571585
124	0xbb479582	-0.0030454104
125	0xbdb64a6b	-0.08900913
126	0x3d7752c1	0.060381655
127	0xbd1d90f0	-0.0384683
128	0x3e4ad4ed	0.19807787
129	0xbe076de9	-0.13225521
130	0xbe371e1d	-0.17882581
131	0xbdb3973b	-0.08769079
132	0x3dfbf60a	0.123027876
133	0x3bef192d	0.0072967024
134	0xbd0a76b4	-0.03380461
135	0xbc5b1b12	-0.013373153
136	0x3d3e56b4	0.046469405
137	0x3a02fa76	0.0004996428
138	0x3c9c8a14	0.01910881
139	0x3d7c4f61	0.06159914
140	0x3d96489d	0.07338069
141	0x3dabdf09	0.0839215
142	0xbdad974b	-0.084761225
143	0xbd5050d1	-0.050858323
144	0x3bf01a40	0.007327348
145	0xbcafc56e	-0.021456446
146	0x3d7ecc5c	0.06220661
147	0xbd553cec	-0.052060053
148	0x3c8c71c6	0.017144095
149	0xbd06a62d	-0.03287332
150	0xbc08831d	-0.008332041
151	0x3bb0b66b	0.0053928397
152	0xbd757c2f	-0.059932884
153	0xbd51875a	-0.051154472
154	0xbd55ffc2	-0.052245863
155	0xbd50df3e	-0.05099415
156	0x3d42d1f8	0.047563523
157	0xbd9c0420	-0.07617974
158	0x3d7bfbf7	0.06151959
159	0xbd5ac395	-0.053409178
160	0xbce74f55	-0.02823607
161	0xbd618bdf	-0.055065032
162	0x3d8bb877	0.06822293
163	0x3d938850	0.07203734
164	0x3d801e1d	0.06255744
165	0x3c4fc369	0.012680867
166	0x3c97240f	0.018449811
167	0x3d8a88b1	0.06764353
168	0xbda25351	-0.079260476
169	0xbdb2894f	-0.08717596
170	0xbd4f72bc	-0.05064653
171	0x3c4464a5	0.011986886
172	0xbd4dd596	-0.05025252
173	0x3ccfe764	0.02537889
174	0x3cc77d36	0.024351697
175	0xbab6e6c5	-0.0013954273
176	0xb9da9d20	-0.00041697267
177	0x3d6d33f8	0.05791089
178	0x3ca55a9a	0.020184804
179	0x3b456350	0.003011901
180	0xbc8c6b04	-0.017140873
181	0x3a499aa4	0.0007690585
182	0xbc209ae4	-0.009802554
183	0x3d1a44cc	0.037663266
184	0x3da990b9	0.08279557
185	0x3c9d7f41	0.019225718
186	0xbc894e4e	-0.016760971
187	0xbc1b6f2e	-0.0094869565
188	0xbd9e2d1a	-0.07723446
189	0xbd958355	-0.0730044
190	0xbd7a4410	-0.061100066
191	0xbd058544	-0.032597795
192	0xbe46e00a	-0.19421402
193	0xbe55e463	-0.20887904
194	0x3df2beb4	0.1185278
195	0x3d9f4cd9	0.077783294
196	0x3d82acbd	0.063806035
197	0xbdb85632	-0.090008155
198	0x3dc92040	0.09820604
199	0x3bdfd359	0.0068306145
200	0x3d047f35	0.032347877
201	0xbc65a64f	-0.014016702
202	0x3df7842b	0.12085756
203	0x3d8a202e	0.06744419
204	0x3d91d19a	0.071200565
205	0xbb402e64	-0.0029324526
206	0x3d898401	0.06714631
207	0xbc040fbc	-0.008060392
208	0x3dca1216	0.09866731
209	0xbc4bee72	-0.0124469865
210	0xbd8628e8	-0.06550771
211	0x3c9aead8	0.01891081
212	0x3da95e9f	0.08270001
213	0xbd647cda	-0.05578313
214	0x3d1cc95e	0.038277976
215	0x3d73b972	0.059503026
216	0x3dc9a950	0.09846747
217	0x3d7e00e9	0.062012587
218	0x3d30d917	0.043175783
219	0xbc102844	-0.008798663
220	0x3daaaf19	0.083341785
221	0xbdc3ffbd	-0.095702626
222	0xbd687896	-0.056755625
223	0xbd376242	-0.04477144
224	0xbcc3c6c5	-0.023898492
225	0x3b5c72e3	0.0033637814
226	0x3bc6077a	0.0060433717
227	0xbdb7e17f	-0.08978557
228	0xbd61db56	-0.055140816
229	0x3ddafcba	0.10692735
230	0xbd2c9a20	-0.042139173
231	0xbd6329d7	-0.055459823
232	0x3d9b12ca	0.07571943
233	0xbcf04007	-0.029327406
234	0xbc9b6ae2	-0.018971864
235	0xbd0e3d21	-0.034726266
236	0xbc0634e2	-0.008191319
237	0xbd960502	-0.07325174
238	0x3d69e3a9	0.05710188
239	0xbcf51095	-0.029915133
240	0x3d62d828	0.055381924
241	0x3db6f2da	0.08933039
242	0x3cc8b070	0.024498194
243	0xbc10c09d	-0.008834985
244	0xbd37c1da	-0.044862606
245	0xbccd3127	-0.025047852
246	0x3d095ec7	0.033537652
247	0x3d6dd1be	0.058061354
248	0x3d96e72f	0.073683135
249	0xbce8ebeb	-0.028432807
250	0xbd8ac8de	-0.067765936
251	0x3d0c347b	0.034229737
252	0xbcd39f3f	-0.02583277
253	0x3d39f7c5	0.045402307
254	0xbdadddc6	-0.084895656
255	0xbc80e578	-0.01573442

t_model.t_model.0.bias f4 [64]
0	0x3e27664e	0.1634762
1	0xbe6f4bc1	-0.23368742
2	0xbd3cfd14	-0.04613979
3	0x3d744dd8	0.05964455
4	0x3e9b6b90	0.303555
5	0xbe6b01ab	-0.22949855
6	0x3c596bf3	0.013270366
7	0xbd4b7f95	-0.04968222
8	0xbde94334	-0.11389771
9	0x3e101826	0.14071712
10	0xbd4931a9	-0.049119625
11	0x3d8d3d85	0.068964995
12	0x3cd02aea	0.025411088
13	0x3c47bc7d	0.012190935
14	0xbddce78b	-0.10786351
15	0x3e4a33a2	0.19746259
16	0xbdfec223	-0.124393724
17	0xbd09f9fb	-0.033685666
18	0xbe425b1d	-0.1898007
19	0xbdcbdb5a	-0.09953947
20	0xbdb48383	-0.08814146
21	0x3e1c6430	0.15272593
22	0x3eb23ee0	0.34813595
23	0xbe3d519a	-0.1848816
24	0xbd4efc73	-0.050533723
25	0x3e541bf5	0.2071379
26	0xbc50d1ad	-0.012745303
27	0xbd145051	-0.03620941
28	0xbe200176	-0.15625557
29	0xbd82d8af	-0.06388985
30	0xbe3f4b3b	-0.18681042
31	0x3d7c8f3b	0.061660033
32	0x3dd52640	0.10407686
33	0xbe1bfe2c	-0.15233678
34	0xbe09488b	-0.13406579
35	0x3dd3aaf7	0.10335343
36	0xbe672152	-0.22571304
37	0xbdffa3c1	-0.124824055
38	0xbe5e787c	-0.21725649
39	0x3e61c2d8	0.22046983
40	0x3eae365d	0.3402585
41	0xbe295816	-0.16537508
42	0xbe77374b	-0.24142186
43	0x3e05f256	0.13080725
44	0xbe52355b	-0.20528166
45	0x3dae177d	0.08500574
46	0x3cb2c48d	0.021822238
47	0xbbf2f3b6	-0.0074143065
48	0x3db711f5	0.08938972
49	0xbe36bc21	-0.17845203
50	0xbe5a3252	-0.21308258
51	0xbc38f001	-0.01128769
52	0x3d8ee6ac	0.06977591
53	0xbe162d18	-0.1466564
54	0x3d0feab1	0.03513593
55	0xbe52cafa	-0.20585242
56	0xbd278547	-0.040898588
57	0xbe50fbb0	-0.20408511
58	0x3e28fea3	0.16503386
59	0xbe67c23a	-0.22632685
60	0x3d71f572	0.059071966
61	0x3e136050	0.14392209
62	0xbe5150db	-0.20441
63	0x3d39fad5	0.045405228

t_model.t_model.2.weight f4 [64, 64]
0	0x3e18ee37	0.14934622
1	0xbca75340	-0.020425439
2	0xbd18030e	-0.03711229
3	0x3c23c5f7	0.009995929
4	0x3cabd7c7	0.020976914
5	0xbd8d463c	-0.06898162
6	0x3e1a5f26	0.15075359
7	0x3d05be3d	0.03265213
8	0x3bc928f5	0.0061389157
9	0x3d1327cf	0.035926636
10	0xbde458f1	-0.11149777
11	0x3d57fb65	0.052729983
12	0x3d60a21f	0.05484211
13	0xbd462325	-0.04837336
14	0x3de1a76b	0.110182606
15	0x3dc5ba14	0.09654632
16	0xbe3115a0	-0.17293406
17	0xbc724620	-0.014787227
18	0x3e205da6	0.15660724
19	0xbc5c3a2f	-0.013441606
20	0x3caa6535	0.020800212
21	0x3d2be5ed	0.04196732
22	0x3c7ad1bd	0.015308795
23	0xbd765d62	-0.06014765
24	0xbcb1bc84	-0.021696337
25	0x3d3cd5b9	0.04610226
26	0xbdb5828d	-0.08862791
27	0xbb575058	-0.0032854285
28	0xbd6ec8c0	-0.05829692
29	0x3de0bd81	0.10973645
30	0x3d52215c	0.051301345
31	0x3c868dc3	0.01642502
32	0x3cddc6c5	0.02707232
33	0xbd66605c	-0.05624424
34	0xbe5ccfe2	-0.21563676
35	0x3dd0d680	0.10197163
36	0x3da8d6e1	0.0824411
37	0x3d13f865	0.03612556
38	0x3d77d5ee	0.060506754
39	0x3e0ce81b	0.13760416
40	0xbccc2df6	-0.02492426
41	0xbde53409	-0.111915655
42	0xbdebab73	-0.11507311
43	0x3e051e41	0.12999822
44	0x3deb23a4	0.11481407
45	0x3cdeb6e1	0.027186813
46	0xbd764f8c	-0.060134456
47	0xbbcfcf4e	-0.0063418513
48	0x3db3c8af	0.08778512
49	0xbd9e46ec	-0.07728371
50	0x3d3ed990	0.046594203
51	0x3dea5e92	0.11443819
52	0x3d299286	0.0413995
53	0x3d7342d4	0.059389904
54	0xbbc93df8	-0.0061414205
55	0xbe12dfd9	-0.14343204
56	0x3d84331d	0.064550616
57	0xbdc6f002	-0.097137466
58	0x3d90fe1d	0.07079718
59	0x3e141635	0.14461596
60	0x3c566b61	0.013087125
61	0x3d85bb27	0.06529837
62	0xbd9e78cb	-0.07737883
63	0xbd134e5f	-0.035963412
64	0x3d2371c2	0.03990341
65	0x3c16da25	0.009207283
66	0xbd095452	-0.03352768
67	0xbc5e527e	-0.013569472
68	0xbd2873d7	-0.0411261
69	0x3bce0c4b	0.0062880865
70	0x3ccdea6d	0.025136197
71	0x3d29295a	0.0412992
72	0xbcf73ad7	-0.030179424
73	0x3e06993a	0.13144389
74	0x3d1a7e60	0.037718177
75	0x3dc94c27	0.09828978
76	0x3d31ef53	0.043441128
77	0xbc519c3d	-0.012793598
78	0x3d9edb29	0.07756645
79	0x3cba2231	0.022721382
80	0xbd7f4fbe	-0.062331907
81	0xb9de408f	-0.0004239124
82	0xbcda4236	-0.0266429
83	0x3c8ca350	0.017167717
84	0xbd0da03a	-0.034576632
85	0x3e0e0d7a	0.13872328
86	0xbd895c70	-0.06707084
87	0xbc05dbc8	-0.008170076
88	0xbc46f0c8	-0.012142368
89	0x3c06f9f6	0.008238306
90	0xbc90a9ca	-0.017659087
91	0x3d1eab5f	0.03873765
92	0xbb909bb1	-0.004413091
93	0xbc80e040	-0.01573193
94	0xbcb962d4	-0.022630133
95	0xbd166852	-0.03672058
96	0x3d59a2d3	0.053133797
97	0x3d9b3268	0.075779736
98	0xbd7295f6	-0.059225045
99	0x3dd8e706	0.10590939
100	0x3d2f6d97	0.042829122
101	0x3bc19fb9	0.005908933
102	0xbdaaded5	-0.08343283
103	0x3d3f9b26	0.04677882
104	0xbd226ef5	-0.039656598
105	0xbdd3dfcc	-0.1034542
106	0xbd89694a	-0.067095354
107	0x3dd374c6	0.10325007
108	0x3cc65e85	0.024214992
109	0xbc76e7ea	-0.015069941
110	0xbc782579	-0.015145653
111	0x3d450a86	0.04810574
112	0x3d6b2e3b	0.057417136
113	0xbda78ecb	-0.081815325
114	0xbd88578b	-0.066573225
115	0xbabcf5a4	-0.0014416468
116	0x3dd22f47	0.10262924
117	0x3d7de596	0.06198653
118	0x3df64d64	0.1202648
119	0xbd06cf24	-0.03291239
120	0xbcb70d17	-0.022345109
121	0xbd5467b7	-0.051856723
122	0x3d650914	0.05591686
123	0x3d837056	0.06417911
124	0x3c792873	0.015207398
125	0x3dc8af94	0.09799114
126	0xbd4308ab	-0.04761569
127	0xbcf9d354	-0.030496277
128	0xbd35017f	-0.04419088
129	0x3c512085	0.012764101
130	0x3ba463f5	0.0050167986
131	0xbc3a75e3	-0.011380645
132	0xbdef8642	-0.116955295
133	0x3cbb7882	0.022884611
134	0x3b8712c3	0.0041221096
135	0xbcdc7695	-0.026912013
136	0xba966e9e	-0.0011477058
137	0xbd159518	-0.03651914
138	0x3cc14fae	0.023597565
139	0xbb9c5193	-0.0047704666
140	0xbd354cb7	-0.044262614
141	0xbcd28650	-0.02569881
142	0x3d1242bd	0.035708178
143	0xbd58639a	-0.052829362
144	0x3bda07fe	0.006653785
145	0xbc2a2dd5	-0.010386904
146	0x3e117e9f	0.14208458
147	0x3b7c9518	0.0038541015
148	0xbcae91e1	-0.021309795
149	0xbda308b6	-0.07960646
150	0xbe1554e2	-0.14583161
151	0x3d75785a	0.05992923
152	0x3c9b4ff2	0.01895902
153	0xbdc6b9fd	-0.09703443
154	0xba2576bc	-0.0006311943
155	0x3c30f7aa	0.010801235
156	0xbd07c223	-0.033144128
157	0xbcb7331e	-0.022363242
158	0x3d543a75	0.05181356
159	0xbd2ffc20	-0.042965055
160	0xbbb4fa8e	-0.0055230325
161	0x3d59c950	0.053170502
162	0xbb430ceb	-0.0029762338
163	0xbc49964b	-0.012303899
164	0x3d42c65f	0.047552463
165	0xbbd89d58	-0.0066105537
166	0x3db80a40	0.0898633
167	0xbde45a04	-0.111499816
168	0xbdf58a5d	-0.11989281
169	0x3de92cfb	0.113855325
170	0x3e7b02b2	0.24512747
171	0xbb251be1	-0.002519362
172	0x3de55b66	0.111990735
173	0xbd1959a1	-0.037438992
174	0xbc13f61e	-0.009030847
175	0xbc9aa23f	-0.018876193
176	0xbd09bbd9	-0.03362641
177	0x3e968df4	0.29405177
178	0x3dc73983	0.09727766
179	0xbd8c9b27	-0.068655305
180	0x3bd08e4b	0.006364619
181	0x3d16fcb6	0.036862098
182	0xbd19b585	-0.037526626
183	0x3daf7fe5	0.08569316
184	0x3d2c7147	0.042100217
185	0x3da8aee8	0.08236486
186	0xbd63f57c	-0.055654034
187	0x3cd94148	0.026520386
188	0xbcf158ef	-0.029461352
189	0xbd2a4dc9	-0.041578088
190	0x3e19f12d	0.15033408
191	0xbd083f25	-0.033263344
192	0x3d369054	0.044571236
193	0xbc4e1c60	-0.012580007
194	0xbc2b29b5	-0.010446955
195	0xbdc48def	-0.09597384
196	0xbe0d2975	-0.13785346
197	0x3d3748d6	0.044747196
198	0x3d26880b	0.040657084
199	0xbd8d18d3	-0.068895005
200	0x3d042ca6	0.032269143
201	0x3de5d911	0.11223043
202	0x3de7e518	0.11322993
203	0x3e2c8006	0.16845712
204	0xbc837e59	-0.016051458
205	0x3d06222b	0.03274743
206	0x3dee82ae	0.11646019
207	0xbcba0ad4	-0.022710241
208	0x3dc31348	0.09525162
209	0x3cb676ce	0.022273447
210	0x3ddce5bb	0.10786005
211	0x3cc7e543	0.024401313
212	0xbbb05a52	-0.005381861
213	0xbcca2cc9	-0.024679558
214	0xbd8df177	-0.069308214
215	0x3d599da4	0.053128853
216	0xbc13a75c	-0.00901207
217	0xbdefac03	-0.117027305
218	0xbcdd119d	-0.026985938
219	0x3d009001	0.031387333
220	0x3dba6105	0.09100536
221	0x3d0a033f	0.033694502
222	0x3d5141b0	0.051088035
223	0xbe05c5cc	-0.13063735
224	0xbd17ef93	-0.03709371
225	0x3d080bd8	0.03321442
226	0x3dddf0b8	0.10836929
227	0x3d2b432e	0.041812114
228	0x3d2e1654	0.042501763
229	0x3c15887a	0.009126777
230	0xbd14ccac	-0.036328003
231	0xbb20ea82	-0.002455384
232	0xbe0e1bcc	-0.13877791
233	0x3d6bc39e	0.057559602
234	0x3d46af5b	0.048507076
235	0xbd47fc8b	-0.048824828
236	0xbe33479a	-0.17507783
237	0xbdc9959d	-0.098429896
238	0xbd50e93a	-0.051003672
239	0xbd82d600	-0.063884735
240	0xbbe457a7	-0.006968457
241	0x3e3a0180	0.18164635
242	0x3e3ac625	0.18239649
243	0xbd7318fc	-0.05935
244	0x3c801fcc	0.015640162
245	0x3dd4bf35	0.10388032
246	0x3d8f025c	0.06982872
247	0x3dc8bdb7	0.0980181
248	0xbd2993e7	-0.041400816
249	0x3d2f5915	0.042809565
250	0xbb7cb15b	-0.003855786
251	0xbbaccf7e	-0.0052737584
252	0xbd3dd2e4	-0.0463437
253	0x3d327c61	0.04357565
254	0x3e2895c5	0.16463383
255	0xbde99b4c	-0.11406574

t_model.t_model.2.bias f4 [64]
0	0x3be28164	0.006912397
1	0xbda9cfb4	-0.08291569
2	0xbe3fa446	-0.18715009
3	0xbdca1222	-0.0986674
4	0xbe58ce70	-0.211725
5	0x3e1f5605	0.15560158
6	0x3e06aacf	0.13151096
7	0x3e676b09	0.22599424
8	0xbda3832c	-0.079840034
9	0x3e317a47	0.17331801
10	0x3c45f83b	0.012083109
11	0x3e29a902	0.16568378
12	0xbdb81f63	-0.089903615
13	0xbd9b5978	-0.07585424
14	0x3d3b0d23	0.045666825
15	0x3e942da1	0.28941062
16	0xbe35e7e1	-0.17764236
17	0x3de2977a	0.11064048
18	0xbd86a3ea	-0.06574233
19	0x3dac8895	0.084244885
20	0x3da5f9fa	0.0810432
21	0x3de3aac0	0.11116552
22	0x3da0ffe4	0.07861307
23	0xbd30050e	-0.04297357
24	0x3e391f13	0.1807826
25	0x3d9ee639	0.07758755
26	0xbcbfc543	-0.023409491
27	0xbe3f71e5	-0.18695791
28	0x3c7fa67d	0.015603659
29	0xbea3d571	-0.3199878
30	0xbde75b08	-0.1129666
31	0xbe162912	-0.14664105
32	0xbe8f9b78	-0.280483
33	0xbcf2eae6	-0.029653024
34	0x3d82e770	0.063917994
35	0x3d28cac1	0.041208986
36	0x3ddf1d64	0.10894278
37	0x3d8a8096	0.06762807
38	0x3c0f705e	0.008754818
39	0x3dfa2007	0.1221314
40	0x3c969919	0.01838355
41	0x3cbaf00d	0.022819543
42	0x3dee4785	0.11634735
43	0xbc7d3afd	-0.015455958
44	0x3de6c66f	0.11268317
45	0x3d45caf1	0.048289243
46	0x3e89575d	0.26824465
47	0x3dceae86	0.100918815
48	0x3df7d42c	0.121010154
49	0x3e1a5205	0.1507035
50	0xbd43eec5	-0.04783513
51	0x3e323b55	0.17405446
52	0x3e7539b9	0.239478
53	0xbd58b55f	-0.052907344
54	0xbd4ec4ca	-0.05048064
55	0x3dddc312	0.10828222
56	0x3e8af5df	0.2714071
57	0xbd012a72	-0.03153462
58	0x3e323d47	0.17406188
59	0x3dfacf99	0.12246627
60	0x3d839fed	0.06426988
61	0x3e497788	0.19674504
62	0x3eaa233c	0.33230007
63	0x3e302c8b	0.17204492

s_model.x_model.weight f4 [64, 32]
0	0xbdafdcb4	-0.08587018
1	0xbd0da6a6	-0.034582756
2	0xbcb63b82	-0.022245172
3	0x3cea7eb2	0.028624866
4	0x3e008cde	0.12553737
5	0xbd11eb15	-0.035624582
6	0x3d2d2917	0.042275514
7	0x3c047c59	0.008086287
8	0x3d6483c3	0.05578972
9	0xbd53bc15	-0.05169304
10	0x3da67efd	0.0812969
11	0x3d3ecb54	0.046580628
12	0x3c52b188	0.01285971
13	0xbd8cb208	-0.06869894
14	0x3e57d8bf	0.21078776
15	0xbdf9caec	-0.121969074
16	0xbe7424b8	-0.23842132
17	0x3d63ed85	0.05564644
18	0xbea530d2	-0.3226381
19	0x3e1b805a	0.15185681
20	0x3e0291cd	0.12750931
21	0xbb175398	-0.0023090597
22	0xbdbf9d1f	-0.0935614
23	0x3d3f6e90	0.0467363
24	0x3e076582	0.13222316
25	0x3d2be1f7	0.041963544
26	0xbe166756	-0.14687857
27	0xbdac7caa	-0.08422215
28	0x3da8c6cb	0.08241042
29	0xbe4ff266	-0.20307311
30	0x3e186aa4	0.1488443
31	0xbc14077b	-0.009034987
32	0x3ac5f360	0.0015102439
33	0x3be3cf76	0.0069522215
34	0xbb91aeaa	-0.0044458704
35	0xba8607bf	-0.0010225697
36	0xb9fbb89e	-0.00048012
37	0x3bab0a4c	0.0052197333
38	0xbbbe88ba	-0.005814639
39	0x3a682de9	0.0008856939
40	0xbbbb7bce	-0.005721546
41	0x3b012c0b	0.001971009
42	0xbba1e2cf	-0.004940368
43	0xbc238d02	-0.009982349
44	0x3b9272fc	0.0044692736
45	0xbc245f4d	-0.010032487
46	0xbfef0d54	-1.8675942
47	0xbc211e26	-0.009833848
48	0xbb6ad09f	-0.0035829914
49	0xb9c6d4cb	-0.00037924046
50	0xbb685a1d	-0.0035454102
51	0xbc048d2f	-0.008090301
52	0x3a194e74	0.0005848177
53	0xb9f729c5	-0.00047142632
54	0xbc0fc92b	-0.0087759895
55	0x3bccf1bd	0.0062544034
56	0xbb5ef580	-0.003402084
57	0x3c1c6b75	0.009547104
58	0xbc1e3c0e	-0.009657873
59	0xbc066ac0	-0.008204162
60	0xbb878c34	-0.0041365866
61	0xbaf20133	-0.0018463492
62	0xbbbeeb15	-0.005826364
63	0xbb3a7cd1	-0.0028455744
64	0x3f676828	0.90393305
65	0x3b9c75c5	0.0047747814
66	0xbb608711	-0.0034260193
67	0xba59d34d	-0.00083093793
68	0xbad56263	-0.0016279932
69	0xbc0a34bd	-0.008435425
70	0x3b0a5666	0.0021108626
71	0x386474e8	5.4468313e-05
72	0xb909b0c7	-0.00013131193
73	0x3a4c6941	0.00077976665
74	0x3ac77aab	0.0015219053
75	0x3b28abff	0.0025737283
76	0x3999dfbc	0.0002934913
77	0xb9872996	-0.0002578019
78	0xbb0136c4	-0.001971648
79	0xba99e6c6	-0.001174175
80	0xbaa6c3ca	-0.0012723145
81	0x3b38cf50	0.002819974
82	0x3aa8b695	0.0012871796
83	0xbc0ce6b8	-0.0085999295
84	0x3bbfc255	0.0058520236
85	0x3bda7798	0.0066670887
86	0xb9c6f187	-0.00037945455
87	0xba1b4c2a	-0.000592413
88	0x3b463c41	0.0030248316
89	0x3944a9e4	0.00018755306
90	0xbc001a2b	-0.007818739
91	0x3b8704f7	0.004120465
92	0xbb22990c	-0.0024810461
93	0x3a2775a6	0.00063880754
94	0x3b811951	0.0039397855
95	0xbb12f3db	-0.0022423181
96	0xbbffbe51	-0.00780467
97	0xbbec03ec	-0.007202616
98	0x3f675e35	0.90378124
99	0x3bbc95f1	0.005755179
100	0xbc867da1	-0.016417326
101	0x3c472761	0.012155385
102	0x3c36bdca	0.011153648
103	0xbc812f02	-0.015769485
104	0xbbbd0054	-0.0057678614
105	0x3b56761c	0.0032724207
106	0xbc2c6f4d	-0.010524583
107	0x3af8b89e	0.0018975919
108	0xbc9ef6ec	-0.01940485
109	0xbc9f527c	-0.019448511
110	0x3c13655e	0.008996336
111	0xbc0c3b78	-0.0085591
112	0x3c5adf8d	0.013358963
113	0xbc1ff43d	-0.009762821
114	0xbe2f887a	-0.17141905
115	0xbb7f15e8	-0.003892297
116	0xbc076b7a	-0.0082653705
117	0x3bbf6448	0.005840812
118	0x3caef1a8	0.021355465
119	0x3cb3db57	0.021955175
120	0x3d1572c9	0.03648642
121	0x399c3834	0.00029796513
122	0xbd1b6db1	-0.037946407
123	0x3cb2d826	0.021831583
124	0xbb8b8d19	-0.0042587635
125	0x3c474d89	0.012164482
126	0xbbab2ccf	-0.0052238475
127	0xbb858577	-0.004074748
128	0x3c9d0c70	0.01917097
129	0x3cca6dfb	0.024710646
130	0xbc21fa38	-0.009886317
131	0x3b8768b5	0.004132355
132	0xbbe59c65	-0.007007169
133	0xbd74cfde	-0.05976855
134	0x3b1c92c1	0.0023891183
135	0x3d025e77	0.03182837
136	0xbb7c28c5	-0.003847645
137	0x3c98cba7	0.018651797
138	0x3ce5b4ee	0.028040376
139	0xbcb4c6a1	-0.02206737
140	0x3c548f01	0.012973548
141	0x3c214af2	0.0098445285
142	0x3c2173d8	0.009854279
143	0x3cefa205	0.029252062
144	0xbbf9a812	-0.0076189125
145	0xba904884	-0.001100794
146	0xbd34c28b	-0.044130843
147	0xbc84b8a9	-0.016201334
148	0x3d9a84cd	0.07544861
149	0xbd2bd093	-0.04194696
150	0x3f1d0d95	0.6134885
151	0xba4f2954	-0.0007902582
152	0xbd2ec333	-0.042666625
153	0x3bfe99b5	0.007769788
154	0xbde6b810	-0.11265576
155	0xbd15d707	-0.03658202
156	0x3db7d24a	0.08975656
157	0xbb311754	-0.0027021961
158	0xbca6f8fa	-0.020382393
159	0x3c8361b7	0.016037805
160	0xbd61c7ab	-0.05512206
161	0x3ca8c3b2	0.020601127
162	0x3d05e9ab	0.032693546
163	0xbd018246	-0.03161838
164	0xbe16ddb5	-0.14733012
165	0x3e270327	0.16309796
166	0x3e28cda4	0.16484696
167	0xbcd8d1db	-0.026467254
168	0xbc6bcad7	-0.0143916225
169	0x3dac6111	0.084169514
170	0x3e4fac99	0.20280685
171	0xbe301010	-0.17193627
172	0xbe42592b	-0.18979327
173	0x3e00bd05	0.12572105
174	0x3e60e59a	0.21962586
175	0x3d9ce38a	0.07660587
176	0xbc1c1619	-0.009526753
177	0xbd2eca83	-0.0426736
178	0xbd79d0e8	-0.060990244
179	0x3c4f8fc0	0.01266855
180	0xbea6a074	-0.3254429
181	0xbc97b7ef	-0.018520324
182	0xbdbb8c8b	-0.09157666
183	0x3d91d2f2	0.07120313
184	0xbe997659	-0.29973105
185	0xbbf67633	-0.0075214147
186	0x3e6adb45	0.22935207
187	0xbdcb47ab	-0.09925779
188	0xbd375526	-0.04475894
189	0x3c948d34	0.018133737
190	0xbe26ce68	-0.16289675
191	0x3e353988	0.17697728
192	0xbe8dfbe7	-0.2773125
193	0xbd33f764	-0.043937102
194	0x3dc39910	0.09550679
195	0x3a96be54	0.0011500814
196	0x3d12c94d	0.035836507
197	0x3d8f73a9	0.07004482
198	0xbd6555f8	-0.05599019
199	0xbd19d3bf	-0.037555452
200	0x3d0aefb6	0.033920012
201	0x3d1f656c	0.038915083
202	0xbdc0af5e	-0.09408449
203	0xbdb05ed4	-0.08611837
204	0x3d8980a4	0.067139894
205	0xbdce4bd9	-0.100730605
206	0xbe17c7ff	-0.14822386
207	0xbe1b5bb5	-0.15171702
208	0x3e0bf262	0.1366668
209	0x3d4fd7fd	0.05074309
210	0xbda61d57	-0.08111065
211	0xbe1652fd	-0.14680095
212	0x3e100b86	0.14066896
213	0x3d9d5321	0.07681871
214	0x3a49f3c5	0.0007703866
215	0x3cd3c9b9	0.025853025
216	0x3d9c935f	0.07645296
217	0xbc79b1de	-0.015240161
218	0xbe9d787c	-0.30755985
219	0x3a94d91d	0.0011356209
220	0xbc829da7	-0.015944315
221	0x3e1b52f4	0.15168363
222	0xbd8b8428	-0.06812316
223	0x3cc17aa6	0.023618054
224	0xbd04e8c7	-0.032448556
225	0x3bbd5687	0.005778137
226	0x3db4b7fa	0.08824153
227	0xbb87aae0	-0.004140243
228	0xbd98dc98	-0.0746395
229	0x3e6a04aa	0.22853342
230	0xbeabf115	-0.33582368
231	0x3b8d64b5	0.0043149837
232	0xbd8988b5	-0.06715528
233	0xbd797830	-0.060905635
234	0xbe7eca9b	-0.24881975
235	0x3d7b724b	0.061388295
236	0x3c0e2185	0.008674984
237	0x3e3570b2	0.17718771
238	0x3e2d2608	0.16909039
239	0x3dbca037	0.09210246
240	0xbdd94544	-0.106089145
241	0xbc903914	-0.017605342
242	0xbd907261	-0.07053066
243	0x3e229451	0.1587689
244	0x3e394503	0.18092732
245	0x3b8783b7	0.0041355747
246	0x3e48ff7a	0.19628707
247	0x3d743896	0.059624277
248	0xbe77039b	-0.24122469
249	0x3c1106af	0.008851691
250	0x3e51c41d	0.20484968
251	0x3c2962a0	0.010338455
252	0xbdd0659c	-0.101756305
253	0xbe0e9d6e	-0.13927242
254	0xbd867224	-0.06564739
255	0x3df2fac8	0.11864239

s_model.x_model.bias f4 [64]
0	0x3de1a1dc	0.110172
1	0x3db7aaf3	0.08968153
2	0xbea4a2cc	-0.32155454
3	0xbe01c4c8	-0.12672722
4	0x3d39fa6f	0.045404848
5	0x3e37f045	0.1796275
6	0x3e0c4a44	0.13700205
7	0x3e8e9b66	0.27852935
8	0x3d099a75	0.033594567
9	0x3e9a83a5	0.30178562
10	0x3de0e103	0.109804176
11	0x3e82fee8	0.25585103
12	0xbdea8c4f	-0.11452543
13	0xbe25bc92	-0.16185215
14	0x3e12a013	0.14318876
15	0x3e117f61	0.14208747
16	0xbe7f9ac6	-0.24961385
17	0x3e463951	0.19357802
18	0x3df3bc96	0.11901204
19	0x3d0af1c4	0.033921972
20	0x3cbcc651	0.023043783
21	0x3dbae24e	0.091251954
22	0x3e25b4a5	0.16182192
23	0x3dc92d73	0.09823122
24	0x3eba09bc	0.36335552
25	0x3e41612e	0.18884727
26	0x3d04fce4	0.032467738
27	0xbeade04a	-0.3396018
28	0x3c291025	0.010318791
29	0xbe55b767	-0.20870744
30	0xbd93944d	-0.072060205
31	0xbdfbb66c	-0.122906536
32	0xbe9894ae	-0.29800934
33	0x3e378bc6	0.17924413
34	0xbd82132e	-0.063513145
35	0x3e6aba05	0.22922523
36	0x3e120296	0.14258799
37	0xbdc50b6c	-0.09621319
38	0x3db0c11f	0.08630585
39	0x3e43f349	0.19135775
40	0x3e78b647	0.24288283
41	0x3da1b8e1	0.07896591
42	0xbdd207c2	-0.10255386
43	0xbd93ca1c	-0.07216284
44	0x3e1f0101	0.15527727
45	0x3d564cca	0.052319326
46	0x3e8bc28d	0.27296868
47	0x3d33f4cb	0.043934625
48	0x3e0ed460	0.13948202
49	0x3e6cffe4	0.2314449
50	0xbd9801fb	-0.07422253
51	0x3e78efce	0.24310228
52	0x3d63feee	0.05566304
53	0xbe0fe34a	-0.14051548
54	0xbe4a758d	-0.19771405
55	0x3e70c546	0.23512754
56	0x3e913327	0.2835934
57	0xbd763a81	-0.060114387
58	0xba6d44f8	-0.00090511097
59	0x3ac8b11a	0.001531157
60	0xbe13acfa	-0.14421454
61	0x3e33959c	0.1753754
62	0x3e7c4933	0.24637298
63	0x3e2036fb	0.15645973

joint_model.model.1.0.weight f4 [64, 64]
0	0xbd1643cb	-0.036685746
1	0xbe807e33	-0.25096282
2	0x3ef58afc	0.479576
3	0x3d9fcc5c	0.0780265
4	0x3e25ef8b	0.1620466
5	0x3c4804ea	0.012208203
6	0x3e6dc43b	0.23219387
7	0xbdd659a8	-0.10466319
8	0xbda6c803	-0.08143618
9	0x3eb56f60	0.35436535
10	0x3e245932	0.1604965
11	0xbd63ecd5	-0.055645783
12	0xbe1e6649	-0.15468706
13	0x3ead2508	0.33817315
14	0x3e5e74aa	0.21724191
15	0x3dc0f4bb	0.09421679
16	0x3e507d0e	0.20360205
17	0x3eb83fb6	0.35986108
18	0xbf2e60db	-0.6811654
19	0x3e31a73a	0.17348948
20	0x3e276252	0.163461
21	0xbda60ce7	-0.0810793
22	0x3d3efe2b	0.046629112
23	0x3e72c409	0.23707594
24	0x3da365ea	0.07978423
25	0xbdfca882	-0.12336828
26	0xbd4a4315	-0.04938038
27	0x3f3fbca4	0.7489722
28	0xbe4bd3e3	-0.19905047
29	0x3ee0b123	0.43885145
30	0x3ee01635	0.43766943
31	0x3ced0abb	0.02893578
32	0xbfb3f2ca	-1.4058468
33	0xbdb370a6	-0.0876172
34	0x3e5060df	0.20349453
35	0x3d1b102f	0.03785723
36	0x3d910c70	0.070824504
37	0x3d7bed4a	0.061505593
38	0x3d93a669	0.072094746
39	0x3e1cf5bc	0.15328115
40	0xbdbe358b	-0.09287556
41	0x3e616c81	0.22014047
42	0x3c8e9af9	0.017407881
43	0x3e2c9b9a	0.16856232
44	0x3c882785	0.016620407
45	0xbd1a37e1	-0.037650947
46	0xbe4aada8	-0.19792807
47	0x3e4cec25	0.20011957
48	0x3e0b370a	0.13595214
49	0x3e16432c	0.14674062
50	0xbd056de4	-0.032575503
51	0x3e39c82f	0.1814277
52	0xbe261446	-0.16218671
53	0x3eb10bcd	0.34579316
54	0x3eaf8030	0.34277487
55	0xbdf25861	-0.11833263
56	0xbd957ca4	-0.07299164
57	0x3ddc7bf0	0.10765827
58	0x3dd16c4c	0.10225734
59	0x3c9f1d90	0.019423276
60	0xbe8085a2	-0.25101954
61	0x3b43a19d	0.0029850968
62	0x3e726f51	0.23675276
63	0x3c66bb71	0.014082775
64	0x3e0833b7	0.13300978
65	0xbd192a6f	-0.037393983
66	0x3ea144f0	0.31497908
67	0x3eb64e9f	0.35606858
68	0xbddf05e2	-0.10889794
69	0x3daa0082	0.08300878
70	0x3e0d14c1	0.13777448
71	0x3dffb27d	0.12485216
72	0x3e903a68	0.2816956
73	0x3e180bbc	0.14848226
74	0x3f1592c8	0.58427095
75	0x3d761c83	0.060085785
76	0xbeede1ce	-0.46461338
77	0xbe7fa32d	-0.2496459
78	0x3da8fa97	0.08250921
79	0x3d792ff5	0.06083675
80	0x3e682023	0.22668509
81	0x3d90e750	0.07075369
82	0xbf26385d	-0.64929754
83	0x3e2cfcf5	0.1689337
84	0xbd4b1bc1	-0.049587015
85	0xbd5be55d	-0.053685535
86	0xbd8abf58	-0.06774777
87	0xbe30858e	-0.17238447
88	0x3da2a9d0	0.079425454
89	0xbd5c4662	-0.05377806
90	0x3da87e53	0.082272194
91	0x3e3017bb	0.17196552
92	0x3e6ca30e	0.23109075
93	0xbf0494ef	-0.51789755
94	0x3cb7b6f5	0.022426108
95	0xbf2ab06a	-0.66675436
96	0x3eab3658	0.33439898
97	0x3c6683a2	0.01406947
98	0xbe4499de	-0.1919932
99	0x3dd5e0b7	0.104432516
100	0xbb3407c8	-0.0027470458
101	0xbee187c6	-0.440489
102	0xbd4c4f8b	-0.049880546
103	0xbd74cc31	-0.059765045
104	0xbd89d317	-0.06729715
105	0x3e0b95f7	0.13631426
106	0x3cf3a8a2	0.029743496
107	0xbef8b898	-0.48578334
108	0x3e4e25b1	0.20131566
109	0xbe1aa36d	-0.15101404
110	0x3d1d1000	0.038345337
111	0x3c019ed2	0.007911401
112	0xbe0cadba	-0.13738146
113	0xbdfa5d17	-0.12224787
114	0xbdeaf7ba	-0.11473031
115	0x3c6c0e32	0.014407681
116	0xbd53c629	-0.051702652
117	0x3ebfea1a	0.37483293
118	0xbed606e5	-0.41802135
119	0xbc39a411	-0.01133062
120	0x3e6dc5bd	0.23219962
121	0x3e202a4d	0.15641136
122	0x3d207f39	0.03918383
123	0x3bfaa747	0.0076493355
124	0x3e26af27	0.16277753
125	0xbd04b720	-0.032401204
126	0x3cc75e5b	0.024336984
127	0x3e47233c	0.19447035
128	0x3d1db058	0.038498253
129	0xbd0b5189	-0.034013305
130	0x3dfc53fc	0.12320706
131	0xbdb4284d	-0.08796749
132	0x3c075cee	0.008261902
133	0x3e19ace1	0.15007354
134	0xbdc404d3	-0.09571233
135	0x3b908607	0.0044105086
136	0xbccc8245	-0.024964461
137	0x3dbfc26f	0.09363257
138	0xbd8f2aac	-0.06990561
139	0x3cec2ae8	0.028829053
140	0xbd989c0e	-0.0745164
141	0xbe4d01eb	-0.20020263
142	0x3c6fb8c1	0.014631451
143	0x3e21e0ef	0.15808462
144	0xbd982922	-0.074297205
145	0x3c38f157	0.011288009
146	0x3e58e5f1	0.21181466
147	0xbcd1c023	-0.025604313
148	0xbd6fc938	-0.058541507
149	0xbc7c4fad	-0.015399856
150	0x3cacd071	0.021095486
151	0xbdb5cabd	-0.0887656
152	0x3d22d53e	0.039754145
153	0xbd585907	-0.052819278
154	0x3df297d4	0.11845365
155	0x3d7aaa94	0.061197832
156	0xbc176051	-0.009239272
157	0xbda2280b	-0.07917794
158	0x3d478af1	0.04871649
159	0x3e4dac15	0.20085175
160	0x3ece8023	0.40332136
161	0xbd436fec	-0.04771416
162	0xbd80ad60	-0.06283069
163	0x3d3c2931	0.04593772
164	0x3f10fdfb	0.56637543
165	0x3e90b987	0.28266546
166	0xbe26435a	-0.1623663
167	0x3e122f9f	0.14275979
168	0x3e16b198	0.14716184
169	0xbdd303fc	-0.10303494
170	0xbdb3055d	-0.08741257
171	0xbe96b5bd	-0.2943553
172	0x3d242c3d	0.04008125
173	0x3cd47081	0.025932552
174	0xbbea020c	-0.0071413573
175	0xbd9413f6	-0.0723037
176	0x3db7ec29	0.08980591
177	0xbd61e467	-0.055149462
178	0xbc3cf278	-0.011532418
179	0x3de408b9	0.11134476
180	0x3e16f948	0.14743531
181	0xbd5d3774	-0.054007962
182	0x3d26db86	0.040736698
183	0x3d1cd1e9	0.038286123
184	0x3ca11dab	0.019667467
185	0xbc6de384	-0.014519576
186	0x3d36036f	0.04443687
187	0xbd92b94f	-0.07164251
188	0xbdc0e2c0	-0.09418249
189	0xbdc2016d	-0.09472928
190	0x3db32907	0.0874806
191	0x3d9e68f4	0.07734862
192	0x3db0a757	0.086256675
193	0xbf01a5de	-0.5064372
194	0x3f86492d	1.0491081
195	0x3e9c5ab2	0.30537945
196	0xbbbe24b9	-0.0058027175
197	0x3d7a724c	0.06114416
198	0xbacd72cd	-0.0015674472
199	0x3de33fd0	0.11096156
200	0x3e2346c7	0.15944968
201	0x3e2c9b76	0.16856179
202	0x3ed31bae	0.41232055
203	0xbe7f497b	-0.24930374
204	0xbecbf395	-0.39834276
205	0xbdc6ea44	-0.09712651
206	0xbbc95acb	-0.0061448566
207	0x3e652631	0.2237785
208	0x3ed1fded	0.41014042
209	0x3e30d6da	0.1726946
210	0xbe836a36	-0.2566697
211	0xbdcf1369	-0.10111124
212	0xbd980ecc	-0.07424697
213	0x3c3c6120	0.011497766
214	0xbde4aebe	-0.11166142
215	0xbec321b7	-0.3811166
216	0xbd9498b3	-0.072556876
217	0x3e9eec0b	0.31039461
218	0x3e1c542d	0.15266486
219	0x3f310b81	0.6915818
220	0x3e1c99ee	0.15293095
221	0xbf671863	-0.90271586
222	0x3eefeacf	0.46858832
223	0xbe818b91	-0.25301793
224	0xbeba61c6	-0.3640272
225	0xbcba4616	-0.022738498
226	0x3ea335fa	0.31877118
227	0x3dd6f436	0.10495798
228	0x3ec28706	0.3799364
229	0xbed80dd4	-0.4219805
230	0xbe7b1e64	-0.24523312
231	0x3d0e0214	0.03466995
232	0x3c9f4cfc	0.019445889
233	0x3e16e02b	0.14733951
234	0x3e31bf80	0.17358208
235	0xbec2b029	-0.38025025
236	0xbde384d7	-0.111093216
237	0x3d8f4498	0.06995505
238	0x3e83a341	0.2571049
239	0xbe04244e	-0.12904474
240	0x3d489f95	0.048980314
241	0xbe15b56e	-0.14619991
242	0xbd0f1fef	-0.034942564
243	0x3dea282d	0.11433444
244	0x3e18c620	0.14919329
245	0xbec9f65c	-0.3944577
246	0x3e3dd6ca	0.18538967
247	0x3dca91d4	0.09891096
248	0x3e9314d2	0.28726822
249	0xbe3334ff	-0.17500685
250	0x3eaacf17	0.33361122
251	0xbe6d0efc	-0.23150247
252	0xbd73bbe8	-0.059505373
253	0x3dc7366b	0.09727176
254	0x3e7ab9d1	0.24484946
255	0xbd14f599	-0.036367033

joint_model.model.1.0.bias f4 [64]
0	0x3d480abe	0.04883837
1	0x3e11d5eb	0.1424176
2	0x3d4c73eb	0.049915235
3	0x3d827d2a	0.063715294
4	0x3de0b1e7	0.10971432
5	0x3e2be714	0.16787368
6	0x3dad9903	0.0847645
7	0x3c3ce0b8	0.0115281865
8	0x3e024487	0.12721454
9	0xbce25054	-0.027626194
10	0xbe336db5	-0.17522319
11	0x3e8002a9	0.2500203
12	0x3e3813fe	0.17976376
13	0xbe35149b	-0.17683642
14	0xbd85832d	-0.065191604
15	0x3d144c1d	0.0362054
16	0xbd403400	-0.04692459
17	0x3dd0edee	0.102016315
18	0x3e387b71	0.18015839
19	0x3e118cb2	0.14213827
20	0x3e68e571	0.22743775
21	0x3e002020	0.12512255
22	0xbddb0654	-0.10694566
23	0x3d9e8d5c	0.07741806
24	0xbe3a4b13	-0.18192701
25	0x3e2a9804	0.16659552
26	0xbe363181	-0.17792322
27	0xbe652017	-0.22375523
28	0x3c5087ec	0.012727719
29	0xbc03da15	-0.0080476
30	0xbc1aad15	-0.00944068
31	0xbe56b494	-0.20967323
32	0x3e4416ac	0.19149274
33	0xbe43964d	-0.19100304
34	0x3daa96e4	0.08329561
35	0x3e062d1a	0.13103142
36	0x3dd7b99a	0.105334476
37	0x3e1b0289	0.15137686
38	0xbd7f638a	-0.062350787
39	0x3e0058d0	0.1253388
40	0xbc595d4c	-0.013266873
41	0xbd99d20f	-0.075107686
42	0x3dcceb95	0.10005871
43	0x3ad1d3b4	0.0016008527
44	0x3e06f76e	0.13180324
45	0x3d51cb26	0.051219128
46	0xbe03adfc	-0.12859339
47	0x3d9eb0af	0.077485435
48	0x3e0b741a	0.13618508
49	0xbead72d6	-0.33876675
50	0xbe7dbd95	-0.24779351
51	0x3ccfb867	0.025356485
52	0xbe9df248	-0.30848908
53	0x3da37f3f	0.07983255
54	0x3d261087	0.040543105
55	0xbd154a4b	-0.036447804
56	0x3e1187df	0.14211987
57	0xbd186cc5	-0.037213106
58	0x3e1a4f17	0.15069233
59	0xbe909a7e	-0.28242868
60	0xbd7c6695	-0.061621267
61	0x3e32f3e0	0.17475843
62	0xbd14a5b4	-0.03629084
63	0x3dd83525	0.105570115

joint_model.model.2.0.weight f4 [64, 64]
0	0x3cc47531	0.023981662
1	0x3c27162b	0.010198156
2	0xbcbab2f2	-0.022790406
3	0x3ded363e	0.115826115
4	0xbd1ed8bf	-0.038780924
5	0xbe4b3ff8	-0.19848621
6	0xbee565bf	-0.4480419
7	0x3e76cf20	0.2410245
8	0x3d221fd2	0.039581127
9	0x3e3a3c87	0.18187152
10	0x3ec6e4d3	0.38846454
11	0x3e01a79f	0.12661599
12	0xbe47b738	-0.19503486
13	0x3d27c886	0.04096272
14	0x3dd7e533	0.10541763
15	0x3d105191	0.035234038
16	0xbcfe788f	-0.031063346
17	0x3ebfd567	0.374675
18	0x3e6ba46a	0.23011938
19	0xbbbbab9f	-0.005727246
20	0x3eaef64f	0.34172294
21	0xbe31f548	-0.17378724
22	0x3d456136	0.04818841
23	0xbd74689a	-0.05967007
24	0x3cedaaf8	0.029012188
25	0x3e92995e	0.28632635
26	0xbd1bce52	-0.03803856
27	0xbe0a76e0	-0.1352191
28	0xbd85a457	-0.06525486
29	0x3ecbd9c8	0.3981459
30	0x3df4e491	0.11957658
31	0xbcc284b9	-0.023744928
32	0xbe34001c	-0.17578167
33	0xbe76cb3f	-0.2410097
34	0xbdc1cf16	-0.09463327
35	0x3bfa11ac	0.007631501
36	0x3cd72b71	0.026265832
37	0xbdca3bf3	-0.09874716
38	0x3e2d44de	0.16920802
39	0xbd94f901	-0.07274056
40	0xbd0f432a	-0.034976162
41	0x3db9336b	0.0904301
42	0x3db1b776	0.086775705
43	0x3df08730	0.11744535
44	0xbe9c425e	-0.30519384
45	0xbe2dbe4b	-0.16967122
46	0x3d8cc950	0.06874335
47	0x3de0a35c	0.10968658
48	0x3db38ed6	0.08767478
49	0x3d6f9474	0.058491185
50	0x3e777d35	0.24168856
51	0xbeda4ee2	-0.42638308
52	0x3eec5d01	0.46164706
53	0x3e0677a2	0.13131574
54	0xbe856d1d	-0.2605981
55	0xbeba340e	-0.3636784
56	0xbdcaeb6d	-0.09908185
57	0xbd89d780	-0.067305565
58	0x3e2cfe40	0.16893864
59	0xbed52355	-0.4162852
60	0x3dc19119	0.09451503
61	0xbdaab3e7	-0.08335095
62	0x3da804bb	0.08204027
63	0xbcc2b443	-0.023767596
64	0xbcd3544e	-0.025797036
65	0x3df3b204	0.11899188
66	0xbde2d7b6	-0.110763
67	0x3ea4a868	0.32159734
68	0xbe032a63	-0.12809138
69	0xbd18a780	-0.037269115
70	0xbf290160	-0.66017723
71	0x3ef9008f	0.4863324
72	0xbeab10ea	-0.33411342
73	0xbeefd8c2	-0.4684506
74	0xbf9ad196	-1.209521
75	0xbdf7e18d	-0.12103567
76	0x3d81650b	0.063181005
77	0x3f0f85a7	0.5606331
78	0xbed14e94	-0.40880263
79	0xbc372d68	-0.011180259
80	0x3e6801c2	0.2265692
81	0x3eb558b6	0.35419244
82	0x3e6192c5	0.22028644
83	0xbd298ce7	-0.04139414
84	0x3f09209b	0.53565377
85	0xbed34a5e	-0.41267675
86	0xbe47aee3	-0.19500308
87	0x3ded9a5e	0.11601709
88	0xbe42669e	-0.18984458
89	0xbc1c7fcd	-0.009551954
90	0x3e80b58b	0.25138506
91	0x3eb3fd22	0.35154063
92	0x3e2ee1cd	0.17078324
93	0x3e17d987	0.14829074
94	0xbf8622f0	-1.0479412
95	0x3f01e4a7	0.5073952
96	0xbe5276b1	-0.2055309
97	0x3e15b4d7	0.14619766
98	0x3e893ff2	0.268066
99	0xbb150e29	-0.0022744036
100	0xbdfc2fc1	-0.12313796
101	0xbee964c7	-0.455847
102	0x3ec56f9f	0.38561723
103	0x3e1b3457	0.15156685
104	0xbec2b349	-0.3802741
105	0xbe3703be	-0.17872521
106	0x3ee53d76	0.44773453
107	0xbf3f1376	-0.7463907
108	0xbdd3416f	-0.10315215
109	0xbd0c5a2e	-0.03426569
110	0xbe75d479	-0.24006833
111	0xba381f88	-0.00070237415
112	0xbe367e5b	-0.17821638
113	0xbf87fa19	-1.0623199
114	0x3f2ae144	0.6674998
115	0xbeebdb23	-0.46065626
116	0x3ee73d9c	0.45164192
117	0x3ebd01db	0.36915478
118	0x3cc40570	0.023928374
119	0xbefbebe7	-0.49203417
120	0xbe18ea26	-0.1493307
121	0xbd9506c9	-0.07276685
122	0xbe0c2ec4	-0.13689715
123	0x3e3df831	0.18551709
124	0x3e114e5a	0.14190045
125	0x3ee234e3	0.44180974
126	0x3e2df616	0.16988406
127	0x3c2e1360	0.010624737
128	0xbdd6c947	-0.10487609
129	0xbe34c3ed	-0.17652865
130	0xbe3c429b	-0.18384783
131	0x3e2f5791	0.17123248
132	0x3d16d5fb	0.03682516
133	0xbd9c24c0	-0.07624197
134	0x3f356ece	0.708722
135	0xbd9565ca	-0.07294805
136	0xbd3b17d5	-0.045677025
137	0x3d9f9f12	0.07794012
138	0x3c168b59	0.0091884965
139	0xbd91647c	-0.07099244
140	0x3e65cd00	0.22441483
141	0xbd276c78	-0.04087493
142	0x3e08b2bb	0.1334943
143	0x3e292adc	0.16520256
144	0x3c63444a	0.013871262
145	0xbcaca60e	-0.021075275
146	0xbea305b0	-0.31840277
147	0xbbf1082c	-0.0073557105
148	0xbe00ce36	-0.12578663
149	0xbdc3ebe4	-0.09566477
150	0xbc11fa19	-0.008909726
151	0x3e2c8939	0.16849221
152	0x3e51e67a	0.20498076
153	0x3dd3e24e	0.103458986
154	0xbddf8521	-0.10914064
155	0xbd381c4c	-0.04494886
156	0x3ae08064	0.0017128107
157	0x3d9c8e54	0.076443344
158	0xbc355a3a	-0.011068875
159	0xbd7d7d63	-0.061887156
160	0xbe45f06a	-0.19329992
161	0x3d67ebde	0.056621425
162	0x3e3148a7	0.17312871
163	0xbe6e62fe	-0.2327995
164	0xbda7361a	-0.08164616
165	0x3c9bfdc5	0.019041905
166	0x3d925b34	0.07146302
167	0x3e9aa496	0.30203694
168	0xbe2a8522	-0.16652349
169	0xbda7022f	-0.08154713
170	0xbdc9b106	-0.09848218
171	0xbba2fd5a	-0.0049740495
172	0x3d47e411	0.048801485
173	0xbdbc8511	-0.09205068
174	0xbe04db6b	-0.12974326
175	0x3cdba1fc	0.026810639
176	0x3e210fa0	0.15728617
177	0xbb9687a2	-0.0045938054
178	0x3e873bd4	0.26412833
179	0xbe6ac06d	-0.22924967
180	0xbc2cf088	-0.010555394
181	0xbd986a29	-0.074421234
182	0xbdad4716	-0.08460824
183	0xbd4dfd10	-0.050290167
184	0xbff06b6f	-1.8782786
185	0xbe0c56a3	-0.13704924
186	0x3edff344	0.43740284
187	0xbe168427	-0.1469885
188	0x3dd4eb39	0.10396428
189	0x3d047ceb	0.032345694
190	0xbe991aa6	-0.29903144
191	0xba0faafc	-0.0005480496
192	0xbe05d0c3	-0.13067918
193	0x3ed9040d	0.42385903
194	0xbe355035	-0.17706378
195	0x3d90d631	0.07072104
196	0xbd269961	-0.040673617
197	0xbe80dab1	-0.25166848
198	0xbd928f6a	-0.0715626
199	0xbd5a6416	-0.053318106
200	0xbd5d5fbe	-0.054046385
201	0xbe8060c1	-0.25073817
202	0xbccb307e	-0.024803396
203	0x3e8874c8	0.26651597
204	0x3e15f4ad	0.14644118
205	0x3d03298e	0.03202205
206	0xbe3354e1	-0.17512847
207	0x3eb0fe58	0.3456905
208	0xbd652ab5	-0.05594893
209	0xbe04c5b3	-0.12966041
210	0x3e136642	0.14394477
211	0x3e4eb513	0.20186262
212	0xbd776856	-0.060402237
213	0xbc2cdc66	-0.010550594
214	0x3c279ba5	0.01022998
215	0xbd79c76a	-0.06098119
216	0x3ceebe05	0.029143343
217	0x3d1aa473	0.037754487
218	0xbe883159	-0.2660015
219	0xbf977774	-1.1833329
220	0x3e97aedf	0.29625604
221	0x3e532529	0.20619644
222	0x3fdde107	1.7334298
223	0xbe07bfb0	-0.13256717
224	0x3e9bcd1f	0.30429932
225	0x3d8d7da3	0.06908729
226	0xbdbb5e52	-0.091488495
227	0x3e3749bc	0.17899221
228	0x3e1245d3	0.14284448
229	0x3e04af22	0.12957433
230	0x3dd831dd	0.10556386
231	0x3edb8717	0.42876503
232	0xbec0cc65	-0.3765594
233	0x3e0bd032	0.13653639
234	0xbd5297b8	-0.05141422
235	0x3f2294dd	0.635084
236	0xbf03c146	-0.51466787
237	0xbe9c36c0	-0.3051052
238	0x3ef02a33	0.46907195
239	0x3e3247d0	0.17410207
240	0xbefb500d	-0.4908451
241	0x3fdf41a6	1.7441909
242	0xbe8cd83c	-0.27508724
243	0xbe8fcd53	-0.28086337
244	0xbe51eb53	-0.20499925
245	0x3e279225	0.16364343
246	0x3c5e38b2	0.013563322
247	0x3e6edc02	0.23326114
248	0xbedf23be	-0.43581957
249	0xbe56c0b7	-0.20971952
250	0xbd50242d	-0.05081575
251	0xbdb09748	-0.086226046
252	0x3e4c92d6	0.19977888
253	0xbd876a4f	-0.06612074
254	0xbe06371a	-0.13106957
255	0xbe01d694	-0.12679511

joint_model.model.2.0.bias f4 [64]
0	0x3e736d0b	0.23772065
1	0x3de01561	0.10941578
2	0xbe1917bc	-0.1495046
3	0x3e1b5318	0.15168417
4	0x3d8e418e	0.06946097
5	0x3e3eece1	0.1864505
6	0xbe822eaf	-0.25426242
7	0xbdd78532	-0.10523452
8	0xbeb33f3c	-0.35009181
9	0x3e444715	0.1916774
10	0xbeb32b2b	-0.34993872
11	0x3e6f2fae	0.23358032
12	0xbee373f3	-0.444244
13	0x3e0fb66f	0.14034437
14	0x3df42595	0.11921231
15	0xbf10a1bb	-0.5649678
16	0x3e09b8e5	0.13449438
17	0xbe31392d	-0.17306967
18	0xbe6af45c	-0.22944778
19	0xbd0f44e3	-0.034977805
20	0xbe19ee74	-0.15032369
21	0x3e92f3f6	0.28701752
22	0xbea4fd02	-0.3222428
23	0x3e1b4db0	0.15166354
24	0x3ea2e6b3	0.31816635
25	0x3e496205	0.19666298
26	0x3e0ece1d	0.13945813
27	0x3e90712f	0.28211352
28	0xba88a478	-0.0010424992
29	0xbea9f01a	-0.33190995
30	0xbeacc62f	-0.33744952
31	0x3e37c9b6	0.1794804
32	0x3dad34c0	0.08457327
33	0x3dd66b71	0.104697116
34	0xbf07b03a	-0.53003275
35	0x3c69c1e1	0.014267416
36	0xbde2ef57	-0.11080807
37	0x3e175f8c	0.14782542
38	0xbe142801	-0.14468385
39	0x3e44b1e4	0.19208485
40	0xbf0ca16c	-0.5493381
41	0x3e53d9a1	0.20688488
42	0x3daef995	0.08543698
43	0xbee24197	-0.44190666
44	0x3db228f6	0.08699219
45	0xbf0555cd	-0.52084047
46	0xbe72d69c	-0.2371468
47	0xbdbeec0d	-0.09322367
48	0x3d38e93c	0.045144305
49	0xbf04e5ea	-0.5191332
50	0x3e64393c	0.22287458
51	0xbe931b47	-0.28731748
52	0x3daa72eb	0.083227
53	0xbdc17013	-0.094452046
54	0xbe958f24	-0.2921077
55	0x3d63bf4d	0.05560236
56	0xbebe85d8	-0.3721149
57	0xbe93caa5	-0.28865543
58	0xbe2038eb	-0.15646712
59	0x3e7e5325	0.24836405
60	0xbe53de66	-0.20690307
61	0x3e55a116	0.2086223
62	0x3c04f5a0	0.008115202
63	0x3e617feb	0.22021453
