results_pis_architectures/many_well/langevin_clipping_lgv_100.0_gfn_10000.0_gfn/fwd_bwd/fwd_tb_bwd_tb/T_100/tscale_1.0/lvr_4.0/seed_12345/model_final.pt (torch, 184646 bytes, 23 tensors)

t_model.timestep_phase f4 [1, 64]
0	0xbf5a5fc5	-0.8530238
1	0x3ebb7f32	0.3662048
2	0x3f20d003	0.628174
3	0xbd69817f	-0.057008263
4	0xbf052084	-0.5200274
5	0xbe2b20c6	-0.16711721
6	0x3f27d6b5	0.6556199
7	0x3f1e568f	0.6185083
8	0xbf4624d8	-0.7739997
9	0x3d0e764e	0.034780793
10	0x3f2485fe	0.64266956
11	0x3f1c7b9e	0.61126125
12	0xbecc9366	-0.39956206
13	0xbf5fb4e3	-0.87385386
14	0x3f47e228	0.7807946
15	0xbf35cd22	-0.7101613
16	0xbf5912a0	-0.84794044
17	0xbf1f35eb	-0.6219165
18	0xbf429499	-0.7600799
19	0xbfea71ed	-1.8316017
20	0x3f521a6a	0.82071555
21	0x3f88b021	1.067875
22	0x3f7a7195	0.9782956
23	0x39ec2229	0.0004503888
24	0x3eb63dfc	0.35594165
25	0xbf8b92ee	-1.0904214
26	0x3f430fbd	0.7619589
27	0x3e80b1ea	0.25135738
28	0x400b7c63	2.179467
29	0x403adf8e	2.9198947
30	0x3e8281fe	0.254898
31	0xbf2502e7	-0.64457554
32	0x3f5079a9	0.8143564
33	0x3f88039c	1.0626101
34	0xbf5cafa7	-0.86205524
35	0x3f343aae	0.7040204
36	0x3f6b6257	0.9194693
37	0x3eeffc8a	0.4687236
38	0x4003ac43	2.057389
39	0xbfea77ef	-1.8317851
40	0x3eb7faf7	0.35933658
41	0xbfa31a64	-1.2742429
42	0xbf48bc1d	-0.7841204
43	0x3e060268	0.13086855
44	0x3fdb8416	1.7149684
45	0xbea12700	-0.31475067
46	0x3f1b341b	0.6062638
47	0x3e67b267	0.22626649
48	0xbbf9140b	-0.0076012663
49	0xbf0b2146	-0.54347646
50	0x3f313f7a	0.6923748
51	0x3fc58c0c	1.5433364
52	0x3f466a63	0.77506083
53	0xbe55ce17	-0.20879398
54	0x3e73cae7	0.2380787
55	0xbd9e304d	-0.077240564
56	0x3f31b896	0.6942228
57	0xbfa0c71f	-1.2560767
58	0xbf4ce4b7	-0.8003649
59	0xbf5ecd5b	-0.870321
60	0xbef31c96	-0.47482747
61	0xbedf5385	-0.43618408
62	0xbe4aa790	-0.19790483
63	0x3f5ce9f6	0.86294496

t_model.pe f4 [1, 64]
0	0x3dcccccd	0.1
1	0x3fd7c57d	1.6857144
2	0x40515f16	3.2714286
3	0x409b6db7	4.857143
4	0x40ce2be3	6.4428573
5	0x41007508	8.028572
6	0x4119d41e	9.614286
7	0x41333334	11.200001
8	0x414c924a	12.785715
9	0x4165f160	14.371429
10	0x417f5076	15.957144
11	0x418c57c6	17.542858
12	0x41990751	19.128572
13	0x41a5b6dc	20.714287
14	0x41b26667	22.300001
15	0x41bf15f2	23.885715
16	0x41cbc57d	25.47143
17	0x41d87508	27.057144
18	0x41e52493	28.642859
19	0x41f1d41e	30.228573
20	0x41fe83a9	31.814287
21	0x4205999a	33.4
22	0x420bf15f	34.985714
23	0x42124925	36.57143
24	0x4218a0ea	38.157143
25	0x421ef8b0	39.74286
26	0x42255075	41.32857
27	0x422ba83b	42.914288
28	0x42320000	44.5
29	0x423857c6	46.085716
30	0x423eaf8b	47.67143
31	0x42450751	49.257145
32	0x424b5f16	50.842857
33	0x4251b6db	52.42857
34	0x42580ea0	54.014282
35	0x425e6666	55.6
36	0x4264be2c	57.185715
37	0x426b15f1	58.771427
38	0x42716db6	60.35714
39	0x4277c57c	61.942856
40	0x427e1d42	63.528572
41	0x42823a84	65.11429
42	0x42856666	66.7
43	0x42889249	68.28571
44	0x428bbe2c	69.87143
45	0x428eea0e	71.45714
46	0x429215f1	73.042854
47	0x429541d4	74.62857
48	0x42986db7	76.21429
49	0x429b999a	77.8
50	0x429ec57c	79.38571
51	0x42a1f15f	80.97143
52	0x42a51d42	82.557144
53	0x42a84924	84.14285
54	0x42ab7507	85.72857
55	0x42aea0ea	87.314285
56	0x42b1cccd	88.9
57	0x42b4f8b0	90.48572
58	0x42b82492	92.07143
59	0x42bb5075	93.65714
60	0x42be7c58	95.24286
61	0x42c1a83a	96.82857
62	0x42c4d41d	98.41428
63	0x42c80000	100.0

t_model.t_model.0.weight f4 [64, 128]
0	0xbd1bd2f9	-0.038042996
1	0xbda07a2d	-0.07835803
2	0x3d88a47e	0.066719994
3	0x3d8dd777	0.06925862
4	0xbd9dfd4b	-0.077143274
5	0x3d96c53c	0.07361838
6	0xbcf8163b	-0.030284038
7	0x3d6b4718	0.057440847
8	0xbd7136af	-0.05889004
9	0x3d49ceeb	0.049269598
10	0x3da1a923	0.078935884
11	0x3db2abee	0.08724199
12	0x3d2b62da	0.04184232
13	0x3daa8fae	0.08328186
14	0xbd84fffa	-0.06494136
15	0xbcc60113	-0.024170434
16	0x3c6f4cca	0.01460571
17	0xbd89ad29	-0.06722481
18	0x3daafebf	0.0834937
19	0xbd2ccd30	-0.04218787
20	0xbd9593ec	-0.073036045
21	0x3c947a25	0.01812465
22	0xbc65cde4	-0.014026139
23	0xbdaa6040	-0.083191395
24	0xbd41cc8d	-0.047314215
25	0xbd2cff1a	-0.04223547
26	0xbd265635	-0.040609557
27	0xbd5c4dc1	-0.05378509
28	0x3c49bba6	0.012312805
29	0x3d9fefb1	0.078093894
30	0xbcbb8b42	-0.022893552
31	0xbd265362	-0.040606864
32	0xbd102a77	-0.035196748
33	0x3d32e85a	0.04367862
34	0x3d12ddaa	0.035855927
35	0x3c9cdbc5	0.019147763
36	0x3d8adbff	0.06780242
37	0x3dbba96e	0.091631755
38	0x3db23d44	0.08703092
39	0x3d576c6c	0.052593634
40	0x3cb85c5f	0.022504983
41	0x3cd11ec2	0.025527362
42	0x3d635708	0.05550292
43	0x3d6e57c6	0.058189176
44	0x3db328e1	0.087480314
45	0xbd8b904a	-0.0681463
46	0xbd67b9cd	-0.056573678
47	0xba981eaa	-0.0011605818
48	0x3bcbdc94	0.0062213633
49	0xbd809ea1	-0.06280256
50	0x3dbcae31	0.09212912
51	0x3d613f38	0.05499193
52	0x3c2ba36e	0.010475976
53	0x3da7a3e3	0.08185556
54	0xbc7f4bc3	-0.015582028
55	0xbcbc1381	-0.022958519
56	0x3d78f605	0.060781498
57	0xbda5b6ee	-0.08091532
58	0x3d8a3aae	0.067494735
59	0x3d010d9e	0.031507127
60	0xbd2d5443	-0.042316686
61	0x3c36529c	0.011128094
62	0xbc26dbb9	-0.010184222
63	0xbd993881	-0.074814804
64	0xbc4e8fab	-0.012607495
65	0x3dd1a0d2	0.10235752
66	0xbc2ca321	-0.01053694
67	0xbccff3ba	-0.025384773
68	0x3d67e2b5	0.05661269
69	0xbd20e486	-0.039280437
70	0xbc81c1d2	-0.015839491
71	0x3d29441c	0.04132472
72	0xbcfee5b7	-0.031115396
73	0x3d7817f2	0.06056971
74	0xbd5d6500	-0.0540514
75	0x3d27966e	0.040914945
76	0x3c9dd342	0.019265775
77	0xbd0a6308	-0.03378585
78	0xbdc91ae0	-0.09819579
79	0xbda0b039	-0.07846112
80	0xbc223b9c	-0.009901907
81	0x3d9ddb8f	0.07707893
82	0x3da86c49	0.08223779
83	0x3d693f95	0.056945402
84	0xbd927949	-0.071520396
85	0xbcb763f5	-0.02238653
86	0xbd7182a9	-0.058962498
87	0xbda83c64	-0.082146436
88	0xbd6e9c13	-0.058254313
89	0x3d084901	0.033272747
90	0xbd26f99a	-0.040765382
91	0xbd65e2b9	-0.056124423
92	0xbd9e0097	-0.07714956
93	0x3cb7cfd5	0.02243797
94	0x3d2964f1	0.04135603
95	0xbdc02b89	-0.09383304
96	0x3cb8f2e2	0.022576753
97	0x3da842eb	0.082158886
98	0xbc32f191	-0.010921852
99	0x3db935ef	0.0904349
100	0xbbfe3bb7	-0.0077585834
101	0x3d9f3a03	0.07774737
102	0x3d3ba58c	0.045812175
103	0x3d8fc169	0.07019312
104	0x3d8954dc	0.06705639
105	0x3db9edb1	0.09078539
106	0x3bb14b50	0.0054105893
107	0xbd362d12	-0.044476576
108	0x3ce9de8e	0.028548505
109	0x3dd54b9a	0.104148105
110	0xbd530f7b	-0.051528435
111	0xbd78ee54	-0.060774162
112	0xbbfd6b91	-0.00773377
113	0x3d147efb	0.03625391
114	0x3d5b5280	0.053545475
115	0x3d9789f0	0.07399356
116	0x3d813dd1	0.06310619
117	0x3d36e080	0.044647694
118	0xbc17afb9	-0.009258204
119	0x3d46891f	0.048470613
120	0x3bc34a1d	0.0059597627
121	0x3c236670	0.0099731535
122	0xbd0458e6	-0.032311343
123	0xbd72bb47	-0.059260633
124	0xbc98dfec	-0.018661462
125	0xbd3a1da1	-0.045438413
126	0x3d245a43	0.040125143
127	0xbc137788	-0.009000666
128	0x3d0ae559	0.03391013
129	0x3c328cfa	0.010897869
130	0xbd6aafdc	-0.05729662
131	0xbd998738	-0.07496494
132	0x3d479a48	0.04873112
133	0xbce62c86	-0.028097402
134	0xba14a17c	-0.0005669815
135	0xbd08a398	-0.03335914
136	0x3bb2b924	0.0054541994
137	0xbcaeea90	-0.021352082
138	0x3c9d9d0d	0.019239927
139	0x3d2d7f86	0.042357944
140	0x3c7e5e3a	0.015525395
141	0x3c9087ac	0.017642818
142	0xbc97b751	-0.01852003
143	0x3bf4a952	0.0074664736
144	0x3cb9f207	0.022698415
145	0xbda18a64	-0.07887724
146	0x3cc5e650	0.024157673
147	0xbd6f1b8c	-0.05837588
148	0x3c28c299	0.010300302
149	0xbd81ccee	-0.06337915
150	0x3c247313	0.010037201
151	0x3d068771	0.03284401
152	0xbd8ece92	-0.06972994
153	0xbd0946e2	-0.033514865
154	0xbd9cafde	-0.076507315
155	0xbd0d88ec	-0.034554407
156	0x3c33e6a8	0.010980286
157	0xbdac2e28	-0.08407241
158	0x3cf38355	0.02972571
159	0xbd36626b	-0.044527452
160	0xbcd9a2ae	-0.02656683
161	0xbda8a665	-0.08234862
162	0x3d4fa92f	0.050698455
163	0x3dac98f1	0.08427609
164	0x3dbf90c1	0.093537815
165	0x3cef9afb	0.029248705
166	0xbbad4949	-0.0052882773
167	0x3da23348	0.07919937
168	0xbd97eaf1	-0.074178584
169	0xbd5effab	-0.054443043
170	0xbbf41af7	-0.0074495035
171	0xbc176248	-0.009239741
172	0xbd333664	-0.043753043
173	0x3c866b69	0.016408639
174	0x3d5409db	0.05176721
175	0x3c999765	0.018748948
176	0x3c4ece36	0.012622407
177	0x3cf6d234	0.03012953
178	0xbd10746e	-0.035267286
179	0x3d96ad25	0.073572434
180	0x3d11289a	0.03543911
181	0x3d2fb33a	0.042895533
182	0xbd23a92c	-0.039956257
183	0x3a9b7d33	0.0011862874
184	0x3dac2076	0.08404629
185	0x3cdfbef4	0.027312733
186	0xbd4ef3d9	-0.05052552
187	0xbd5be168	-0.05368176
188	0xbd9d33fb	-0.0767593
189	0xbd6fbe61	-0.05853117
190	0xbd5e0e7d	-0.054213036
191	0xbba30370	-0.004974775
192	0xbd19e927	-0.037575867
193	0xbd681e83	-0.056669723
194	0x3c12f27e	0.008968947
195	0xbd1ea8f5	-0.03873535
196	0x3c1604ed	0.009156448
197	0xbcfea07a	-0.03108238
198	0x3dcc4da7	0.099757485
199	0xbc743ca3	-0.014907035
200	0x3bad73b2	0.005293333
201	0xbc27f05e	-0.010250179
202	0x3d9decf0	0.07711208
203	0x3d12eb85	0.03586914
204	0x3d9b3fcc	0.07580528
205	0x3d0a59e0	0.033777118
206	0x3d5454f0	0.051838815
207	0xbcd9adee	-0.026572194
208	0x3d08e7c5	0.033424158
209	0xbd7726a3	-0.06033958
210	0xbd50acc0	-0.050945997
211	0x3d18c9eb	0.03730194
212	0x3d850eaa	0.064969376
213	0xbd6059dd	-0.0547732
214	0x3d3454e3	0.044026267
215	0x3d86f2ad	0.065892555
216	0x3d872087	0.06598001
217	0x3d3643c2	0.044498213
218	0x3d337a79	0.04381797
219	0xbc0e9369	-0.0087021375
220	0x3db0724f	0.08615553
221	0xbd234407	-0.039859798
222	0xbd8e7239	-0.0695538
223	0xbd892ceb	-0.066980205
224	0xbd5d0ba0	-0.053966165
225	0xbb0e48dc	-0.0021710908
226	0xbc7aa0db	-0.01529714
227	0xbd6d963b	-0.0580046
228	0xbd73530b	-0.059405368
229	0x3d960f2d	0.07327113
230	0xbcc4ffa9	-0.02404769
231	0xbd85cd03	-0.065332435
232	0x3dade609	0.08491141
233	0xbc4d25e8	-0.012521245
234	0xbd46ba68	-0.048517615
235	0xbd82e8f6	-0.0639209
236	0x3ce60e69	0.028083043
237	0xbd0f1c89	-0.034939323
238	0x3cf12c08	0.029439941
239	0xbdbc365f	-0.09190058
240	0xbc405848	-0.011739798
241	0x3c85124f	0.016244082
242	0x3dbc7ea3	0.092038415
243	0x397d8d72	0.00024180653
244	0xbd803021	-0.0625918
245	0xbd62e919	-0.05539808
246	0xbc524a7f	-0.012835144
247	0x3d4ff9c3	0.0507753
248	0x3da0bea2	0.0784886
249	0xbd02ea34	-0.031961635
250	0xbd91ec6a	-0.071251705
251	0x3d500396	0.05078467
252	0xbc05864b	-0.008149694
253	0x3d59f550	0.053212464
254	0xbd8809d5	-0.066425
255	0xbd1a79c8	-0.037713796

t_model.t_model.0.bias f4 [64]
0	0x3d8894b0	0.06668985
1	0xbd9642a1	-0.07336927
2	0xbd887c85	-0.06664375
3	0x3dbaf302	0.09128381
4	0x3d1a03b4	0.037601188
5	0xbd7d3837	-0.06182119
6	0xbd24a0d8	-0.040192455
7	0xbce3d23b	-0.027810207
8	0xbd3a1215	-0.0454274
9	0x3d034deb	0.03205673
10	0x3ceab553	0.028650915
11	0x3ca62b73	0.02028439
12	0x3c1415c6	0.009038394
13	0x3db7cc03	0.08974459
14	0xbd905eb3	-0.070493124
15	0x3dbdf99d	0.092761256
16	0xbdc8243f	-0.097725384
17	0xbbc06c6d	-0.0058723004
18	0x3cefe676	0.029284697
19	0xbd5bb93a	-0.053643443
20	0xbc5dda81	-0.013540865
21	0x3d68d361	0.05684221
22	0x3cc61360	0.02417916
23	0xbcaba9eb	-0.020955047
24	0x3d6fb346	0.058520578
25	0x3a9dd68a	0.0012042087
26	0x3d1cb9dc	0.038263187
27	0x3d74469b	0.059637647
28	0xbd8f27ce	-0.06990014
29	0x3ce5346b	0.027979096
30	0x3d09e70c	0.03366761
31	0xbd0d72b2	-0.03453321
32	0x3dd60ec9	0.10452039
33	0x3cefa99d	0.029255683
34	0x3d801fd0	0.06256068
35	0x3d7784ef	0.06042951
36	0xbdd00dd0	-0.101588845
37	0xbd8657c1	-0.065597065
38	0xbd0b9aa9	-0.034083042
39	0x3d8c7784	0.06858733
40	0x3dadc9c5	0.0848575
41	0xbbf5a9d0	-0.00749705
42	0xbde6557c	-0.112467736
43	0x3d056f27	0.032576706
44	0xbc9ed132	-0.019386861
45	0xba10efa0	-0.0005528871
46	0x3d8c996e	0.06865202
47	0x3d294fe7	0.041335966
48	0x3d4862bc	0.048922285
49	0xbcb3db79	-0.021955239
50	0xbcf69858	-0.03010194
51	0xbb4df179	-0.0031424446
52	0x3cbc2810	0.022968322
53	0x3c3d085f	0.01153764
54	0x3dc0c0fd	0.094118096
55	0xbdd07c98	-0.10180014
56	0xbd185720	-0.037192464
57	0xbd3c5389	-0.045978103
58	0x3dcbfc6a	0.099602535
59	0xbdaba457	-0.08380955
60	0x3dce116f	0.10061919
61	0x3dac5b0a	0.08415802
62	0xbde42239	-0.1113934
63	0xbc804518	-0.015657946

t_model.t_model.2.weight f4 [64, 64]
0	0x3dae5ce7	0.085138135
1	0xbc1bef3b	-0.009517486
2	0xbd783d5a	-0.060605384
3	0x3d8ac638	0.067760885
4	0x3dc6d297	0.097081356
5	0xbd9b911b	-0.07596036
6	0x3dfc04b1	0.12305582
7	0x3dbc3102	0.09189035
8	0x3b8fe047	0.0043907496
9	0xbde120ab	-0.10992559
10	0x3d291887	0.041283157
11	0x3bd85318	0.0066017024
12	0x3ddcff02	0.107908264
13	0xbc3d10fa	-0.011539692
14	0x3da266b4	0.07929745
15	0xbd338533	-0.0438282
16	0x3d1b473d	0.037909735
17	0x3d66b13e	0.056321375
18	0x3d9dffee	0.0771483
19	0xbbd90802	-0.006623269
20	0x3db390ac	0.08767828
21	0xbdd72d41	-0.105066784
22	0x3d86c16a	0.065798596
23	0xbcca7879	-0.024715649
24	0xbdda89eb	-0.10670837
25	0x3dedc2ff	0.11609458
26	0xbdb2c6a6	-0.087292954
27	0xbd960a88	-0.073262274
28	0xbdcd46c4	-0.10023263
29	0x3d120c35	0.035656173
30	0x3dc91871	0.09819115
31	0xbc94c437	-0.018159969
32	0xbd9f0097	-0.077637844
33	0xbd708c48	-0.058727533
34	0xbd9f7dba	-0.07787652
35	0x3db67cc1	0.08910514
36	0x3d9f52ca	0.07779463
37	0x3daf42f4	0.08557692
38	0x3dc60507	0.09668928
39	0x3d981e25	0.074276246
40	0x3d428a64	0.04749526
41	0xbdc01ed9	-0.09380884
42	0xbcc03896	-0.023464482
43	0x3ddd209d	0.10797236
44	0x3dda9faf	0.106749885
45	0x3dcf64c9	0.10126645
46	0x3d443cd5	0.047909576
47	0xbdc4de76	-0.096127436
48	0x3da176f0	0.07884014
49	0xbd06fcea	-0.03295604
50	0x3d915201	0.07095719
51	0x3cc53ce8	0.024076894
52	0x3cdb3a41	0.026761176
53	0x3ce05853	0.027385866
54	0xbd0312c1	-0.032000307
55	0xbdbd8b06	-0.09255032
56	0x3df6a812	0.120437756
57	0xbd79f23b	-0.061022025
58	0x3d12780b	0.035759013
59	0x3de4b30f	0.11166965
60	0xbd439256	-0.04774698
61	0xbcde64a4	-0.027147599
62	0xbbf07c01	-0.007339001
63	0x3dbd552a	0.092447594
64	0x3d063e2a	0.032774128
65	0xbdeb00f9	-0.11474795
66	0xbdea18f5	-0.114305414
67	0xbcce7f58	-0.025207207
68	0xbd532d45	-0.051556844
69	0xbda28798	-0.07936019
70	0xbc156393	-0.009117979
71	0x3e004208	0.12525189
72	0xbdda16e8	-0.106489
73	0x3c819f9c	0.015823178
74	0xbd804577	-0.06263249
75	0xbc8cfbf8	-0.017209992
76	0x3daee640	0.085400105
77	0x3cbcfeea	0.023070771
78	0xbda13c76	-0.0787286
79	0xbdb72aa5	-0.08943681
80	0xbbe4cfe0	-0.0069827884
81	0x3d2a8d01	0.041638378
82	0xbd581433	-0.05275364
83	0xbb9be46c	-0.0047574546
84	0x3d96eead	0.073697425
85	0xbacddc69	-0.0015705946
86	0xbd737c62	-0.059444793
87	0xbd9a53cb	-0.075355135
88	0x3d535fba	0.051604964
89	0xbb6c838b	-0.0036089148
90	0xbd67434c	-0.056460664
91	0xbce5998d	-0.02802732
92	0xbe043851	-0.12912108
93	0xbdcd18c6	-0.10014491
94	0xbdcd7d75	-0.10033695
95	0xbcb543af	-0.022127
96	0xbdd08601	-0.10181809
97	0x3de41634	0.111370474
98	0x3d555abe	0.05208849
99	0x3dcd1fa0	0.100157976
100	0xbcdd59fa	-0.027020443
101	0xbdb4af25	-0.08822469
102	0xbd8e25c8	-0.069408
103	0x3d4240b4	0.047424987
104	0x3bfdb11e	0.0077420613
105	0xbd2bc038	-0.04193136
106	0x3dbb4a17	0.09144991
107	0x3d62a5db	0.055333953
108	0xbcd316df	-0.025767742
109	0xbdc36a53	-0.09541764
110	0x3cb403fd	0.021974558
111	0xbd367b05	-0.044550914
112	0xbbdc3f38	-0.0067214034
113	0xbd6b8fa4	-0.057510033
114	0x3cd9fee7	0.026610805
115	0xbcbae5f6	-0.022814732
116	0xbdd69ae0	-0.10478759
117	0x3e049cfd	0.12950511
118	0x3dcd9158	0.10037488
119	0x3d34be89	0.04412702
120	0xbe0c0d1c	-0.13676876
121	0xbde9cca7	-0.114159875
122	0x3da883f7	0.08228295
123	0x3d99d656	0.075115845
124	0xbbff832d	-0.00779762
125	0x3dd0a838	0.10188335
126	0x3d2b9bd2	0.04189665
127	0xbd8e81d3	-0.06958356
128	0xbdc429e6	-0.09578304
129	0xbcb6986e	-0.022289481
130	0xbd264f2b	-0.040602844
131	0xbda447d6	-0.08021514
132	0xbcd3c20a	-0.025849361
133	0xbd09bde9	-0.033628378
134	0x3de1f83e	0.110336766
135	0xbdae4095	-0.08508412
136	0x3dc40bdd	0.09572575
137	0x3c909e5b	0.017653635
138	0x3d439c21	0.047756318
139	0x3d1cf13e	0.038316004
140	0xbcf2bcfe	-0.029631134
141	0xbdf2ad84	-0.11849502
142	0x3da7e2ff	0.08197593
143	0x3d9db219	0.07699985
144	0x3c517c97	0.012786052
145	0x3d714b25	0.058909554
146	0x3ce34323	0.027741974
147	0x3dd8c5d9	0.105846114
148	0xbd8de815	-0.06929032
149	0xbde442e0	-0.11145568
150	0xbd15730f	-0.03648668
151	0x3d8295cb	0.06376227
152	0x3ddb1d31	0.10698927
153	0xbe021b22	-0.12705663
154	0x3d05415c	0.032533035
155	0x3df66c91	0.12032426
156	0xbd1fd64b	-0.039022725
157	0xbdb98906	-0.09059338
158	0x3bdc9114	0.006731162
159	0x3d90227e	0.07037829
160	0xbda82ffe	-0.08212279
161	0x3c1fdec8	0.009757705
162	0xbda57933	-0.080797575
163	0x3cee47ca	0.029086966
164	0x3db84f45	0.089994945
165	0x3d504c4e	0.05085402
166	0xbd87003a	-0.0659184
167	0xbdeb94aa	-0.11502965
168	0xbddadccb	-0.10686644
169	0xbd002c80	-0.03129244
170	0x3de36116	0.11102502
171	0x3df7a9fa	0.12092967
172	0x3e15b085	0.14618118
173	0xbdae3384	-0.085059196
174	0xbdcb3185	-0.099215545
175	0x3de882af	0.11353051
176	0xbc79f44f	-0.015256002
177	0x3e0b6feb	0.13616912
178	0xbdafcd9e	-0.0858414
179	0xbd2f64b4	-0.042820647
180	0xbd878763	-0.0661762
181	0xbcce1c3a	-0.025159944
182	0xbdc00875	-0.09376613
183	0xbde73e55	-0.11291186
184	0x3db00da4	0.08596352
185	0x3de9e540	0.11420679
186	0x3d3174da	0.04332433
187	0x3d13b44c	0.036060616
188	0x3bde3054	0.0067806635
189	0x3d5ac30d	0.05340867
190	0xbd4d586a	-0.050133146
191	0xbd453c66	-0.048153304
192	0xbcbca454	-0.023027577
193	0x3b8ad308	0.0042365827
194	0x3c58bd40	0.0132287145
195	0xbdd7c853	-0.10536256
196	0x3d295e8c	0.041349933
197	0x3df614e6	0.12015705
198	0x3d841d99	0.06450958
199	0xbddf9970	-0.10917938
200	0xbce8c83b	-0.02841579
201	0x3dc9615c	0.09833023
202	0x3dcdee0a	0.10055168
203	0x3dfa575f	0.12223696
204	0x3d8b3aef	0.0679835
205	0x3de91edd	0.1138284
206	0x3caa65b8	0.020800456
207	0xbe03b31a	-0.1286129
208	0xbc87db87	-0.016584171
209	0xbd6f1244	-0.05836703
210	0x3d52724e	0.05137854
211	0x3cbc454c	0.022982262
212	0x3d9bbe5b	0.07604667
213	0xbdbcb2fd	-0.09213827
214	0x3e0abab3	0.13547783
215	0x3d38602d	0.045013595
216	0xbd671ef7	-0.056426015
217	0xbd9d49ba	-0.07680078
218	0xbd9b9bca	-0.07598074
219	0x3dba3791	0.0909263
220	0x3ddb3b1e	0.10704635
221	0x3dcec98e	0.10097037
222	0xbb721e51	-0.003694434
223	0xbd7aefb7	-0.061263766
224	0xbdd3cda7	-0.103419594
225	0x3df0fc39	0.11766858
226	0x3d6296be	0.05531954
227	0x3db0007e	0.08593844
228	0x3dc4af44	0.09603742
229	0xbd7cdd69	-0.06173459
230	0xbcc6d9d1	-0.024273785
231	0x3db78b75	0.08962146
232	0x3c974e47	0.018469943
233	0x3c33b8e1	0.010969372
234	0xbd815a19	-0.06316013
235	0xbcdb056c	-0.026735984
236	0xbe129bcc	-0.14317244
237	0x3d4fffe1	0.050781135
238	0xbd7eb372	-0.06218285
239	0xbdb05674	-0.086102396
240	0xbda30734	-0.07960358
241	0x3d863fa6	0.06555109
242	0x3de41714	0.11137214
243	0x3d5188e6	0.051155947
244	0xbdce5f9b	-0.10076829
245	0x3db5db90	0.08879769
246	0xbadc9872	-0.00168301
247	0x3a8cf25a	0.0010753379
248	0xbd818201	-0.063236244
249	0xbd3a8d5f	-0.04554498
250	0x3d807986	0.06273179
251	0xbde896fd	-0.11356924
252	0xbba0e862	-0.0049105147
253	0xbc8f025f	-0.017457185
254	0x3d722f97	0.059127416
255	0xbd1d8822	-0.038459904

t_model.t_model.2.bias f4 [64]
0	0xbced6045	-0.028976569
1	0xbdc7daa2	-0.09758498
2	0x3cb32fd6	0.021873396
3	0xbc206479	-0.00978958
4	0xbdaf60aa	-0.08563359
5	0x3d9d824b	0.07690867
6	0x3d3d491a	0.046212293
7	0x3deef011	0.11666883
8	0xbde62401	-0.11237336
9	0xbd66aace	-0.056315236
10	0x3d941e3b	0.072323285
11	0x3d420432	0.047367282
12	0xbdaacf5f	-0.08340334
13	0x3c6c2f91	0.014415638
14	0xba948433	-0.0011330902
15	0x3e0682df	0.13135861
16	0xbcf4eaa3	-0.02989704
17	0xbcd8c96f	-0.026463239
18	0xbd13244e	-0.035923295
19	0xbd00e3d4	-0.031467274
20	0x3b16c484	0.0023005316
21	0x3dba24d6	0.09089057
22	0x3cf6d224	0.0301295
23	0xbc6b7789	-0.014371761
24	0x39c85af7	0.00038214747
25	0x3d4de422	0.050266393
26	0xbe0e3707	-0.13888179
27	0x3d53dba0	0.051723123
28	0xbd01dc80	-0.031704426
29	0xbd57cca9	-0.052685414
30	0xbda66899	-0.08125419
31	0x3ceb46cc	0.028720282
32	0xbda04931	-0.0782646
33	0xbdb685af	-0.08912217
34	0x3dc4eef7	0.096158914
35	0xbd5a4827	-0.053291466
36	0x3bfdecb8	0.0077491663
37	0x3d133b10	0.035945
38	0xbd6b3dff	-0.05743217
39	0x3da07a0d	0.07835779
40	0xbe043e8a	-0.12914482
41	0xbcec0324	-0.028810091
42	0x3dbedfbe	0.09320019
43	0x3d92d990	0.07170403
44	0x3da84beb	0.08217605
45	0x3d3ea588	0.04654458
46	0x3e16f099	0.14740218
47	0xba8cc935	-0.0010741117
48	0x3d18e78d	0.0373302
49	0x3de2cf9d	0.11074755
50	0xbd083086	-0.0332494
51	0x3d7810c4	0.060562864
52	0x3d85e34f	0.06537496
53	0xbc89da1a	-0.016827632
54	0xbcdf7af1	-0.027280303
55	0xbd2e36f2	-0.04253287
56	0x3dcbb74f	0.09947073
57	0xbbde2c34	-0.0067801718
58	0x3e1ef957	0.15524803
59	0x3e027d2a	0.12743059
60	0x3ddb9fcf	0.107238404
61	0x3de583bb	0.11206766
62	0x3dc950dc	0.09829876
63	0x3db86b35	0.09004823

s_model.x_model.weight f4 [64, 32]
0	0x3d38363b	0.044973593
1	0xbd8db81a	-0.0691988
2	0x3e3e4ba4	0.18583542
3	0xbd7eaa11	-0.062173907
4	0x3dfd55ed	0.12369905
5	0x3dfef580	0.12449169
6	0xbdcf7b97	-0.10130995
7	0xbc1f7e52	-0.009734707
8	0x3d3c8bb0	0.046031654
9	0xbd97f160	-0.074190855
10	0x3dc41c1b	0.09575673
11	0xbd027b19	-0.031855676
12	0xbbaa8f97	-0.0052051055
13	0xbdb95e2c	-0.09051165
14	0x3df48a88	0.11940485
15	0xbde365bd	-0.111033894
16	0xbdcf4426	-0.1012042
17	0x3c3ec034	0.0116425045
18	0x3ac0cdf8	0.0014709821
19	0x3d5b4615	0.053533632
20	0xbe0aed6e	-0.13567135
21	0xbd6e003e	-0.0581057
22	0xbe027fc0	-0.12744045
23	0x3cd068df	0.025440631
24	0x3ce3ac5e	0.027792152
25	0x3d8332cd	0.06406174
26	0xbe23064e	-0.15920374
27	0xbde83dc8	-0.11339909
28	0x3e413e4e	0.18871424
29	0xbe0dd109	-0.13849272
30	0x3cfdbe56	0.030974548
31	0x3d16f500	0.036854744
32	0xbe1ba22b	-0.15198581
33	0xbdf6158e	-0.1201583
34	0xbde2a50e	-0.11066638
35	0x3c8b2de0	0.016989648
36	0xbcb6c747	-0.02231182
37	0xbdf1ee66	-0.11813049
38	0x3ddb5d73	0.107111834
39	0x3d84845f	0.0647056
40	0xbcc70534	-0.024294473
41	0x3df536aa	0.11973317
42	0x3cc98963	0.024601644
43	0xbe27e06c	-0.16394204
44	0xbddb7dd9	-0.10717363
45	0xbe0fe81a	-0.14053383
46	0xbdbefcb8	-0.09325546
47	0xbd0bfa08	-0.034173995
48	0xbcbd59f6	-0.023114186
49	0x3de2abff	0.11067962
50	0xbd153847	-0.036430623
51	0x3de1eace	0.110311136
52	0x3cd7cae6	0.026341867
53	0xbcd4058a	-0.025881547
54	0xbd6f5dd4	-0.05843909
55	0x3e14e460	0.14540243
56	0xbacd663f	-0.001567073
57	0x3cae4e5b	0.021277597
58	0xbca57028	-0.020195082
59	0xbe229b6c	-0.15879601
60	0xb9d1f0d1	-0.0004004301
61	0x3ca17236	0.01970778
62	0xbdd90157	-0.10595959
63	0xbd63085b	-0.05542789
64	0x3e31bc34	0.1735695
65	0xbe224fee	-0.15850803
66	0xbdf306da	-0.11866541
67	0xbd890998	-0.06691283
68	0xbe203c05	-0.15647896
69	0x3e240eb4	0.16021234
70	0xbdf78545	-0.12085966
71	0x3dc4b2e9	0.09604437
72	0x3ce6a516	0.028154891
73	0xbdc1986b	-0.094528995
74	0x3b15f023	0.0022878728
75	0xbe2091a1	-0.15680553
76	0x3dc2bac6	0.095082805
77	0xbd0a45bf	-0.03375792
78	0xbe359ab1	-0.17734791
79	0x3d80e94e	0.06294499
80	0x3d0091c9	0.03138903
81	0x3ddf065f	0.10889887
82	0xbe4310b6	-0.19049343
83	0xbe3dffc1	-0.18554594
84	0x3db47373	0.08811083
85	0x3e199487	0.14998065
86	0xbda3bae6	-0.079946324
87	0xbe107b49	-0.1410953
88	0xbe400a57	-0.18753944
89	0xbe2930b3	-0.16522484
90	0xbd51e7b8	-0.051246375
91	0x3daf06fb	0.08546253
92	0xbdccc57c	-0.09998605
93	0xbdfd948c	-0.12381849
94	0x3cb6e7dc	0.022327356
95	0xbe27582c	-0.16342229
96	0xbdabb0fb	-0.08383366
97	0x3d7f0d60	0.062268615
98	0x3e415edc	0.18883842
99	0x3d98624b	0.07440623
100	0xbd05cfc0	-0.03266883
101	0xbc514ad7	-0.012774191
102	0x3d5ce936	0.053933345
103	0xbd7aa5e1	-0.06119335
104	0xbd9ddc41	-0.07708026
105	0xbd113316	-0.03544911
106	0x3d848529	0.06470711
107	0xbe35fcf4	-0.17772275
108	0xbd0f2fee	-0.03495782
109	0xbcc35e6c	-0.023848735
110	0x3e3a118b	0.18170755
111	0xbdca4288	-0.09875971
112	0x3e2a3bad	0.16624327
113	0x3d4d0d34	0.05006142
114	0x3cfaf30b	0.03063347
115	0x3e2da78f	0.1695845
116	0xbd4f4634	-0.05060406
117	0xbc913fab	-0.017730555
118	0x3d325bfd	0.043544758
119	0x3d9be903	0.07612803
120	0xbe204067	-0.15649568
121	0xbe1bae85	-0.15203293
122	0xbdc61c3c	-0.09673354
123	0x3e3e0710	0.18557382
124	0xbdcddd4a	-0.10051973
125	0xbbf5870a	-0.0074929046
126	0xbcf4f122	-0.029900137
127	0xbd9531f5	-0.07284919
128	0x3e29bf8b	0.16576974
129	0x3dee3d17	0.11632746
130	0x3c9eaf50	0.019370705
131	0xbe068dab	-0.1313998
132	0x3d362124	0.0444652
133	0xbdd8b27e	-0.1058092
134	0xbd36b4c1	-0.044605974
135	0x3cd0d126	0.025490355
136	0xbe0f4f02	-0.13994983
137	0x3e06f78a	0.13180366
138	0x3e2790cf	0.16363834
139	0x3dab1a50	0.08354628
140	0xbd11d34a	-0.03560189
141	0x3d8fc1c5	0.070193805
142	0xba0eb46c	-0.0005443755
143	0xbda15243	-0.07877018
144	0x3db1f075	0.08688442
145	0xbd1bbd90	-0.038022578
146	0xbe024795	-0.12722619
147	0xbe1ab142	-0.15106681
148	0x3d31e933	0.043435287
149	0x3dc2a311	0.09503759
150	0x3d8649cf	0.065570466
151	0xbd83fb10	-0.06444371
152	0x3d5cc97b	0.053903084
153	0x3d6c7fae	0.057738952
154	0xbe00289e	-0.12515494
155	0xbe1e516c	-0.15460747
156	0x3e2fd314	0.17170364
157	0x3bc589c6	0.0060283868
158	0xbd0b5a45	-0.034021635
159	0xbd1aaecb	-0.03776435
160	0xbe0957f0	-0.13412452
161	0x3d29e53f	0.04147839
162	0x3ded437b	0.115851365
163	0x3d62faec	0.05541508
164	0xbd89388a	-0.06700237
165	0x3e3447de	0.1760554
166	0x3e234a38	0.15946281
167	0x3e054636	0.13015065
168	0xba3de521	-0.00072439207
169	0x3e1102f5	0.14161284
170	0x3e3596d4	0.17733318
171	0xbe08ed94	-0.13371879
172	0x3dc7812c	0.097414345
173	0x3d1de387	0.038547065
174	0x3e2cec1f	0.16886948
175	0x3d889824	0.066696435
176	0x3e3c2a3b	0.18375485
177	0x3e1fe3db	0.15614264
178	0xbc2cd7bf	-0.010549485
179	0x3d3cd418	0.046100706
180	0x3d9fab2b	0.077963196
181	0xbd97e69c	-0.07417032
182	0x3d611f97	0.054961767
183	0x3e403640	0.18770695
184	0xbd771612	-0.060323782
185	0xbe0a026c	-0.13477486
186	0xbd40ef3c	-0.04710315
187	0xbc942013	-0.0180817
188	0x3dc7014e	0.09717046
189	0x3c42923a	0.011875683
190	0xbe10f58e	-0.14156172
191	0x3daf0c49	0.08547265
192	0xbe220e0a	-0.15825668
193	0x3cd0d3f7	0.025491698
194	0xbd6f58ac	-0.058434173
195	0x3d27948e	0.040913157
196	0x3e09a73c	0.13442701
197	0x3c9ae2f0	0.01890704
198	0x3cce5de5	0.025191257
199	0xbd2a89c9	-0.04163531
200	0x3e0b8465	0.13624723
201	0xbe06bb4e	-0.13157389
202	0x3dedec07	0.11617284
203	0xbe2aacb0	-0.16667438
204	0x3c35c631	0.011094616
205	0xbe199ab0	-0.15000415
206	0x3d138879	0.036018822
207	0xbe1cfbcf	-0.15330432
208	0x3e41cabf	0.18924998
209	0x3d75caaa	0.06000773
210	0xbdd13b36	-0.10216372
211	0xbde5483f	-0.111954205
212	0x3e435408	0.19075024
213	0x3dca7e70	0.09887397
214	0x3df17194	0.117892414
215	0xbe01af42	-0.12664512
216	0x3dfc1b59	0.12309904
217	0xbdc3de55	-0.09563891
218	0x3dcc2ed6	0.09969871
219	0xbd1ba9aa	-0.0380036
220	0x3d929557	0.071573906
221	0x3e174b46	0.14774808
222	0x3e2f57e6	0.17123374
223	0xbe2ec36b	-0.17066734
224	0xbd143899	-0.03618679
225	0x3d3a35ff	0.04546165
226	0x3db06648	0.086132586
227	0xbe16e7c3	-0.14736848
228	0x3da3cb9a	0.07997818
229	0x3e107363	0.14106517
230	0xbcfa10fb	-0.030525675
231	0xbdb59dac	-0.08867964
232	0x3cba928c	0.022774957
233	0xbdb73ab0	-0.089467406
234	0xbdcf4a1d	-0.10121558
235	0x3d44e1d5	0.048066933
236	0xbdbb8254	-0.091557175
237	0x3d80bcea	0.062860325
238	0x3c2b7257	0.010464272
239	0xbc89348c	-0.01674869
240	0x3ca63122	0.0202871
241	0x3dade902	0.08491708
242	0x3dd66595	0.10468594
243	0x3e3837d3	0.17990045
244	0x3e16a07b	0.14709656
245	0x3dd2d866	0.10295181
246	0x3de63cb8	0.1124205
247	0xbdf9ddb1	-0.122004874
248	0xbc095c75	-0.00838386
249	0x3cd9b7ee	0.026576962
250	0x3da4f74e	0.08054982
251	0x3ae1b672	0.0017220511
252	0x3d13df24	0.036101475
253	0xbe1638f5	-0.14670165
254	0xbe1061bb	-0.14099781
255	0x3de5e130	0.11224592

s_model.x_model.bias f4 [64]
0	0x3d982197	0.07428282
1	0x3d999ffd	0.075012185
2	0xbde677af	-0.112532966
3	0xbd1b0730	-0.03784865
4	0x3e2f9cae	0.17149612
5	0x3dceb6d8	0.100934684
6	0x3d53c710	0.051703513
7	0x3e2d4381	0.16920282
8	0x3a8b23da	0.0010615543
9	0x3d93c452	0.072151795
10	0x3e2e201a	0.17004433
11	0x3e0cd5a9	0.1375338
12	0xbddd3c5e	-0.1080253
13	0xbd929a2d	-0.07158313
14	0x3dc56717	0.096388035
15	0xbc82c618	-0.0159636
16	0xbdd0a05a	-0.10186835
17	0x3d675117	0.056473818
18	0x3e18672e	0.1488311
19	0xbda78192	-0.081790105
20	0xbd6424be	-0.055699103
21	0x3d915c6b	0.070977055
22	0x3de81e40	0.11333895
23	0x3e01e080	0.12683296
24	0x3e3b587e	0.18295476
25	0x3e256748	0.1615268
26	0xbda9fe35	-0.08300439
27	0xbdceaf45	-0.10092024
28	0xbd17821a	-0.03698931
29	0x3d70027d	0.058596123
30	0xbd2543a1	-0.0403477
31	0x3d56db88	0.052455455
32	0xbdc42df6	-0.09579079
33	0x3df54cfc	0.11977574
34	0xbd001776	-0.031272374
35	0x3e09f518	0.13472402
36	0x3d298db5	0.041394908
37	0xbe02f724	-0.12789589
38	0x3ca4cfd7	0.020118637
39	0x3e172033	0.14758377
40	0x3dc349d2	0.095355645
41	0x3cdff01d	0.027336175
42	0xbe00b7c0	-0.12570095
43	0x3c75b65d	0.014997092
44	0x3dff876b	0.12477001
45	0x3d4f2754	0.050574616
46	0x3e1bc723	0.15212683
47	0xbd6dce8d	-0.05805831
48	0x3d648faa	0.05580107
49	0x3e4415ae	0.19148895
50	0xbd7445d9	-0.059636924
51	0x3e04b8a8	0.12961066
52	0xbdf2911c	-0.11844084
53	0xbdd5e288	-0.10443598
54	0xbe32b3f2	-0.17451456
55	0x3dacac0a	0.08431251
56	0x3de4ac5f	0.1116569
57	0xbd10d59f	-0.035359975
58	0xbca189ff	-0.019719122
59	0x3bd4d66f	0.006495289
60	0xbdcf59d7	-0.101245575
61	0x3db9bfd2	0.0906979
62	0x3c4ab5c1	0.012372435
63	0x3d987fbe	0.0744624

joint_model.model.1.0.weight f4 [64, 64]
0	0x3c613341	0.01374513
1	0xbd5107ec	-0.051032946
2	0xbdf6db14	-0.120535046
3	0xbd75d146	-0.06001403
4	0x3dbb4834	0.09144631
5	0x3909bced	0.00013135718
6	0x3ddff87a	0.10936065
7	0xbd8e4446	-0.06946616
8	0xbdf51a08	-0.11967856
9	0x3dd69725	0.10478047
10	0xbd8c984a	-0.06864984
11	0xbde07e8d	-0.10961638
12	0xbdd9809c	-0.106202334
13	0x3c6a3917	0.014295838
14	0x3de4619d	0.11151431
15	0x3cb4ffe6	0.022094678
16	0xbd35b112	-0.04435832
17	0x3e0b5763	0.13607554
18	0x3dc0d78e	0.09416114
19	0x3dc20ef3	0.094755076
20	0x3ce2d1ce	0.027687933
21	0x3d89f209	0.06735618
22	0x3cbf9c7b	0.023390045
23	0xbdb0f726	-0.0864089
24	0xbdd72e0c	-0.105068296
25	0xbcdd751a	-0.027033377
26	0xbcdcc05d	-0.026947195
27	0xbe145922	-0.14487126
28	0xbdbffd85	-0.09374527
29	0x3d8e53f1	0.06949604
30	0x3d67239c	0.056430444
31	0xbc145eaf	-0.009055777
32	0xbdbfcf4f	-0.09365713
33	0xbde1513e	-0.11001824
34	0x3daa6c43	0.083214305
35	0x3d872213	0.06598296
36	0xbe020212	-0.12696102
37	0x3c0d00cb	0.008606146
38	0xbdac9576	-0.08426945
39	0x3de71ae9	0.112844296
40	0xbd93a5fc	-0.072093934
41	0xbccfb530	-0.025354952
42	0xbc25c1f7	-0.010117046
43	0x3dc444a0	0.09583402
44	0x3cde8f16	0.027167838
45	0xbd9ba303	-0.075994514
46	0xbdaedc2a	-0.08538087
47	0x3de6c8da	0.11268778
48	0xbc88adf7	-0.016684515
49	0x3d381947	0.04494598
50	0xbddaa75c	-0.106764525
51	0x3de7a935	0.113115706
52	0xbdf6e316	-0.12055032
53	0x3d3caa6a	0.046060957
54	0x3e02205a	0.12707654
55	0xbd94f001	-0.072723396
56	0xbd0640ca	-0.03277663
57	0xbd24477f	-0.040107246
58	0xbdcab706	-0.0989819
59	0x3da53dee	0.08068453
60	0x3c0a966f	0.008458718
61	0xbd81e348	-0.063421786
62	0x3de3d39a	0.11124344
63	0x3d7a5550	0.061116517
64	0x3ccecc39	0.025243865
65	0x3db299df	0.08720755
66	0xbd1fa3eb	-0.038974684
67	0x3dcadf80	0.099059105
68	0xbdd34908	-0.10316664
69	0x3d62d63b	0.055380087
70	0x3d807f6a	0.06274302
71	0x3d6a323f	0.057176825
72	0x3dae9618	0.08524722
73	0x3df939c5	0.12169222
74	0x3dcf042d	0.10108218
75	0x3e1130f1	0.14178826
76	0xbca7cea3	-0.020484274
77	0xbe0b20b4	-0.13586694
78	0xbdd877b6	-0.10569708
79	0x3d911635	0.07084314
80	0x3cf8a84e	0.030353691
81	0x3d3da08d	0.04629569
82	0x3d9c22c5	0.07623819
83	0x3d9c95a5	0.0764573
84	0x3c1c7e1b	0.00955155
85	0x3dcec5a1	0.100962885
86	0xbe0de81c	-0.13858074
87	0xbdadd9c9	-0.08488805
88	0x3dfb22ce	0.12262498
89	0xbd3aacb4	-0.04557486
90	0xbcbb2aad	-0.022847498
91	0x3d707949	0.058709417
92	0x3decfd97	0.11571806
93	0x3c95e30e	0.018296745
94	0x3d84684e	0.06465207
95	0xbd528828	-0.05139938
96	0xbe24c1b0	-0.16089511
97	0xbd8e45aa	-0.06946881
98	0xbdcc126b	-0.099644504
99	0x3d505b8f	0.050868567
100	0xbda421fc	-0.080142945
101	0xbde37474	-0.11106196
102	0xbdb14530	-0.086557746
103	0x3dabaf11	0.08383001
104	0xbd912a75	-0.07088176
105	0x3d5622e2	0.05227936
106	0xbc4b20c4	-0.012397949
107	0xbd68ffb6	-0.05688449
108	0xbdad23ab	-0.08454069
109	0x3c03369e	0.008008627
110	0xbd812979	-0.063067384
111	0xbd04483c	-0.03229545
112	0x3c0ae1f6	0.008476725
113	0xbc3de340	-0.011589825
114	0xbe104793	-0.14089803
115	0xbbe1c7c3	-0.0068902685
116	0xbdc6e346	-0.09711318
117	0x3dabd1cb	0.08389624
118	0xbde0164f	-0.10941755
119	0x3d46807a	0.04846237
120	0x3dd1b993	0.102404736
121	0x3dc8b02b	0.097992264
122	0x3d34d59f	0.044149037
123	0xbdc77007	-0.097381644
124	0x3e0b168e	0.13582823
125	0xbdb12417	-0.08649462
126	0x3de28d45	0.11062101
127	0x3d354e71	0.04426426
128	0x3bfd8c17	0.0077376473
129	0x3d56e953	0.05246861
130	0x3deef895	0.11668507
131	0xbdee9d55	-0.116511025
132	0xbdb0507e	-0.08609103
133	0x3c01ed19	0.007930064
134	0xbddbe716	-0.107374355
135	0x3d18d5b6	0.037313186
136	0x3c21969e	0.00986257
137	0xbd3b7581	-0.045766357
138	0xbdc74bf8	-0.09731287
139	0xbe03b665	-0.12862547
140	0xbd244b70	-0.040111005
141	0x3aaea214	0.001332345
142	0x3c3bcd3d	0.011462507
143	0xbb87a58b	-0.0041396073
144	0x3e042d1e	0.12907836
145	0xbe0ee916	-0.13956103
146	0x3bef5b11	0.007304557
147	0x3d3c7a94	0.046015337
148	0x3d90a677	0.07063001
149	0x3d4d1dac	0.050077125
150	0xbcfb3045	-0.030662665
151	0xbda77c0e	-0.081779584
152	0x3dfb12ae	0.12259422
153	0xbd1f9301	-0.038958553
154	0x3db265e8	0.08710843
155	0x3cee0681	0.029055836
156	0x3b6dc1aa	0.0036278763
157	0x3dcae39c	0.09906694
158	0x3daee42b	0.08539613
159	0xbd1bcf9b	-0.038039785
160	0x3dea5a48	0.11443001
161	0x3ce81b1c	0.02833324
162	0x3e091f26	0.13390788
163	0xbca39a34	-0.01997099
164	0x3dcab344	0.098974735
165	0xbd8263c4	-0.06366685
166	0xbd633bb2	-0.05547685
167	0xbc36a272	-0.011147128
168	0x3d17dd89	0.037076507
169	0x3cbf8cb0	0.023382515
170	0xbdd158a7	-0.10221987
171	0x3ccb2cdd	0.024801666
172	0xbc2ab4ff	-0.010419129
173	0x3d1fc590	0.03900677
174	0xbd7a42c0	-0.061098814
175	0x3c680ac3	0.014162722
176	0x3bb5bc13	0.005546102
177	0xbca4f5ff	-0.020136831
178	0x3d624350	0.055239975
179	0x3db0fc85	0.08641914
180	0x3de57d1e	0.11205505
181	0x3d37876e	0.04480689
182	0x3d8f1781	0.06986905
183	0x3d7349a0	0.059396386
184	0x3c885e44	0.016646512
185	0x3daaab4f	0.08333456
186	0xbd22d5ae	-0.039754562
187	0x3d25606e	0.040375166
188	0xbdbb5195	-0.0914642
189	0xbda9b3e1	-0.08286262
190	0x3c86f23b	0.016472926
191	0xbdaddc66	-0.08489303
192	0xbbef2b3b	-0.0072988546
193	0x3d5c95ee	0.05385392
194	0xbcd9c9b8	-0.026585445
195	0x3de701ea	0.11279662
196	0xbb967ffe	-0.0045928946
197	0x3ddd8f98	0.10818404
198	0xbd3f7807	-0.046745326
199	0xbc7b5578	-0.015340202
200	0x3d39d65f	0.045370456
201	0x3dc3ccc2	0.09560539
202	0x3dd1d77d	0.10246179
203	0xbd6af14c	-0.057359025
204	0xbe05f92c	-0.13083333
205	0xbddcb799	-0.10777206
206	0xbdf85a7a	-0.12126632
207	0x3dd6b3b7	0.10483497
208	0x3d64481b	0.055732828
209	0xbcaf0aa4	-0.021367379
210	0x3dc0029c	0.09375498
211	0xbd3ffe2f	-0.046873268
212	0xbc89ca34	-0.01682005
213	0x3d0a5b77	0.033778634
214	0xbd9e5ca5	-0.07732514
215	0xbd3c5c5a	-0.04598651
216	0xbdb21394	-0.086951405
217	0x3de0a85a	0.109696105
218	0x3bd9c627	0.006645936
219	0x3d7b078a	0.061286487
220	0x3e038f3a	0.12847605
221	0x3c80a801	0.01570511
222	0x3d0bcc86	0.034130596
223	0xbdb92f41	-0.09042216
224	0xbd88d432	-0.06681098
225	0xbe03afa3	-0.12859969
226	0xbda05598	-0.07828826
227	0x3c67abba	0.014140064
228	0x3e092b24	0.13395363
229	0xbe283d4d	-0.16429634
230	0xbca64260	-0.020295322
231	0xbcc0620c	-0.023484252
232	0x3bed25a8	0.007237155
233	0xbc6a043a	-0.014283234
234	0x3df8a93b	0.12141653
235	0x3da89617	0.08231752
236	0xbde61f53	-0.11236443
237	0xbca4ae98	-0.020102784
238	0x3dd7f47e	0.1054468
239	0xbcb6628b	-0.022263786
240	0x3dd3497c	0.103167504
241	0xbd8c64bc	-0.06855151
242	0xbdac9f11	-0.08428777
243	0xbd44d573	-0.048055124
244	0x3dab5c10	0.08367169
245	0xbd2a6ea6	-0.04160943
246	0xbd3a4cf6	-0.045483552
247	0x3caa74a8	0.02080758
248	0xbb2d7651	-0.0026468227
249	0xbdffabe6	-0.12483959
250	0x3cc60631	0.024172874
251	0x3cbdeaf3	0.023183322
252	0x3e2cfc51	0.16893126
253	0x3dc6e204	0.09711078
254	0x3e04cb15	0.12968095
255	0xbd335347	-0.04378059

joint_model.model.1.0.bias f4 [64]
0	0x3d22292a	0.03959004
1	0x3da31891	0.0796367
2	0xbdbfbdcc	-0.09362373
3	0xbd8e3df9	-0.06945414
4	0x3d93e584	0.07221511
5	0x3d25455c	0.04034935
6	0xbd9ca607	-0.07648855
7	0x3dc02817	0.093826465
8	0xbc688f15	-0.01419427
9	0x3da54962	0.08070637
10	0xbd50d586	-0.05098488
11	0x3df2d43a	0.11856885
12	0x3da6757f	0.08127879
13	0xbd0d585b	-0.03450809
14	0xbd1501af	-0.03637856
15	0x3d574dd2	0.05256445
16	0xbd6f2f31	-0.058394615
17	0xbbfe2384	-0.0077556986
18	0x3cc8e333	0.0245224
19	0x3d23364b	0.0398467
20	0xbd16ca5c	-0.03681408
21	0x3b53ce00	0.003231883
22	0xbd101fea	-0.035186686
23	0x3ca0ef47	0.019645346
24	0xbd98ac16	-0.07454698
25	0x3dd69e26	0.10479383
26	0xbd4c17c7	-0.049827363
27	0xbdc82191	-0.09772027
28	0xbc28e117	-0.010307572
29	0xbbe1bb8c	-0.0068888124
30	0xbd77a2b7	-0.06045791
31	0x3bda6e95	0.0066660144
32	0x3d93345a	0.0718772
33	0xbd4a0413	-0.04932029
34	0xbc0c0e03	-0.0085482625
35	0x3dc50c1e	0.09621452
36	0xbc99fedf	-0.01879829
37	0x3daa00e3	0.083009504
38	0xbcaf0e11	-0.021369012
39	0x3c0b540e	0.008503927
40	0xbd1393ac	-0.036029503
41	0x3cac55ea	0.02103706
42	0xbc444210	-0.011978641
43	0xbda750e8	-0.081697285
44	0x3d2ac578	0.041692227
45	0xbd919de3	-0.071101926
46	0x3d345df2	0.044034906
47	0x3d91883e	0.07106064
48	0xbd2cec76	-0.042217694
49	0xbd91403a	-0.07092328
50	0xbde09188	-0.10965258
51	0xbe0e6cbc	-0.13908666
52	0xbde630a3	-0.112397455
53	0x3d9c085a	0.076187804
54	0xbd2b2c19	-0.0417901
55	0xbde66f7e	-0.11251734
56	0x3d48d807	0.049034145
57	0xbd91da90	-0.071217656
58	0x3dcce5d0	0.10004771
59	0xbdbc8979	-0.09205908
60	0xbcc1d238	-0.02365981
61	0x3d0a04cf	0.033695992
62	0xbe068534	-0.1313675
63	0x3d54ed98	0.0519844

joint_model.model.2.0.weight f4 [64, 64]
0	0x3d89be9d	0.0672581
1	0x3e15ed48	0.14641297
2	0xbdfdeddf	-0.12398886
3	0x3d4da63c	0.05020736
4	0xbda3a816	-0.07991044
5	0xbd81d719	-0.06339855
6	0xbdee1126	-0.116243646
7	0x3ded5efe	0.11590384
8	0x3c8d7f8d	0.017272735
9	0x3db00f8a	0.08596714
10	0xbca25692	-0.01981667
11	0x3d81c254	0.06335893
12	0xbac320a4	-0.0014887047
13	0xbdd86c89	-0.105675764
14	0x3d80247e	0.0625696
15	0xbc17abfc	-0.009257313
16	0xbdd12624	-0.10212353
17	0x3de0272b	0.10944971
18	0x3cb8a999	0.022541808
19	0xbd8dda0e	-0.06926356
20	0x3d5c28a3	0.05374969
21	0x3b9b9faa	0.004749258
22	0x3d8f11e5	0.06985835
23	0xbd046438	-0.03232214
24	0x3c17594e	0.0092376005
25	0x3da9271f	0.08259415
26	0xbe05f154	-0.1308034
27	0x3dcfa857	0.1013953
28	0xbdd310a1	-0.10305906
29	0x3e01e1a0	0.12683725
30	0x3da995a5	0.082804956
31	0x3d8d4ce2	0.0689943
32	0xbd4ea716	-0.050452314
33	0xbd20d214	-0.039262846
34	0xbcf2637f	-0.029588459
35	0xbbbb84c6	-0.005722615
36	0xbce7af4a	-0.028281827
37	0xbd85a2dd	-0.06525204
38	0xbc6faf5b	-0.01462921
39	0x3d96daad	0.07365928
40	0xbc3d9940	-0.011572182
41	0x3c8fc21c	0.017548613
42	0xbdd71dcf	-0.105037324
43	0x3d569047	0.052383687
44	0xbd6b623e	-0.057466738
45	0xbd8c0fa9	-0.068389244
46	0x3d89a1aa	0.06720288
47	0xbd82c474	-0.06385127
48	0xbdefc7b2	-0.11708011
49	0x3c222fb8	0.009899072
50	0xbcc513f8	-0.024057373
51	0x3dbc135c	0.0918338
52	0x3c1d08fd	0.0095846625
53	0x3dba549d	0.0909817
54	0xbd6b4b47	-0.057444837
55	0xbdc24c93	-0.094872616
56	0x3ada7594	0.0016667121
57	0xbd326d97	-0.043561544
58	0x3da8afe6	0.08236675
59	0xbe26be87	-0.16283618
60	0x3bde17b8	0.00677773
61	0xbd5cdc58	-0.053921074
62	0x3d33a943	0.043862592
63	0x3dea1f44	0.11431745
64	0xbcc1c938	-0.023655519
65	0xbcc92abd	-0.024556512
66	0x3dc90b5d	0.098166205
67	0x3d9a810e	0.075441465
68	0xbe062e80	-0.13103676
69	0x3d2bc280	0.041933537
70	0xbd653dc5	-0.05596711
71	0x3dbcca4d	0.09218273
72	0x3d50505e	0.050857894
73	0xbe09f400	-0.13471985
74	0x3d0ea91c	0.034829244
75	0xbd60b850	-0.054863274
76	0x3d74827a	0.059694745
77	0xbbdacc00	-0.0066771507
78	0x3dc099b0	0.094043136
79	0x3c79b902	0.015241863
80	0x3d3dfc8a	0.04638342
81	0xbd18d5d5	-0.0373133
82	0x3d3c7700	0.046011925
83	0xbd3f69e4	-0.046731845
84	0x3e0fe7ce	0.1405327
85	0x3c5bfd3e	0.013427077
86	0x3d43ba9d	0.04778539
87	0xbded72d6	-0.11594169
88	0xbdf11dd7	-0.117732696
89	0xbd761e15	-0.060087282
90	0x3e0adee1	0.13561584
91	0xbd55f3b7	-0.052234378
92	0x3d985da6	0.07439737
93	0xbd7f18c2	-0.06227947
94	0xbd5afd14	-0.05346401
95	0x3e06aaa1	0.13151027
96	0x3d140ef0	0.036147058
97	0x3db27a95	0.08714787
98	0x3d73ef7b	0.05955456
99	0xbdc7b839	-0.097519346
100	0xbd97adae	-0.07406174
101	0xbd989fee	-0.07452379
102	0x3d8952ad	0.06705222
103	0xbd268bfe	-0.04066085
104	0xbe05cab5	-0.13065608
105	0xbd1bfedf	-0.03808486
106	0x3e144b66	0.14481887
107	0xbdf397cc	-0.11894187
108	0xbe00ea8e	-0.12589476
109	0x3db9b38a	0.090674475
110	0xbdd27a83	-0.102772735
111	0xbd9fbe8e	-0.07800017
112	0x3d988128	0.074465096
113	0xbd12ec8d	-0.035870124
114	0x3cb924aa	0.02260049
115	0x3d46d2f6	0.04854103
116	0x3d5210bd	0.051285494
117	0x3cacbe87	0.021086944
118	0x3d41a4f5	0.047276456
119	0xbcdef028	-0.027214125
120	0x3d8be701	0.0683117
121	0xbb99ebf3	-0.004697317
122	0xbd82e6ff	-0.06391715
123	0x3e1a753e	0.15083787
124	0xbd1afbac	-0.03783767
125	0x3dd16398	0.10224074
126	0x3d820954	0.063494354
127	0xbdc88673	-0.09791269
128	0x3c1dee17	0.009639285
129	0x3c5e6fc9	0.013576456
130	0x3d2a0cdd	0.041516174
131	0xbc115861	-0.008871169
132	0xbbaba7bd	-0.005238502
133	0xbd78a2cc	-0.06070213
134	0x3daba365	0.083807744
135	0xbd83358c	-0.06406698
136	0xbe217d0a	-0.15770355
137	0x3dd22093	0.10260119
138	0x3e038aa8	0.12845862
139	0x3dc88dc7	0.09792667
140	0x3d642f1b	0.055708986
141	0x3d8c6730	0.06855619
142	0xbd07e5f4	-0.033178285
143	0x3d827757	0.063704185
144	0xbdc8fe16	-0.09814088
145	0xbdab98f5	-0.083787836
146	0xbd95e2a7	-0.07318621
147	0xbd6a1829	-0.057151947
148	0xbd957130	-0.072969794
149	0xbcda9ce1	-0.026686134
150	0xbdab9004	-0.08377078
151	0x3d8f0aab	0.06984457
152	0x3e26d4cc	0.16292113
153	0x3da958b9	0.08268876
154	0xbe0d90ce	-0.1382477
155	0xbd19c851	-0.037544552
156	0x3d43bf93	0.04779012
157	0x3d05fcec	0.03271191
158	0x3de4cfef	0.11172473
159	0xbdec05a2	-0.11524512
160	0x3d8bdb71	0.068289645
161	0x3d8a0aa5	0.067403115
162	0x3d02503a	0.03181479
163	0x3df85567	0.12125664
164	0xbd82b797	-0.06382673
165	0xbd7419d1	-0.059594933
166	0xbda740a4	-0.08166626
167	0x3e188995	0.14896233
168	0xbdfbeb3f	-0.12300729
169	0x3d6c361b	0.057668786
170	0xbe0bea3d	-0.13663574
171	0x3ddb0b1e	0.1069548
172	0x3e249b24	0.16074806
173	0xbc4562fa	-0.012047524
174	0xbe16b30a	-0.14716735
175	0xbdffbaff	-0.124868385
176	0xbdb640a5	-0.08899049
177	0x3ddf3707	0.108991675
178	0xbdd6b3cc	-0.10483512
179	0x3deea061	0.116516836
180	0x3da0d2bc	0.078526944
181	0x3cb960c6	0.022629153
182	0xbc90edb2	-0.017691467
183	0x3dc7c600	0.097545624
184	0x3b7eb453	0.0038864806
185	0x3cb2bc27	0.021818234
186	0x3e100304	0.1406365
187	0xbc6a6505	-0.0143063115
188	0x3d80c055	0.062866844
189	0xbe29e8fa	-0.1659278
190	0xbd817e1f	-0.06322884
191	0xbc298fda	-0.010349238
192	0xbdb1be36	-0.08678858
193	0x3dc5caee	0.096578464
194	0x3d372a4c	0.04471807
195	0x3dad1c24	0.08452633
196	0x3da89d78	0.0823316
197	0x3d210e94	0.039320543
198	0x3d269913	0.040673327
199	0x3d359bd2	0.044338055
200	0x3d4b78b4	0.04967566
201	0xbd9fd8d2	-0.07805027
202	0x3db940fc	0.09045598
203	0x3e093d16	0.13402209
204	0xbd9e117f	-0.07718181
205	0x3d8e06d1	0.06934894
206	0xbdb20641	-0.08692599
207	0x3dfdab2f	0.12386166
208	0x3e09d459	0.1345991
209	0xbdfc2f3e	-0.12313698
210	0x3de0d752	0.10978569
211	0x3d90cd3f	0.070703976
212	0xbc8636fe	-0.016383644
213	0xbcd3b522	-0.025843207
214	0xbd8feb60	-0.07027316
215	0xbdce865a	-0.10084219
216	0x3a7dc01c	0.00096798106
217	0xbdc2d973	-0.095141314
218	0xbdc7eb5d	-0.09761689
219	0x3bb18ef4	0.0054186527
220	0x3dc0dc67	0.094170384
221	0x3d9309a4	0.07179573
222	0x3ded6a9b	0.11592599
223	0x3d023e78	0.031797856
224	0xbd45db30	-0.048304737
225	0x3d4509f0	0.04810518
226	0xbd44e951	-0.04807407
227	0xbce23925	-0.02761514
228	0x3db0bfb7	0.08630317
229	0x3d70f900	0.058831215
230	0x3ca8b91f	0.020596085
231	0x3e188055	0.14892705
232	0xbc392160	-0.011299461
233	0x3d49f00b	0.04930119
234	0x388432b1	6.3036925e-05
235	0xbe0d4add	-0.1379809
236	0xbab376c9	-0.0013692017
237	0x3cba1ef9	0.022719847
238	0x3bd0bfa9	0.006370504
239	0x3de80878	0.1132974
240	0x3c197a0a	0.009367475
241	0x3ce43f14	0.02786211
242	0xbc8d22b5	-0.017228464
243	0xbde4fde9	-0.11181242
244	0x3df67fe1	0.1203611
245	0x3dcae57c	0.09907052
246	0x3d015ad2	0.031580754
247	0x3d817636	0.06321375
248	0xbd90a35a	-0.07062407
249	0xbd7c3dbf	-0.061582323
250	0x3df6b136	0.12045519
251	0xbda9aa13	-0.08284392
252	0xbcb156f1	-0.021647902
253	0x3d73f002	0.05955506
254	0x3aa47263	0.0012546297
255	0xbd8c71e3	-0.0685766

joint_model.model.2.0.bias f4 [64]
0	0x3dfad938	0.122484624
1	0x3980aefc	0.00024544436
2	0xbd30e761	-0.04318941
3	0x3dbf25bb	0.093333684
4	0x3db5423e	0.08850525
5	0x3d5aac92	0.053387232
6	0xbdd88c0e	-0.10573588
7	0x3d7a5668	0.06111756
8	0xbdf77699	-0.120831676
9	0x3dbfe30c	0.09369478
10	0xbdf495fc	-0.1194267
11	0x3de2be28	0.11071426
12	0xbd524afa	-0.051341034
13	0x3d913f4f	0.07092153
14	0x3d7632ee	0.060107164
15	0xbe03ca5c	-0.12870163
16	0x3da9ceac	0.08291373
17	0xbd200fbe	-0.039077513
18	0xbdd4b861	-0.1038673
19	0x3d0f1e96	0.03494128
20	0xbe0cab93	-0.13737325
21	0x3dfb1545	0.12259916
22	0xbdde198d	-0.10844717
23	0x3dc37505	0.09543804
24	0x3dc2a6d8	0.09504479
25	0x3dc1934b	0.09451922
26	0x3d9f8874	0.07789698
27	0x3dad24b4	0.08454266
28	0x3c256626	0.010095155
29	0xbd6dab1e	-0.05802452
30	0xbc3d75ab	-0.011563699
31	0x3de32fb3	0.11093082
32	0x3db968b4	0.09053174
33	0x3d2da3bc	0.042392477
34	0xbe033b45	-0.12815578
35	0x3d7da793	0.06192739
36	0xbdcf814d	-0.10132084
37	0x3d5b3cc6	0.053524755
38	0xbd7bcd8f	-0.061475333
39	0x3cfb158f	0.030649928
40	0xbde721ff	-0.11285781
41	0x3d59517a	0.053056218
42	0x3dd2b861	0.10289074
43	0xbde9d9f2	-0.11418523
44	0x3dc55e1f	0.09637093
45	0xbdc86a46	-0.09785895
46	0xbddcbd1b	-0.107782565
47	0xbd39e833	-0.045387458
48	0x3bca3d93	0.006171891
49	0xbdc93991	-0.09825433
50	0x3d825f01	0.06365777
51	0xbdc383e9	-0.09546644
52	0x3d759474	0.05995603
53	0xbd5a2c29	-0.05326477
54	0xbe170d2f	-0.14751123
55	0x3d060d20	0.03272736
56	0xbd96253e	-0.07331322
57	0xbe0f8859	-0.14016856
58	0xbdb979f5	-0.090564646
59	0x3d9158d6	0.07097022
60	0xbdd1d939	-0.1024651
61	0x3dd45302	0.10367395
62	0x3a8030e9	0.0009780201
63	0x3d69235d	0.05691849
