energy_sampling/results_pis_architectures/many_well/langevin_clipping_lgv_100.0_gfn_10000.0_gfn/fwd_bwd/fwd_tb-avg_bwd_tb/T_100/tscale_1.0/lvr_4.0/seed_12345/model.pt (torch, 183012 bytes, 23 tensors)

t_model.timestep_phase f4 [1, 64]
000000 cd 0c 6d bf 37 99 9b 3e 8a e5 0a 3f ca c6 48 be
       -0.9259766 0.3039033 0.542565 -0.19607082
000010 e0 44 24 bf c0 f3 bd be 38 12 fd 3e dc a0 e6 3e
       -0.64167595 -0.3710003 0.49427962 0.450446
000020 77 9d 53 bf 52 6d 4e bd 31 c8 0a 3f 61 03 0a 3f
       -0.8266215 -0.050397225 0.5421172 0.53911406
000030 33 07 c8 be 01 01 7a bf 7c 68 32 3f b8 54 4b bf
       -0.39067993 -0.9765778 0.6969068 -0.79426146
000040 cd fb 66 bf b9 0e 20 bf 32 cc 4d bf f7 e7 e4 bf
       -0.9022797 -0.62522465 -0.803897 -1.788329
000050 ab 67 51 3f 02 d6 8a 3f 02 b4 73 3f 1a 5d 03 3c
       0.8179881 1.084656 0.95196545 0.008017803
000060 24 ed a8 3e 77 64 89 bf b5 16 43 3f f2 46 96 3e
       0.32993424 -1.0733784 0.76206523 0.29351002
000070 02 4d 0f 40 c2 a0 39 40 f0 05 6c 3e b4 9e 27 bf
       2.2390752 2.9004369 0.2304914 -0.65476537
000080 12 c7 4d 3f ce 5f 83 3f 0b bf 59 bf e4 9b 14 3f
       0.8038188 1.0263612 -0.85057133 0.5805037
000090 5a 56 66 3f 89 61 de 3e 55 bb 03 40 6d b5 ed bf
       0.8997551 0.43433788 2.0583088 -1.8570992
0000a0 83 36 9a 3e 1f e5 ab bf 11 25 47 bf 5f bd 23 3e
       0.30119714 -1.3429297 -0.77790934 0.15990208
0000b0 ec 71 df 3f 1b 52 95 be ac 99 1b 3f 1f f8 56 3e
       1.7456641 -0.29164204 0.6078136 0.20993088
0000c0 76 15 32 bd 53 3f 08 bf 1c b7 2a 3f 50 49 c9 3f
       -0.043477498 -0.53221625 0.6668565 1.5725498
0000d0 af e1 33 3f 10 10 45 be d3 fb 8a 3e 14 f2 91 bc
       0.7026624 -0.19244409 0.27145252 -0.017815627
0000e0 a7 b3 50 3f d9 8b a4 bf 52 fe 4b bf bd be 78 bf
       0.8152413 -1.2855178 -0.79684937 -0.97166044
0000f0 fb 9a 14 bf f5 2d fb be 8c 8d 7e be 65 6e 35 3f
       -0.5804898 -0.490585 -0.24858683 0.70871574

t_model.pe f4 [1, 64]
000000 cd cc cc 3d 7d c5 d7 3f 16 5f 51 40 b7 6d 9b 40
       0.1 1.6857144 3.2714286 4.857143
000010 e3 2b ce 40 08 75 00 41 1e d4 19 41 34 33 33 41
       6.4428573 8.028572 9.614286 11.200001
000020 4a 92 4c 41 60 f1 65 41 76 50 7f 41 c6 57 8c 41
       12.785715 14.371429 15.957144 17.542858
000030 51 07 99 41 dc b6 a5 41 67 66 b2 41 f2 15 bf 41
       19.128572 20.714287 22.300001 23.885715
000040 7d c5 cb 41 08 75 d8 41 93 24 e5 41 1e d4 f1 41
       25.47143 27.057144 28.642859 30.228573
000050 a9 83 fe 41 9a 99 05 42 5f f1 0b 42 25 49 12 42
       31.814287 33.4 34.985714 36.57143
000060 ea a0 18 42 b0 f8 1e 42 75 50 25 42 3b a8 2b 42
       38.157143 39.74286 41.32857 42.914288
000070 00 00 32 42 c6 57 38 42 8b af 3e 42 51 07 45 42
       44.5 46.085716 47.67143 49.257145
000080 16 5f 4b 42 db b6 51 42 a0 0e 58 42 66 66 5e 42
       50.842857 52.42857 54.014282 55.6
000090 2c be 64 42 f1 15 6b 42 b6 6d 71 42 7c c5 77 42
       57.185715 58.771427 60.35714 61.942856
0000a0 42 1d 7e 42 84 3a 82 42 66 66 85 42 49 92 88 42
       63.528572 65.11429 66.7 68.28571
0000b0 2c be 8b 42 0e ea 8e 42 f1 15 92 42 d4 41 95 42
       69.87143 71.45714 73.042854 74.62857
0000c0 b7 6d 98 42 9a 99 9b 42 7c c5 9e 42 5f f1 a1 42
       76.21429 77.8 79.38571 80.97143
0000d0 42 1d a5 42 24 49 a8 42 07 75 ab 42 ea a0 ae 42
       82.557144 84.14285 85.72857 87.314285
0000e0 cd cc b1 42 b0 f8 b4 42 92 24 b8 42 75 50 bb 42
       88.9 90.48572 92.07143 93.65714
0000f0 58 7c be 42 3a a8 c1 42 1d d4 c4 42 00 00 c8 42
       95.24286 96.82857 98.41428 100.0

t_model.t_model.0.weight f4 [64, 128]
000000 49 47 ee 3d f2 69 8a be a7 29 67 bc d7 de 72 3c
       0.1163469 -0.27033955 -0.014109052 0.014823637
000010 a0 63 f0 bd 3d 52 b3 3c 11 7d 0d bb a6 51 e4 3d
       -0.11737752 0.0218898 -0.0021589438 0.11148386
000020 2c 24 42 bd ad 01 4b 3c 00 f1 5c 3d 0c c4 a9 3d
       -0.047397777 0.012390536 0.053940773 0.08289346
000030 75 29 73 bc 07 f0 d1 bc b4 b9 20 3d c3 16 ac bc
       -0.014841427 -0.02562715 0.0392396 -0.021006947
000040 89 c9 8a 3d 25 d2 6f bd 2b 94 c0 3c b3 f7 d6 bd
       0.06776721 -0.05855002 0.023508152 -0.104964636
000050 63 1e 07 bd b5 5a 95 3d c5 43 9a 3d ed d7 cf bc
       -0.032987963 0.072926916 0.07532457 -0.025371516
000060 01 73 e4 3c 12 a9 6a bd 8f cd a3 3c d4 7f 52 3c
       0.02788687 -0.057290144 0.019995479 0.012847859
000070 40 5f 9f 3b 5b af 0d 3d 37 e9 43 3d a6 8d 50 3c
       0.0048636496 0.03459106 0.047829833 0.012729084
000080 29 20 c3 3c 02 fe 5c 3d 17 7d c3 3d d6 47 22 3d
       0.023819046 0.05395318 0.09545343 0.03961929
000090 8b 50 04 3d ac 58 7d 3d da 4f 92 3d 73 be a0 3d
       0.032303374 0.061852142 0.07144137 0.07848825
0000a0 a7 25 0f bc 5a e8 89 3c 87 c0 34 b7 d2 38 b5 3d
       -0.008737004 0.016834427 -1.0773662e-05 0.08848728
0000b0 67 6c a3 3d 5d 4b 72 bd d6 a9 80 bd 08 cd b1 3c
       0.079796605 -0.059153903 -0.06282394 0.021704212
0000c0 b7 ec 51 3d 27 7c e3 bc 33 d3 8f 3d 4a ef f1 3c
       0.05125114 -0.027769161 0.07022705 0.029533047
0000d0 c4 42 ec bc 9d 5f e7 3c 1b 56 14 bd d2 b1 64 bc
       -0.02884043 0.028243834 -0.03621493 -0.013958411
0000e0 9b 83 5b 3d c2 e3 ae bd 25 f9 71 3c f5 69 6d bb
       0.053592306 -0.08539535 0.014768873 -0.0036226485
0000f0 b1 e2 c0 bc 24 28 b5 3c f4 48 05 bd 68 97 84 bd
       -0.023545595 0.022113867 -0.032540277 -0.06474191
000100 4e 05 30 be 0a 3b 60 3d 43 d9 32 3e 98 9e a4 3d
       -0.17189524 0.054743804 0.17465691 0.08038062
000110 95 25 c3 3d 89 31 a3 ba f4 01 96 3d b4 54 9e 3d
       0.095286526 -0.0012450676 0.07324591 0.077309996
000120 e8 cb a5 bc 03 d9 52 3d cc 28 d6 3b b5 f1 d3 3d
       -0.020238832 0.05147649 0.006535625 0.10348836
000130 6d 3f 2b 3d 57 60 c6 bc 1a 30 16 3a 9b 22 5a 3d
       0.041808534 -0.02421586 0.00057292136 0.05325566
000140 19 53 3e 3d c1 c8 34 3d ea 6e 8b 3d 87 e0 65 3c
       0.046465967 0.044136766 0.068082646 0.014030582
000150 23 89 c0 bc b3 97 66 3c 9a 66 48 bc 60 33 f0 3b
       -0.023502892 0.014074254 -0.012231493 0.007330343
000160 f8 59 14 bd 92 91 a9 3d 50 f8 76 bc 8f cc 32 bc
       -0.036218613 0.082797185 -0.015073851 -0.010913028
000170 ba e1 17 be 0a 86 af bc b2 67 87 3d b8 02 96 bc
       -0.14832202 -0.02142622 0.06611575 -0.018311843
000180 07 f6 58 bd 34 01 1b 3c 90 aa 70 3c 5d 92 99 3c
       -0.052969005 0.009460736 0.014689103 0.01874655
000190 d7 2b 8d bd 23 4f 1a 3d b0 46 77 3d 03 b0 b3 3d
       -0.068931274 0.037673127 0.060370147 0.08773806
0001a0 1a f9 05 3d 8a 0b 13 3d cf 1a 88 3c c6 e9 53 bb
       0.032708265 0.035899676 0.016614346 -0.0032335385
0001b0 da 0e 45 bc bb 15 b0 3d 5c 8b f9 bc 0f ce ec bc
       -0.012027467 0.08597895 -0.03046196 -0.02890685
0001c0 ad 1a e3 39 70 1d e0 3c 77 14 f6 3c 73 c9 ad 3d
       0.0004331669 0.027357787 0.030039055 0.08485689
0001d0 72 71 80 3d 9e 7c 08 3d f8 ec d4 3c a1 72 89 3d
       0.06271638 0.03332197 0.025991902 0.06711317
0001e0 dc f8 e9 bb 71 08 dc bc fe b8 04 bd 3e 43 ac bc
       -0.007140262 -0.026859494 -0.032402985 -0.021028157
0001f0 10 bc 13 3c 79 27 67 bd 2e 05 0c 3d 1b 3b 1f 3c
       0.009017006 -0.05643413 0.034184627 0.009718682
000200 f4 95 38 3e bd fa f7 bd 0a 52 2f be 88 cf d8 bd
       0.18025953 -0.121083714 -0.17121139 -0.105864584
000210 54 dd 65 3d b6 3f 59 bc 81 94 8b bc 85 4f ad bc
       0.056119278 -0.013259819 -0.017038586 -0.021156082
000220 cd 93 d9 3c fd b5 c7 3b 91 25 e6 3b 68 f3 8a 3b
       0.026559735 0.0060946927 0.0070235212 0.004240442
000230 c1 18 19 bc 04 98 60 bc 20 00 23 bd 01 b5 94 bc
       -0.009344281 -0.013708118 -0.03979504 -0.018152716
000240 52 48 84 3b 4d 0c af bd 04 a2 d8 3c 2d 7a 35 bd
       0.0040369416 -0.08547268 0.026444443 -0.04430597
000250 78 32 3b bc 68 aa 75 bd ca 78 eb 3c 5d 3a 63 3d
       -0.011425607 -0.059976965 0.02874412 0.05547558
000260 fd 35 bd bd 19 e5 48 bd 9d e1 85 bd 3d e0 91 bc
       -0.09238813 -0.04904661 -0.06537173 -0.01780712
000270 f4 38 6f bc 42 73 30 bd c1 a5 a6 3b 4b e5 89 bd
       -0.014600981 -0.04307867 0.0050856774 -0.06733187
000280 d8 e6 53 3c 93 5c 95 bd bc b5 8c 3d f8 76 9c 3d
       0.012933455 -0.07293048 0.068706006 0.07639879
000290 02 20 60 3d 52 7a 43 3a 63 e3 44 3d 86 02 e1 3c
       0.054718025 0.0007456887 0.048068415 0.027467024
0002a0 ac c3 e7 bc b9 b7 77 bc aa a8 83 bc ad d8 b9 bb
       -0.028291546 -0.0151194865 -0.016071636 -0.0056715817
0002b0 7d 2a 2e bd 29 7f 3b 3d f2 02 b5 3c 2c 74 84 bc
       -0.04252099 0.045775566 0.022096131 -0.016168676
0002c0 4a cc 18 bc f6 8d 3f 3d fc 9f d7 bc 6f 83 08 3d
       -0.00932605 0.046766244 -0.026321404 0.03332847
0002d0 3c 23 81 3b 87 80 9a 3c 16 a7 b1 3c 3e 95 1f 3d
       0.003940968 0.018860115 0.021686118 0.038960688
0002e0 d0 de 70 3d c6 f4 44 3c b2 4f 2f bd 9a 6c 53 bc
       0.05880624 0.012021249 -0.042800613 -0.012904311
0002f0 6c 89 81 bd ad b1 92 bd ed d7 80 bd bf 8e ac bb
       -0.06325039 -0.07162795 -0.062911846 -0.00526604
000300 61 5e 34 be 31 11 00 be e4 dd b9 3d 9b 17 12 3d
       -0.17614128 -0.12506558 0.090755254 0.035667043
000310 0a bd 55 3d 95 46 3b bd e4 50 e8 3d 08 82 ce 3b
       0.052182235 -0.04572161 0.11343554 0.006302122
000320 b5 b5 f9 3c 5a 0a 1a bd 5a 9b 12 3d 48 e0 5a bc
       0.030482152 -0.03760753 0.035792686 -0.013359137
000330 cd a5 96 3c 6b 9e 6c bc 0a 32 be 3d b8 32 97 bc
       0.018389607 -0.014442067 0.09286888 -0.018456802
000340 d3 4b 30 3d 5b dc 4b bd 93 ab 1b bd 2d 3a 53 3d
       0.04304106 -0.049770694 -0.038005423 0.051569153
000350 fb 36 85 3d c9 9a 16 bd 4d 68 27 3d cc 03 2c 3d
       0.06504627 -0.03676871 0.040870953 0.04199581
000360 44 0b 1b 3d 49 bd 80 3b c2 d8 8c 3d 54 62 67 bc
       0.03785254 0.0039288145 0.06877281 -0.014122564
000370 f2 a4 e8 3d df b3 c3 bc 4b f9 cf bc 6e 84 cc bc
       0.11359586 -0.02388948 -0.025387427 -0.024965491
000380 c1 76 7d bd 03 a0 b6 bc 56 c6 0a bc 2b d2 a7 bd
       -0.06188083 -0.022293096 -0.008470139 -0.08194383
000390 2c 18 75 bd 15 f8 d0 3d ee 4e 29 bd 01 0a 06 bd
       -0.059837505 0.10203568 -0.04133504 -0.032724384
0003a0 f7 0e 60 3d 2b ff 6a bc e5 02 87 bd 16 34 2d bd
       0.05470177 -0.014343063 -0.06592349 -0.042286
0003b0 9b fc c5 ba 25 84 48 bd a5 59 0e 3c f0 31 b4 bd
       -0.001510519 -0.048954148 0.008688365 -0.08798587
0003c0 92 62 cf 3c fe 3f 58 3d b6 7b 44 3d 35 ae b8 3c
       0.025315557 0.052795403 0.047969542 0.022544006
0003d0 50 ba 8f bc d5 a2 22 3b 28 fd 2d 3c 99 84 68 3c
       -0.017544895 0.0024816294 0.010619439 0.01419177
0003e0 00 57 80 3d e7 1b 10 bd 05 7c 27 bd df ee 79 3d
       0.06266594 -0.03518286 -0.04088976 0.06101882
0003f0 fa 58 31 bd d8 45 1a 3d 72 09 71 bd 82 1d d2 bc
       -0.043297745 0.037664264 -0.0588469 -0.025648836

t_model.t_model.0.bias f4 [64]
000000 8b b0 b8 bd a0 10 5d be ec 38 ad bd 1f d5 5d bb
       -0.09018048 -0.21588373 -0.084581226 -0.0033848954
000010 38 d8 48 3c 5f 79 02 be 12 b1 1b be ec 60 15 bd
       0.012258582 -0.12741612 -0.15204266 -0.036469385
000020 a1 96 4b be b9 a5 a9 bc ce 87 31 bc 54 1f 51 be
       -0.19881679 -0.020708906 -0.010835601 -0.20422107
000030 0d f7 47 3c 18 53 2d 3e 29 c5 5c be bc d5 40 3d
       0.012204898 0.16926229 -0.21559586 0.047078833
000040 88 67 6d be bf 73 f5 3d e1 6c 77 3e de 56 05 3c
       -0.23184025 0.119849674 0.24162628 0.0081383865
000050 8a 24 91 be 0b a8 fc bd 31 74 73 3d ba cf 3f bd
       -0.2834819 -0.12336739 0.05943698 -0.046828963
000060 4e 75 db bd 34 99 43 be 9c 8c 61 3c b1 21 b9 bd
       -0.107157335 -0.19101411 0.013766434 -0.09039629
000070 77 a4 84 be c4 0e ed bd a4 52 33 bd e0 7e 21 bd
       -0.25906727 -0.11575082 -0.043779984 -0.039427638
000080 2e a3 8c bb 70 5f 09 3c 7b 24 9f bd 88 e1 8c bc
       -0.0042919135 0.0083845705 -0.0777063 -0.017197385
000090 89 e1 3e be 16 5f 31 be d1 b0 8a be 28 c8 01 be
       -0.18640722 -0.17321429 -0.27088025 -0.1267401
0000a0 dc 0d 07 bd cc 64 a2 3d ca 9d 82 be 19 5a c8 3d
       -0.0329722 0.07929382 -0.25511009 0.0978281
0000b0 d4 20 d3 bd e9 51 26 be 69 63 ed bd 31 ae 7f 3d
       -0.10308996 -0.16242184 -0.115912266 0.06242198
0000c0 9e a3 fa bc e7 e6 23 be 68 ae 69 be b4 5e 32 be
       -0.030595597 -0.16006051 -0.22820437 -0.17418939
0000d0 c3 0a 98 bb 1f 20 8d bd a1 f9 aa 3d f8 51 7e be
       -0.004639955 -0.06890892 0.08348394 -0.24835956
0000e0 a1 ba fc bd 1e 5e 48 be 39 0c f4 3d 5a ff 46 be
       -0.12340284 -0.19567153 0.11916394 -0.19433346
0000f0 47 f8 a0 3d 9b 0e 2b 3e d1 77 73 be d3 84 8c bd
       0.07859855 0.1670479 -0.23776175 -0.06861272

t_model.t_model.2.weight f4 [64, 64]
000000 33 d7 94 3d e0 08 ed 3d 2c 4b 08 be 49 75 e8 3c
       0.072676085 0.115739584 -0.13309926 0.028376238
000010 20 02 02 bd e1 96 e7 bd 1b da 9b 3d 57 2e 5f bd
       -0.031740308 -0.11308075 0.0760996 -0.054487552
000020 01 c2 3e 3e ee 1e 4b be 3d 32 a2 bd 13 58 79 3d
       0.18628694 -0.19836017 -0.079197384 0.06087501
000030 12 14 10 bc 3a b7 15 bd 5d 1b 16 3e 28 9d ec bd
       -0.008793848 -0.03655169 0.14658876 -0.11553413
000040 fb e6 42 3d b6 fb 42 bd f7 a8 1a 3b 34 04 a3 bc
       0.04758356 -0.04760333 0.0023599246 -0.019899465
000050 10 b4 dd 3d 00 df e4 bc 9f 21 32 bd a5 61 85 bd
       0.1082536 -0.027938366 -0.043489095 -0.06512765
000060 41 4f 34 bd ed c1 47 3e ba 55 4d be df df 9a 3d
       -0.044020895 0.1950757 -0.20052233 0.07562231
000070 12 4f 3b 3c 71 ea d2 3d aa 76 ca 3d a6 37 14 be
       0.011432426 0.102986224 0.098859146 -0.14474353
000080 ed 8b 00 bd 2f ba a8 bd c7 f1 c3 bd 1b e6 60 3d
       -0.031383444 -0.08238637 -0.095676 0.054906946
000090 15 14 de 3d 22 38 0c 3d 5d 15 7a 3e 03 11 77 3e
       0.10843674 0.03423322 0.24422212 0.24127583
0000a0 5f 76 0c bd 01 7f 0f bc f4 41 22 3e dd be 13 3e
       -0.034292575 -0.008758307 0.15845472 0.14428277
0000b0 a3 ef 1c 3e 82 f9 73 3e 34 c6 37 3e c4 4e 5c bd
       0.15325789 0.23825648 0.17946702 -0.053786054
0000c0 0a db 33 bd 64 69 bb 3d a1 62 39 3e 4e ef 2e 3e
       -0.043910064 0.09150961 0.1810403 0.17083475
0000d0 99 9e ce bd 73 ef be 3b be 3c f8 bd cd bd 4f 3c
       -0.10088844 0.0058268844 -0.12120961 0.012679529
0000e0 ec 2c 9a 3d 55 6a 15 3e 53 c1 d8 3c 42 9b 67 3e
       0.075280994 0.14591344 0.026459372 0.2261782
0000f0 88 49 2b be 4c 01 af bd 00 81 8b 3d 2f ac 36 bb
       -0.16727269 -0.08545169 0.06811714 -0.0027873626
000100 0a 0a 31 3c c9 2c 0d be d2 82 ff bd 60 33 b1 3d
       0.010805616 -0.13786615 -0.12476124 0.08652377
000110 44 8b c0 bd 3e ca 02 bd 1f 91 cb bc 50 69 fd 3c
       -0.09401563 -0.031931154 -0.024849473 0.030934006
000120 81 6c 04 be 74 41 d1 bc 51 c2 95 bd 2b 17 cd 3b
       -0.12932016 -0.025543906 -0.073124535 0.0062588654
000130 12 7d 16 3e 75 25 df 3d 00 d9 26 be ab 1a ad bc
       0.14696148 0.10895816 -0.16293716 -0.02113088
000140 3a d1 49 3b 95 75 cd 3d d2 ab 15 3e 1a 77 95 3d
       0.0030794875 0.100321926 0.14616325 0.072981074
000150 c9 ca 3f bc 40 77 e9 bc cc b4 0b 3d 83 41 e2 bd
       -0.011706063 -0.028499246 0.03410797 -0.110476516
000160 69 73 1c 3e 92 59 09 bd fa 53 a7 bd 39 b8 ca bd
       0.152784 -0.033532687 -0.08170314 -0.09898419
000170 5c c9 04 be 8e 84 08 be 4e 6c 28 3d e0 d6 07 bc
       -0.12967438 -0.13331816 0.041118912 -0.008290976
000180 21 d5 8e bd d3 4a ee 3d 38 24 f6 3d ca 2f 09 3d
       -0.06974245 0.11635365 0.12018627 0.03349284
000190 70 1f 27 bd 46 b3 8f bd b3 77 ac bd 36 8e 0e 3d
       -0.040801466 -0.070166156 -0.08421268 0.03480359
0001a0 4d 0c 32 3c db 20 87 3c 4d 4f b0 3c 16 7b d9 3d
       0.010867191 0.016495159 0.021522189 0.1061918
0001b0 0a aa f3 bc 74 a5 57 be 5c 60 31 bc 68 81 7a 3d
       -0.029744167 -0.21059209 -0.0108261965 0.061158568
0001c0 94 0c b2 bc e8 cc 05 be 78 3f 6d bd a1 21 95 bd
       -0.021734513 -0.13066447 -0.057921857 -0.07281805
0001d0 46 cd 13 bd 35 8f ec 3c 74 23 d7 3d ed 3b 65 3d
       -0.036084436 0.02887688 0.10504809 0.055965353
0001e0 3d 74 89 bd 08 49 3b be 08 79 87 3d af 6a 24 bc
       -0.06711624 -0.18289578 0.06614882 -0.010035201
0001f0 44 86 21 bd 86 5a c2 3d 49 ef 4c bd ad d1 93 bd
       -0.039434686 0.09489922 -0.050032888 -0.07217727
000200 29 e9 79 bd b8 16 8c bd b6 91 2a bd ff bb 36 bd
       -0.061013374 -0.06840271 -0.041642867 -0.04461288
000210 97 a6 99 bc ef c4 8b bd 4a 2c d7 bb 7d 54 09 bd
       -0.018756194 -0.068246715 -0.006566559 -0.03352784
000220 ef 1d d2 bc 65 25 8e 3d 06 a7 1b 3d fd 95 f2 bb
       -0.02564904 0.06940726 0.038001083 -0.007403134
000230 14 f8 a8 3d 4e 2a 85 3d 70 13 0f bd 05 37 d4 3d
       0.08250442 0.065022096 -0.034930646 0.10362057
000240 37 5d c6 bc 05 c6 a6 3d 60 c9 1c 3e 3f f8 1e 3e
       -0.02421437 0.08143238 0.15311193 0.15524386
000250 af 9e 0c be 18 1a fa bd 13 72 5b 3c 10 51 58 bc
       -0.13732408 -0.12212008 0.013393897 -0.013202921
000260 ac 33 d0 3d 68 7e 36 be 4b 87 b1 3b d6 35 37 bd
       0.10166106 -0.17821658 0.0054177395 -0.044729076
000270 0e f3 b8 bd 20 f7 13 be ce 85 bc 3d d9 e7 0e 3d
       -0.09030734 -0.1444974 0.09205209 0.034889076
000280 e4 be ba bd 2e ea c8 3d 4d 8f 83 bc 84 02 a7 bc
       -0.09118441 0.09810291 -0.016059542 -0.020386942
000290 78 cc 2a 3d 69 6a 4e 3c 9c e8 0d be 98 2c f6 bd
       0.041698903 0.012598612 -0.13858265 -0.12020224
0002a0 a5 ec 54 bd 18 57 13 bd ab 97 e5 3a a2 ec d4 3d
       -0.051983494 -0.03597173 0.0017516514 0.103966966
0002b0 8f a9 b0 3d 57 80 0f be de 99 09 be 09 74 d5 3d
       0.08626091 -0.14013802 -0.13437602 0.104225226
0002c0 99 38 12 3d 39 d0 2a bb 1c 54 ec bd ed 69 03 be
       0.035698507 -0.0026064052 -0.1153948 -0.12833376
0002d0 04 ce f6 3c 05 2c 79 bd 76 ba 31 3d 7f d5 20 be
       0.030127533 -0.060832996 0.043390714 -0.15706442
0002e0 cb 8f 26 3d bf 89 66 3c 0e 22 de 3d 0c 85 a2 bd
       0.040664475 0.014070927 0.10846339 -0.07935533
0002f0 76 55 4d 3d aa 12 cb 3d 6d 8a e4 bd 1a d4 3e bd
       0.05013033 0.09915669 -0.11159215 -0.046588995
000300 e7 3c 3e bb 01 8f 53 bd 7c 5f 17 bd 02 da e5 bd
       -0.0029028 -0.05165005 -0.036956295 -0.11223222
000310 fe 7d eb bc 80 aa 28 3d 56 d5 22 3c 1b 19 b5 bd
       -0.028746601 0.041178226 0.009938559 -0.08842679
000320 82 00 55 3c f4 e2 55 3d ee f2 8a 3d 30 db d3 3d
       0.013000609 0.052218392 0.067846164 0.10344541
000330 2c 52 b2 3d 1b d5 0c 3e 9d aa 79 3c 89 c6 ee bb
       0.08707079 0.13753168 0.015238431 -0.007286851
000340 7a 44 2f 3b e7 24 f6 3c c0 f3 c3 3d e4 72 73 3d
       0.0026743696 0.030046893 0.09567976 0.05943574
000350 b7 27 05 3d fc ea b8 bd 28 a1 15 3e ea 29 2f bd
       0.03250858 -0.09029195 0.14612257 -0.04276458
000360 be bd 7b 3c e2 7e b1 bd ed 23 7e bd 0e 23 2f 3d
       0.015365062 -0.08666779 -0.06204598 0.04275804
000370 cb 93 ca 3d 8d b1 91 3d 9e 7e 56 3d eb e1 b7 bb
       0.098914705 0.07113943 0.052366845 -0.0056116483
000380 d7 14 6f bd 0b 7a 95 3d 2e 8c e4 3d 90 89 b2 3d
       -0.058369484 0.072986685 0.1115955 0.08717644
000390 a7 f2 a9 3d 73 d3 cd 3a 45 43 83 bd 28 d3 23 3d
       0.082982354 0.0015703276 -0.06409315 0.039996296
0003a0 02 13 12 3d 00 da 9e bc b8 2b 35 bd 3d ac b7 bc
       0.03566266 -0.01939106 -0.044231147 -0.022420997
0003b0 cd f0 58 3d e3 b1 29 3d 0f fc f2 bd 6f f8 34 3c
       0.05296402 0.04142941 -0.118644826 0.011045559
0003c0 22 b6 ba bc 5a 47 c1 3c 35 55 93 3d bc a5 26 bb
       -0.022791926 0.023593593 0.07193986 -0.0025428375
0003d0 0e 0a 2b 3d bd e9 97 3c 88 b4 73 3d 29 6b 8d 3c
       0.041757636 0.018544072 0.05949834 0.017263012
0003e0 8b 21 26 bd 3a 49 47 bd 54 9f e4 3d a1 ac 19 be
       -0.040559333 -0.04865382 0.11163202 -0.15007259
0003f0 e7 05 9d bd 96 71 6e 3d 57 a6 47 3d 47 07 3d bd
       -0.076671414 0.058213793 0.04874262 -0.04614952

t_model.t_model.2.bias f4 [64]
000000 47 0c 2a be 95 34 9d bc 7a 70 20 3e 6a 92 4a 3c
       -0.16606246 -0.019190112 0.15667906 0.012364009
000010 80 e1 3a 3d be 5a 1c 3e 19 bd e9 3d ed 24 43 3e
       0.04562521 0.1526899 0.11413021 0.19057055
000020 94 00 25 bd af e4 0a 3d 50 f5 8f bc 62 58 f2 3d
       -0.040283754 0.033909496 -0.017573029 0.11833264
000030 5e ac e1 bd e7 18 c6 3c b1 cc ba 3d 9e e1 43 3e
       -0.110192046 0.024181796 0.09121073 0.19129035
000040 e4 cb 0c 3e 2b 75 e8 bd 3c 8c 3f bd 3a 31 58 bd
       0.13749653 -0.11350473 -0.046764597 -0.05278132
000050 cd 9b 1b 3d e4 64 05 3d 3c d0 d1 3d db 09 5e bd
       0.03799038 0.03256692 0.10244796 -0.054208618
000060 6e 23 11 3e 00 4a 13 be 0c 1e 2c be 03 58 f7 3d
       0.14173672 -0.14383698 -0.16808337 0.12077334
000070 f3 10 2a 3e ec 37 3f 3e 9d 44 b2 3d 43 b4 f3 3d
       0.16608028 0.18673676 0.08704493 0.118996166
000080 c7 39 fa 3c 64 0e f8 bd 94 35 91 3e d3 d7 0e 3d
       0.030545129 -0.1211212 0.2836119 0.034873795
000090 6e 0a f4 3d 83 5d c1 3d 8d 8e 6b 3d 0d ef 03 3e
       0.11916052 0.09441664 0.057508994 0.1288416
0000a0 e4 af 90 bd 4b 93 0c 3d b1 b8 31 3e 06 a1 4f 3e
       -0.070647985 0.034320157 0.1735561 0.2027627
0000b0 e4 79 32 3e d5 1e 10 3e ce 4f 69 3e 01 d9 21 3e
       0.1742931 0.14074261 0.2278435 0.15805437
0000c0 26 22 dc 3d c9 94 45 3e 2e 8c 80 3d d5 cb 12 3e
       0.10748701 0.19295038 0.06276737 0.14335568
0000d0 8f 32 2e 3e bb 5f 55 bd c6 87 bd 3d 23 9b 96 3d
       0.17011474 -0.05209325 0.09254412 0.07353809
0000e0 ea f1 4a 3e 32 4c 64 3d 0a 52 0d 3e ae 73 97 3e
       0.19818845 0.055736728 0.13800827 0.29580444
0000f0 b0 13 5b 3e 5e a7 5c 3e eb e6 8d 3e 64 65 11 3e
       0.21394229 0.2154822 0.2771524 0.14198834

s_model.x_model.weight f4 [64, 32]
000000 f5 68 b8 bc 7e 60 e5 bd b1 32 2f 3d 1f 53 be bc
       -0.022510985 -0.11200045 0.042772952 -0.023232995
000010 59 84 b3 3c ed b7 51 3d 9d 29 32 be fc f6 01 bd
       0.021913694 0.051200796 -0.17398687 -0.031729683
000020 af f9 5d bc 33 d1 c6 3c 3b 7a a7 bd 94 2e 2b bd
       -0.013548299 0.024269676 -0.081776105 -0.041792467
000030 f3 b2 fb bd 26 cd 13 bd 69 0f b7 3d c4 64 46 3c
       -0.12289991 -0.036084317 0.08938486 0.012108985
000040 ef 6b 41 be 4a 11 84 3d aa 99 9d bc 29 7b 67 3d
       -0.1888883 0.0644861 -0.019238312 0.05651394
000050 b9 a5 04 bf ac 50 f5 bc f9 7b 2e be 0b 03 a8 3c
       -0.5181537 -0.029945694 -0.1703948 0.020509264
000060 92 c5 a4 bc 0f 89 34 bc 7a d6 52 bd b7 eb 0d bd
       -0.02011374 -0.011019005 -0.051474072 -0.034648623
000070 2a db bb 3d eb 3f cb 3c e0 d5 f6 3c a0 da 8a 3d
       0.091726616 0.024810752 0.03013128 0.06779981
000080 ad 3f 0e 3e 73 0f b7 39 08 a2 70 be 51 cc 1c bb
       0.13891478 0.0003491599 -0.2349931 -0.0023925493
000090 ce a1 93 3d d9 d7 95 bb bb 80 2a 3e 8a de 91 3c
       0.07208596 -0.00457285 0.1665067 0.01780631
0000a0 ba 15 13 bd f4 60 3c 3d 66 d5 b6 3e f9 a9 cc bc
       -0.035909392 0.0459909 0.35709685 -0.024983393
0000b0 8b 25 07 be 47 21 bd bc 8d 32 e1 3c 44 bf 7c 3c
       -0.13197915 -0.023087157 0.027489925 0.015426461
0000c0 d5 04 60 3d fd 7d f7 ba eb a1 0c 3e d6 80 12 3d
       0.05469211 -0.0018882152 0.13733642 0.0357674
0000d0 9b 7a 24 3e a8 9a fa bc 7c df ee bd 41 c6 92 3c
       0.16062395 -0.030591324 -0.1166372 0.0179168
0000e0 19 52 42 3e 7b 6f 3a 3c eb 14 04 3e d4 ca 1b bd
       0.1897663 0.011379118 0.12898605 -0.03803523
0000f0 55 a4 29 3e f1 8d 90 3c c7 71 77 bf 60 c7 3c bd
       0.16566594 0.017645808 -0.96657985 -0.046088576
000100 b1 0b 82 3e 61 ef 16 bb ca 6c 07 bf 18 09 47 bd
       0.25399545 -0.0023030865 -0.52900374 -0.048592657
000110 60 cb 63 bd 7c d4 95 bc 1e 18 82 3b 70 2e 02 bc
       -0.055613875 -0.018289797 0.00397016 -0.007945642
000120 e6 8c bc 3d bd ba c6 bc cc 8c 40 3e 15 9c 0d bb
       0.09206562 -0.024258966 0.1880371 -0.0021607925
000130 95 3f 82 3e 9e df 22 bc 79 65 9f 3c ca ce 33 3b
       0.25439134 -0.00994101 0.019457566 0.0027436488
000140 66 1a ff 3d 51 03 56 3c 7d 3b 92 bd 17 5b 5c bc
       0.12456207 0.013062314 -0.07140253 -0.013449452
000150 99 9d af 3d 78 70 11 3c b8 4c c6 bd ac e3 49 bd
       0.08574981 0.008876912 -0.09682602 -0.04928939
000160 5d 27 40 bf 0e 9e 10 bd 29 c0 6a 3d 32 0b 29 3d
       -0.75060064 -0.035306983 0.057312164 0.041270442
000170 c4 cd 7e bd 17 0e 11 bd bf 03 04 3e b8 25 8e 3c
       -0.062207952 -0.035413828 0.12892054 0.01735197
000180 22 08 a6 be 81 2c f3 3a 85 c0 da 3e 83 59 30 ba
       -0.3242808 0.0018552692 0.42725006 -0.00067272055
000190 b3 4a 68 3d 22 7f 17 bd 35 c3 99 3e 7d a4 2f 3d
       0.056711864 -0.036986478 0.30031744 0.042881478
0001a0 6c bb be 3c 3f ae 9f bc 02 9b 56 3d b6 cb 8a bd
       0.02328273 -0.019492267 0.05239392 -0.06777136
0001b0 fe a3 df bd 6f 27 e2 bc db f6 70 3e 71 6d f5 bc
       -0.10919951 -0.027606694 0.23531668 -0.029959412
0001c0 39 88 7e 3e 9f 4c bc bc f1 a1 89 3e c0 32 a1 bb
       0.24856652 -0.022985755 0.26881364 -0.00491938
0001d0 1b c9 db 3d 18 b3 a9 3b d0 73 29 3e 61 e4 90 3c
       0.10731717 0.0051788203 0.16548085 0.017687025
0001e0 ed 6f e0 be f9 42 3b bd 85 7a 89 bd 1e d7 13 3d
       -0.43835393 -0.045718167 -0.06712822 0.036093824
0001f0 a7 ff 40 bd 8b 8c 64 3c a1 4d 0c bd b7 b4 bc 3b
       -0.04711881 0.013949524 -0.03425372 0.0057588476
000200 f1 77 5e 3e ed d8 aa 3c d8 5b 93 3e 1d 17 d4 bc
       0.21725442 0.020855391 0.2878101 -0.025889928
000210 3e d4 5b 3e f9 93 f6 3c 44 2f 62 be d7 3a ba 3a
       0.21467683 0.030099856 -0.22088343 0.001420821
000220 6d 7d 42 be 47 56 04 3d 1a 88 db 3e cd 02 84 bb
       -0.18993159 0.032308843 0.42877275 -0.004028654
000230 20 99 17 3e a1 17 fd 3b 3b 4e 56 3e f3 97 3d bd
       0.14804506 0.007723764 0.2092828 -0.04628749
000240 98 81 cd bc 9d 58 08 3d fe 36 6b bf 63 45 b1 bb
       -0.02508621 0.033287633 -0.91880786 -0.005409883
000250 26 78 fe bc 8b d5 af bc fd 66 29 3e 1b 54 37 3b
       -0.03106315 -0.02146413 0.16543193 0.0027973715
000260 7e c2 41 be 4b d0 65 3d ed 6e 86 be 25 97 1b 3b
       -0.18921849 0.056106847 -0.26256505 0.0023741212
000270 7d f8 11 3d d4 aa ab 3c 2d fa a2 3d a3 56 0a bd
       0.035637368 0.02095548 0.079578735 -0.03377403
000280 59 7d b9 bd 50 b2 8e 3c c9 d4 43 bd 46 32 ce 3b
       -0.09057111 0.01741901 -0.04781035 0.006292614
000290 84 c5 19 bd 44 13 37 3d 1d 76 90 3d 1e 18 c4 3c
       -0.03754188 0.044696108 0.07053778 0.023937281
0002a0 85 6b ac be 3e fa b0 3d 03 88 1f 3e 20 15 7c bc
       -0.3367578 0.0864148 0.15579228 -0.015385896
0002b0 cc 9a ab 3c 94 69 e4 bc 73 8d fe 3d 15 28 54 bc
       0.020947836 -0.027882375 0.12429323 -0.012949009
0002c0 dd 6a d1 3d 43 02 16 3d ea 0c 78 3d 0e b0 e8 3b
       0.10225461 0.03662325 0.06055919 0.0071010655
0002d0 92 a0 5e 3c 2c 49 98 bb 3e 81 e4 bb 67 4b d0 3d
       0.013588088 -0.0046473946 -0.0069734147 0.10170632
0002e0 a6 60 52 bc 29 78 d8 bc 57 03 bc bd 11 3a 00 3b
       -0.012840426 -0.026424484 -0.091803245 0.001956586
0002f0 cc f9 c3 3b e8 80 13 bd cd 4e 37 be 9f c7 ac 3d
       0.005980706 -0.036011606 -0.17901154 0.08436512
000300 65 8a c4 be eb e5 57 3c 88 38 86 3c 0a e7 4a 3a
       -0.38386837 0.013177375 0.016384378 0.0007740116
000310 c9 00 c7 3d a7 07 4e bb 82 88 01 be 7e 4b e5 bb
       0.09716947 -0.0031437667 -0.1264973 -0.0069975248
000320 24 fb c3 3d be bb 5b bd 4d 6d 28 3e 68 b4 0f bc
       0.09569386 -0.05364584 0.16447945 -0.00877104
000330 49 c2 9b bd 5e ca 8a bd 19 9c 5d bd 9f 6a e2 bc
       -0.07605416 -0.0677688 -0.054103944 -0.027638732
000340 85 54 03 3e dc ab 46 bd bc 4a 31 be 05 e9 35 bc
       0.1282521 -0.04850374 -0.17313665 -0.0111029195
000350 f1 a4 d5 3d ab 8d 97 3c 70 ba c8 3d 52 66 f7 bb
       0.10431851 0.01850017 0.09801185 -0.0075500393
000360 e4 de 9a 3d fc e8 72 3b ff b9 12 3e 89 10 50 bd
       0.07562044 0.003706514 0.14328764 -0.05079702
000370 a0 50 83 3d 18 f1 68 3b 90 48 b7 3e ed 74 8b bd
       0.064118624 0.0035544094 0.35797548 -0.06809411
000380 7b 2e 8e 3d 77 30 9a 3c ef f2 01 be b9 de 3c bd
       0.06942459 0.018821938 -0.12690328 -0.046110842
000390 8f 7d ee 3e cb 60 7a 3d 3a 1b 1b bd dd 64 63 3c
       0.4658017 0.061127465 -0.037867762 0.013879028
0003a0 f5 60 cd 3d f5 e9 e1 bc 49 2b 4d be 38 a1 32 3d
       0.10028259 -0.02757738 -0.20036043 0.04361078
0003b0 18 00 96 be 50 07 d0 ba 0f 64 a8 3d d4 93 d0 3c
       -0.29296947 -0.001587132 0.0822221 0.025461115
0003c0 b9 63 14 bd 0f 3f 0f 3d 0f f9 96 3e ab 83 1d 3d
       -0.036227915 0.034972247 0.29486892 0.038455646
0003d0 6a 7a 96 3e 12 d1 74 3d f1 43 89 3e 24 c6 4e bd
       0.2939027 0.059769697 0.26809648 -0.05048193
0003e0 6b 40 0f be 82 be f8 bc f4 9b 30 3e f7 8d 1a bd
       -0.13989417 -0.030364279 0.17246991 -0.037733044
0003f0 2b 00 61 3d ef 5e 6c bd 35 96 68 bd f1 7e 27 3d
       0.0549318 -0.057707723 -0.056783874 0.040892545

s_model.x_model.bias f4 [64]
000000 14 9f 80 bd 9f 16 1d 3e 94 76 b6 3c ea 92 80 bc
       -0.06280342 0.1534066 0.02227334 -0.015695054
000010 9f 02 9b 3e ff f4 34 3e 17 fc f4 3d 5f f0 78 3e
       0.30275437 0.17671584 0.11962145 0.24310444
000020 7a d0 95 3d 15 46 26 3e d2 24 a4 3d bf 80 55 3e
       0.073151544 0.16237672 0.080148354 0.20849894
000030 d9 0c 0a be c1 33 7d bd 0a 43 41 3e 8c 17 34 3d
       -0.13481463 -0.061816934 0.1887323 0.04396777
000040 1d 32 86 3d cd 68 fa bc 3c 4d 0d 3e 15 28 d3 bd
       0.06552527 -0.030567551 0.13798994 -0.103103794
000050 1a ea a3 bc c6 50 4f 3c fd 1c 3e 3e c2 2a b2 3d
       -0.02000909 0.012653535 0.18565746 0.08699562
000060 e4 0b a6 3e 22 6f 05 bd 59 cc e5 bd 22 8a 02 bd
       0.32430947 -0.032576688 -0.11220617 -0.031870015
000070 8d a7 24 3e c2 95 98 3e c2 05 03 3e 4a 28 12 3e
       0.1607954 0.29801756 0.12795165 0.14273182
000080 87 4d 55 3c 49 c4 b3 3d 8e ed 1f 3e 22 3d 64 3e
       0.013018972 0.08777673 0.15617964 0.22288945
000090 48 79 1c 3e 22 2e 8e bd 1e 4d 0a 3e 43 d2 4a 3e
       0.1528064 -0.06942393 0.1350598 0.19806771
0000a0 56 8b 1d 3e 60 46 b9 3d f9 bb 39 bd a9 8f 15 3e
       0.15385184 0.09046626 -0.04534528 0.14605583
0000b0 a1 17 5e 3e 5b 3f 14 3e 58 26 6e 3e 06 fe ce 3d
       0.21688701 0.14477293 0.23256814 0.10107045
0000c0 28 fb 00 3e 40 21 8c 3e 09 03 15 3d 4f 80 59 3e
       0.12595809 0.27369118 0.036379848 0.21240352
0000d0 29 7b 60 bc 17 0e 0f be 57 02 60 bd 47 31 4d 3e
       -0.013701239 -0.13970219 -0.05468973 0.20038329
0000e0 83 6c 57 3e 84 78 de 3c cf 61 17 bd 48 11 33 3e
       0.21037488 0.027157076 -0.036958512 0.17487061
0000f0 bb dc b2 3b 64 c5 46 3e ba d0 43 3e b5 6f 01 3e
       0.005458442 0.19411236 0.19122592 0.12640269

joint_model.model.1.0.weight f4 [64, 64]
000000 1e 14 21 3e 61 37 80 bd 34 56 b7 bd 1c dc a6 be
       0.1573033 -0.06260563 -0.08951989 -0.32589805
000010 55 45 5d 3c d1 04 6d bd 12 04 af bc 79 be a3 bc
       0.0135053 -0.05786592 -0.021364246 -0.019988285
000020 2f 7d 41 be 2d c7 4b 3e 50 c0 3a bd 6f e2 90 be
       -0.1889541 0.19900198 -0.04559356 -0.28297755
000030 db 4e 3d bd 73 49 c4 3e e1 dd 8f bc 8b 15 b7 bd
       -0.04621778 0.38337287 -0.017561855 -0.08939656
000040 0a 76 cf ba 5c 52 fd bd f8 59 ae bc bc 03 9c 3e
       -0.0015828025 -0.123692244 -0.021283135 0.304716
000050 a0 1e 92 3d ab 1a 9b 3d 01 ec 84 bb 88 72 c1 3d
       0.071347475 0.07573446 -0.004056454 0.09445673
000060 3f 76 d0 3d 79 7d 99 3d 0c 9f 51 bd a5 ec f8 be
       0.10178804 0.07494635 -0.05117707 -0.48618045
000070 70 75 17 be cf 22 e1 3d cd d7 b8 3e 11 15 39 bc
       -0.14790893 0.10992967 0.36102143 -0.0112965265
000080 b4 5d 56 be 38 5a 88 bc 46 24 0d be bc 4e 53 3d
       -0.20934182 -0.016644582 -0.13783368 0.05158876
000090 e7 ec 4c be 49 1e 82 be a1 40 a4 be 6b 90 14 3e
       -0.20012246 -0.2541373 -0.32080558 0.14508216
0000a0 8a 92 8a 3e ed ef b9 3e d7 b4 e1 3d 56 d7 e5 3e
       0.27064925 0.3631586 0.110208206 0.4489085
0000b0 f2 f4 81 bd 3c 04 ad 3e 39 8d 96 be d8 ce cc 3d
       -0.06345548 0.33792293 -0.2940462 0.1000039
0000c0 67 a4 99 be b8 fc b1 3c ca 83 28 be 27 7b ef 3d
       -0.30008242 0.021726951 -0.16456524 0.11693411
0000d0 bb 57 59 be ab ea fa bb 92 02 3b 3f e4 7d f3 bd
       -0.21224873 -0.007657369 0.73050797 -0.11889246
0000e0 83 45 c0 bd 3b 55 bd be 02 b1 c2 be 58 8d 10 3c
       -0.09388258 -0.36979088 -0.3802567 0.0088227615
0000f0 0c 67 32 3e 94 01 7d be 5b 99 04 3e 8a c1 71 bc
       0.17422122 -0.24707633 0.12949125 -0.014755616
000100 7d aa a4 3d de 6e 27 3e c4 92 28 3d 6f 24 2a 3e
       0.080403306 0.16350886 0.04115559 0.16615461
000110 1b 74 09 3e ac 6c e5 3d 91 ae a3 3d e8 c8 cc 3d
       0.13423197 0.11202368 0.0799228 0.09999257
000120 20 5c 49 3e 1a c1 be 3d 67 02 86 b8 f4 98 f6 3c
       0.19664049 0.09314175 -6.3900654e-05 0.03010223
000130 d2 66 87 bc 75 7d f3 bc bc 2f 9c bc 59 53 8b bc
       -0.01652852 -0.029722909 -0.01906573 -0.017007517
000140 63 a6 02 3e fe 46 37 bd 84 38 87 ba ac 32 84 3d
       0.12758784 -0.044745438 -0.0010316526 0.064549774
000150 64 8b c3 3d cf 8c d2 bd 09 f3 86 3b b6 7e 18 3d
       0.09548071 -0.10280763 0.0041183275 0.037230216
000160 6f 90 39 3d 4b 30 28 be 4f c5 43 3e 6e 3f 3f bd
       0.04530376 -0.16424672 0.19118236 -0.04669135
000170 0c 75 34 bc 4f de a5 3d f7 89 d3 3d 64 2b e5 3d
       -0.011014234 0.080990426 0.10329049 0.11189917
000180 d9 57 ba bc 3e 38 a2 be 5d 34 ee be d1 d8 32 3b
       -0.022746967 -0.31683534 -0.46524325 0.0027289877
000190 fe 11 b5 bc 2c f6 90 bc 2e e7 ae ba d6 a9 96 3d
       -0.022103306 -0.017695509 -0.0013344043 0.073566124
0001a0 8c e1 f2 bd 7f 9d 24 bd 0e 30 b4 bc 59 a7 28 be
       -0.11859426 -0.040189262 -0.02199557 -0.16470088
0001b0 26 9b 84 bd 44 2c 5a bd 76 5b 41 bb 79 0d f2 3d
       -0.06474905 -0.05326487 -0.0029503978 0.11818976
0001c0 61 90 09 3d be 8e 0d 3e 44 9d 49 be f4 c1 10 3e
       0.033584956 0.13823983 -0.19688898 0.14136487
0001d0 eb c6 86 be 56 4d 07 be 2d a7 5e bc e4 a9 c0 bd
       -0.26323637 -0.13213095 -0.0135896625 -0.09407404
0001e0 f0 a2 74 3d e4 81 b0 3d f2 d9 8f 3d 78 ad 1c 3e
       0.0597257 0.08618525 0.07023992 0.15300548
0001f0 6e 2b 82 3e a6 77 0f be 47 40 72 3e 57 a4 49 3e
       0.2542376 -0.14010486 0.23657332 0.19691597
000200 1c 57 51 3d 80 cb 09 3d 27 71 8e 3d 94 b9 ad bd
       0.051108465 0.03364134 0.06955176 -0.08482662
000210 1c 3c 0e be cb a6 0a bd 27 84 2e be ba d5 13 3d
       -0.13890117 -0.033850472 -0.170426 0.036092497
000220 cc c1 0b bd bd 9e 89 bd b0 73 4a be 65 89 9f bd
       -0.034120366 -0.0671973 -0.19770694 -0.07789878
000230 5b dd d6 bd 1b 5e dd bd a8 ed 8d 3c 1f 79 97 bd
       -0.10491439 -0.10808965 0.017325237 -0.07396149
000240 2f 7d ca 3d 20 e0 34 be d4 51 00 3d 2c f5 0b be
       0.09887158 -0.17663622 0.031328037 -0.13667744
000250 51 d3 dc 3d 5e 4b b7 3d a0 0e 8a bd bf 61 2d be
       0.10782493 0.08949922 -0.06741071 -0.16931818
000260 ad 14 e8 3b 9e 30 09 be dc 55 65 be 79 df a0 bd
       0.007082543 -0.13397452 -0.22396034 -0.07855124
000270 95 91 60 3b 2d bc b4 3d 3d b5 95 bd ec 8c 75 bd
       0.003426646 0.08824954 -0.07309959 -0.059948847
000280 04 43 43 bd e8 5e e0 bd 92 d7 35 3d f5 60 fc 3b
       -0.047671333 -0.10955602 0.044395037 0.007701988
000290 40 cf e0 3d 21 6c 1e be 65 ec 71 3d 38 b8 d4 3c
       0.1097703 -0.15470935 0.059063334 0.025966749
0002a0 26 cc 8c 3d 08 80 7e bd 78 62 e4 bd 9a 76 2a 3b
       0.06874876 -0.06213382 -0.11151594 0.0026010633
0002b0 34 89 86 bd 91 68 04 3e dc a5 d0 bc e8 9a 9a 3d
       -0.06569138 0.12930514 -0.025469713 0.07549077
0002c0 e9 fb 98 bd 95 12 d8 3c 17 02 76 bd bf 93 06 3d
       -0.07469923 0.026376048 -0.060060587 0.032855745
0002d0 24 56 33 3d 29 9e d3 3d 5d 14 bc bd 16 60 95 3d
       0.043783322 0.10332901 -0.091835715 0.072937176
0002e0 cc 3f 91 3d 29 d0 9b 3b 03 53 d1 bb bc 9c 45 3d
       0.070922464 0.0047550392 -0.0063880696 0.048245177
0002f0 94 af 28 3d 1a 73 02 be a3 96 86 3d e5 ae a8 bd
       0.04118307 -0.1273922 0.065717004 -0.082364835
000300 59 68 22 3d cf b1 95 3d 4e 50 b2 be 19 6d 7d 3e
       0.039650295 0.07309305 -0.34826893 0.24748649
000310 a0 53 34 be d6 74 a7 3d 77 df 78 3d 1a 1a c8 3d
       -0.17610025 0.081765816 0.060759988 0.097706035
000320 a0 85 5f 3e c5 53 aa bd da 94 c4 3e 82 35 f6 3c
       0.21828318 -0.08316759 0.38394815 0.030054811
000330 5c 5c 8b bd 89 99 c3 bd 1c 5c 4d 3d 7e df 69 3c
       -0.068047255 -0.09550769 0.05013667 0.014274476
000340 65 c3 24 3e 3c f2 1b bd de 47 fd 3d b2 c8 1d 3e
       0.16090162 -0.03807281 0.12367223 0.1540859
000350 38 34 d7 bd 3b 7a dc bd 51 83 d8 bd 92 41 1a be
       -0.10508007 -0.10765501 -0.105719216 -0.15064076
000360 11 c3 b0 bd 3d 10 eb 3c f6 b3 50 3e 4d fb 91 3d
       -0.08630956 0.028694266 0.2038115 0.0712801
000370 bf 0e a5 3e b6 64 81 be 35 e9 5e 3e e6 7f 6c 3e
       0.32237813 -0.2527215 0.21768649 0.23095664
000380 d7 8b bf bd ff d7 79 3e 21 95 18 3e 7a 7c a3 3d
       -0.09352844 0.24398802 0.14900638 0.079827264
000390 37 13 29 3e 59 f8 aa bd ba 81 8f bd 9d 95 f8 3b
       0.16511236 -0.0834815 -0.07007165 0.0075861947
0003a0 6f 98 1b 3e a6 d6 30 be 29 ff b5 bd 16 28 83 3e
       0.15194868 -0.17269382 -0.088865586 0.2561652
0003b0 75 f3 27 be eb 1c 50 3e aa fc f3 3d bd 3e bc 3e
       -0.16401465 0.20323531 0.11913426 0.36766616
0003c0 d6 03 00 3e c2 81 6a be 2e b4 87 3c 1a 5c 2c bd
       0.12501463 -0.22901061 0.016565409 -0.042080022
0003d0 1a e0 34 3e ce 51 5d be 9e 48 43 3e d2 bf 4a 3d
       0.17663613 -0.21613237 0.1907067 0.04949934
0003e0 71 a3 2e 3d af fe 0d be 55 78 5a 3d f5 bc 0e be
       0.04263634 -0.13866685 0.053337414 -0.13939269
0003f0 2b 1f 00 3e a3 15 40 3e 3a 23 70 3e a5 64 ea 3b
       0.1251189 0.18758254 0.23450938 0.007153111

joint_model.model.1.0.bias f4 [64]
000000 c1 4c 20 3d c3 28 32 3e c0 12 d6 bd 5e ae b2 3c
       0.0391357 0.17398362 -0.10452795 0.02181166
000010 2f 5d 1f 3e 2b fc 0c 3e 79 c5 46 bd 21 fb 19 3e
       0.1556289 0.1376807 -0.04852817 0.15037204
000020 cf f4 52 3d 30 3a 6d 3e 58 46 9c bd 12 d9 3e 3e
       0.051503 0.23166728 -0.076306045 0.18637493
000030 a2 72 42 3e c5 34 06 be b6 fa 45 3c 77 78 2f 3d
       0.18989041 -0.13106067 0.0120837 0.042839494
000040 f7 32 68 bb 6f 07 57 bc 03 b8 f6 3d 59 b9 10 3d
       -0.0035430768 -0.013124331 0.12046816 0.03533301
000050 72 6e 7e bd f6 39 0c 3e e0 c3 d3 bd 6e 60 e6 3d
       -0.062117048 0.13693985 -0.103400946 0.11248861
000060 ce 44 fd bd 97 7d 7c 3e e5 0c 04 be 24 73 0b be
       -0.12366639 0.24657284 -0.12895544 -0.13618141
000070 30 e1 db 3d f2 aa 7f 3d b0 29 14 3d 83 5e 10 bd
       0.107363105 0.062418886 0.03617257 -0.035246383
000080 cb 4f 99 3d c1 2b 3f be 4a 85 d2 bd 55 e1 4c 3e
       0.074859224 -0.18669035 -0.10279329 0.20007832
000090 f3 d7 a6 3d 61 a6 b8 3c 49 d6 21 3d bd bb 01 3e
       0.08146658 0.022540273 0.039511 0.12669273
0000a0 88 6a b5 3c bf cd 00 3e de 20 62 bd 64 6b ee 3d
       0.022145525 0.12578486 -0.055207126 0.11641577
0000b0 c0 fa 97 bd c0 e5 35 be 74 c3 dc 3d dc 89 d5 3c
       -0.07420874 -0.17763424 0.10779467 0.026066713
0000c0 b8 7d 2c be 82 0e 08 be 03 67 5b bd 88 1f 8f be
       -0.16844833 -0.13286784 -0.053565037 -0.27953744
0000d0 46 ad 25 be a9 6c 27 3e b3 8b d2 bd bf df 16 be
       -0.1617938 0.16350044 -0.10280552 -0.1473379
0000e0 84 1c 01 3e fe 5a 4c be 29 12 b8 3d bf 6b e4 bd
       0.12608534 -0.19956586 0.08987839 -0.111533634
0000f0 5f aa 11 3d 86 b7 f5 3d 61 80 4a be 8d ac 0e 3e
       0.03556287 0.11997895 -0.19775535 0.1393301

joint_model.model.2.0.weight f4 [64, 64]
000000 ea 50 ec 3c e9 35 d9 3c 08 d1 0b be 10 65 cd 3d
       0.028847177 0.026514964 -0.13653958 0.10029042
000010 8e 9c 6c bd 06 be 41 bd 6a a0 4d 3d 90 88 82 3d
       -0.05776649 -0.04730036 0.05020181 0.063737035
000020 09 25 29 3c cf f0 c3 3c bc 53 c8 3d b5 77 34 3e
       0.010323771 0.023918537 0.09781596 0.1762379
000030 9c 23 39 3d 76 fd f4 bd 53 33 f3 ba 20 82 c7 3d
       0.045199975 -0.11962406 -0.0018554725 0.09741616
000040 dd b9 16 be 24 9a b2 bd f9 9f 01 bd 4c ef b3 bd
       -0.14719339 -0.08720806 -0.031646702 -0.08785877
000050 14 19 e7 3d 35 ee 22 be 12 9b 80 3d b6 9e f2 bc
       0.1128408 -0.15911181 0.06279577 -0.029616695
000060 e3 e6 78 bc b3 03 2e 3e f1 87 e6 bd 31 ec 19 3e
       -0.015191766 0.16993599 -0.112563975 0.15031506
000070 45 af ed bd 96 49 3e 3d 02 3b 01 3e 3a 5d ec 3c
       -0.11605696 0.046456896 0.12620166 0.028853048
000080 99 c7 a8 bd 28 d9 27 be 9c fb 0e bc 31 a8 a0 3c
       -0.08241195 -0.16391432 -0.008726981 0.01961145
000090 d0 65 0d 3a 35 d1 71 be 41 9a b7 bd cb 9b 8a bd
       0.00053938944 -0.23614962 -0.089649685 -0.067679964
0000a0 89 cc cb 3d 3e 34 d2 3d d2 7a 16 be 7e e1 1b 3c
       0.09951121 0.10263871 -0.1469529 0.009514211
0000b0 04 d2 6f be 15 b4 1d 3e ae 87 78 3d a9 16 1f bc
       -0.23419958 0.15400727 0.06067627 -0.009709992
0000c0 de a9 7b bc a2 82 da bd 7f 48 90 bf 06 0f b6 bd
       -0.015360324 -0.106694475 -1.1272124 -0.08889584
0000d0 76 2d 55 3d 14 dc 56 3c ec e6 52 bf 55 a4 48 be
       0.052045308 0.013113994 -0.8238361 -0.19593938
0000e0 a4 63 b6 3b a5 28 03 bd 4e d1 e4 3d 46 d7 33 bd
       0.0055660773 -0.032021184 0.11172734 -0.043906473
0000f0 df 6f a9 3d fa 40 08 3e 3d 45 2d bd 3e dc e1 3c
       0.08273291 0.13306037 -0.04230236 0.02757084
000100 18 d0 7c bd 2f 6c bb bd 12 9e 4d 3d 0c bd 8f bc
       -0.06172189 -0.09151494 0.050199576 -0.0175462
000110 f2 7a a1 3d d7 7a d9 3c d6 dc 15 bd f4 c8 ad 3e
       0.07884778 0.026547832 -0.03658756 0.33942378
000120 13 75 20 bd 2d 01 1f bd 72 f9 bf 3d ea 0b d1 bc
       -0.03917415 -0.03881948 0.0937375 -0.025518376
000130 c0 a0 6d 3d bc 03 90 bd 25 48 97 3c c2 ae 65 3e
       0.05801463 -0.07031962 0.018467018 0.22429946
000140 70 03 9a 3c a0 8e ad 3b 28 37 b6 bc ba 02 a2 bd
       0.018800467 0.0052965432 -0.022243097 -0.07910676
000150 17 b4 02 bc 5c 8a b6 3c d2 fa 2b 3d e2 4b 1f be
       -0.007977507 0.022282772 0.041987248 -0.15556291
000160 c1 90 fe bf e7 db 04 3e b1 b3 80 3d 9c 41 0d be
       -1.9887925 0.12974511 0.062842734 -0.13794559
000170 46 b9 e1 3c 8f c1 b3 3b b1 ec 44 bd d2 98 21 3e
       0.027554166 0.0054857205 -0.04807729 0.15780953
000180 2c 58 c2 bd 04 43 1d bd 00 dc 15 3e c0 51 f0 bc
       -0.09489474 -0.03839399 0.14634705 -0.029335856
000190 a3 71 06 3d 17 e7 06 be 40 26 16 3e 05 ed 8d bd
       0.032823216 -0.13174091 0.14663029 -0.069299735
0001a0 47 8f 34 be 27 3c 0c bd 75 1d 84 3d 62 f4 90 bd
       -0.17632781 -0.034237053 0.06450931 -0.07077862
0001b0 cc e1 41 be 42 d6 f1 3d e3 44 38 bd b1 1e ad bd
       -0.18933791 0.118084446 -0.04498757 -0.084531195
0001c0 1a c3 41 3d f4 25 e3 bc 50 67 3e bd 2e 01 b8 bc
       0.047305204 -0.027728058 -0.046485245 -0.0224615
0001d0 c2 7a 9a bd 54 5e ab 3d c5 53 dc 3b 28 2c 81 3d
       -0.075429454 0.08367601 0.0067238533 0.0630725
0001e0 2a fc a0 3d 10 67 7c 3c bd dc 8c be 9f 4c e5 3d
       0.078605965 0.015405431 -0.2751216 0.11196255
0001f0 26 28 fd bd a9 c3 85 3e f7 fc 6f bd 6b 1e 9d 3a
       -0.12361173 0.2612584 -0.058590855 0.0011987215
000200 49 b0 2f bd 72 87 a4 3d 7e d3 b0 3d 3b 61 5a 3c
       -0.042892728 0.08033647 0.08634089 0.013328846
000210 c3 46 75 3e f7 c1 4a be ad 47 e9 3c 78 3c b0 be
       0.23952775 -0.19800554 0.02847656 -0.34421134
000220 84 5e 8d bd 06 15 11 bd 79 e2 b2 bd d1 64 08 3e
       -0.06902793 -0.03542044 -0.087346025 0.13319708
000230 02 da d6 3c 9e 13 81 3c 66 07 7f 3e d1 2b ce 3d
       0.026227001 0.015756425 0.24905166 0.10066951
000240 ad 74 95 be 08 17 29 bc 2c f4 e9 3d 5a 1b 4f bd
       -0.2919058 -0.0103204325 0.11423525 -0.050563194
000250 7c 1a 9d ba 3b 2a b0 bd 7a e1 89 be 72 ba 87 3e
       -0.0011986042 -0.08601805 -0.26929837 0.26509434
000260 ca 9c 1d 3e 94 7f 71 3e 5f e0 83 bd fe cc ba bd
       0.15391842 0.23583823 -0.0643928 -0.091211304
000270 5f c1 04 3e 07 b9 54 3e 3c 40 f5 3c 8c dd f0 bd
       0.1296439 0.20773707 0.029937856 -0.11761007
000280 54 06 3b 3e fe f8 20 3d 91 1e 85 3c 82 58 4b 3e
       0.18264133 0.039299957 0.016249927 0.19857982
000290 f5 6a 18 be 4f a7 a5 bd 19 43 ba 3c 86 f1 f5 3c
       -0.14884551 -0.08088552 0.022737073 0.030022394
0002a0 fb 79 45 3d f9 26 da bd 2c cb 89 be 95 b0 9d 3d
       0.048212033 -0.10651965 -0.2691282 0.07699696
0002b0 96 7f bc 3d 7a 24 03 bd bd 7d 4c 3d 93 9d d1 bc
       0.092040226 -0.03201721 0.0499246 -0.025587833
0002c0 a2 ee a5 bd 13 36 44 3e 42 ed 2f be 4a 38 ac 3a
       -0.08102156 0.19161253 -0.1718035 0.0013139334
0002d0 4d a0 01 3f b6 be 58 3d 32 7f c1 3c c6 dd fc 3d
       0.50635225 0.05291625 0.023620222 0.123469874
0002e0 d3 bd 83 bd 16 d1 d5 3b 75 c1 48 3e 3a 73 04 bc
       -0.064326905 0.006525169 0.19605048 -0.008084113
0002f0 24 8f 0e 3e 7c e7 83 be 6d 99 cd bd 63 ac 06 3d
       0.13921791 -0.25762546 -0.10039029 0.032879245
000300 13 7c e6 be 8c bb 54 3e bd 4a 84 be c3 d2 cc bc
       -0.45016536 0.20774668 -0.2583827 -0.025002843
000310 33 6b 98 3e b2 15 43 3e 1e c7 0a bb e4 74 ba bd
       0.29769287 0.19051245 -0.0021175812 -0.09104326
000320 15 30 c6 3d f7 a4 9c be 6d ab ac 3c 7e 0a 5e 3d
       0.0967714 -0.30594608 0.021077836 0.054209225
000330 b8 39 42 bd 0d c0 78 3d a5 32 58 3e 15 cc 24 3d
       -0.047418326 0.06073003 0.2111307 0.04023369
000340 56 67 00 3e 24 c5 a1 be 6c 43 e4 3d 6d b0 a7 3d
       0.1253942 -0.3159572 0.11145672 0.081879474
000350 d7 e0 e3 3c 58 76 a8 3c 38 82 b4 bd 29 6e 93 3d
       0.027817173 0.020564243 -0.088139 0.07198746
000360 b5 ae 36 be 95 7a 51 bd f7 4d 62 be 8f 5f 47 be
       -0.17840083 -0.051142294 -0.22100054 -0.19470046
000370 2d e8 5a 3c 2b d2 04 3c c2 37 80 3d 6a ca b6 bd
       0.013361019 0.008106749 0.06260635 -0.08925326
000380 b5 88 3c be d3 e4 3b bd 19 47 34 bd df f1 06 bc
       -0.18411525 -0.04587252 -0.044013117 -0.0082363775
000390 ca 4d 88 bc 39 1e d7 bc b6 26 d5 3c 1e 37 f7 3c
       -0.016638655 -0.026259528 0.026019435 0.03017765
0003a0 cb 23 66 3c c4 a9 b0 bd 84 97 3d bc ec 55 45 be
       0.01404662 -0.0862613 -0.011571769 -0.19271058
0003b0 a2 70 62 bd e1 db bb bd 38 d0 f3 3d f5 bb 94 3e
       -0.055283196 -0.09172798 0.11904949 0.2904965
0003c0 07 2e 4f 3c 0c f3 c6 3b b6 57 73 be 0a d2 16 bf
       0.012645251 0.006071454 -0.23763928 -0.58914244
0003d0 5a 73 c8 3c d0 0f a5 bc 8b 08 1b 3d 7f 83 25 bd
       0.024469066 -0.020149142 0.037849944 -0.040408608
0003e0 6c 77 48 bd 1f 06 17 be 0a f5 d7 3d 13 32 6d be
       -0.048942015 -0.14748429 0.10544784 -0.23163633
0003f0 a0 92 2e 3e 56 bb 2d 3d 06 b0 29 3c 35 be ea bb
       0.1704812 0.042414986 0.010356909 -0.0071637877

joint_model.model.2.0.bias f4 [64]
000000 ba 37 4b 3e 3b 8b 08 bd d5 9f b6 3c 23 e0 18 3e
       0.19845477 -0.033335906 0.02229301 0.14929251
000010 95 ad 90 3e 22 95 68 3e b9 15 ee bd ce 9a 39 3e
       0.28257433 0.2271314 -0.11625237 0.1812546
000020 ad d1 9d be 35 16 76 3e ba 28 d1 bd d4 b4 3b 3e
       -0.30824032 0.24031909 -0.10212846 0.18330699
000030 84 da eb bd 0f 48 82 3e bd c4 03 3e 36 6d 2a be
       -0.11516288 0.254456 0.12868018 -0.16643223
000040 2e e6 4d 3e 79 5f 19 be 85 fb cc bd 42 3a ff 3d
       0.20107338 -0.14977826 -0.10008911 0.12462284
000050 20 c8 6d be 7f c9 9f 3e cd 84 71 be 04 9d 90 3e
       -0.23220873 0.31208417 -0.23585816 0.28244793
000060 90 55 41 3e 5b 33 41 3e d5 dc 17 3e b3 c5 61 3e
       0.18880296 0.18867247 0.14830334 0.22048073
000070 34 d8 03 3e 99 66 2a be ed f7 03 bd 06 2b 5c 3e
       0.12875444 -0.166407 -0.032218862 0.21500787
000080 81 c9 53 3e 18 04 16 3e 75 69 2e be c9 d6 3a 3e
       0.20682336 0.14649999 -0.17032416 0.18245997
000090 c9 48 eb bc 22 df cc 3d 94 87 7d bb 2b be 06 3e
       -0.02872123 0.10003497 -0.0038685547 0.13158481
0000a0 de 43 15 be 8e 1c 0b 3e 50 85 81 3e ac 7c 10 be
       -0.1457667 0.13585111 0.25297022 -0.14110059
0000b0 81 47 77 3e 3e a3 2e be 23 81 26 be 8f 8c 2b bd
       0.2414837 -0.1705446 -0.16260199 -0.041882094
0000c0 9e 90 9e 3d 1c 5a 62 be 94 a3 e0 3d 25 6c 39 bd
       0.07742427 -0.22104686 0.109687 -0.04526915
0000d0 2b 95 1d 3e 59 93 21 be 19 b1 2e be b7 44 9e 3d
       0.15388934 -0.15778865 -0.17059745 0.0772795
0000e0 6b 0a 40 be 24 78 83 bd e5 90 2c be ac 0e 4c 3e
       -0.18753974 -0.064193994 -0.16852148 0.19927472
0000f0 19 03 0b be 98 ea 87 3e 0a 69 bf bd 18 9a 12 3e
       -0.135754 0.26546168 -0.093462065 0.14316595
