results_pis_architectures/many_well/langevin_clipping_lgv_100.0_gfn_10000.0_gfn/fwd/fwd_tb-avg/T_100/tscale_1.0/lvr_4.0/seed_12345/model.pt (torch, 183012 bytes, 23 tensors)

t_model.timestep_phase f4 [1, 64]
-0.83381724 0.38894463 0.6777811 -0.049160764 -0.4715806 -0.19512428 0.635543 0.64101964
-0.76945335 0.022445792 0.6329114 0.6361858 -0.423773 -0.86882824 0.78214496 -0.73297364
-0.8448063 -0.59223944 -0.78275716 -1.8506228 0.8148142 1.0970907 1.0107707 0.034542285
0.36584368 -1.0748279 0.8108084 0.28442734 2.2061982 2.9430685 0.2794883 -0.62705874
0.8132547 1.0799278 -0.82402575 0.6929805 0.9234614 0.49174294 2.1007247 -1.8047202
0.35752034 -1.2912483 -0.7535036 0.12655985 1.7131188 -0.3170065 0.64278173 0.2705675
0.017332066 -0.54423934 0.72587514 1.5953255 0.7611205 -0.2156657 0.21228002 -0.025281392
0.67323416 -1.267868 -0.8367471 -0.88911545 -0.4533548 -0.43691063 -0.17649864 0.88149625
00000000: 0c75 55bf c023 c73e 1083 2d3f cc5c 49bd
00000010: 0373 f1be a9ce 47be f2b2 223f dd19 243f
00000020: e5fa 44bf 3de0 b73c 7b06 223f 13dd 223f
00000030: c6f8 d8be 876b 5ebf a73a 483f 29a4 3bbf
00000040: 3a45 58bf 019d 17bf c662 48bf 35e1 ecbf
00000050: aa97 503f 786d 8c3f ef60 813f 367c 0d3d
00000060: dd4f bb3e f693 89bf 2491 4f3f 76a0 913e
00000070: 5a32 0d40 3c5b 3c40 1719 8f3e ec86 20bf
00000080: 7631 503f 133b 8a3f 5af3 52bf 2c67 313f
00000090: f767 6c3f bbc5 fb3e 4672 0640 1201 e7bf
000000a0: e80c b73e a047 a5bf 9de5 40bf e898 013e
000000b0: 7a47 db3f ad4e a2be 588d 243f d387 8a3e
000000c0: fafb 8d3c 4553 0bbf f4d2 393f a033 cc3f
000000d0: cbd8 423f 78d7 5cbe ef5f 593e ec1a cfbc
000000e0: 1359 2c3f 8049 a2bf 0f35 56bf 129d 63bf
000000f0: 1f1e e8be c0b2 dfbe 0fbc 34be bda9 613f

t_model.pe f4 [1, 64]
0.1 1.6857144 3.2714286 4.857143 6.4428573 8.028572 9.614286 11.200001
12.785715 14.371429 15.957144 17.542858 19.128572 20.714287 22.300001 23.885715
25.47143 27.057144 28.642859 30.228573 31.814287 33.4 34.985714 36.57143
38.157143 39.74286 41.32857 42.914288 44.5 46.085716 47.67143 49.257145
50.842857 52.42857 54.014282 55.6 57.185715 58.771427 60.35714 61.942856
63.528572 65.11429 66.7 68.28571 69.87143 71.45714 73.042854 74.62857
76.21429 77.8 79.38571 80.97143 82.557144 84.14285 85.72857 87.314285
88.9 90.48572 92.07143 93.65714 95.24286 96.82857 98.41428 100.0
00000000: cdcc cc3d 7dc5 d73f 165f 5140 b76d 9b40
00000010: e32b ce40 0875 0041 1ed4 1941 3433 3341
00000020: 4a92 4c41 60f1 6541 7650 7f41 c657 8c41
00000030: 5107 9941 dcb6 a541 6766 b241 f215 bf41
00000040: 7dc5 cb41 0875 d841 9324 e541 1ed4 f141
00000050: a983 fe41 9a99 0542 5ff1 0b42 2549 1242
00000060: eaa0 1842 b0f8 1e42 7550 2542 3ba8 2b42
00000070: 0000 3242 c657 3842 8baf 3e42 5107 4542
00000080: 165f 4b42 dbb6 5142 a00e 5842 6666 5e42
00000090: 2cbe 6442 f115 6b42 b66d 7142 7cc5 7742
000000a0: 421d 7e42 843a 8242 6666 8542 4992 8842
000000b0: 2cbe 8b42 0eea 8e42 f115 9242 d441 9542
000000c0: b76d 9842 9a99 9b42 7cc5 9e42 5ff1 a142
000000d0: 421d a542 2449 a842 0775 ab42 eaa0 ae42
000000e0: cdcc b142 b0f8 b442 9224 b842 7550 bb42
000000f0: 587c be42 3aa8 c142 1dd4 c442 0000 c842

t_model.t_model.0.weight f4 [64, 128]
-0.03502315 -0.097135775 0.078099 0.09710622 0.0028523665 0.16899273 -0.06994162 0.011381444
-0.08223321 0.071365565 0.06281661 0.05133074 0.007874033 0.06308316 -0.064018525 -0.05188681
-0.004903925 -0.0692385 0.0661069 -0.07364794 -0.015059006 0.05265675 -0.022638807 -0.10124498
-0.06882213 -0.05851701 -0.04767896 -0.07402156 0.048760157 0.06917672 -0.029618332 -0.07244018
-0.017463228 0.08487101 0.0001609212 0.05351165 0.13867317 0.17123136 0.07925977 0.033823133
0.06122619 0.060654197 0.07839051 0.06673298 0.06282885 -0.06794505 -0.102797545 -0.03302014
0.008485926 -0.055550244 0.08853579 0.0648464 0.01955497 0.074181594 -0.022041885 -0.030413
0.07241767 -0.08377517 0.043339178 -2.3417558e-06 -0.029254999 0.02357796 -0.04210828 -0.0642993
-0.017143335 0.10938449 0.06560685 0.059960254 0.12112527 -0.068329036 -0.09215969 0.052138366
-0.021931522 0.060247064 -0.08618794 0.04839814 0.029187368 -0.027178818 -0.0843319 -0.07331765
0.01607858 0.09150171 0.080604665 0.03444208 -0.054157693 -0.06545203 -0.09773998 -0.10706166
-0.041133452 0.029124916 -0.01876238 -0.02776067 -0.09363919 0.0010668956 0.044684768 -0.09344866
0.06024162 0.10563938 0.019471107 0.1395163 0.019291421 0.098334566 -0.027334666 0.1320138
0.0371526 0.11166512 -0.0016991186 -0.060263127 0.014052312 0.0661033 -0.03398525 -0.018841084
0.034387454 0.059499417 0.053219736 0.08633222 0.07726922 0.054126713 0.002668144 0.06509224
0.011114176 0.0032103637 -0.03950204 -0.034129597 0.010280745 -0.05234124 0.02853678 0.041527465
0.09698479 -0.030236837 -0.1408756 -0.15631059 -0.043724548 -0.1109286 0.088650644 0.028494038
0.0936393 -0.08319732 -0.009905134 0.051324833 0.023941144 -0.0021357432 -0.023174081 0.014955472
0.053905226 -0.09655772 -0.030866126 -0.11488907 0.032091346 -0.11641051 -0.06320521 -0.026318474
-0.043976523 -0.007445897 -0.10510591 -0.08092178 0.03984343 -0.058880202 0.049122505 -0.028641878
-0.056889508 -0.073057555 0.054158423 0.086372316 0.0494882 -0.002917106 0.028069247 0.05717092
-0.056736153 -0.05221753 0.022320827 -0.0042769616 -0.07736348 -0.052061755 0.103007406 0.095676064
0.059645835 0.03338424 -0.085645705 0.12845618 0.09075404 0.09677442 -0.04838823 -0.034712102
0.08954962 0.0033836954 0.00094757054 0.00025576595 -0.07920921 -0.054190032 -0.030424545 -0.052281395
-0.096643396 -0.12675363 -0.0071616713 -0.07749437 -0.035134792 0.045335803 0.15158933 -0.092839845
-0.039803233 -0.07006432 0.121113464 0.027272752 0.034662947 -0.022850825 0.10191539 0.0037568724
0.017833777 -0.10935887 -0.056995664 0.052011948 0.014743167 -0.091702774 0.07145069 0.09294183
0.105517454 0.08024488 -0.010684206 -0.040016282 0.13076966 -0.06766182 -0.06285682 -0.07932437
-0.040940426 0.020889185 0.007654016 -0.090457365 -0.05895269 0.09906786 -0.03368967 -0.04588965
0.073116206 0.00023451954 -0.038478326 -0.1124467 0.0845926 -0.026579557 0.0841931 -0.09178761
-0.071033604 -0.055804092 0.13242663 0.019079577 -0.06878672 -0.06770443 -0.06132703 0.032940786
0.11626563 0.012217781 -0.039804563 0.028565334 -0.041907556 0.05063842 -0.09033843 -0.055430934
00000000: 6f74 0fbd 1fef c6bd 5ef2 9f3d a0df c63d
00000010: c5ee 3a3b 6e0c 2d3e 8d3d 8fbd 3c79 3a3c
00000020: e369 a8bd 1c28 923d ffa5 803d 2f40 523d
00000030: 1702 013c be31 813d 251c 83bd 4487 54bd
00000040: 1bb1 a0bb eacc 8dbd 0e63 873d bbd4 96bd
00000050: 0dba 76bc 9bae 573d 0575 b9bc 8759 cfbd
00000060: 9ef2 8cbd 88af 6fbd 034b 43bd 9e98 97bd
00000070: bbb8 473d 86ac 8d3d 25a2 f2bc 845b 94bd
00000080: 0b0f 8fbc dad0 ad3d f5bc 2839 082f 5b3d
00000090: 5700 0e3e 4657 2f3e f252 a23d 208a 0a3d
000000a0: 50c8 7a3d 8970 783d 348b a03d 4dab 883d
000000b0: 69ac 803d c626 8bbd 8587 d2bd 2040 07bd
000000c0: 8e08 0b3c a788 63bd 4152 b53d 30ce 843d
000000d0: bf31 a03c 85ec 973d 2f91 b4bc af24 f9bc
000000e0: b74f 943d 5192 abbd 6c84 313d 0f27 1db6
000000f0: 2ea8 efbc 9126 c13c bb79 2cbd 5aaf 83bd
00000100: 2e70 8cbc fa04 e03d e25c 863d e298 753d
00000110: 8710 f83d 18f0 8bbd 38be bcbd 0a8f 553d
00000120: bca9 b3bc a0c5 763d 4d83 b0bd 213d 463d
00000130: 591a ef3c 1da6 debc 34b6 acbd 9027 96bd
00000140: 3ab7 833c 4065 bb3d 0f14 a53d 2313 0d3d
00000150: 75d4 5dbd b70b 86bd e62b c8bd 2543 dbbd
00000160: 8d7b 28bd 6097 ee3c 90b3 99bc 586a e3bc
00000170: e7c5 bfbd 13d7 8b3a 6007 373d 0362 bfbd
00000180: ebbf 763d 7659 d83d df81 9f3c 5cdd 0e3e
00000190: 0b09 9e3c a263 c93d f3ec dfbc a02e 073e
000001a0: 532d 183d afb0 e43d f6b4 deba 78d6 76bd
000001b0: ab3b 663c 2b61 873d 1e34 0bbd 9e58 9abc
000001c0: dcd9 0c3d a9b5 733d f0fc 593d f2ce b03d
000001d0: 533f 9e3d f9b3 5d3d 07dc 2e3b 154f 853d
000001e0: 3c18 363c f764 523b e4cc 21bd 7acb 0bbd
000001f0: 9270 283c c563 56bd f7c5 e93c b418 2a3d
00000200: f69f c63d 3eb3 f7bc b141 10be e20f 20be
00000210: 8318 33bd 892e e3bd 788e b53d 546c e93c
00000220: f6c5 bf3d 5b63 aabd 2549 22bc fd39 523d
00000230: 3820 c43c d3f7 0bbb 92d7 bdbc cc07 753c
00000240: bacb 5c3d 0ec0 c5bd f5da fcbc f64a ebbd
00000250: 3772 033d a268 eebd bc71 81bd d799 d7bc
00000260: ba20 34bd b6fc f3bb c441 d7bd 51ba a5bd
00000270: dd32 233d 5e2c 71bd ae34 493d 5fa2 eabc
00000280: f904 69bd 339f 95bd 39d5 5d3d f8e3 b03d
00000290: 24b4 4a3d eb2c 3fbb 7af1 e53c 0e2c 6a3d
000002a0: 2b64 68bd 0ce2 55bd 2bda b63c c125 8cbb
000002b0: bf70 9ebd b53e 55bd 8cf5 d23d d0f1 c33d
000002c0: 314f 743d eabd 083d 0467 afbd 048a 033e
000002d0: 41dd b93d ab31 c63d bd32 46bd 472e 0ebd
000002e0: cb65 b73d fdc0 5d3b 6266 783a 5318 8639
000002f0: 7038 a2bd 5ef6 5dbd e53c f9bc 0425 56bd
00000300: f9ec c5bd b4cb 01be 74ac eabb 5eb5 9ebd
00000310: 80e9 0fbd 09b2 393d 3c3a 1b3e d122 bebd
00000320: b708 23bd e27d 8fbd 560a f83d 1b6b df3c
00000330: bcfa 0d3d a731 bbbc 04b9 d03d dc35 763b
00000340: 2418 923c 8bf7 dfbd 4974 69bd 7b0a 553d
00000350: 538d 713c aace bbbd bd54 923d 4958 be3d
00000360: 8919 d83d 6d57 a43d cf0c 2fbc 1de8 23bd
00000370: 7be8 053e 4892 8abd 14bb 80bd d174 a2bd
00000380: 26b1 27bd cc1f ab3c 8ace fa3b b641 b9bd
00000390: 6078 71bd 17e4 ca3d 2efe 09bd c9f6 3bbd
000003a0: f3bd 953d 5ce9 7539 739b 1dbd 754a e6bd
000003b0: e33e ad3d 5fbd d9bc 6f6d ac3d 24fb bbbd
000003c0: 117a 91bd d592 64bd d99a 073e c64c 9c3c
000003d0: 0de0 8cbd 9fa8 8abd 0d32 7bbd ebec 063d
000003e0: ad1c ee3d 162d 483c 1c0a 23bd d901 ea3c
000003f0: 42a7 2bbd 3b6a 4f3d 5b03 b9bd 8c0b 63bd

t_model.t_model.0.bias f4 [64]
0.062979795 -0.13446888 -0.06929001 0.047646 0.052500598 -0.05981216 -0.052179042 -0.02925872
-0.107670456 -0.004567764 0.015707167 0.009953065 0.040311582 0.08075227 -0.0885622 0.10507395
-0.19027297 0.0027383412 0.0072336476 -0.1347249 -0.053704437 0.03228255 -0.02317776 -0.028853007
-0.029129889 0.012793819 0.03069447 -0.02920377 -0.13185416 0.004507123 -0.07138648 -0.04504475
0.11654978 -0.022706857 0.04051009 0.059861585 -0.14147802 -0.058409594 -0.10457027 0.051827706
0.094676554 -0.060826022 -0.1455356 -0.048427097 -0.10508799 -0.09173983 0.023805564 0.011260932
0.03773391 -0.010116151 0.010914971 -0.06132541 0.034642793 -0.0822429 0.115353055 -0.119383805
-0.04797972 -0.12537454 0.06892609 -0.14902148 0.05383592 0.06465035 -0.14996982 -0.06278798
00000000: 8dfb 803d 36b2 09be ece7 8dbd 7428 433d
00000010: de0a 573d 98fd 74bd b1b9 55bd fcaf efbc
00000020: 5482 dcbd 2ead 95bb 51ac 803c 2e12 233c
00000030: c21d 253d 7261 a53d 1960 b5bd 0331 d73d
00000040: ebd6 42be be75 333b 3c08 ed3b 53f5 09be
00000050: 2ff9 5bbd b53a 043d 49df bdbc 245d ecbc
00000060: cea1 eebc 2b9d 513c f872 fb3c bf3c efbc
00000070: c704 07be 7db0 933b 1333 92bd d880 38bd
00000080: a7b1 ee3d bb03 babc e8ed 253d 6c31 753d
00000090: 9ddf 10be e63e 6fbd f028 d6bd 4a49 543d
000000a0: c8e5 c13d b524 79bd 4907 15be 7e5b 46bd
000000b0: 5f38 d7bd 18e2 bbbd e303 c33c c67f 383c
000000c0: df8e 1a3d 36be 25bc b5d4 323c 5a30 7bbd
000000d0: 9ae5 0d3d f76e a8bd 393e ec3d 7f7f f4bd
000000e0: 6286 44bd 2f62 00be 1f29 8d3d 1699 18be
000000f0: 0e83 5c3d 6767 843d b091 19be fc96 80bd

t_model.t_model.2.weight f4 [64, 64]
0.06690377 -0.08151372 -0.057298783 0.045399535 0.06159167 -0.0024911729 0.1293264 0.08325188
0.012515143 -0.12204548 0.014988313 -0.038973585 0.07239031 -0.04470895 0.0064622886 -0.0604961
0.048172418 0.038873903 0.060243756 -0.0049281693 0.054007385 -0.11643922 0.06556117 -0.017065989
-0.16922128 0.13213293 -0.094325386 -0.0653285 -0.050018195 0.039287213 0.070192605 -0.052000184
-0.06248935 -0.061895493 -0.13101238 0.044532213 0.06820547 0.054099694 0.13118242 0.11253343
0.015454169 -0.11046485 -0.08910154 0.07348547 0.083298504 0.061873216 0.049667254 -0.09126129
0.051537152 -0.12140473 0.03648398 0.036564786 0.035654638 0.027439326 -0.06459252 -0.062189084
0.111470945 -0.04807927 0.010984955 0.080606304 -0.031673156 -0.051519968 -0.053525276 0.061616406
0.019218482 -0.04134148 -0.15696314 -0.15605795 -0.14775677 -0.085414864 -0.0011922211 0.16781433
-0.08886978 0.08266196 0.0031858974 -0.10875578 0.0070841885 -0.023403965 -0.12700425 -0.15627989
-0.010000824 -0.030593203 -0.093866326 -0.06759886 0.0077906693 0.044782907 -0.07820428 -0.005521037
-0.0051983683 -0.0107657695 -0.10089706 0.02946316 -0.22902319 -0.063298754 -0.18674506 -0.070875846
-0.044684913 0.14242388 0.08355318 0.17032567 0.031555068 -0.12850317 -0.11186072 -0.028725326
-0.12514862 0.057696458 0.08091839 0.04786148 0.055973332 -0.09701133 0.058490273 -0.03256359
-0.061093047 0.0396345 0.12888204 0.046379272 -0.16132799 0.10318076 0.051552504 0.11081259
-0.061618794 -0.114564165 0.08315032 0.0102561945 -0.075654015 0.098044276 0.012238993 -0.103919566
-0.049210697 0.037934445 -0.118819185 -0.11871104 -0.047199197 -0.077304915 0.017226392 0.09618237
0.052432597 0.08277461 0.10283347 -0.046509087 -0.12399019 -0.17507961 0.070932455 0.060002092
0.062123112 -0.036616232 -0.016785676 0.017866459 -0.10785853 0.004948224 -0.0151164 0.02856339
0.082341306 -0.15944439 -0.049638614 0.0876405 -0.112822324 -0.05011898 0.008539529 0.032580566
0.004700991 0.0042307694 -0.047184523 0.113274574 0.18610986 0.04580555 -0.105491 -0.1306105
-0.18904863 -0.03864204 0.12870245 0.03697719 0.14963706 -0.14089523 0.006492297 0.11184706
-0.0010043561 0.14517778 0.0650873 -0.051869124 -0.11152067 0.040644113 -0.088553816 -0.020991655
0.15012242 0.12377647 0.014080079 0.052211855 -0.043723293 -0.012841526 -0.025781702 -0.06822446
-0.007910811 0.09837734 -0.020264093 -0.0907649 0.10263677 0.12705587 0.058929775 -0.11069096
0.04413523 0.046391618 0.05600699 0.1214932 0.038188785 0.07844872 0.07302536 -0.12321581
-0.033753715 -0.052448068 0.019582579 -0.030917954 0.013160468 -0.1050262 0.07913561 0.003188081
-0.047938474 -0.09898326 -0.10141095 0.091433264 0.041824788 0.044186253 0.061020914 -0.048525978
-0.13305558 0.06289633 0.15640716 0.018051196 0.06389971 -0.045028478 -0.09238835 0.12735888
0.07302264 0.020084377 -0.04158185 -0.027416619 -0.06251975 0.09375242 -0.05174842 -0.048206683
0.03728759 0.088884816 0.06518218 0.08099849 -0.069943205 0.0023407277 0.023693409 -0.070070654
-0.088200875 0.010429656 0.03558864 -0.120517686 0.027973965 -0.07334516 0.035201177 -0.043738067
00000000: d804 893d aaf0 a6bd 21b2 6abd ddf4 393d
00000010: 8c47 7c3d f242 23bb 246e 043e f67f aa3d
00000020: 500c 4d3c fbf2 f9bd 8b91 753c c4a2 1fbd
00000030: 5f41 943d bb20 37bd 9bc1 d33b c2ca 77bd
00000040: 7150 453d 3e3a 1f3d 28c2 763d 7b7c a1bb
00000050: d936 5d3d b077 eebd ef44 863d f9cd 8bbc
00000060: 5848 2dbe db4d 073e ab2d c1bd f3ca 85bd
00000070: e1df 4cbd a1eb 203d 24c1 8f3d 25fe 54bd
00000080: d5f4 7fbd 2186 7dbd 1c28 06be 6967 363d
00000090: 4faf 8b3d a497 5d3d af54 063e ed77 e63d
000000a0: 7c33 7d3c 653b e2bd de7a b6bd 8d7f 963d
000000b0: 6898 aa3d c56e 7d3d e46f 4b3d 33e7 babd
000000c0: 9f18 533d 0ba3 f8bd 3a70 153d f5c4 153d
000000d0: 990a 123d 70c8 e03c 1549 84bd fbb9 7ebd
000000e0: e14a e43d c5ee 44bd 3efa 333c eb14 a53d
000000f0: b6bb 01bd 9a06 53bd 523d 5bbd 7c61 7c3d
00000100: 1470 9d3c af55 29bd f2ba 20be a8cd 1fbe
00000110: 8d4d 17be fded aebd 4d44 9cba 85d7 2b3e
00000120: 5c01 b6bd ac4a a93d 7dca 503b 5abb debd
00000130: 7b22 e83b acb9 bfbc 670d 02be d607 20be
00000140: 7fda 23bc 999e fabc fd3c c0bd 4571 8abd
00000150: df48 ff3b 486e 373d 9129 a0bd d1e9 b4bb
00000160: 1357 aabb e962 30bc 1ea3 cebd ba5c f13c
00000170: 0e85 6abe c7a2 81bd 193a 3fbe 5b27 91bd
00000180: 8707 37bd 91d7 113e ee1d ab3d da69 2e3e
00000190: e33f 013d 5696 03be 3c17 e5bd 6051 ebbc
000001a0: f626 00be 1f53 6c3d 8ab8 a53d 660a 443d
000001b0: 4b44 653d e0ad c6bd 7f93 6f3d 6661 05bd
000001c0: b43c 7abd c957 223d a7f9 033e 31f8 3d3d
000001d0: 2a33 25be 6f50 d33d b828 533d b6f1 e23d
000001e0: fd63 7cbd 9ea0 eabd b74a aa3d 9909 283c
000001f0: 7ef0 9abd 70cb c83d 0f86 483c c8d3 d4bd
00000200: 2891 49bd 2661 1b3d 7957 f3bd c61e f3bd
00000210: f253 41bd 0a52 9ebd 5d1e 8d3c 43fb c43d
00000220: 90c3 563d bc85 a93d 5b9a d23d 5080 3ebd
00000230: 92ee fdbd 1248 33be 0945 913d c1c4 753d
00000240: ce74 7e3d e7fa 15bd 1d82 89bc ae5c 923c
00000250: efe4 dcbd b624 a23b c7aa 77bc c5fd e93c
00000260: 8fa2 a83d 6445 23be dc51 4bbd dd7c b33d
00000270: 640f e7bd 8f49 4dbd 61e9 0b3c 3373 053d
00000280: c50a 9a3b 44a2 8a3b 8f44 41bd 80fc e73d
00000290: 9593 3e3e 9a9e 3b3d aa0b d8bd c2be 05be
000002a0: f795 41be 1e47 1ebd 93ca 033e 6575 173d
000002b0: 753a 193e d746 10be 56bd d43b 1210 e53d
000002c0: 99a4 83ba 7ca9 143e 7e4c 853d b874 54bd
000002d0: f364 e4bd 717a 263d b45b b5bd b1f6 abbc
000002e0: b1b9 193e 857e fd3d 22b0 663c 19dc 553d
000002f0: 3217 33bd 4465 52bc 2634 d3bc 44b9 8bbd
00000300: 599c 01bc 0f7a c93d e200 a6bc f3e2 b9bd
00000310: 3a33 d23d ef1a 023e 5960 713d f1b1 e2bd
00000320: 25c7 343d 2305 3e3d 9667 653d 6dd1 f83d
00000330: d86b 1c3d b9a9 a03d 528e 953d 9258 fcbd
00000340: 5641 0abd c9d3 56bd a56b a03c a647 fdbc
00000350: 019f 573c fa17 d7bd da11 a23d 20ef 503b
00000360: 225b 44bd bcb7 cabd 8bb0 cfbd 5d41 bb3d
00000370: 7850 2b3d a5fc 343d 11f1 793d 2dc3 46bd
00000380: b93f 08be cbcf 803d 3329 203e 1ae0 933c
00000390: dadd 823d c86f 38bd 1a36 bdbd 5e6a 023e
000003a0: e58c 953d fe87 a43c bb51 2abd d198 e0bc
000003b0: 5b0a 80bd 4501 c03d 27f6 53bd 5f74 45bd
000003c0: dfba 183d 3e09 b63d 3c7e 853d 89e2 a53d
000003d0: 623e 8fbd e566 193b ae18 c23c 3481 8fbd
000003e0: a9a2 b4bd 26e1 2a3c 65c5 113d fad1 f6bd
000003f0: a829 e53c fd35 96bd 1c2f 103d b026 33bd

t_model.t_model.2.bias f4 [64]
-0.013989699 -0.1336831 0.0067554386 -0.029769523 -0.046025537 0.097961344 0.026459621 0.17111042
-0.1857262 0.0067672357 -0.018167527 0.06388042 -0.06981673 -0.03161581 0.0062482944 0.09999342
-0.069100305 -0.034363106 -0.12453083 -0.095227815 0.0016327807 0.18421644 0.05039448 -0.049106672
0.04145075 0.031277403 -0.20157142 0.023420416 -0.12474062 -0.022838159 -0.075784504 -0.0015655013
-0.08640468 -0.123818144 0.0740643 -0.016989673 -0.004244709 0.056838986 0.025782812 0.06754634
-0.25425088 -0.0728469 0.028741239 0.007359794 0.0794095 0.038576607 0.116283804 0.0714995
-0.059991673 0.14198895 -0.080827214 0.1304829 -0.017907586 0.021363424 -0.08453802 0.010462859
0.16318028 -0.083174065 0.029099815 0.19744822 0.036789984 0.09151784 0.19240767 0.043179188
00000000: 0d35 65bc 39e4 08be ba5c dd3b 37df f3bc
00000010: 4685 3cbd f59f c83d d9c1 d83c 9237 2f3e
00000020: 022f 3ebe b0bf dd3b 11d4 94bc bdd3 823d
00000030: 13fc 8ebd 947f 01bd 7ebe cc3b 5ac9 cc3d
00000040: 7684 8dbd 54c0 0cbd 050a ffbd cd06 c3bd
00000050: 0703 d63a 3ca3 3c3e 716a 4e3d 1424 49bd
00000060: 43c8 293d bc1c 003d bd68 4ebe 2cdc bf3c
00000070: 0378 ffbd 1717 bbbc e834 9bbd 8231 cdba
00000080: f0f4 b0bd 5e94 fdbd 06af 973d ed2d 8bbc
00000090: 3317 8bbb ffcf 683d 7a36 d33c bc55 8a3d
000000a0: 2c2d 82be c130 95bd bf72 eb3c 6d2a f13b
000000b0: 73a1 a23d 8102 1e3d 3426 ee3d 546e 923d
000000c0: d4b9 75bd 8d65 113e bd88 a5bd 4f9d 053e
000000d0: eeb2 92bc 5902 af3c 4522 adbd 696c 2b3c
000000e0: bb18 273e 2a57 aabd bc62 ee3c de2f 4a3e
000000f0: 18b1 163d b56d bb3d 8406 453e a9dc 303d

s_model.x_model.weight f4 [64, 32]
0.11067902 -0.14576697 0.2169301 -0.028681278 0.08812402 0.16001499 -0.1598511 0.04329749
-0.024224017 -0.010099629 0.04927431 -0.091779426 -0.05144137 -0.1598475 0.03787791 -0.09191875
-0.079322845 -0.017137155 -0.007437552 0.035634544 -0.10415538 -0.014844073 -0.1351287 -0.022949886
-0.0075499876 0.13835227 -0.18210323 -0.12209872 0.13902754 -0.15065812 -0.036458105 -0.016704753
-0.17217743 -0.14242695 -0.32012454 0.0028991057 0.03481714 -0.0880679 0.13529141 0.09093839
0.01207643 0.17834593 0.016547237 -0.12983015 -0.19825289 -0.13624923 -0.25193644 -0.01628146
-0.10112954 0.1307493 -0.06469928 -0.016162898 0.061071813 -0.061162848 -0.16144544 0.17607638
0.046108566 0.036966156 0.04185299 -0.18076228 0.036280178 0.046466272 -0.1011021 -0.039624307
0.21278052 -0.075095534 -0.27254215 0.042292167 -0.15569705 0.13073778 -0.003998245 0.07742286
0.05445415 -0.11093971 0.07353271 -0.12684146 0.16067794 -0.044754956 -0.23849294 0.040263113
0.12043379 0.22138801 -0.20019597 -0.15088911 0.17473938 0.0531837 -0.11131971 -0.1120477
-0.31284577 -0.17360863 0.04419084 0.04166167 0.010654892 -0.097303174 0.076785944 -0.15946366
-0.090708345 0.081799746 0.3152168 0.14101407 -0.0954336 0.017735174 -0.0053562913 0.02046509
-0.180841 0.0035236333 0.11355361 -0.19330923 -0.008658093 -0.020844772 0.22902568 -0.10256853
0.29802054 0.1423683 0.050745044 0.13666005 -0.12138024 -0.040962525 -0.011948326 0.13272858
-0.268482 -0.17227536 -0.13027373 0.14088368 -0.10688189 -0.03484373 -0.07979591 -0.1291851
0.101294406 0.056212958 0.021387517 -0.27844283 0.10825828 -0.10863604 -0.03262958 -0.023619916
-0.26310354 0.16853584 0.17214876 0.1394386 -0.011052822 0.15118459 -0.05820295 0.017953737
0.05123116 -0.15173863 -0.16599204 -0.11594638 0.071590714 0.19722721 0.079854116 -0.13009533
-0.018395146 0.14339645 -0.16068049 -0.115032986 0.11152149 -0.07667262 -0.036706712 -0.07916879
-0.08658813 0.01685319 0.08113244 -0.013180866 -0.075701535 0.16472492 0.12890911 0.12399106
-0.01023301 0.18448639 0.11700586 -0.022653816 0.01838231 0.0072198743 0.08904374 0.04570813
0.15012956 0.16366184 -0.037956394 0.09932487 0.05638951 -0.11353682 0.03585522 0.1595252
-0.06260733 -0.15558742 -0.07681891 -0.006673101 0.059810415 0.062288456 -0.14957476 0.072447024
-0.13267517 -0.060351025 -0.052951805 -0.003607463 0.092365205 -0.06424657 0.032617133 -0.10945327
0.08887435 -0.14305879 0.13549916 -0.23896664 -0.021503996 -0.1744822 -0.030642705 -0.1523914
0.15614666 -0.045831863 -0.08627684 -0.1438837 0.13366552 0.05651678 0.046230957 -0.16059442
0.12760803 -0.116037264 0.1112485 -0.04266405 0.06350118 0.11896666 0.14913882 -0.25621095
-0.06529776 -0.008840734 0.07737767 -0.21581355 0.08788677 0.0813199 -0.01954903 -0.08889905
0.03285092 -0.034145273 -0.12704857 0.06420802 -0.09564145 0.051725432 -0.038992267 -0.020080337
0.027829591 0.08195581 0.02598804 0.18012841 0.050569568 0.04154853 0.061223917 -0.14675693
-0.0046856334 0.0874304 0.0036992691 0.0012729737 0.04088452 -0.1596658 -0.13336566 0.09385844
00000000: afab e23d f043 15be ed22 5e3e 00f5 eabc
00000010: 5e7a b43d f8da 233e 02b0 23be b558 313d
00000020: 7271 c6bc ea78 25bc dcd3 493d daf6 bbbd
00000030: 30b4 52bd 10af 23be de25 1b3d e63f bcbd
00000040: 0474 a2bd 3863 8cbc b5b6 f3bb 87f5 113d
00000050: 6a4f d5bd 8e34 73bc 2e5f 0abe 6601 bcbc
00000060: e365 f7bb 38ac 0d3e 4579 3abe e50e fabd
00000070: 3c5d 0e3e 1f46 1abe 1855 15bd 68d8 88bc
00000080: 484f 30be 5fd8 11be 5de7 a3be ecfe 3d3b
00000090: 6b9c 0e3d f15c b4bd d589 0a3e e83d ba3d
000000a0: 38dc 453c 51a0 363e 128e 873c 32f2 04be
000000b0: ce02 4bbe eb84 0bbe d0fd 80be b260 85bc
000000c0: 011d cfbd 25e3 053e 0e81 84bd 0e68 84bc
000000d0: 7026 7a3d e585 7abd f451 25be 5e4d 343e
000000e0: 56dc 3c3d d369 173d 0a6e 2b3d bf19 39be
000000f0: 869a 143d 6b53 3e3d 9e0e cfbd 194d 22bd
00000100: 23e3 593e b0cb 99bd a58a 8bbe 8d3a 2d3d
00000110: 0c6f 1fbe 20e0 053e b603 83bb e08f 9e3d
00000120: 510b 5f3d 5c34 e3bd 5198 963d bae2 01be
00000130: c288 243e f950 37bd 7e37 74be efea 243d
00000140: fea5 f63d 8ab3 623e 2c00 4dbe ad82 1abe
00000150: e1ee 323e 27d7 593d 97fb e3bd 4479 e5bd
00000160: 522d a0be 76c6 31be 7401 353d 6da5 2a3d
00000170: db91 2e3c e346 c7bd f341 9d3d 714a 23be
00000180: 4cc5 b9bd a086 a73d 1964 a13e fe65 103e
00000190: b172 c3bd 5b49 913c d483 afbb 68a6 a73c
000001a0: 622e 39be c2ec 663b cc8e e83d dbf2 45be
000001b0: adda 0dbc a8c2 aabc b585 6a3e 730f d2bd
000001c0: 2696 983e ffc8 113e 09da 4f3d 9df0 0b3e
000001d0: 3496 f8bd 52c8 27bd e9c2 43bc 00ea 073e
000001e0: 7976 89be f468 30be 7a66 05be d043 103e
000001f0: e4e4 dabd 4db8 0ebd 0a6c a3bd 1949 04be
00000200: 7173 cf3d 8f3f 663d e034 af3c 0f90 8ebe
00000210: 84b6 dd3d 927c debd 98a6 05bd 8e7e c1bc
00000220: 82b5 86be a994 2c3e c447 303e fec8 0e3e
00000230: e516 35bc 22d0 1a3e 3766 6ebd b713 933c
00000240: c4d7 513d 5f61 1bbe d1f9 29be 4c75 edbd
00000250: 279e 923d eef5 493e 8e8a a33d b637 05be
00000260: 6bb1 96bc 85d6 123e 6d89 24be 6a96 ebbd
00000270: 6165 e43d 8906 9dbd c759 16bd 3f23 a2bd
00000280: 1e55 b1bd b30f 8a3c c428 a63d 8ff4 57bc
00000290: 6809 9bbd a6ad 283e c000 043e 06ef fd3d
000002a0: 5ba8 27bc 00ea 3c3e c5a0 ef3d 7f94 b9bc
000002b0: 8096 963c b294 ec3b 905c b63d 7338 3b3d
000002c0: 90bb 193e f896 273e 2a78 1bbd d66a cb3d
000002d0: b0f8 663d fe85 e8bd ecdc 123d 935a 233e
000002e0: 4638 80bd 4f52 1fbe 3c53 9dbd 07aa dabb
000002f0: c4fb 743d 2e22 7f3d 202a 19be 1b5f 943d
00000300: 00dc 07be a332 77bd fee3 58bd 306b 6cbb
00000310: f829 bd3d b593 83bd 8b99 053d 0929 e0bd
00000320: c103 b63d 017e 12be 4bc0 0a3e acb3 74be
00000330: 2629 b0bc 76ab 32be 6906 fbbc 7e0c 1cbe
00000340: e9e4 1f3e 31ba 3bbd e9b1 b0bd 4056 13be
00000350: 9ddf 083e 247e 673d ac5c 3d3d dd72 24be
00000360: aeab 023e f2a4 edbd 41d6 e33d 80c0 2ebd
00000370: e80c 823d cba4 f33d d9b7 183e 152e 83be
00000380: d5ba 85bd bad8 10bc 2f78 9e3d 3afe 5cbe
00000390: fbfd b33d 0c8b a63d 4a25 a0bc b510 b6bd
000003a0: b08e 063d eadb 0bbd 0519 02be 7f7f 833d
000003b0: aadf c3bd 0cde 533d 5bb6 1fbd 857f a4bc
000003c0: e2fa e33c 73d8 a73d dfe4 d43c 9573 383e
000003d0: 0922 4f3d cb2e 2a3d eec5 7a3d 7347 16be
000003e0: f189 99bb b60e b33d 706f 723b e9d9 a63a
000003f0: 8776 273d 6e7f 23be 0291 08be db38 c03d

s_model.x_model.bias f4 [64]
0.08926969 0.03891408 -0.1276509 -0.057828553 0.21110423 0.12198749 0.031950902 0.22364439
-0.07229142 0.13523427 0.079553485 0.15404704 -0.094438665 -0.117614694 0.10376973 -0.047328882
-0.14107183 0.048574094 0.06022345 -0.14555058 -0.056366924 0.16430293 0.13360399 0.09209791
0.22402334 0.14253771 -0.14569414 -0.12922318 -0.13002567 0.088443324 -0.034878332 0.022169715
-0.10393086 0.08507983 -0.053366937 0.17102602 0.029401027 -0.10700179 0.10333382 0.13677219
-0.029750481 -0.016700601 -0.19015977 -0.049347207 0.122002915 0.042606637 0.121008374 0.01451527
-0.04152074 0.2227306 -0.107214786 0.19953051 -0.20172332 -0.06624504 -0.23177254 0.13730812
0.17536646 -0.111754075 -0.1458671 0.07651282 -0.17169417 0.07014813 0.10648136 0.02759335
00000000: 07d3 b63d 5f64 1f3d ebb6 02be a2dd 6cbd
00000010: b52b 583e 94d4 f93d f3de 023d 0903 653e
00000020: 860d 94bd da7a 0a3e f0ec a23d 82be 1d3e
00000030: 0f69 c1bd f9df f0bd 3985 d43d eedb 41bd
00000040: 2275 10be a1f5 463d ddac 763d 360b 15be
00000050: 01e1 66bd 073f 283e 7ccf 083e d49d bc3d
00000060: 6066 653e 68f5 113e d830 15be 1553 04be
00000070: 7325 05be c621 b53d 95dc 0ebd 439d b53c
00000080: b4d9 d4bd 553e ae3d 4a97 5abd 7221 2f3e
00000090: 6cda f03c c123 dbbd afa0 d33d 020e 0c3e
000000a0: 48b7 f3bc b3cf 88bc 3eb9 42be 4c20 4abd
000000b0: aadc f93d 4c84 2e3d 3dd3 f73d 74d1 6d3c
000000c0: a711 2abd 7e13 643e 6d93 dbbd ba51 4c3e
000000d0: 8f90 4ebe 7bab 87bd c855 6dbe 809a 0c3e
000000e0: 4493 333e 52df e4bd 2f5e 15be c1b2 9c3d
000000f0: 99d0 2fbe d3a9 8f3d e612 da3d 730b e23c

joint_model.model.1.0.weight f4 [64, 64]
-0.038503647 -0.10810197 -0.19898205 -0.11317064 0.09546617 -0.04066306 0.12328172 -0.09357074
-0.18808609 0.07915928 -0.24924494 -0.11850103 -0.21428455 -0.063667946 0.060593892 -0.02440625
-0.12261432 0.11124124 -0.011613915 0.030256588 0.022378676 0.06688015 -0.0034996653 -0.17637095
-0.106777824 -0.044671323 -0.034156896 -0.24407619 -0.20803943 0.049513277 0.010127939 -0.12399921
-0.15788747 -0.2306274 0.010422762 0.01304912 -0.123239525 -0.03782609 -0.10675695 0.060923953
-0.1367883 -0.123835646 -0.032270744 0.0053131417 -0.008998558 -0.07956984 -0.098478585 0.07613278
-0.041209664 0.016551659 -0.1460327 0.085929856 -0.13741514 -0.1459466 0.04708964 -0.14417188
-0.03617256 -0.13942909 -0.11503716 0.044104356 -0.13871421 -0.0463897 0.061278597 0.044145517
-0.026755653 0.0040271175 -0.07476814 0.02094223 -0.11613749 -0.009583911 0.0005573022 0.04754921
0.0029562523 0.064386934 -0.009174832 0.07219848 -0.11424705 -0.13045506 -0.13785443 0.028643563
0.0063160183 0.02938376 0.014320583 0.04379918 -0.055085767 0.08414261 -0.0998457 -0.11569445
0.073350914 -0.048368853 -0.0626725 0.023763739 -0.009472386 -0.029236477 0.04339553 -0.13075809
-0.15355617 -0.12641579 -0.13907675 -0.0015858881 -0.11827776 -0.11948722 -0.10548397 0.0027947144
-0.14754775 -0.090560526 -0.043293115 -0.1668696 -0.09908106 -0.012694379 -0.110622674 -0.08474394
-0.014349 -0.011842058 -0.11826073 -0.022556154 -0.107978776 -0.07495539 -0.15790859 -0.046846334
0.08263559 0.014951763 0.047630206 -0.09454265 0.014458445 -0.13621175 0.07078962 -0.016976025
-0.023381421 0.07024291 0.10810635 -0.15978242 -0.16206439 -0.04666438 -0.11419912 -0.030858733
0.007703196 -0.06368036 -0.08435273 -0.16839148 0.026471032 -0.015394539 -0.0267656 0.05873943
0.18828182 -0.1524175 0.11369925 0.005302012 0.0406892 -0.0014086427 -0.09377373 -0.10233273
0.11454709 -0.0888113 0.09376114 0.10145068 0.03390056 0.057738286 0.10362652 -0.03231409
0.1536379 -0.022274207 0.108569205 -0.08235046 0.09259222 -0.1319565 -0.12792748 0.018160976
0.07551214 0.0078058485 -0.15319455 0.021745114 -0.017802589 -0.003313792 -0.06305417 -0.06472757
-0.012716256 -0.08701345 0.061267093 -0.023477925 0.039865486 0.03767928 0.1392329 0.055616245
-0.06341632 0.05950945 -0.0150496205 -0.043357413 -0.03309178 -0.07159861 -0.030586082 -0.05043228
0.0005861446 0.048218258 0.043640442 0.084903814 -0.06567295 0.12008374 -0.08421917 -0.08983725
0.11412804 0.092640206 0.11990424 -0.1285452 -0.105793126 -0.069954015 -0.15169819 0.115576684
0.00020203085 -0.011444264 0.1334949 0.0077922526 -0.07277843 -0.085379064 -0.04218199 -0.037915207
-0.06801297 0.06200972 -0.020024527 0.15458846 0.13035595 0.0031478282 0.11646788 -0.03216585
0.046937354 -0.13099407 -0.081002586 0.0117447525 0.15965861 -0.12074228 -0.12936927 -0.08026445
0.047103867 -0.14648168 0.20275806 0.05221389 -0.13338163 -0.039194953 0.16346642 -0.11896551
0.08912224 -0.123260714 -0.085328825 -0.07978067 0.13652971 0.01680925 0.02139069 0.09149875
-0.057714086 -0.005989768 0.11867077 -0.12545168 0.11607198 0.123534754 0.12745392 -0.08614657
00000000: 00b6 1dbd 9164 ddbd f3c1 4bbe 02c6 e7bd
00000010: c483 c33d 4f8e 26bd 207b fc3d 04a2 bfbd
00000020: a499 40be 431e a23d 113a 7fbe abb0 f2bd
00000030: 696d 5bbe 5764 82bd 4d31 783d 9eef c7bc
00000040: 371d fbbd 72d2 e33d 4a48 3ebc aadc f73c
00000050: 7c53 b73c 76f8 883d a45a 65bb 969a 34be
00000060: 55ae dabd 47f9 36bd 1ae8 0bbd 1cef 79be
00000070: 4a08 55be 6fce 4a3d a8ef 253c 4cf3 fdbd
00000080: 41ad 21be 9729 6cbe 3bc4 2a3c facb 553c
00000090: 0165 fcbd 88ef 1abd 63a3 dabd 658b 793d
000000a0: 3b12 0cbe 8b9d fdbd 542e 04bd dd19 ae3b
000000b0: b06e 13bc 83f5 a2bd 24af c9bd 81eb 9b3d
000000c0: 77cb 28bd 5897 873c 9989 15be fefb af3d
000000d0: 8eb6 0cbe 0773 15be 11e1 403d cba1 13be
000000e0: ae29 14bd 80c6 0ebe 9a98 ebbd c5a6 343d
000000f0: 190b 0ebe 2003 3ebd 44ff 7a3d eed1 343d
00000100: ac2e dbbc e9f5 833b 0a20 99bd 0a8f ab3c
00000110: 7ed9 edbd d605 1dbc eb17 123a f6c2 423d
00000120: afbd 413b 4cdd 833d 0952 16bc ccdc 933d
00000130: 5bfa e9bd 0396 05be b629 0dbe e8a5 ea3c
00000140: 9af6 ce3b 36b6 f03c e1a0 6a3c c566 333d
00000150: 9da1 61bd f652 ac3d e77b ccbd 36f1 ecbd
00000160: 0139 963d 6b1e 46bd 715a 80bd 2cac c23c
00000170: 1132 1bbc 5681 efbc 83bf 313d 73e5 05be
00000180: d43d 1dbe 2473 01be 236a 0ebe 93dd cfba
00000190: 9c3b f2bd b7b5 f4bd fb07 d8bd 8727 373b
000001a0: c216 17be cc77 b9bd 1f54 31bd dddf 2abe
000001b0: 03eb cabd 16fc 4fbc 248e e2bd 3b8e adbd
000001c0: 1118 6bbc 3105 42bc ae32 f2bd afc7 b8bc
000001d0: fa23 ddbd 3682 99bd cab2 21be f1e1 3fbd
000001e0: d93c a93d 3df8 743c e417 433d 949f c1bd
000001f0: 1de3 6c3c 187b 0bbe 26fa 903d 4e11 8bbc
00000200: 658a bfbc 84db 8f3d dd66 dd3d 019e 23be
00000210: 35f4 25be 2623 3fbd 3ae1 e9bd 74cb fcbc
00000220: 176b fc3b d96a 82bd 20c1 acbd d16e 2cbe
00000230: c7d9 d83c 6039 7cbc 8843 dbbc c298 703d
00000240: f3cc 403e 5513 1cbe 27db e83d 80bc ad3b
00000250: b8a9 263d 35a2 b8ba 710c c0bd d393 d1bd
00000260: aa97 ea3d b3e2 b5bd d705 c03d 60c5 cf3d
00000270: 50db 0a3d fb7e 6c3d 243a d43d c75b 04bd
00000280: 4153 1d3e 6678 b6bc 8859 de3d 5ca7 a8bd
00000290: fda0 bd3d 9b1f 07be 6cff 02be 54c6 943c
000002a0: 1ca6 9a3d 34c8 ff3b 08df 1cbe cf22 b23c
000002b0: bcd6 91bc 342c 59bb 8b22 81bd e38f 84bd
000002c0: d857 50bc 1c34 b2bd 34f3 7a3d c754 c0bc
000002d0: fe49 233d 9755 1a3d 1293 0e3e dccd 633d
000002e0: 6ae0 81bd 2ec0 733d af92 76bc 8b97 31bd
000002f0: 3f8b 07bd 4ba2 92bd aa8f fabc 1492 4ebd
00000300: 80a7 193a 8280 453d 52c0 323d 0de2 ad3d
00000310: 8a7f 86bd 77ee f53d 1a7b acbd 98fc b7bd
00000320: f6bb e93d 26ba bd3d 5b90 f53d 5aa1 03be
00000330: 11aa d8bd 0d44 8fbd c556 1bbe 78b3 ec3d
00000340: 3ed8 5339 b980 3bbc e3b2 083e 2756 ff3b
00000350: dc0c 95bd 38db aebd 06c7 2cbd fa4c 1bbd
00000360: 624a 8bbd e7fd 7d3d 7a0a a4bc 704c 1e3e
00000370: 087c 053e cb4b 4e3b b686 ee3d 57c0 03bd
00000380: 6241 403d 4f23 06be afe4 a5bd 106d 403c
00000390: 8c7d 233e ba47 f7bd 6179 04be b061 a4bd
000003a0: fcef 403d 4bff 15be cf9f 4f3e 3bde 553d
000003b0: 3295 08be e38a 20bd be63 273e 30a4 f3bd
000003c0: b985 b63d 1d70 fcbd e1c0 aebd 0c64 a3bd
000003d0: 72ce 0b3e 8db3 893c 873b af3c b263 bb3d
000003e0: 9b65 6cbd d145 c4bb a909 f33d 6876 00be
000003f0: 25b7 ed3d caff fc3d 4883 023e 9d6d b0bd

joint_model.model.1.0.bias f4 [64]
0.07858442 0.10650828 -0.14904283 -0.12247793 0.12690836 -0.06661752 -0.13409446 0.15147792
-0.11703381 0.11431401 -0.117980525 0.14813882 0.14266604 -0.072666965 -0.06995042 0.023748849
-0.08182966 -0.0775426 0.057139408 -0.014558303 -0.07138532 0.042383995 -0.04043882 0.06362195
-0.12268175 0.12896484 -0.10451484 -0.1529728 0.025210688 -0.016008897 -0.014916663 -0.034898423
0.037915573 -0.0691957 0.041319232 0.11984447 0.015807174 -0.021040514 -0.041726828 0.018941326
-0.080066785 -0.000121706544 -0.05723692 -0.14729202 0.08125351 -0.12015606 -0.010105946 0.052003108
-0.12952362 -0.21092081 -0.19587867 -0.21996951 -0.21451318 0.06879586 -0.11030496 -0.14263731
0.025400363 -0.15177904 0.069171384 -0.1470107 0.0054276604 0.09733366 -0.22417171 0.10959003
00000000: def0 a03d 0321 da3d af9e 18be b5d5 fabd
00000010: 44f4 013e c46e 88bd 0f50 09be 071d 1b3e
00000020: 6caf efbd 771d ea3d c69f f1bd b4b1 173e
00000030: 0c17 123e 6bd2 94bd 2a42 8fbd f28c c23c
00000040: 4f96 a7bd a8ce 9ebd 030b 6a3d f385 6ebc
00000050: 7732 92bd d79a 2d3d 2da3 25bd 3a4c 823d
00000060: 9240 fbbd 5c0f 043e e00b d6bd e7a4 1cbe
00000070: a586 ce3c 1725 83bc 0565 74bc a6f1 0ebd
00000080: 5c4d 1b3d 7ab6 8dbd 5b3e 293d 0471 f53d
00000090: 0c7e 813c 285d acbc c0e9 2abd d72a 9b3c
000000a0: 0efa a3bd b43c ffb8 4371 6abd b8d3 16be
000000b0: 3e68 a63d 6114 f6bd 6993 25bc 3601 553d
000000c0: d7a1 04be a0fb 57be 6b94 48be b03f 61be
000000d0: 58a9 5bbe d8e4 8c3d 91e7 e1bd 840f 12be
000000e0: 6c14 d03c f76b 1bbe baa9 8d3d f989 16be
000000f0: 84da b13b df56 c73d 458d 65be bd70 e03d

joint_model.model.2.0.weight f4 [64, 64]
0.0775744 0.12788464 -0.15680975 -0.016956735 -0.048217945 -0.12138608 -0.1608512 0.15103418
-0.046311293 0.08594534 -0.053547878 0.066315964 0.030985216 -0.15145272 0.026622484 -0.031981204
-0.13314725 0.040553592 0.02238663 -0.07780613 -0.0017370085 -0.006757646 0.059681892 -0.026949774
0.010551575 0.08912795 -0.15613277 0.094672725 -0.08421201 0.107117794 0.101480015 0.028360847
-0.09081208 -0.06374271 -0.04385991 -0.006553743 -0.036546897 -0.102395885 0.03967537 0.0701869
-0.050838977 -0.03186754 -0.15958816 -0.010129793 -0.043446142 -0.11535312 0.05289799 -0.06619335
-0.17414044 -0.066391334 -0.07320358 0.048199054 -0.038588047 0.08911165 -0.084078886 -0.12159622
-0.04228782 -0.09414678 0.06518457 -0.17955272 0.091884516 -0.07768855 0.01688386 0.13120535
-0.055043567 0.004970626 7.901125e-05 0.08375934 -0.18393257 0.074429154 -0.15680873 0.05829739
-0.027600028 -0.16159649 0.05587424 -0.096124545 -0.017546492 -0.01915699 0.0010583579 -0.07246402
0.01676334 -0.083795466 0.085431404 0.03627412 0.10211017 0.0946108 0.06474039 -0.19314647
-0.16960914 -0.08175707 0.04056678 -0.07746468 -0.03337911 -0.03286856 -0.06609974 0.056664795
-0.053814538 0.11850627 0.13089563 -0.10315296 -0.087720744 -0.11716489 0.09152797 -0.011574891
-0.14813937 -0.09182295 0.07536882 -0.10232553 -0.10570264 0.06914767 -0.093809515 -0.048818108
0.10269995 0.044001076 0.040781725 0.04415833 0.110206805 0.046222396 0.030599197 -0.2139674
0.018809447 0.037153456 -0.15173098 0.08333219 -0.119904324 0.10268614 0.07767471 -0.15804137
-0.05451919 -0.076800615 0.017596273 -0.09972062 -0.19106868 -0.039950754 0.11160284 -0.23274085
-0.13679148 0.03184464 0.11376849 0.0007003807 -0.09793549 0.022188468 -0.02177355 0.02159091
-0.15020414 -0.097483225 -0.15797718 -0.09562702 -0.06338722 -0.112431884 -0.18273337 -0.050939288
0.19369665 -0.056412127 -0.12024183 -0.0039022674 -0.101447165 -0.033177935 0.070450276 -0.09463648
0.10721847 -0.035411038 -0.00079217507 0.020508591 -0.19639716 -0.0663201 -0.059021145 0.17737384
-0.17246415 0.035898235 -0.17729163 0.103624016 0.024204135 -0.17341618 -0.17375544 -0.19170256
-0.09210602 0.17760889 -0.0881887 0.11245227 0.07209276 0.029695196 -0.13065144 0.14552514
0.027245676 -0.006182002 0.09361661 -0.17655107 0.09501581 -0.12558015 -0.03872572 -0.0859102
-0.07073939 0.09614017 0.047065936 0.023397367 0.12342322 0.09190353 -0.043316785 0.08450759
-0.05081739 -0.1006991 0.14785951 0.14364754 -0.0503087 0.034413468 -0.08736444 0.08248641
0.1371939 -0.109840214 0.08856164 0.042190295 -0.0058218245 -0.026498122 -0.0763258 -0.0886242
-0.004441457 -0.082533054 -0.08709688 -0.06472355 0.10845951 -0.027093206 0.12657414 0.055026628
-0.1353841 0.2840065 -0.08329674 -0.023085406 0.06806996 0.06171376 0.0035497672 0.083829194
-0.022503411 0.0827197 0.0136229005 -0.21051945 0.019523114 -0.06226778 0.05274325 0.09820804
0.07003893 0.0015314111 -0.00513395 -0.085813574 0.12881723 0.068852216 0.03953289 -0.051758353
-0.23444033 -0.05674064 0.1143142 -0.087133355 -0.113386184 0.012848942 -0.0053991913 -0.06269027
00000000: 54df 9e3d 31f4 023e bc92 20be dae8 8abc
00000010: 2e80 45bd 4499 f8bd 2db6 24be b4a8 1a3e
00000020: e9b0 3dbd 1c04 b03d 0555 5bbd aad0 873d
00000030: b5d4 fd3c 6c16 1bbe 6517 da3c b9fe 02bd
00000040: c157 08be 861b 263d 2a64 b73c d258 9fbd
00000050: 55ac e3ba 3e6f ddbb 0075 743d c6c5 dcbc
00000060: 83e0 2c3c b788 b63d 45e1 1fbe c6e3 c13d
00000070: 5977 acbd 9360 db3d c1d4 cf3d 0255 e83c
00000080: affb b9bd 8a8b 82bd 73a6 33bd c8c0 d6bb
00000090: 33b2 15bd efb4 d1bd a482 223d 26be 8f3d
000000a0: 883c 50bd 8a87 02bd 146b 23be 6ef7 25bc
000000b0: 95f4 31bd 423e ecbd 90ab 583d 6190 87bd
000000c0: df51 32be 2ef8 87bd c2eb 95bd 5f6c 453d
000000d0: 800e 1ebd 2b80 b63d 8d31 acbd 7007 f9bd
000000e0: fe35 2dbd 07d0 c0bd 7d7f 853d abdc 37be
000000f0: f32d bc3d 2d1b 9fbd 0550 8a3c b25a 063e
00000100: 5d75 61bd a2e0 a23b d8b2 a538 048a ab3d
00000110: d258 3cbe 506e 983d 7892 20be 3ec9 6e3d
00000120: 7419 e2bc 8d79 25be 63dc 643d f2dc c4bd
00000130: a9bd 8fbc 1fef 9cbc 99b8 8a3a 0468 94bd
00000140: 4653 893c f59c abbd a9f6 ae3d 2c94 143d
00000150: 231f d13d 4fc3 c13d 9c96 843d 30c8 45be
00000160: 05ae 2dbe 4070 a7bd 5a29 263d cda5 9ebd
00000170: 89b8 08bd 2fa1 06bd 4d5f 87bd 5819 683d
00000180: a26c 5cbd 6ab3 f23d 8109 063e dc41 d3bd
00000190: efa6 b3bd 25f4 efbd 0473 bb3d 9da4 3dbc
000001a0: d9b1 17be ac0d bcbd f85a 9a3d 0c90 d1bd
000001b0: a07a d8bd 4b9d 8d3d 341f c0bd 7ff5 47bd
000001c0: 5a54 d23d 793a 343d bd0a 273d 5ddf 343d
000001d0: 1bb4 e13d b253 3d3d 2bab fa3c 451a 5bbe
000001e0: 4516 9a3c 392e 183d 5e5f 1bbe 11aa aa3d
000001f0: 6690 f5bd 1c4d d23d eb13 9f3d 99d5 21be
00000200: 844f 5fbd a449 9dbd 0f26 903c 533a ccbd
00000210: 82a7 43be 67a3 23bd 0890 e43d 9e53 6ebe
00000220: 1113 0cbe 866f 023d 74ff e83d c199 373a
00000230: 6792 c8bd 97c4 b53c 725e b2bc 6cdf b03c
00000240: 1dcf 19be 49a5 c7bd c5c4 21be 19d8 c3bd
00000250: 29d1 81bd b042 e6bd 751e 3bbe b7a5 50bd
00000260: 6a58 463e 6710 67bd 5941 f6bd 2fbd 7fbb
00000270: 88c3 cfbd 96e5 07bd 3c48 903d c5d0 c1bd
00000280: 5b95 db3d 2a0b 11bd f8a9 4fba a201 a83c
00000290: 561c 49be d5d2 87bd 28c0 71bd 7da1 353e
000002a0: 719a 30be 070a 133d f08b 35be d438 d43d
000002b0: c047 c63c 0394 31be f2ec 31be ad4d 44be
000002c0: 15a2 bcbd 1bdf 353e 479c b4bd 604d e63d
000002d0: 5ea5 933d 5743 f33c 7ec9 05be 8b04 153e
000002e0: 5332 df3c 6492 cabb 11ba bf3d cec9 34be
000002f0: a697 c23d 1598 00be dc9e 1ebd b0f1 afbd
00000300: d0df 90bd 23e5 c43d 36c8 403d d6ab bf3c
00000310: 50c5 fc3d eb37 bc3d f16c 31bd 5112 ad3d
00000320: e525 50bd 543b cebd 7c68 173e 5718 133e
00000330: 7f10 4ebd 23f5 0c3d 21ec b2bd a3ee a83d
00000340: 8f7c 0c3e e8f3 e0bd ce5f b53d bbcf 2c3d
00000350: 01c5 bebb 9712 d9bc b350 9cbd 9b80 b5bd
00000360: a489 91bb 1707 a9bd d95f b2bd c88d 84bd
00000370: 0520 de3d 92f2 ddbc a79c 013e 9a63 613d
00000380: 21a2 0abe 4d69 913e 7b97 aabd 9b1d bdbc
00000390: 4368 8b3d 91c7 7c3d 36a3 683b a4ae ab3d
000003a0: 1359 b8bc f268 a93d 9632 5f3c 6992 57be
000003b0: f0ee 9f3c 800c 7fbd 4e09 583d 4c21 c93d
000003c0: 9270 8f3d a1b9 c83a b23a a8bb 07bf afbd
000003d0: aae8 033e 6402 8d3d 3ded 213d 9100 54bd
000003e0: 2011 70be e068 68bd 901d ea3d f972 b2bd
000003f0: 0437 e8bd 5e84 523c b3eb b0bb c263 80bd

joint_model.model.2.0.bias f4 [64]
0.17874861 -0.0563325 -0.09995999 0.09182127 0.1534454 0.077861704 -0.14839728 0.09638949
-0.1640935 0.15224326 -0.15522042 0.17614 -0.11096974 0.12303226 0.12765107 -0.15716872
0.122426875 -0.09573347 -0.16599952 0.0010324712 -0.15629415 0.19488122 -0.15215972 0.13480166
0.15359384 0.099210165 0.13577563 0.14442076 0.06444964 -0.09362791 -0.07739275 0.15788902
0.1406933 0.11466583 -0.16911675 0.091431096 -0.15873933 0.045137424 -0.10528746 0.09920578
-0.1607468 0.09943941 0.13873266 -0.15925011 0.15739438 -0.14057925 -0.16842249 -0.09382485
-0.06824827 -0.13240632 0.10843212 -0.13074735 0.12112831 -0.09398276 -0.17558111 0.10111536
-0.115880616 -0.18579273 -0.15206768 0.046471883 -0.16128327 0.16785741 -0.044065267 0.11089912
00000000: e009 373e e8bc 66bd d3b7 ccbd ca0c bc3d
00000010: ca20 1d3e f575 9f3d 75f5 17be da67 c53d
00000020: 2008 28be a8e5 1b3e 1af2 1ebe 0b5e 343e
00000030: 1a44 e3bd 56f8 fb3d f6b6 023e d6f0 20be
00000040: f1ba fa3d e90f c4bd c7fb 29be fc53 873a
00000050: 930b 20be f18e 473e c2cf 1bbe 7209 0a3e
00000060: b447 1d3e b32e cb3d c408 0b3e 09e3 133e
00000070: 2cfe 833d fdbf bfbd 1780 9ebd a9ad 213e
00000080: e811 103e ebd5 ea3d f12c 2dbe 3a40 bb3d
00000090: 908c 22be 05e2 383d f4a0 d7bd 662c cb3d
000000a0: cf9a 24be e4a6 cb3d ef0f 0e3e 7612 23be
000000b0: fe2b 213e 02f4 0fbe f276 2cbe 3e27 c0bd
000000c0: c0c5 8bbd 8695 07be a911 de3d a2e2 05be
000000d0: 1f12 f83d 097a c0bd 89cb 33be 9215 cf3d
000000e0: d152 edbd 7340 3ebe a1b7 1bbe 4d59 3e3d
000000f0: 7127 25be d0e2 2b3e c87d 34bd 141f e33d

joint_model.model.3.weight f4 [64, 64]
0.05400288 -0.04130979 -0.100337245 0.02562032 0.07320983 0.028335912 -0.10444101 0.028180324
-0.10200313 0.050709788 -0.07569254 0.03805457 -0.061289106 0.067411676 0.058895502 -0.052970428
0.03932899 -0.06654344 -0.061662205 0.04761991 -0.10393244 0.042955242 -0.10634549 0.063181266
0.07243303 0.10321774 0.050343774 0.043976363 0.044231936 -0.02564458 -0.12329392 0.064532936
0.037960634 0.05436108 -0.105225414 0.082239136 -0.07810724 -0.12006102 -0.0077663567 0.049654946
-0.027219465 0.030462274 0.06864548 -0.079313464 0.074247785 -0.09389412 -0.075717196 -0.12140313
-0.060338806 -0.07590788 0.03981779 -0.101906106 0.066155486 -0.05630222 -0.050861537 0.057654444
-0.051651206 -0.13522024 -0.0816815 0.021238172 -0.047440197 0.05335556 -0.019614894 0.061091203
0.012356497 -0.012764009 -0.05096971 -0.005491361 0.0130522745 -0.05550022 -0.116580874 -0.0026525662
0.04148647 0.0027275756 -0.007230164 -0.015350381 -0.018119732 0.01737196 0.0003064352 -0.04231356
-0.018255427 -0.05335837 0.045994375 0.0012258858 0.022819621 -0.011047544 -0.01999284 -0.036632966
-0.0010094827 -0.010053245 1.518029e-05 -0.06439339 -0.05644954 -0.04026691 0.0042993617 -0.020428618
-0.009731496 -0.01117497 0.0014634632 0.0013572524 0.00496733 -0.048790053 0.026728494 -0.0066068876
-0.07463738 -0.03623928 0.021162936 0.0004706195 -0.0023576303 -0.022398869 0.03146189 0.0071408637
-0.03536238 -0.0074129584 -0.016375689 0.06324455 -0.030666318 -0.044093914 -0.020236164 -0.011816867
-0.025578462 -0.016386855 0.021487555 0.0029815012 -0.0048808986 -0.000993364 -0.043364927 -0.020338124
0.07477922 -0.009216506 -0.055031665 -0.010213557 0.054758124 0.038835034 -0.10329149 0.070159495
-0.07636095 0.049968027 -0.06508827 0.06778127 -0.051010028 0.05555058 0.058223717 -0.06005361
-0.008032799 -0.056575656 -0.08263245 -0.18638559 -0.09880466 0.07869736 -0.078376085 0.10793871
0.057921056 0.03816718 0.053685743 0.09625402 0.106330864 -0.17377514 -0.13346678 0.014652026
0.048362903 0.08647729 -0.1313894 0.099863574 -0.102821805 0.13592346 -0.07955894 0.07457257
-0.03809402 0.10274711 0.017749917 -0.06446455 0.055590454 -0.09262236 -0.0651446 -0.12852743
-0.013192729 -0.07120346 0.09051763 -0.100813 0.09634127 -0.104529925 -0.16060124 0.05667059
-0.038506575 -0.16785125 -0.06394447 0.1701585 -0.048516985 0.04274786 -0.0022593352 0.059769113
0.0071373847 -0.011824992 -0.08477873 0.0017029569 0.00788565 0.01777873 -0.022423243 0.013562971
-0.007965982 0.025158187 0.016031029 -0.007908523 1.4080322e-05 0.034037266 -0.0011573703 -0.014068583
0.018228464 -0.030575205 0.052454613 0.009144137 -0.011432579 -0.013735072 -0.009374857 0.018964872
0.002195578 0.029553132 0.0015572178 -0.0041650916 0.008226858 0.046153855 -0.040194247 0.005704954
0.012450277 -0.0029162455 -0.015202078 -0.012898694 -0.015454146 -0.15474515 0.016626734 0.013341581
-0.005717819 0.0035684747 0.0155241145 -0.017609311 0.0076350584 0.034844458 0.018401437 -0.015302056
0.0039884094 -0.002827874 0.010483529 0.0022031767 0.017972989 -0.028272519 -0.003029537 -0.0019881944
-0.022062344 -0.004505086 -0.054236185 -0.08387922 -0.0022411589 0.0012073766 0.019129772 0.013875932
00000000: 2032 5d3d 7434 29bd 9d7d cdbd b5e1 d13c
00000010: 09ef 953d b720 e83c 2be5 d5bd 6cda e63c
00000020: 04e7 d0bd 11b5 4f3d b104 9bbd 1cdf 1b3d
00000030: 490a 7bbd 220f 8a3d 693c 713d 85f7 58bd
00000040: 6f17 213d ed47 88bd 8291 7cbd 180d 433d
00000050: 88da d4bd d6f1 2f3d aacb d9bd 2e65 813d
00000060: c557 943d d363 d33d 4635 4e3d 8f20 343d
00000070: 8c2c 353d 9514 d2bc 8681 fcbd d829 843d
00000080: 9c7c 1b3d b9a9 5e3d 6c80 d7bd fe6c a83d
00000090: b0f6 9fbd 8de2 f5bd ec7c febb fc62 4b3d
000000a0: 5bfb debc 058c f93c 0096 8c3d 196f a2bd
000000b0: 390f 983d 8f4b c0bd 9e11 9bbd 34a2 f8bd
000000c0: d325 77bd 9775 9bbd fb17 233d 26b4 d0bd
000000d0: 877c 873d 289d 66bd 3054 50bd 1127 6c3d
000000e0: 3790 53bd 2d77 0abe a148 a7bd adfb ad3c
000000f0: a750 42bd 5c8b 5a3d 6aaf a0bc c53a 7a3d
00000100: e872 4a3c 2220 51bc 9dc5 50bd e0f0 b3bb
00000110: 35d9 553c 3354 63bd f4c1 eebd add6 2dbb
00000120: b7ed 293d 20c1 323b 03eb ecbb 2a80 7bbc
00000130: d56f 94bc a44f 8e3c 09a9 a039 fc50 2dbd
00000140: 688c 95bc 4e8e 5abd 9964 3c3d e7ad a03a
00000150: 37f0 ba3c c200 35bc 06c8 a3bc 730c 16bd
00000160: 9e50 84ba 5eb6 24bc d9ae 7e37 afe0 83bd
00000170: a237 67bd eaee 24bd a9e1 8c3b eb59 a7bc
00000180: da70 1fbc 3917 37bc add1 bf3a d5e5 b13a
00000190: fcc4 a23b 14d8 47bd b7f5 da3c 977e d8bb
000001a0: 7cdb 98bd a46f 14bd e55d ad3c 7bbd f639
000001b0: 7982 1abb d57d b7bc 2fde 003d e8fd e93b
000001c0: 25d8 10bd 67e8 f2bb 4f26 86bc 5c86 813d
000001d0: ee37 fbbc d29b 34bd 50c6 a5bc 889b 41bc
000001e0: ec89 d1bc ba3d 86bc ab06 b03c 4a65 433b
000001f0: f2ef 9fbb c433 82ba 6c9f 31bd 239c a6bc
00000200: d925 993d d400 17bc e268 61bd c356 27bc
00000210: 0e4a 603d 7c11 1f3d 7d8a d3bd c8af 8f3d
00000220: 2163 9cbd 46ab 4c3d 004d 85bd e8d0 8a3d
00000230: e4ef 50bd 0189 633d fe7b 6e3d c6fa 75bd
00000240: 009c 03bc e0bb 67bd 343b a9bd dddb 3ebe
00000250: 195a cabd 152c a13d a483 a0bd f80e dd3d
00000260: a13e 6d3d 3055 1c3d 95e5 5b3d d420 c53d
00000270: ffc3 d93d 1cf2 31be 84ab 08be 0d0f 703c
00000280: 2e18 463d 011b b13d f18a 06be 4685 cc3d
00000290: 3d94 d2bd 852f 0b3e ccef a2bd 81b9 983d
000002a0: 7a08 1cbd 146d d23d 4668 913c fd05 84bd
000002b0: d1b2 633d cbb0 bdbd 886a 85bd b29c 03be
000002c0: 5126 58bc 1fd3 91bd 4f61 b93d 0c77 cebd
000002d0: 924e c53d c913 d6bd a774 24be 6c1f 683d
000002e0: 12b9 1dbd 33e1 2bbe 51f5 82bd 083e 2e3e
000002f0: bfb9 46bd 6118 2f3d 5b11 14bb 75d0 743d
00000300: b9e0 e93b 9cbd 41bc 79a0 adbd c035 df3a
00000310: d032 013c b3a4 913c f3b0 b7bc 3937 5e3c
00000320: c083 02bc 8b18 ce3c 8153 833c c092 01bc
00000330: 863a 6c37 a96a 0b3d e7b2 97ba ea7f 66bc
00000340: dc53 953c da78 fabc a6da 563d 4ad1 153c
00000350: b64f 3bbc 1109 61bc 0099 19bc 385c 9b3c
00000360: b0e3 0f3b 6919 f23c 8f1b cc3a 527b 88bb
00000370: f2c9 063c d30b 3d3d b9a2 24bd 9ff0 ba3b
00000380: 3ffc 4b3c 7b1e 3fbb 2312 79bc 0b55 53bc
00000390: 6333 7dbc 8375 1ebe ca34 883c a696 5a3c
000003a0: 8b5c bbbb 12dd 693b db58 7e3c 6741 90bc
000003b0: 832f fa3b 10b9 0e3d 9cbe 963c 7ab5 7abc
000003c0: 34b1 823b da53 39bb 1cc3 2b3c 2c63 103b
000003d0: 173c 933c c59b e7bc 328b 46bb 5e4c 02bb
000003e0: 17bc b4bc 679f 93bb c326 5ebd dec8 abbd
000003f0: 68e0 12bb d640 9e3a 0ab6 9c3c e157 633c

joint_model.model.3.bias f4 [64]
0.09386778 -0.015416229 0.055432715 0.027188985 0.07428522 0.023499686 0.0639201 0.0083782775
0.07443159 0.002822228 0.07004957 -0.019813351 0.08506179 -0.010198042 0.078681916 0.015508966
0.06545873 0.005123538 0.07434415 -0.003555835 0.057512067 0.0014792391 0.0834041 0.00050884695
0.09326116 -0.006610183 0.08511886 -0.0045140246 0.05698774 -0.02074073 0.07224191 -0.0040691975
0.0 0.0 0.0 0.0 0.0 0.0 0.0 0.0
0.0 0.0 0.0 0.0 0.0 0.0 0.0 0.0
0.0 0.0 0.0 0.0 0.0 0.0 0.0 0.0
0.0 0.0 0.0 0.0 0.0 0.0 0.0 0.0
00000000: c03d c03d 5a94 7cbc 6a0d 633d 6fbb de3c
00000010: d922 983d 6a82 c03c 8be8 823d 0b45 093c
00000020: 976f 983d 21f5 383b 2676 8f3d 9c4f a2bc
00000030: e034 ae3d b015 27bc fc23 a13d 5119 7e3c
00000040: 3a0f 863d 5ae3 a73b bf41 983d 0309 69bb
00000050: c691 6b3d 07e3 c13a c5cf aa3d 2464 053a
00000060: b5ff be3d 3c9a d8bb cc52 ae3d 62ea 93bb
00000070: fa6b 693d 77e8 a9bc 91f3 933d e756 85bb
00000080: 0000 0000 0000 0000 0000 0000 0000 0000
00000090: 0000 0000 0000 0000 0000 0000 0000 0000
000000a0: 0000 0000 0000 0000 0000 0000 0000 0000
000000b0: 0000 0000 0000 0000 0000 0000 0000 0000
000000c0: 0000 0000 0000 0000 0000 0000 0000 0000
000000d0: 0000 0000 0000 0000 0000 0000 0000 0000
000000e0: 0000 0000 0000 0000 0000 0000 0000 0000
000000f0: 0000 0000 0000 0000 0000 0000 0000 0000
