energy_sampling/results_pis_architectures/many_well/clipping_lgv_100.0_gfn_10000.0_gfn/bwd/bwd_tb/T_100/tscale_1.0/lvr_4.0/seed_12345/model.pt (torch, 183012 bytes, 23 tensors)

t_model.timestep_phase f4 [1, 64]
00000000: 086d 7bbf e4c6 773e 9932 163f 2fcb c5bd
00000010: f5a0 f1be 81de 11be aaa1 243f b636 143f
00000020: c2c8 46bf ac6a bd3c f54f 273f 9054 133f
00000030: 2d53 d6be 02d6 6dbf b9f3 3c3f fbec 58bf
00000040: c70c 81bf 212d 28bf 4997 4cbf 52df eebf
00000050: fd00 643f 3afa 8a3f e493 823f 16f6 f0bb
00000060: ce14 c13e cebc 8dbf 2cca 3f3f bd9c 393e
00000070: aea7 0840 4094 3440 5721 2d3e 04da 2ebf
00000080: 0b2d 4e3f 1555 8c3f 0e1c 62bf 21af 2f3f
00000090: 85c0 623f f0a9 de3e 5eee ff3f 6c9a eabf
000000a0: f2f9 993e 7235 a1bf a89e 38bf 85ac 163e
000000b0: f681 d63f 4538 99be 6d29 1f3f 94f3 a13e
000000c0: 83c7 a6bc 897d 0ebf 44cd 2e3f 4d67 c03f
000000d0: e0db 523f be3d 02be 3d2d 513e fd67 2fbd
000000e0: 7fd2 283f 7cbe 9ebf f914 4abf 8859 4fbf
000000f0: b6cc f5be 0ac3 e1be 2002 20be 9523 6c3f
-0.98213243 0.24196965 0.58670956 -0.09657895 -0.47193113 -0.14245035 0.6430918 0.5789598
-0.7765008 0.023122154 0.6535638 0.5755091 -0.41860333 -0.92904675 0.7380939 -0.84736603
-1.0082024 -0.6569386 -0.7991834 -1.8661902 0.8906401 1.0857613 1.0201383 -0.0073535545
0.37711185 -1.1073244 0.74917865 0.18126197 2.1352344 2.8215485 0.1690725 -0.68301415
0.8053748 1.0963465 -0.8832406 0.686266 0.8857501 0.43489027 1.9994619 -1.8328376
0.30073506 -1.2594435 -0.7211709 0.14714248 1.6758411 -0.29925743 0.62172586 0.31631148
-0.020358806 -0.556603 0.6828196 1.5031525 0.8236675 -0.12718865 0.20427413 -0.04282378
0.6594619 -1.2401881 -0.7893825 -0.8099599 -0.48007745 -0.44094115 -0.1562581 0.92241794

t_model.pe f4 [1, 64]
00000000: cdcc cc3d 7dc5 d73f 165f 5140 b76d 9b40
00000010: e32b ce40 0875 0041 1ed4 1941 3433 3341
00000020: 4a92 4c41 60f1 6541 7650 7f41 c657 8c41
00000030: 5107 9941 dcb6 a541 6766 b241 f215 bf41
00000040: 7dc5 cb41 0875 d841 9324 e541 1ed4 f141
00000050: a983 fe41 9a99 0542 5ff1 0b42 2549 1242
00000060: eaa0 1842 b0f8 1e42 7550 2542 3ba8 2b42
00000070: 0000 3242 c657 3842 8baf 3e42 5107 4542
00000080: 165f 4b42 dbb6 5142 a00e 5842 6666 5e42
00000090: 2cbe 6442 f115 6b42 b66d 7142 7cc5 7742
000000a0: 421d 7e42 843a 8242 6666 8542 4992 8842
000000b0: 2cbe 8b42 0eea 8e42 f115 9242 d441 9542
000000c0: b76d 9842 9a99 9b42 7cc5 9e42 5ff1 a142
000000d0: 421d a542 2449 a842 0775 ab42 eaa0 ae42
000000e0: cdcc b142 b0f8 b442 9224 b842 7550 bb42
000000f0: 587c be42 3aa8 c142 1dd4 c442 0000 c842
0.1 1.6857144 3.2714286 4.857143 6.4428573 8.028572 9.614286 11.200001
12.785715 14.371429 15.957144 17.542858 19.128572 20.714287 22.300001 23.885715
25.47143 27.057144 28.642859 30.228573 31.814287 33.4 34.985714 36.57143
38.157143 39.74286 41.32857 42.914288 44.5 46.085716 47.67143 49.257145
50.842857 52.42857 54.014282 55.6 57.185715 58.771427 60.35714 61.942856
63.528572 65.11429 66.7 68.28571 69.87143 71.45714 73.042854 74.62857
76.21429 77.8 79.38571 80.97143 82.557144 84.14285 85.72857 87.314285
88.9 90.48572 92.07143 93.65714 95.24286 96.82857 98.41428 100.0

t_model.t_model.0.weight f4 [64, 128]
00000000: 6ffa ec3c 9159 f4bd ee42 003c a6be 213d
00000010: 0a1c 02be 0fd2 203c e015 6f3c 58c2 393d
00000020: 4255 74bd a8cf 3bbc 51d1 893d 3c28 b63d
00000030: 6402 f53c 78a7 313d 63bb 2ebd ca6f a9bb
00000040: 5f7a 863d 0d3d bebd 7621 253d f627 72bd
00000050: 0a7f 9abd 37e2 203c 2b84 9cbc ea62 9cbd
00000060: c256 c9bb 43ad 5bbd bf40 42bb dcd2 49bd
00000070: 8a7f f4ba 7000 c53d 734d dfbc 3bba 5ebd
00000080: 1fb2 39ba 0f3a a83d 4341 8e3d 4d38 c03c
00000090: ef54 c03c 5f6b 933d fe8c 063e 3ae0 323d
000000a0: f795 403c dca5 293d c8d7 493b ce6d b63d
000000b0: e3ce ae3d 57ff 3bbd 3320 bebd 34d4 41bc
000000c0: 9180 693c a926 ffbc 6f55 a03d b004 543c
000000d0: 4d42 16bd afbf 673d 64cf 31bd f7b3 3bbd
000000e0: bf55 b73c 31fd 81bd 83bf be3b e6e7 893b
000000f0: 70b0 6cbc 8cbe d73c 6ebd 00bd 569a debd
00000100: 72e5 8cbd 9c45 4b3c 772c ccbc 9b02 85bd
00000110: 1d35 1dbb 106e 38bc 3460 34ba 5c5a d3bc
00000120: 7486 bcbd b819 4e3d 2b19 c3bc a935 743d
00000130: 4cc0 d63c 6394 30bd 7ff0 7fbd aaa2 18bd
00000140: d641 0fbd 71cb 2f3c 144f ff3c 1483 c83c
00000150: 11df 97bd 92d3 28bc 73ac a6ba 80ba 83bc
00000160: a247 f1bc 9d51 823d 87f1 85bd 063d abbd
00000170: 051c 85bd 8948 aa3c 109b 9a3d 448e 96bd
00000180: 4a45 ce3c 52c8 543d d218 963c 268f 243d
00000190: fd1f 363b c99e e03d 4b29 803c 134e 0e3e
000001a0: cb11 b93c 2c76 203d be51 b3bb f0e5 013b
000001b0: b93b 15bd f9fb 813d 2e70 7dbd 6fd7 2dbd
000001c0: 2250 3dbb 6050 ea3c 923f 893c a1e5 8b3d
000001d0: 7f8e 2b3d 52c9 503c 05ee aabc 2041 6f3d
000001e0: d9ba 963c b1cc 3dbd 2995 38bd 9bf5 c0bc
000001f0: c641 9dbc fbcc 8cbd 22cc 03bb be49 e43c
00000200: 72e4 653e 2722 4dbe 660e 5ebd f5b2 88bc
00000210: b589 233e b382 9ebd 8ed0 c4bc b500 693d
00000220: e2ba 0e3e da72 83bd ee37 9ebb 5079 c13d
00000230: e476 9c3d 3fae 213c 503b 14bd 4b19 95bc
00000240: 22b0 623d 52dd bfbd 5cbd 45b9 7fa5 4abd
00000250: f18f 79bd 3d46 09bd 1c34 ab3d 8459 ca3d
00000260: 0fae 07be b4ed 8ebd 7542 4abc 0a2a 583d
00000270: 18de a0bd 7213 0b3d c156 93bc ba4d f6bc
00000280: 4add 2fbd 01d3 23be 1518 e0bc c425 1d3e
00000290: ce19 303d 7afb 63bd 7070 c53d 1bd9 dabc
000002a0: 11fa d33c 26e5 073d b766 92bd 1706 d4ba
000002b0: 6cf7 eebc ccc2 463d 71d6 a33c 5f08 4b3c
000002c0: 25af 633c 2e9e 883d d852 52bc d4b0 dd3c
000002d0: 5d8d b6ba e5d0 c33c 79ab 473d c282 953d
000002e0: 9b02 ad3c 2f04 95bc 2e16 4ebd 78af 593c
000002f0: 50c3 36bd 87e1 b2bd 5f7a f3bc 4dd5 b2bc
00000300: 080d 6fbe ccd4 9cbc ea2b 2b3e ec4b 583d
00000310: 578b 77bc 68ad 25be 8179 643e 71ce 313c
00000320: b84c 23ba c468 ffbd 5850 f83d b017 f63c
00000330: f902 043d b8de 3dbd 1012 0c3e 5929 213c
00000340: 2d5d 213d 46b4 98bd 91e0 38bb a9e2 d33d
00000350: af29 b63c 82ba 7b3b f554 743d ea7e 6a3d
00000360: a849 0fbc 641f 78bd 56de eb3d 82b1 6abd
00000370: 371c 143e c359 f93c cf68 4b3d 856e 073d
00000380: 5b3b ecbd 4803 e93c df40 0fbd ff4b c5bd
00000390: a144 0fbe 734d 893d f551 a8bb 6242 543b
000003a0: aa4c 53bb 6fe7 5ebd 3935 b1bd 3451 933b
000003b0: e1a9 1dbd 59e1 b0bd 5e56 083d b6b5 6abd
000003c0: f2f0 093c d23b 1a3d 9016 1b3d aff7 d43c
000003d0: 5ce8 eebc d000 21bc 479c f13b 68d7 103c
000003e0: b769 813d 2b20 7ebd 01d7 94bb 51e7 a33d
000003f0: e653 83bd 4334 ff3c 5c6e 60bd 23e7 8fbd
0.02892801 -0.11931146 0.007828457 0.039488457 -0.12706009 0.009815707 0.014592618 0.045351356
-0.05965162 -0.011463083 0.06729377 0.08894393 0.029908367 0.0433726 -0.042659175 -0.005170797
0.06566309 -0.09288988 0.040315114 -0.05912014 -0.07543762 0.009819559 -0.019105991 -0.07636054
-0.0061443755 -0.053632032 -0.0029640642 -0.049273357 -0.0018653732 0.09619224 -0.02725861 -0.054376822
-0.0007083732 0.08214199 0.069460414 0.023464346 0.023478 0.07198214 0.13139722 0.04367087
0.011754504 0.04141794 0.0030798782 0.08907662 0.08535554 -0.045897808 -0.09283485 -0.011830378
0.014251844 -0.031146364 0.07828795 0.012940571 -0.036684323 0.056579288 -0.043410674 -0.045825925
0.022379754 -0.063471206 0.00582117 0.0042085527 -0.014446363 0.026335977 -0.031430654 -0.10869281
-0.06879701 0.012406733 -0.024923546 -0.064946376 -0.0023987957 -0.01125671 -0.00068807905 -0.025799923
-0.092053324 0.050317496 -0.023815712 0.059621487 0.026214741 -0.043110263 -0.062485214 -0.037264504
-0.034974895 0.010729657 0.031165637 0.024476565 -0.074155934 -0.010304349 -0.0012716189 -0.016080141
-0.029453102 0.06363223 -0.06540208 -0.08361249 -0.06499485 0.02078654 0.07549107 -0.07351354
0.025179524 0.051948853 0.018322382 0.04017558 0.0027790063 0.10967786 0.01564469 0.1389697
0.022591492 0.039175197 -0.005472391 0.0019820891 -0.03643391 0.06346888 -0.06187456 -0.04244178
-0.0028886874 0.028602779 0.016753945 0.068309076 0.04188394 0.012743311 -0.02086545 0.058411717
0.018399643 -0.046337787 -0.045064125 -0.023554614 -0.019196402 -0.068750344 -0.0020110686 0.027867194
0.22450426 -0.2003256 -0.05421295 -0.016686896 0.159705 -0.07739773 -0.024025228 0.05688544
0.13938478 -0.064183906 -0.0048284447 0.09446967 0.07639864 0.009868204 -0.036189377 -0.018200537
0.055343755 -0.093683854 -0.00018857926 -0.049474236 -0.06092829 -0.03351425 0.083595484 0.09880355
-0.13249992 -0.06978932 -0.012344946 0.052774467 -0.07854861 0.03395409 -0.017985703 -0.03006636
-0.042935647 -0.1599846 -0.027355233 0.15346438 0.04299336 -0.05565975 0.096405864 -0.026714852
0.025876077 0.033177517 -0.071484976 -0.0016176131 -0.029170714 0.048525617 0.019999715 0.012392133
0.013896738 0.066707954 -0.012837134 0.027061857 -0.0013927628 0.02390332 0.048747513 0.07300331
0.021119406 -0.018190471 -0.05031412 0.013286464 -0.04461986 -0.08734422 -0.029721437 -0.021830225
-0.23344815 -0.019144438 0.1671597 0.05280678 -0.015108905 -0.1617943 0.22311975 0.010852442
-0.00062293885 -0.12471154 0.12124699 0.030040592 0.032229397 -0.04635498 0.13678765 0.009836518
0.0393955 -0.074562594 -0.0028210024 0.10345966 0.022236673 0.0038410728 0.059651334 0.05724994
-0.008745588 -0.06057681 0.115170166 -0.05729819 0.14463888 0.03043831 0.0496605 0.033064384
-0.11534759 0.028443947 -0.034973975 -0.09633636 -0.13991024 0.067042254 -0.005136723 0.00323882
-0.003224174 -0.05441993 -0.086527295 0.004495764 -0.038492087 -0.08636732 0.03328549 -0.0573022
0.008419262 0.037654705 0.037863314 0.025997011 -0.029163532 -0.009826854 0.007373366 0.008840419
0.06318992 -0.062042397 -0.004542232 0.080031045 -0.06412487 0.03115285 -0.054792747 -0.07026508

t_model.t_model.0.bias f4 [64]
00000000: ca03 9d3b 0273 88be 1211 27be 75c6 bb3d
00000010: e186 fbbc e2d9 85bd 4328 5abd e339 3abe
00000020: a629 79bd a7d6 0a3e 238e 04bd a886 24bd
00000030: 8fee d2bc 52d6 403c 9c06 84be c625 8a3c
00000040: fb45 5abe 8388 71bc 0c36 2abe 7a94 f8bd
00000050: bd6b 45be 2ad9 803d b6c6 33be a449 0abe
00000060: db1a 15bd 222e a3bd 0ee6 86bd 2127 323d
00000070: 7c1e 81bc b516 bfbd 2536 24be 14f9 00be
00000080: 0f62 7a3d a999 80bc c7be 68bc 2787 023e
00000090: a420 27be f1af f5bd 480c 5fbe 680c c03e
000000a0: c950 9dbd aeb1 53be 44b7 84be 0073 06be
000000b0: d40f 42bc 4e65 a3bd 0339 943d b220 ecbc
000000c0: 1edd 16bc 6865 33be ba4a 6cbe 7bc0 ae3c
000000d0: 24d5 59bb ba63 8e3d dbae 593e 9ca6 70be
000000e0: cd95 9abd cbec 81bd 10c5 373d 7813 f8bd
000000f0: 9de5 8b3d ba68 12bc ace5 7bbe 4da2 23be
0.0047917115 -0.26650244 -0.16315106 0.09168712 -0.030703964 -0.065356985 -0.053261053 -0.18186145
-0.060830735 0.13558446 -0.032362115 -0.04016748 -0.02574852 0.011769848 -0.25786293 0.016863715
-0.21315758 -0.01474202 -0.1662218 -0.12137695 -0.1927938 0.06291421 -0.17556271 -0.13504654
-0.036402564 -0.079677835 -0.06586848 0.043494347 -0.015761606 -0.09330503 -0.1603628 -0.12595016
0.061128672 -0.01569827 -0.014205641 0.12746869 -0.16321045 -0.11996449 -0.21782029 0.37509465
-0.07681424 -0.20673248 -0.2592107 -0.13129807 -0.011844594 -0.07978307 0.072374366 -0.028824184
-0.009207992 -0.17519152 -0.23075381 0.021332016 -0.0033238614 0.06952615 0.21258108 -0.23501056
-0.075481035 -0.06343993 0.044865668 -0.12113088 0.06830905 -0.008936102 -0.24599332 -0.15979882

t_model.t_model.2.weight f4 [64, 64]
00000000: bb45 0b3d 7e84 aa3d 8673 1fbe 9ec6 e3bd
00000010: 629f 983c e143 0fbe bf58 163e 60bf ee3d
00000020: d92f acbd c6fc bcbd 139b c43c f290 fabb
00000030: 81d4 573c a5a0 9cbd b9db de3d 60a2 efbc
00000040: d874 ae3c 9f17 8a3a 339e 873c 7616 bdbd
00000050: a566 1e3d 3634 85bd 1d31 5239 7860 06be
00000060: 4502 3bbd e18a 9abb 5b18 62bd 6cd6 2dbd
00000070: 3094 0abe 6e79 5cbc 338e b43d 9557 bfbd
00000080: 52dc 233b 29c9 5abd 2031 35be 47e4 d73d
00000090: 1e18 233e fa4f d1bd 729e 313d e0eb b9bd
000000a0: 0179 9ebd 1cb4 93bd f8af 463a 6a19 8e3d
000000b0: cc98 bcbd 5b9a 123c 2752 d4bb de7c afbc
000000c0: f913 2c3d 2a31 773c d6c9 2c3e 3dfd a73d
000000d0: 67c4 e5bb b097 9b3e 8aa4 48be 3e71 2abd
000000e0: d083 153e 9892 2abe 1f47 11bd 8980 c83d
000000f0: ba24 b5bc 9af7 83bd ff32 bfbc b4cb 2a3c
00000100: c901 e2bd d3ad 25bc 3f24 56be b212 76be
00000110: c89e 01be 25db c4be 69d0 99bd ce05 bd3c
00000120: 0607 29be 079e 97bd 7e97 b2bd a07d e3bd
00000130: a79b f3bd 4b8f 35be 244d 023c b8bf 45be
00000140: 1b19 cebd 249a edbd 9a43 13be 1469 19be
00000150: bf5b 9b3c de3d 9fbd e2d5 08be 943d 43be
00000160: 54b9 edbc 9093 c6bd 5238 f5bd f06f 03be
00000170: 04eb acbe 17ac 86be 5a30 febd d8d0 8abe
00000180: b6e4 e7bd 4d69 23bc 080e 9abe 8470 fd3d
00000190: 6721 b43d db9e 93be b38a 09bd b82e 63be
000001a0: 93bb 01be 42f6 3f39 244b 863d e512 bf3c
000001b0: 3b11 01be a6c3 c7bc e9b2 32be ea38 2cbe
000001c0: 5c90 54be bb76 813d 94c7 563d 7029 273d
000001d0: 5f0c 93be 6822 753e c3d8 25be e9bc 1b3d
000001e0: ade4 06be 8392 7fbe c372 06be e4de a73c
000001f0: 3caa 32bd 6a2d 3b3d cb31 02bd 30db 86be
00000200: 2e40 47be 97e4 183d 3699 fdbd 71e8 61be
00000210: a004 23be 1e40 92be fd5b 05bc 2d5d 39be
00000220: 98a9 a3bd 5de7 22be bd46 8bbd 3ade 29be
00000230: dfe3 46be 8a14 64be 651f 723e 0e27 6bbd
00000240: bae7 17bd 0b01 4dbe e67d 32bd 50f5 86bd
00000250: f5c9 82bd 013b 5abe 5569 ffbd c591 66bd
00000260: 9ab0 b23c 6795 5fbe 6eb7 9cbd f22e bbbd
00000270: a3b2 9ebe 1aff 7abe 6cd6 613c 6f3e cabd
00000280: d4e6 3cbe 352d 01be f978 a4be a394 b73c
00000290: 061e b43d b62d 03be 1402 b7bc 19dd cbbe
000002a0: 6bb6 6cbe 7779 4f3d c33d 2f3e 9b8d 53bb
000002b0: 172f a8bd 4ac6 b2bd 694a 6abe 187d 73bd
000002c0: d2c6 65be f05a 923e 2396 2bbd d094 09be
000002d0: 0e52 9bbe 8a22 543d a2c9 b1be bb38 483c
000002e0: 8cd5 033d db80 f4bd 94c5 f1bd 9985 75bd
000002f0: 1b3d 5abd 503b b8bd fbda 543b 4da5 42be
00000300: 52e5 383d 86fa 21be 219d eebd 6165 87bd
00000310: c232 543c 68a4 0abc efa4 a63d 7ad1 b6bd
00000320: cd96 98bd 73fe 033d 4a34 1e3d ef5c b53c
00000330: ec2c 783c d1a1 9f3c e411 9f3c 2ca8 1f3d
00000340: 4daf 9ebd d0fc f4bc f2c6 9bbd ff7c a33c
00000350: 0a46 203d 54ff 923d 43b4 713d b35d 81bd
00000360: 58ad 78bb c8d0 e2bd f055 adbd ceca 05bd
00000370: 25aa 43bd 8c98 ce3c 612e d4ba 518a 9fbd
00000380: df45 2cbd 36bf 73bb 045d 243d d8bb 073e
00000390: 3a00 8a3d 38e5 80bd deeb 08be 4cbe 69bd
000003a0: 0bf4 1bbd 04d0 92bc a809 c4bd 1099 2d3d
000003b0: 3c65 eebd 2083 3ebc e9fd 9abd 7486 a3bc
000003c0: c5b8 f63c 4a42 533d 31ae 3bbc 455e a73d
000003d0: 29b7 69bd 37e7 f33d 5671 78bd d784 71bd
000003e0: 0aab 8fba 73be b0bc 20c4 6e3d a1e8 053d
000003f0: 4ba9 033c 587f 603d 1b7e 233d 6749 babd
0.034002047 0.08326052 -0.15571412 -0.111218676 0.018630687 -0.13990737 0.14682291 0.11657596
-0.08407564 -0.092279 0.023999726 -0.0076466734 0.0131732235 -0.07647828 0.108817525 -0.029252231
0.02129595 0.0010535604 0.016554927 -0.092328 0.03867211 -0.06504099 0.00020045457 -0.13122737
-0.04565646 -0.0047162627 -0.05519901 -0.042440817 -0.13533092 -0.0134566855 0.08816185 -0.09342877
0.0025003147 -0.053414498 -0.17694521 0.10541587 0.15927169 -0.102203324 0.043363996 -0.09078193
-0.077379234 -0.072120875 0.0007579322 0.06938441 -0.09208831 0.008947934 -0.00647952 -0.021421846
0.042011235 0.015087405 0.1687387 0.08202598 -0.0070119384 0.30389166 -0.19594017 -0.041611902
0.14601064 -0.16657484 -0.035468217 0.09790141 -0.02211224 -0.064437106 -0.023339747 0.010424543
-0.11035497 -0.010112244 -0.20912264 -0.24030569 -0.12658226 -0.38448444 -0.07510454 0.023074057
-0.16506585 -0.07403188 -0.08720301 -0.111079454 -0.11894923 -0.17730443 0.007952962 -0.19311416
-0.10063382 -0.116016656 -0.14381257 -0.1498149 0.018964646 -0.07775472 -0.1336284 -0.19066459
-0.029019035 -0.09696114 -0.11973633 -0.1283567 -0.33773053 -0.2630317 -0.12411566 -0.2711246
-0.1132292 -0.009973836 -0.3008883 0.12374976 0.087954335 -0.28832135 -0.03357954 -0.2218579
-0.1266921 0.00018306918 0.06557301 0.02332444 -0.12604229 -0.024385285 -0.17451061 -0.16818586
-0.20758194 0.06321474 0.052436426 0.040811002 -0.28720376 0.23938906 -0.1619597 0.038021956
-0.1317317 -0.24958234 -0.13129716 0.020492025 -0.04361938 0.045697607 -0.031785768 -0.26339102
-0.19458076 0.037327375 -0.12382738 -0.22061326 -0.15919733 -0.28564543 -0.0081396075 -0.1810195
-0.07991332 -0.1590857 -0.06800602 -0.16588679 -0.19422863 -0.2227346 0.23644789 -0.057410292
-0.037086226 -0.20019929 -0.043577097 -0.065897584 -0.063861765 -0.2131157 -0.12471262 -0.05629136
0.021812726 -0.21834336 -0.07652174 -0.091398135 -0.30995664 -0.24511376 0.013784032 -0.098751895
-0.18447429 -0.12614901 -0.32123545 0.022409743 0.08794789 -0.12810406 -0.022339858 -0.39817122
-0.23116462 0.050652947 0.17113404 -0.0032280448 -0.08212107 -0.08729227 -0.22879948 -0.05944547
-0.22439125 0.28585005 -0.04189123 -0.13435674 -0.3033604 0.05179075 -0.34724146 0.012220557
0.032186076 -0.1193864 -0.11805263 -0.05994186 -0.05328093 -0.08995688 0.0032479155 -0.1900837
0.045140572 -0.15818223 -0.11651064 -0.06611133 0.012951555 -0.008462049 0.08136927 -0.08926673
-0.07450638 0.032225084 0.038624085 0.02213904 0.015147429 0.01948634 0.01941771 0.03897874
-0.0774828 -0.029905707 -0.07606305 0.019957064 0.039129294 0.07177606 0.0590098 -0.063167
-0.0037945118 -0.11074978 -0.08463657 -0.032664113 -0.047769684 0.025219224 -0.0016188138 -0.07790054
-0.04205882 -0.0037192828 0.04012777 0.1325525 0.067383245 -0.0629372 -0.13371226 -0.057066247
-0.038074534 -0.017921455 -0.09572154 0.0423823 -0.11640403 -0.011627942 -0.07567961 -0.019961573
0.030117402 0.05157689 -0.011455105 0.08172277 -0.05705944 0.11909335 -0.06065496 -0.058964577
-0.0010961008 -0.021575188 0.058292508 0.032692555 0.008035968 0.054808944 0.039915185 -0.09096032

t_model.t_model.2.bias f4 [64]
00000000: d9da 67bd f07c 11be 04b6 36bd a42a 9c3c
00000010: 4ab1 b0bd cf6c 3d3e 6724 9b3d 671e ec3d
00000020: 9cba 19be 81d2 c5bc b97e 6f3d 75c8 613c
00000030: 3802 83bd 9c83 7abe 0f61 26bd f49c 413e
00000040: bb13 35be 1207 a93d ebe7 56bd 9e25 84bd
00000050: 11ce b9bb 461f 8f3e cc29 e43d 07dd 073d
00000060: 1fa7 863d d463 f63d 1fa0 68be 01ed e6bb
00000070: a9b1 40be 018c debc bd51 9ebd b793 433c
00000080: b068 4abe f90d 0dbe ad10 333d 37bb d23d
00000090: d337 913c 1433 14be 85ef 0ebd 13ac 8a3d
000000a0: 2ccc b1bd ab05 8bbb 6b8c 893d 255c 27be
000000b0: 7cda 313e 8459 c83d 62ea 633e 4940 3fbd
000000c0: 00e3 9abb 4431 823d ae48 67bc 47c7 c43d
000000d0: fbc2 ab3d d2fb 463e a75c c1bb cc0b 423e
000000e0: dc5a 7c3e 9e00 113e 11cb 183e 2e93 af3d
000000f0: 00a1 9c3d b000 513e f7c1 353e e60a e23d
-0.056605194 -0.14207816 -0.044607177 0.019063301 -0.08627565 0.18498538 0.075753026 0.11529236
-0.15012592 -0.024148228 0.05847046 0.013780703 -0.063969076 -0.24464267 -0.040619906 0.18907529
-0.17683308 0.08253302 -0.052467268 -0.064524874 -0.005670317 0.27953547 0.111407846 0.033169772
0.065748446 0.120307595 -0.22717331 -0.007047296 -0.18817772 -0.027166368 -0.07730434 0.011937073
-0.19766498 -0.13774861 0.043717075 0.10289615 0.017726814 -0.1447261 -0.034896392 0.06771102
-0.08681521 -0.004242619 0.06716236 -0.16343744 0.17368501 0.09782699 0.22257379 -0.046692166
-0.0047267675 0.06357053 -0.014116449 0.09608322 0.08386799 0.19432 -0.0059009376 0.18949813
0.24644035 0.14160392 0.14921214 0.08572994 0.07647896 0.20410419 0.17749773 0.11037235

s_model.x_model.weight f4 [64, 32]
00000000: c2e4 a43d 8a02 323c c922 223f b3d5 92bb
00000010: a62b 5d3e 231b 3ebc b232 c9bd b161 c2bb
00000020: 7e67 40be 864f fe3c 39ed 73bc 8b34 b0bc
00000030: e7b2 05bf a765 cd39 8142 fe3c 8bc1 d03c
00000040: 564d aebe 8878 04bb c801 603a 80d0 c43c
00000050: 6d15 3cbe 5094 c83b 0977 9dbd 5ac9 ed3c
00000060: d0ad a7bd eabf 95bc 3c19 febd 022e ebbb
00000070: 61a2 5b3e c737 82bb d718 97bd cbfd eabc
00000080: bb61 04be 9765 3e3c 6515 bcbd 9d21 d63c
00000090: bdd0 713a f6ad 53bb 5a40 14be e38a c0bc
000000a0: e9f4 efbc 20d8 573d e706 a6bc a0ef e0bb
000000b0: fed4 6cbe 8d96 8c3c 7d56 a7be 017d 06bd
000000c0: 87f4 efbe ebe7 783c eb68 25be dba1 81bc
000000d0: 8d52 89bd 5ec5 743d a934 d6bd b73a 07bb
000000e0: 1d93 8dbd a740 043d 159d 65bd 68c9 42bd
000000f0: 2579 b8bd 0d07 81bd 8b46 1cbe 67bb 4cbc
00000100: 3efd ef3d aebf 16bd 5497 0fbe 0182 d4bc
00000110: 2baf 84be 096e 2ebc 6465 2ebe a4c3 0a3d
00000120: be64 70bd eb21 293c 2a78 f3bd 2473 8bbd
00000130: ef12 87bd 6e87 eabc 1c99 19be a36f 8f3d
00000140: d952 1abd 6eb0 8c3c faa0 48be f5a4 8e3d
00000150: cca5 15be a56f a33c b7a4 a9bb da96 19bd
00000160: 8b9f 71be e52f eb3c 5387 5dbe 5cdd 7b3d
00000170: 8019 80bd c0c9 93bd c2d2 29be 333e 33bd
00000180: 5652 19bd ddb6 2e3c c5e7 9a3e 04c3 7fba
00000190: 56fe bc3c 55ed bcba 75bd 7ebd d80f 66bb
000001a0: 708a cdbe 5963 d6bb 5d8e c9bc fcff 253c
000001b0: 3555 4b3e ee05 06bd 7536 4d3d c752 1c3c
000001c0: e557 bc3e e510 cf3c c06f 28bc 265c 513c
000001d0: 2548 3cbe 9f6f 2ebc 1cc8 ba3d 62a0 8c3c
000001e0: 26f2 41be e6a9 633c 5414 83be 6efe 1c3c
000001f0: 433c 973d bb5c 613c 8b96 0e3e 97ee 1b3b
00000200: 06a9 bc3b c475 393c f240 67be 33d7 73bc
00000210: cd8b af3e 544b 43bb fe14 5bbd 827f 96bb
00000220: beab f9be 1e15 83bb fc81 283e c5bc c9bb
00000230: e9d5 b3bd 42f7 353c 5487 fb3a 42c0 05bd
00000240: 6eaf 163e 9474 91ba 3b8b 5dbe 5347 27bd
00000250: 553b 76bd ba6b 963c 7478 ae3d 1f5e ffbb
00000260: ef8b b43c 7e83 8e3c 37c2 35be dc71 1a3c
00000270: 686b f83e c74a 1d3c d31b 8cbd 4c51 c9ba
00000280: 5f6a 43be ce9d 993c 0bd5 d83d 8abb d9bc
00000290: d14c 6cbe c31a 833c 933f cc3d 6732 093c
000002a0: f905 c9bd e818 a13c 2728 283e 4b5d 6ebc
000002b0: 3d99 f73d 2e6c 133b 4975 893e c08a d63c
000002c0: eeb8 c43e 1dc4 62bb 6c33 24be 8cd4 ab3c
000002d0: 03a0 bbbd fd94 bcbb 7a4e 81bd 7706 cc3c
000002e0: 0899 26be bc52 5ebd 3706 02bd f276 36bd
000002f0: f56e 1a3e a02b e6bb 51bf 8ebe 1d4e cbbb
00000300: eaf8 da3b 6fb1 cc3c fd9c 39be c563 0abc
00000310: e5f2 8abd b58c b8bb 0c53 12be 37ce 813b
00000320: be8c 803c b5ba 7d3c ca35 c43c d66c e33c
00000330: 3d15 0abd 78cb adbc 2ced ce3d 32e6 57bc
00000340: a50e 883e 9945 4fbc 9f1b 10bf 1273 80bc
00000350: a1a9 093e bb26 a03c 29ee 3d3d af2c 4f3c
00000360: bb8e 9a3e b5af 903c 48db 8e3d cdd5 50ba
00000370: f71a 4a3e 03ed 7dbc 2d8d 903e 6944 2bbd
00000380: 3fa5 a9bd 0be2 bcbc 4ca1 8c3d b2cd afbc
00000390: 4586 243e 0e2f 0c3c 01f9 9fbe 6b58 4c39
000003a0: 4391 d43d 226f 95bc 2fe1 2ebe ea00 91bc
000003b0: cdf0 adbd a3cd 27bb b348 26be eefb a53c
000003c0: f9df 9b3c 67ca 373c 676b 8d3e 82f4 c03c
000003d0: 018d 963d 2317 97bc 419e 24bd 31cc 9b3c
000003e0: 5485 d1bd 466e dabb ffb7 123e cbfc 82bb
000003f0: 98f3 a5bd 0efc 813a 92ef eabe 7667 13bc
0.080514446 0.010864863 0.6333433 -0.0044810413 0.21598682 -0.01160315 -0.098241225 -0.005932056
-0.18789479 0.03104378 -0.014888101 -0.02150943 -0.5222611 0.00039176384 0.03103757 0.025482913
-0.34043378 -0.0020213444 0.00085451873 0.024025202 -0.18367548 0.006121196 -0.0768872 0.029026676
-0.08187449 -0.018279988 -0.12407157 -0.0071771154 0.21448661 -0.0039739343 -0.07377785 -0.028685471
-0.12927906 0.011620901 -0.09183768 0.026139075 0.0009224525 -0.0032299734 -0.14477673 -0.023503726
-0.029291587 0.052696347 -0.020266963 -0.006864503 -0.23128125 0.017161632 -0.32683173 -0.032834057
-0.46866247 0.015192012 -0.16153304 -0.015824249 -0.067051984 0.059758537 -0.10459263 -0.0020634362
-0.06912825 0.03228822 -0.05605801 -0.047555357 -0.090074815 -0.06300173 -0.15261285 -0.012495852
0.11718224 -0.036803894 -0.14022571 -0.025940897 -0.25914893 -0.010646352 -0.17030865 0.033877984
-0.058689825 0.010323028 -0.11888154 -0.06809071 -0.06595408 -0.028629031 -0.14999813 0.07003715
-0.037676666 0.017173972 -0.19592658 0.06965057 -0.14614028 0.019950697 -0.0051771062 -0.03749738
-0.23596017 0.028709361 -0.21633653 0.0614904 -0.06254864 -0.07216215 -0.16584304 -0.04376049
-0.037432037 0.010663715 0.3025495 -0.00097565376 0.023070496 -0.0014413992 -0.0621924 -0.0035104658
-0.40144682 -0.006542605 -0.024604017 0.010131832 0.19856723 -0.0327205 0.050100762 0.00954122
0.36785808 0.02527661 -0.0102805495 0.012778318 -0.18386896 -0.01064673 0.09120199 0.01716632
-0.18940029 0.013895487 -0.25601447 0.009582145 0.07384541 0.013755019 0.13924615 0.0023793334
0.005757454 0.011319581 -0.22583368 -0.01488285 0.34286347 -0.0029799538 -0.053486817 -0.004592837
-0.4876384 -0.00400032 0.16455835 -0.0061565363 -0.087810345 0.011106314 0.0019190111 -0.032654054
0.14715359 -0.0011097365 -0.21635143 -0.040839504 -0.060115177 0.018361915 0.08519068 -0.0077932025
0.022039382 0.017396685 -0.17749868 0.00942656 0.48519444 0.009600348 -0.068412445 -0.0015359311
-0.19083546 0.018752005 0.1058751 -0.026578683 -0.23076178 0.016003972 0.09973063 0.008373833
-0.09815592 0.019665197 0.16421567 -0.01454861 0.12089775 0.00224949 0.26847294 0.026189208
0.3842234 -0.0034601756 -0.16035241 0.020975374 -0.09161379 -0.0057550655 -0.06313796 0.024905426
-0.16269314 -0.05427812 -0.03174421 -0.04454703 0.15081389 -0.0070242435 -0.27880338 -0.00620438
0.006682505 0.02498695 -0.18126293 -0.0084466385 -0.0678461 -0.005632008 -0.14289492 0.0039613503
0.015692111 0.015486409 0.02395143 0.027761858 -0.03371166 -0.021215186 0.10103831 -0.013177441
0.26573673 -0.012650871 -0.56292146 -0.01567987 0.13443615 0.019549718 0.046369705 0.012644931
0.3018702 0.017661909 0.06975418 -0.0007966429 0.19736849 -0.0154984025 0.2823271 -0.041813288
-0.08283471 -0.023057004 0.068667024 -0.021460388 0.16066845 0.008556141 -0.31244662 0.00019487894
0.10379269 -0.018241469 -0.17078088 -0.017700631 -0.08493195 -0.0025604747 -0.1623867 0.020261731
0.019027697 0.01121769 0.27621004 0.02355409 0.07351113 -0.01844365 -0.040189985 0.019018264
-0.102305084 -0.0066659776 0.14328001 -0.0039974204 -0.081031024 0.0009917037 -0.45885903 -0.008996835

s_model.x_model.bias f4 [64]
00000000: 5d18 3f3d f301 fa3c 764f 37be a862 13bc
00000010: bcf4 2e3e 1707 563e 6663 a63d cada 2b3e
00000020: c249 16bd 0aa5 d53d 99f0 1f3e 2ae2 d43d
00000030: 346f b5bd f349 a9be 4011 693d ca05 2b3d
00000040: 7fc6 7ebe db70 293e 5176 073e c635 ebbd
00000050: 6a65 82bd 2bed 843e cc49 473e 4f8f 323e
00000060: df47 7e3e fd1f 6d3e 7568 2fbe 0186 23be
00000070: 111b 46be 8444 ac3d da15 15bd fa1c 123d
00000080: 175b 5cbe cdb6 913d 5772 abbd 92f2 943e
00000090: 036c 523d 86fc 9dbe 7cb6 2e3d 1c39 0c3e
000000a0: 7cfd 0c3e ed98 543d 9861 1bbe 696d 61be
000000b0: 3378 5d3e 649a d03d ecc0 683e 2654 d4bd
000000c0: ea2e 613c 47c6 133e 72e7 25bd 0218 293e
000000d0: 6cb1 ccbd ce8b da3d 9acf 1cbe 08f8 a13e
000000e0: 986a 843e 1379 e73d 9efa d2bc c933 10bd
000000f0: 3f2c 07be b81e 3b3e 258a bb3d 711f c23d
0.046654094 0.030518508 -0.17901406 -0.008995689 0.17085546 0.20901142 0.081244275 0.1678268
-0.036691435 0.10431869 0.15619124 0.103947 -0.08859101 -0.3306423 0.056901217 0.041753568
-0.24880408 0.16546957 0.13228728 -0.11484866 -0.063669994 0.25962195 0.19461745 0.1743748
0.24832104 0.23156734 -0.17129691 -0.15969087 -0.19346263 0.08411506 -0.036397792 0.035672165
-0.21519123 0.071149446 -0.08371418 0.29091316 0.05137254 -0.30856723 0.0426545 0.1369366
0.13768572 0.051903654 -0.15173948 -0.22014393 0.21627884 0.10185698 0.22729844 -0.103676125
0.013744095 0.14431106 -0.040503927 0.16513065 -0.09994778 0.10671197 -0.15313569 0.31634545
0.25862575 0.1130239 -0.02575427 -0.035205636 -0.13200472 0.18273437 0.09157208 0.09478653

joint_model.model.1.0.weight f4 [64, 64]
00000000: 1163 83bd d7c1 58be 4c10 c4bd 739e 3abc
00000010: 8211 c13d 1d06 203e a210 f83d f3a7 0abe
00000020: fbcf cfbd 7a74 f93d 98f1 613d fd15 6cbd
00000030: ca42 e0be 945e bcbe 22fd b1bc 5159 193e
00000040: f4ad 83be 023f 183e aa51 41be 841a 8abd
00000050: c523 14bc 07cc 7bbc f84c e53d 507f e23b
00000060: fc63 a5bd 7a00 023e fd16 9bbe 5617 383e
00000070: c056 9cbe 77ab e7bd 8f01 3dbe ba74 85be
00000080: e214 06be 9c7d 5bbe 29b3 5dbb 284a f63d
00000090: 891f 72bd d9ee e7bd 8055 c1bb 9723 9a3d
000000a0: e4ee 18bd d0ee 91bd c447 bebe 4e43 4cbe
000000b0: 2413 56bd 3cd1 013c affe 953d b87e 93bd
000000c0: 0fc4 1fbc 816d 83be aa86 59be 1724 26be
000000d0: 07ea a0bc 2377 473e 7203 85be 47a1 8fbd
000000e0: 08c6 043e 1037 7a3d b416 7f3b c431 5dbe
000000f0: 4b06 a0be d9bd cb3d 046f 37bb c1f1 5f3c
00000100: 6985 fc3d df3a d03c 45e7 4bbe b0ae 413e
00000110: 252d 81bb f3c2 3abc 5528 2b3d faa9 db3d
00000120: 64c3 ba3d b47f af3e d099 9a3e 6ace 963e
00000130: 1fcb 02bf 60e1 1cbf 7af1 f5bd 8435 ae3d
00000140: 2479 e0bc 1e19 7e3e c3c0 dd3d 85bc ac3d
00000150: bbc9 1c3d 2792 a7be cd3e 0bbe 93e0 f43c
00000160: b597 763e c112 60bc bc7d 41bd b89e d13d
00000170: 49ee f53d 3f82 95be 22ac 36be d9b1 0cbe
00000180: 733b a5be 85fb 0b3e 80c0 0b3e 70a1 7c3e
00000190: 38df a3bd b336 283c 8fd7 92bd 2705 c73c
000001a0: a213 be3c 6c20 483e 45bd 72be 8eca 9c3e
000001b0: 41f7 a9be df4d f0bd 3b21 99bd 5150 cdbd
000001c0: 1bf0 a4bd c0d3 bfbf 9d3b febd 9aa0 493d
000001d0: 7d68 31bd bedd 5bbe 9771 e9be 099e 6b3e
000001e0: 370e dd3d 8665 b6be 11cf 123e e3db b6bd
000001f0: 02cb 8abe 420b 57bd 31b1 06bf 1d50 7bbd
00000200: 1610 b9bd bfb9 f4bd 48bf 26bd 658c e5bc
00000210: 23cd 47bd d809 c33d b5cb 073d f55e 403d
00000220: f8c2 d0bd 670f 8bbe 3e01 75be 9029 8dbd
00000230: 85a0 303d fb36 90be 1198 79bf 8ba3 2d3c
00000240: e4b4 91bd fe46 a8bd 839a 76bd bb77 b6bd
00000250: 1645 303e 0869 55bd db58 833d 05f0 953d
00000260: e365 953d 341a 9b3c 2c8a 5dbd 433e 413d
00000270: eb85 20be 6763 943d 4d55 36be 58ce bcbe
00000280: b516 24bd dd82 9ebe 4b79 373c 325f 253e
00000290: ed9e 3b3d 41c9 45be 3898 bebe d0ed dd3c
000002a0: ab18 06be 8c39 0fbe 9724 e6be 9568 77be
000002b0: 893a 433d d0c3 5a3e 82a8 ccbd c6c9 453b
000002c0: 29cc b3bd 08d7 1ebe 2dbb e7bc 4fb9 15bf
000002d0: a311 a4ba c926 25bd 8098 173e a579 033e
000002e0: 3de4 373e d3bf 11bd 7d28 ecbd acb3 86be
000002f0: 6da5 3bbe 5562 6bbd 936a 11bd aace 843c
00000300: 62d2 eb3c 6b6f b9bd 5efe 10be b9c6 e3bd
00000310: a7c5 c43d 2aaf 253e 07b1 21be fbeb a0bd
00000320: f8ea 1c3e ca0c e03e 975d 0e3e 8fbd 3e3d
00000330: 448b 2fbe d451 09bf f4f5 ddbe c92a fe3d
00000340: 27bf 0dbe 00c2 863d da95 6bbd 9222 753d
00000350: 0274 fdbe 95a1 58be 2f3c b7bd 7555 803e
00000360: 9124 87be f769 ea3d c551 e13c 0598 7cbf
00000370: 7fa0 063f 1334 4ebe d1ba e5bd 63b2 cbbd
00000380: 5fd2 f43d 514a 92bd 677c 053f 2e1b fabd
00000390: 1fff 1a3e ee5e 8abe 991d 47be dadd b0bd
000003a0: 74c0 ff3d 447e ed3c eea7 133e 052e cd3d
000003b0: 6d8c 89be 9adc b8bd d1fd 143e 0ab7 1dbc
000003c0: 98ab 983e 7542 10be 6e56 eabc be2b 0abf
000003d0: f404 293e b04a c5bd f544 89be 25c6 6fbd
000003e0: 1b53 93bd c104 a5be a0d8 013d dd27 2e3e
000003f0: b8d2 383c 1aa3 863d 3a03 5a3e b746 0abe
-0.0641538 -0.21167694 -0.09573421 -0.011390316 0.094271675 0.15627332 0.121125475 -0.1354063
-0.10147091 0.12180419 0.055162042 -0.057638157 -0.43800956 -0.36790907 -0.021727148 0.14975478
-0.25718653 0.14867786 -0.18878809 -0.06743339 -0.009041731 -0.015368468 0.11196321 0.0069121495
-0.08075711 0.12695494 -0.30290976 0.17977652 -0.30534935 -0.11312001 -0.18457626 -0.26065618
-0.13093904 -0.21434635 -0.0033828712 0.12025863 -0.059112106 -0.113248535 -0.005900085 0.075263195
-0.0373372 -0.07125628 -0.37164128 -0.1994755 -0.052264348 0.0079234205 0.07323968 -0.07201904
-0.009751334 -0.25669482 -0.21242777 -0.16224705 -0.019642843 0.19479041 -0.2597919 -0.07013183
0.12966168 0.061087668 0.0038923444 -0.21601015 -0.312548 0.0994832 -0.0027989754 0.0136684785
0.123301335 0.025418697 -0.19912441 0.18914294 -0.003942149 -0.011399019 0.04178651 0.1072578
0.09119299 0.34277117 0.30195475 0.29454356 -0.5109119 -0.61281395 -0.120089486 0.08506301
-0.027401514 0.24814269 0.10827782 0.08434395 0.038278323 -0.32728693 -0.13598175 0.029892242
0.24081309 -0.013676346 -0.04723905 0.10235351 0.1200834 -0.29200932 -0.17839101 -0.13739718
-0.3227192 0.13670166 0.13647652 0.24670959 -0.0800156 0.010266948 -0.07170021 0.024294449
0.023202721 0.19543618 -0.23705013 0.30623287 -0.33196452 -0.11733603 -0.07477041 -0.10025085
-0.08053609 -1.4986496 -0.12413714 0.049225427 -0.04331254 -0.21471307 -0.45594475 0.23009504
0.10793727 -0.3562433 0.14336802 -0.08928659 -0.27108008 -0.05250097 -0.5261412 -0.0613557
-0.09036271 -0.11949491 -0.040709764 -0.028021047 -0.048779618 0.09523362 0.033153255 0.046965558
-0.10193437 -0.2716019 -0.23926255 -0.06892693 0.043121833 -0.28166947 -0.9749766 0.010598074
-0.0711458 -0.08216666 -0.060205948 -0.089095555 0.17213854 -0.05210212 0.06413432 0.07321171
0.07294824 0.018933393 -0.05408685 0.047178518 -0.15676086 0.07245522 -0.17805977 -0.36876178
-0.040060718 -0.30959216 0.011198352 0.16149595 0.04580586 -0.19315054 -0.3722551 0.027090937
-0.13095348 -0.13986796 -0.4494979 -0.24160989 0.047663245 0.21363759 -0.09993078 0.003018008
-0.08779175 -0.15511715 -0.028287495 -0.58485883 -0.0012517463 -0.04032019 0.14804268 0.12839372
0.1795816 -0.03558333 -0.1153116 -0.26308954 -0.18324824 -0.057466824 -0.035502028 0.016211826
0.028786842 -0.090544544 -0.14159533 -0.11121888 0.09608012 0.16180101 -0.15790187 -0.0785751
0.15324008 0.43759757 0.13902889 0.046567496 -0.1714297 -0.53640485 -0.4335171 0.12410504
-0.1384245 0.06579971 -0.057515956 0.059847422 -0.4950257 -0.21155389 -0.08947026 0.250652
-0.26395085 0.114459924 0.027504811 -0.98669463 0.5258865 -0.20137052 -0.11217273 -0.09946134
0.119541876 -0.07143081 0.5214295 -0.12212215 0.15136383 -0.2702555 -0.19444884 -0.08636065
0.124878794 0.028990872 0.14419529 0.10018543 -0.2686495 -0.090264514 0.14549948 -0.009626159
0.29818416 -0.14087851 -0.028605666 -0.53972995 0.16505796 -0.09633386 -0.26810423 -0.058538575
-0.071935855 -0.3223019 0.03170073 0.17007394 0.011280708 0.06574078 0.21290293 -0.13503538

joint_model.model.1.0.bias f4 [64]
00000000: 70a1 223e e20e e93c 5741 073d cf4a 04be
00000010: 9115 383d a14b 133c ddc8 53bd bc2c af3d
00000020: 8251 0cbd 9fd6 633e afa5 02bd 81da 9e3e
00000030: 61fc 7d3e a3bc fb3d 4d88 b1bd 444c 343e
00000040: fbf9 963d f673 0f3e 9213 153e cccf 313d
00000050: 2cba 923d 3a10 48bd 9a24 bdbd f0d8 1b3e
00000060: 796a 10bd 9eb0 453e 360c fb3d ee3b 8ebd
00000070: a149 383b 831b 88bb b3df 4f3e 37ee 54bd
00000080: c2b6 723e 1d4b 22be f966 80bc 2514 153e
00000090: ff4b acbc 60fd e23d c142 3dbe 7289 d03d
000000a0: 468a c13b 7665 db3d b173 1bbd 265d 993b
000000b0: 09a6 07bd 6b2e 2cbd fa7a ef3b cb0b a43d
000000c0: b3f9 5a3d 7a2b 84bd ab1b abbd d076 efbd
000000d0: 01c7 e13d 681d 193e df51 a3bd 8ae0 983d
000000e0: 8356 233e 71b3 8bbd 700b 333e 80dc 8c3b
000000f0: 938d 75bd 2a48 c23d fc26 37ba ec54 063e
0.15881896 0.02844948 0.033021297 -0.12919162 0.044942442 0.008990199 -0.05170523 0.08553454
-0.03425742 0.2224984 -0.03189629 0.3102608 0.24803306 0.12291839 -0.086685754 0.17607218
0.07371899 0.1400908 0.14558247 0.04341106 0.07164416 -0.0488436 -0.09235497 0.15219474
-0.03525779 0.19305655 0.122581884 -0.069450244 0.0028120058 -0.0041536703 0.20300178 -0.051984992
0.23702529 -0.15848966 -0.015674101 0.14558466 -0.021032332 0.11083484 -0.18482496 0.101824656
0.005906376 0.107127115 -0.03795213 0.0046802936 -0.033117328 -0.042036455 0.007308361 0.08010062
0.053460788 -0.06453605 -0.083548866 -0.116925836 0.11024285 0.14952624 -0.079746 0.074647024
0.1595097 -0.06821335 0.17484832 0.0042987466 -0.05994947 0.094864205 -0.0006986705 0.13118333

joint_model.model.2.0.weight f4 [64, 64]
00000000: f128 88be 850c e23e 54ca 8bbe 3f59 123e
00000010: 180e 123d 31da 56be 9a95 aabe 822d 83be
00000020: 039d bdbd 8e54 ca3e 74fd b7be e84c 4e3e
00000030: 138f 363d c287 00bf e8c9 8c3e f421 61be
00000040: 21e6 2dbe 5849 533e 78af d03d dc67 ab3d
00000050: 80d1 953e fa39 8bbc 632b 3c3e 30c4 29be
00000060: 30db adbd 0e0d b33d 7c87 bbbe 0953 e1bd
00000070: c347 c4be f27d ac3d f05c e53e 8f4b c4bd
00000080: 47c8 ce3b 8799 fcbd bfca da3d 00d3 c5bd
00000090: 759d 1d3e ae7e 91be 7bf3 acbe a8de 80bd
000000a0: f952 39bc 6c01 2dbe f106 6cbe d2ef 6dbd
000000b0: a7d8 b0be 6ca4 3bbe 9c6b 02be 8966 b1be
000000c0: ad5d d6bd 902e 35be 0869 bbbe d80a 9dbd
000000d0: 94b0 78be 4614 df3d de5f 04bf 205e cabe
000000e0: 75ca 95be 3888 103e b8c0 3f3e 09f3 8dbe
000000f0: cdc5 94be e011 a7be b62e 7e3e f168 b93d
00000100: 4d05 8abe 0046 6d3e 5b26 87be de29 c93e
00000110: 7875 94bd 3757 c0be 16cd febe 35c3 1b3e
00000120: 1b8e 893c 2faf 86be 455f cbbd 6220 403e
00000130: a3de 043f 302a 9f3c fc27 9e3d 0890 2dbd
00000140: 52a2 1ebe 1765 05be 230f 793e 7d4a ddbd
00000150: e90b 573f 0522 5cbd 1f7e 9a3d 01d1 2bbd
00000160: 6dc6 22bf d587 18bd 59ec 583e 42ab 96be
00000170: 6666 9d3d fc10 003e b837 af3e d0ab dcbe
00000180: b359 663e 2a42 11be 6531 f63d b293 873d
00000190: 5c0e 553e 1b96 cebe 25c1 033e 08b2 20be
000001a0: c7ec c8be f298 14bf 0ef0 a63e 8403 9cbe
000001b0: 4a29 fabe da7a 003f b1de dfbe e7a7 85bc
000001c0: e787 aabd 9e24 f7be 0fb7 57be 1d61 3a3d
000001d0: 44b5 aebd cdca 333d 2de1 b3be f77a eebe
000001e0: f7b5 073e 5427 9fbc a013 e8be 4a21 2d3e
000001f0: baaa cabe d7e5 aa3e ee87 883d a8bd 57be
00000200: 4d6e 8bbd 5f5f 9dbe 7a68 663e bec3 6cbe
00000210: 189d 29bc 93f0 a43c 1f66 09bd 2224 91be
00000220: fab2 133d 7daa 1f3d 6724 d6be 1698 2dbe
00000230: b596 71bd dfc8 493d 93d0 813e db5a a4bd
00000240: 7044 ac3e b257 71be b990 c7bd 3c2e 1bbd
00000250: 7de9 e5be 7851 bc3a cb2f 12be f486 a43c
00000260: 5c82 b13e 0d0f ad3e cd46 d0bd 5712 823e
00000270: 1616 53bd c53b d23d e66f 083f 6f72 0d3e
00000280: ce97 433e 0a7f 5f3d 7afc 8d3e 3739 db3d
00000290: 40a2 c6be b0f4 373d b593 5bbe a1df 253e
000002a0: 154b e5be e573 25be 6716 0fbe 5f35 c7be
000002b0: b1b5 753e 9c84 2c3e 9c5a 0ebe 205b 56be
000002c0: f5c7 ce3e 37e4 a2be 5c49 283d b9c1 07bf
000002d0: c6ec b2be 4151 a93d 4bbd 4bbd 2923 74be
000002e0: b9c8 76be 0d0d 463e f47b 99be 5ffb ecbe
000002f0: d881 23bf 8c61 93be 8ccd 37bd 42b6 a7bd
00000300: a5f2 27be d393 4a3e 592b 24be 127f e23e
00000310: 0dbe 23be a5ab 923d eaed d53c 0f27 9d3e
00000320: c507 863d bd61 27be 3153 2d3e ce73 853e
00000330: 039a e7bd dc77 233e 7f1c f3bd b3a8 553d
00000340: 5247 acbc 548d 3dbe 01e3 2a3c 38c5 c03e
00000350: 6f7e d53e a0f0 72be 0a44 75be 6175 51be
00000360: e68f 0b3e 39da 34be 81a7 783d cf2a 93bd
00000370: 933c 8a3e 889a 4b3e 468a 2d3f 749a cdbd
00000380: 54df 523b cbe1 0a3e 63e0 923d 7fce dcbd
00000390: c245 293f 9ca8 653e 5d1b ac3e c225 b03e
000003a0: 4997 8b3e 511f 16be 0512 083e 16b7 e5bd
000003b0: 3f08 983e 282a a73e 84c1 633e 3875 933e
000003c0: 841f ba3c c536 2bbe 7ef4 6d3e 1d17 28bd
000003d0: bb1f 45be 0369 0c3e b0c6 a6bd 6412 4ebe
000003e0: 5d90 98bd 87a1 28bf a913 3c3e bdf9 233e
000003f0: 9e9e 43bd 1c15 303f 70e9 52be e058 bcbe
-0.26593736 0.44150177 -0.27302802 0.14291857 0.035657972 -0.20981671 -0.33317262 -0.25620657
-0.09258463 0.39517635 -0.35935557 0.20146525 0.04457004 -0.5020715 0.27497792 -0.21985608
-0.16982318 0.20633447 0.10189718 0.08369419 0.29261398 -0.016995419 0.18375926 -0.16578746
-0.08489072 0.08742724 -0.36626804 -0.11002166 -0.38336 0.0842246 0.44797468 -0.09584724
0.006310496 -0.123339705 0.10683202 -0.09659386 0.15392096 -0.2841696 -0.3377951 -0.06292468
-0.011311286 -0.16895074 -0.23049523 -0.05809004 -0.34540293 -0.1832444 -0.12736362 -0.3464854
-0.10467086 -0.17693543 -0.3660357 -0.07668084 -0.24286109 0.10892539 -0.5170878 -0.39524937
-0.29256025 0.14114463 0.1872586 -0.27724484 -0.2905716 -0.32630825 0.24822506 0.09053219
-0.2695717 0.23171234 -0.2639645 0.39289755 -0.07248968 -0.3756654 -0.49765843 0.15211184
0.016791394 -0.2630553 -0.099302806 0.18762353 0.51902217 0.019429296 0.0772247 -0.042373687
-0.15491608 -0.13026844 0.2432218 -0.10805223 0.8400255 -0.05374338 0.07543587 -0.04194737
-0.63584024 -0.037238915 0.2118391 -0.29427534 0.076855466 0.12506479 0.34222198 -0.43099833
0.22495155 -0.14185396 0.1202114 0.066199675 0.20806259 -0.40348896 0.12866648 -0.15692914
-0.39243147 -0.58045876 0.32605022 -0.30471432 -0.48859626 0.50187457 -0.43724588 -0.016315414
-0.083267026 -0.48270124 -0.21065925 0.04550277 -0.085306674 0.043894578 -0.35132733 -0.4657819
0.13253008 -0.019427933 -0.45327473 0.1690723 -0.3958338 0.3337848 0.066665515 -0.21068442
-0.068081476 -0.30736825 0.22500792 -0.23121545 -0.0103523955 0.020134246 -0.033544656 -0.2834788
0.036059357 0.03898095 -0.41824648 -0.16952547 -0.058981616 0.04926383 0.25354442 -0.08025142
0.33645964 -0.2356861 -0.097444005 -0.03788589 -0.449047 0.0014367541 -0.14276044 0.020083882
0.3466977 0.33800545 -0.10169754 0.25404617 -0.051534735 0.102653064 0.53295743 0.13813184
0.19100878 0.054564513 0.27731687 0.10704272 -0.38795662 0.044911087 -0.21443065 0.16198589
-0.44783846 -0.16157492 -0.1397339 -0.38907906 0.23995091 0.16847461 -0.13901752 -0.20933199
0.4038693 -0.3181474 0.041085586 -0.5302997 -0.3494627 0.08267451 -0.04974107 -0.23841538
-0.24100007 0.19340916 -0.2997738 -0.4628553 -0.6387 -0.2878536 -0.04487376 -0.0818906
-0.16401155 0.19782953 -0.16032161 0.44237572 -0.15990467 0.07161645 0.026114423 0.30693862
0.06544451 -0.16345878 0.16926266 0.26064914 -0.11308672 0.15963691 -0.118706696 0.052162837
-0.021030102 -0.18510944 0.0104300985 0.37650466 0.41698024 -0.23724604 -0.23951736 -0.20454933
0.13629112 -0.1766137 0.06070662 -0.071858995 0.2699934 0.19883168 0.67789114 -0.10039225
0.003217657 0.13562696 0.071717046 -0.107815735 0.66122067 0.224276 0.33614627 0.34403807
0.2726386 -0.14660384 0.13288124 -0.112165615 0.2969379 0.3264935 0.22241789 0.28800368
0.022720106 -0.16720112 0.23237798 -0.041037668 -0.19250385 0.13711934 -0.081433654 -0.20124203
-0.0744941 -0.6587147 0.18366875 0.16013236 -0.04775869 0.6878221 -0.20596862 -0.36786556

joint_model.model.2.0.bias f4 [64]
00000000: f800 263e 7f1e 9d3d d23d 1fbd c309 1e3d
00000010: 523a 9c3d f9d7 8d3d 5a31 4fbe 8561 7c3e
00000020: b2e8 bdbc 95ce b93d 7b8a 43be 6e9c 5f3e
00000030: 5e32 4abd 345c 353e 8962 053e 30db 3ebd
00000040: f52f 733c 53cf b2bd e51b 8cbd 571c 523d
00000050: 45ba 7dbe 4bee 523e f165 72bd d0d4 e23c
00000060: 0cee 0a3e 1cd7 4a3d 9978 5c3e 4f5f 513e
00000070: 4f02 413d 5760 3fbe 95cb 8abb b5fa 423e
00000080: 5329 923d 196f 083e 3132 d6bd b37f 233e
00000090: 3a79 13be d8c2 603e adc6 3bbe 4376 353e
000000a0: 0e84 bbbc 9e8a 813e c5c9 b23d 94ef 5dbe
000000b0: c2f7 1c3c bb69 c2bd 810f b1bd ee0c 3dbe
000000c0: 78be d73d 2b43 f4bc 3d85 e43d 1b07 d4bc
000000d0: 9dd8 4c3e fb22 3bbe 342c a9bd 5a93 253d
000000e0: a1f6 f8bc 9df2 5bbe f210 e9bd eb95 343e
000000f0: f7b7 85bd a5f9 c2bd b72f a53d 1514 093e
0.16211307 0.07671832 -0.038877316 0.03858353 0.07628311 0.06925959 -0.2023367 0.24646576
-0.023182247 0.090726055 -0.19095795 0.21837017 -0.04936444 0.17710954 0.1302587 -0.046595752
0.014842977 -0.0873095 -0.06841258 0.05129656 -0.24778087 0.20598714 -0.05917925 0.027689368
0.1356737 0.04952155 0.2153038 0.20446514 0.047121342 -0.18689094 -0.0042356947 0.1904095
0.07136788 0.1332363 -0.10458792 0.15966682 -0.14401713 0.21949327 -0.18337508 0.17720895
-0.022890117 0.2530107 0.08729891 -0.21673423 0.009580554 -0.09492823 -0.08645535 -0.18461964
0.10534376 -0.029817184 0.11158226 -0.025882294 0.20004506 -0.18275063 -0.08260384 0.04042373
-0.03039104 -0.21479268 -0.11380185 0.17635314 -0.06529229 -0.09520272 0.080657415 0.13386567

joint_model.model.3.weight f4 [64, 64]
00000000: 3f7a 7b3e a531 f83e c99e bfbe b776 f23d
00000010: d895 21be 89b1 4d3e 8300 fabb 9e68 bd3d
00000020: dfac 2d3e 9657 7ebd 286c 5ebd 0b4e bbbe
00000030: 4034 47be 7120 723e 5b41 09bd 4a03 523e
00000040: eed6 e53c 9690 a33e 8cbc 3dbe 43bd aebe
00000050: faf2 393d 0464 e43e f75c d9bd a8ae 4f3e
00000060: 7baa b93c d73b b13d 8a00 033f 0025 a63e
00000070: c03e 173d c80f 4b3d f611 4abe 3325 84be
00000080: fae1 bdbe a154 96be 1bc2 44be 9b3b 85bd
00000090: f15d 5dbc bbba 80be 068f fd3d 4ad1 413d
000000a0: c4b5 59be cc7e eb3a 2255 d73c f813 473e
000000b0: 3731 dc3e a692 9dbd 93e5 e73d 4d4e d33e
000000c0: 0322 b4be 49ab 85be 2a22 873e 400f a5be
000000d0: 7800 9e3d 5c2c 81bb 4f4a ca3d e2b9 163e
000000e0: 4f7e 90bd 19bd bb3d 7dcb 583f b881 223f
000000f0: c0d2 86bd f466 b93d d36a 53be affc 64bd
00000100: 90d2 363c f8ad 5d3b 1362 163c fc4c 103c
00000110: 388a a93c 4bce ad3c 3172 aabd 4c7d fbbc
00000120: 1a97 ba3c 33db c13c 9b1a 13bb 2e73 3ebc
00000130: 1e0b 0dbd 5a71 f9bb 883d 2c3b b56d 66bc
00000140: b2fc 833b c5cf 62bb c691 8bbc 7661 81bc
00000150: fe14 573d b26d 4e3b 38a4 a5bc 7507 933b
00000160: 8b3c 00bd a0a1 683b 4114 4ebb a40e b83b
00000170: cb3e 0b3d f1ff 11bb d3cd 38bc 42c6 293d
00000180: 2bb5 863c 9e27 303b a5db 9fbd 7abd cdbb
00000190: 9aa6 24bd 5f0b 333c 735b aabb 07f5 0c3c
000001a0: 6091 5fbc 2a42 363b f88f f4bc 5ebf 1abc
000001b0: 1cd7 23bc 7fcd 3c3c c872 243d 7d33 deba
000001c0: 033e 1d3c 5d13 dabc a32a 603c 8577 6bbc
000001d0: 8bd9 91bc df28 e2bc 05d9 893d 3528 c33c
000001e0: 71ba 64bd 495e b4bb 24ef 08bb ddfa 9dbb
000001f0: d8c0 c53c 6e4d 8cbb a085 46bc 4b3b e6bb
00000200: f75e b43d 50d9 9cbd c33d a83d 1a86 133e
00000210: 4dd2 b03d b9e7 9fbe 8dd6 403d 6a84 c7be
00000220: f463 9abd 9b85 1a3e 3a01 8ebd 46f0 7c3e
00000230: dc1f 963c b684 ff3d ebab 173e b4fc d1be
00000240: 9322 d0bd 968d adbd 5f2c 33be 36da df3c
00000250: c61a 1fbe b95f 36bd a43a 1d3e dc8f 1cbe
00000260: c7fd 0b3e 29e6 423f 6ae0 15bd 0046 6dbe
00000270: 11b5 e8bd 89b6 4fbc 158c a7be 2d36 80bd
00000280: 7fae 89be 0835 2a3e 836f bdbd e6dc 5b3b
00000290: ae42 a5bd 8a06 5d3d a61e bfbd 5fd7 a6bd
000002a0: a44c 1ebe c2e4 863d 7a7f 673e c885 33be
000002b0: 943f 713e e83f 9fbe 8fba 57be aa29 91bd
000002c0: 7d86 acbe b71d 8b3e 84cc d93e d665 113e
000002d0: 4de2 28be 36ce 6cbd 90e0 303e 55f5 7f3e
000002e0: 117e aa3e 7181 a2bd dd6a 0cbe e94e 6d3e
000002f0: 76f1 a33e 059e 9ebe 13e2 323f 68db 71bf
00000300: bb77 993a 4217 5a3b a855 f3bc d716 d33b
00000310: 681d 983c d74e 93bb 995f 813c 6323 343c
00000320: 430c b93a 8246 e53b 8d5b c53b cbe9 6abc
00000330: a481 1d3d b348 543c 26f6 bf3b bf86 85bb
00000340: e545 0f3b 2b10 14bb 7dfd d43b 3f79 b9bc
00000350: 8122 e0bc 60c8 e13c 8123 8cbb 7084 003b
00000360: 52e6 e7bc 7357 babb e15f eebb ad8d c7bc
00000370: 706c afba 6374 a23c 2b2a 2cbd c3f7 c03b
00000380: bc15 99bc be4e d2bc aeac e43b 624a dabb
00000390: 5dc4 8b3c e147 5e3c 267b 4e3c b54d 8abc
000003a0: 4583 44bc 8467 0d3c e79d 5abc c54b 96bd
000003b0: f1fe aabc 8766 b6bc 12b0 4ebc 2a09 b83c
000003c0: 569d bcbb f4bc 19bd c42b 9cbc 14fb 7f3b
000003d0: 1a61 c8bb f7c5 97bc f48d b73c e9cb 843c
000003e0: c194 063d 824f cfbc 1571 b93b bc4a a83c
000003f0: c4dd 263c 2f66 90b9 70c8 58bc ff34 193c
0.24558352 0.48475376 -0.3742583 0.11839049 -0.15779817 0.20087256 -0.0076294555 0.0924847
0.16960476 -0.062095247 -0.054302365 -0.3658298 -0.19453526 0.23645188 -0.033509593 0.20509067
0.028056588 0.31946248 -0.18528956 -0.3412877 0.045397736 0.44607556 -0.10613435 0.2028147
0.0226643 0.08653992 0.511727 0.32450104 0.036925077 0.049575597 -0.19733414 -0.2580963
-0.3708647 -0.29361442 -0.1921467 -0.065055095 -0.013511167 -0.25142464 0.12380795 0.047318734
-0.21260744 0.0017966866 0.026285712 0.19441211 0.43006298 -0.076939866 0.11323085 0.41270676
-0.351822 -0.26107243 0.26393253 -0.32238197 0.07714933 -0.0039420556 0.098774545 0.14719346
-0.070553415 0.09166927 0.846855 0.63479185 -0.06583166 0.0905284 -0.20646219 -0.05590504
0.0111586 0.0033825617 0.009178656 0.008807417 0.02069579 0.021216532 -0.083225615 -0.030699395
0.022777129 0.023664093 -0.0022446278 -0.011624141 -0.03443443 -0.0076123895 0.0026281793 -0.014064242
0.0040279264 -0.0034608704 -0.017037284 -0.015793543 0.052510254 0.003149849 -0.020219907 0.004486973
-0.03130774 0.0035496727 -0.0031445178 0.0056169797 0.03399543 -0.0022277797 -0.011279541 0.04144884
0.01644381 0.0026879082 -0.07805566 -0.006278691 -0.040197946 0.010928004 -0.00519889 0.008603341
-0.0136455 0.0027810433 -0.029853806 -0.00944504 -0.010000017 0.011523603 0.040148526 -0.00169526
0.009597304 -0.026620561 0.01368204 -0.014371757 -0.017803928 -0.02760738 0.06730846 0.023822883
-0.055841867 -0.0055044037 -0.0020894492 -0.004821165 0.024139807 -0.0042816913 -0.01211682 -0.0070261112
0.088071756 -0.076586366 0.08214905 0.14406624 0.08633862 -0.31231478 0.04707961 -0.3896821
-0.07538596 0.15090029 -0.06933828 0.24701032 0.018325739 0.124764845 0.14811675 -0.4101311
-0.101628445 -0.08474271 -0.17497395 0.02732573 -0.15537557 -0.044524882 0.15354401 -0.15289253
0.13671027 0.76132447 -0.03659097 -0.23171234 -0.11362661 -0.012677797 -0.32724062 -0.06260333
-0.26890942 0.16621792 -0.09249785 0.0033548414 -0.08069359 0.053961314 -0.093320176 -0.081465475
-0.15458924 0.06586601 0.22607222 -0.17531502 0.2355941 -0.31103444 -0.2106726 -0.07088025
-0.33696356 0.27171108 0.42538846 0.14199004 -0.16492577 -0.057813846 0.17273164 0.2499593
0.33299306 -0.07934845 -0.1371264 0.23174633 0.32020158 -0.30979934 0.6987621 -0.9447541
0.0011708656 0.0033278023 -0.02970393 0.0064419317 0.01856871 -0.0044954824 0.015792655 0.010994765
0.0014118034 0.0069969306 0.0060228766 -0.014337967 0.038453713 0.012956786 0.0058582006 -0.004074901
0.0021861729 -0.0022592645 0.0064999447 -0.022640822 -0.027360203 0.027561367 -0.0042766933 0.001961019
-0.028308067 -0.0056866943 -0.0072746133 -0.024359548 -0.0013383757 0.019830888 -0.042032402 0.0058889105
-0.018687122 -0.025672313 0.006978593 -0.006661699 0.017061407 0.013566942 0.012602603 -0.016882757
-0.011994188 0.008630637 -0.013343311 -0.07338671 -0.020873519 -0.022265686 -0.012615221 0.022465307
-0.0057560606 -0.037533715 -0.019063838 0.0039059566 -0.006115091 -0.018527014 0.022406556 0.016210513
0.032856707 -0.025306467 0.0056592324 0.020543449 0.010184709 -0.00027541953 -0.013231382 0.009351014

joint_model.model.3.bias f4 [64]
00000000: 79ab e43c 1d21 c3bb 4d54 f5bb 2c44 42bc
00000010: aef6 613b 8589 58bc c2fd 023d 1a80 37bc
00000020: e992 b93d d9fe 793c d516 133b e3b3 f1ba
00000030: db77 1b3c 71d8 9e3b a38b 723d 5af7 dab9
00000040: c86a 1d3d 613f 34bc f64b f73c cb2c 583b
00000050: d120 233b f8e6 86bb cab9 bb3d 88de 7abc
00000060: 52fc 27bc 6a87 24bc 0f8d a3bc c46c 8fba
00000070: b441 12bc a1d4 cdbb 8c19 f1bb 73db 62bc
00000080: 0000 0000 0000 0000 0000 0000 0000 0000
00000090: 0000 0000 0000 0000 0000 0000 0000 0000
000000a0: 0000 0000 0000 0000 0000 0000 0000 0000
000000b0: 0000 0000 0000 0000 0000 0000 0000 0000
000000c0: 0000 0000 0000 0000 0000 0000 0000 0000
000000d0: 0000 0000 0000 0000 0000 0000 0000 0000
000000e0: 0000 0000 0000 0000 0000 0000 0000 0000
000000f0: 0000 0000 0000 0000 0000 0000 0000 0000
0.027913796 -0.005954875 -0.007486856 -0.011857074 0.0034479308 -0.013216381 0.031980284 -0.011199975
0.09061224 0.015258514 0.002244403 -0.0018440451 0.009489025 0.004847579 0.0592152 -0.00041764491
0.038431913 -0.011001439 0.030187588 0.0032985683 0.0024891386 -0.004116889 0.09166296 -0.015311845
-0.010253029 -0.010042051 -0.019964723 -0.0010942449 -0.008926798 -0.006281451 -0.0073577818 -0.013846266
0.0 0.0 0.0 0.0 0.0 0.0 0.0 0.0
0.0 0.0 0.0 0.0 0.0 0.0 0.0 0.0
0.0 0.0 0.0 0.0 0.0 0.0 0.0 0.0
0.0 0.0 0.0 0.0 0.0 0.0 0.0 0.0
